EE8591/Project/classification_models/Hyperbolas/DNN/deepnn/training_models/net_900.pt (torch, 282047 bytes, 14 tensors)

clf_net.0.weight f4 [256, 2]
000000 8b 1d 33 3f f3 5d 9a be f2 f7 63 bc 17 4d 00 3f
       0.69966954 -0.30149803 -0.013914095 0.5011763
000010 7e 43 6e bd 11 63 b3 be 5a c4 44 bd 23 a6 1a 3f
       -0.058169834 -0.3503652 -0.048038818 0.60409755
000020 ab 54 11 3f cc d3 08 3f 7b ba 03 bf d9 ce 1c 3e
       0.5676982 0.53448176 -0.5145642 0.15313281
000030 dd 8e e2 3d f6 63 50 be 7c 2f 6d 3e 82 77 52 3e
       0.11062405 -0.20350632 0.23162645 0.20553401
000040 50 36 a1 be 18 9c b4 3e 35 a6 31 3e af b8 04 bf
       -0.3148675 0.3527534 0.17348559 -0.51844305
000050 73 1f 80 3e 6b 8b ee bd d0 dc cf bd da 4b 86 3e
       0.25023994 -0.116476856 -0.101495385 0.26229745
000060 ca 09 2a bf 21 f5 18 bf 93 70 9a 3e 0a f0 38 be
       -0.66421187 -0.5974904 0.30164012 -0.18060318
000070 9b c3 03 3f 1d 20 30 bf df 54 f0 be 54 4b c1 3e
       0.51470345 -0.68799 -0.46939752 0.37752783
000080 9d 74 a4 3e 33 0e 16 3d 9f 22 26 bf 49 4c c4 3e
       0.3212022 0.036634635 -0.6489658 0.3833945
000090 9d 8d 92 be 7b 8f 15 3f 34 a5 5a be 66 14 a7 3e
       -0.28623667 0.5842206 -0.21352082 0.3263275
0000a0 ba 92 61 3d 71 aa 19 3e 09 2f b9 3b 0c cd 90 3e
       0.05507157 0.15006424 0.005651359 0.28281438
0000b0 c3 f7 cc 3e 25 7d bb 3e 32 e6 13 3e 85 d5 12 3f
       0.40032777 0.36618915 0.14443281 0.57357055
0000c0 24 b4 84 be d0 df 1e 3e ec 44 f8 3d 60 d6 2e 3f
       -0.25918686 0.15515065 0.12122521 0.6829586
0000d0 b9 fb 2a bf b1 d4 ce 3c e0 71 85 be 2f 14 0f 3f
       -0.6679035 0.025247904 -0.26063442 0.5589017
0000e0 94 70 b3 be 94 62 73 3e 6f c1 0a be 6c 17 f1 be
       -0.35046828 0.23768073 -0.13550352 -0.47088182
0000f0 2a b2 c5 be 6a 3f 09 3f 04 f2 90 3e 05 f7 01 3f
       -0.3861249 0.5361239 0.28309643 0.50767547
000100 23 8b 06 3f cc 11 a0 3d 15 d2 b8 bd 98 79 1a bf
       0.52556056 0.078158945 -0.09024445 -0.6034179
000110 bf fc 1b 3d 43 ca 1c 3f e3 a5 b0 be 04 74 be be
       0.038082834 0.61246127 -0.34501562 -0.37197888
000120 57 4c f5 bd 23 2a 2f 3f 29 d8 5e be 9d ab 8e 3d
       -0.11977451 0.6842367 -0.21762146 0.069663264
000130 95 04 a3 be 59 59 2d bf 98 a8 c4 3e 23 11 0a bf
       -0.31839433 -0.6771446 0.38409877 -0.539324
000140 7c 99 1a bf 27 51 14 bf cf 4b 5b be 7d 30 20 3f
       -0.6039045 -0.5793633 -0.21415637 0.6257399
000150 e0 d7 90 be 3d d2 19 bf 4b 86 3b be fa 68 33 bf
       -0.282897 -0.60086423 -0.18312947 -0.70082057
000160 b9 4e 26 bf 86 76 fa 3d 6e b7 c9 be 77 28 13 3e
       -0.6496387 0.12229638 -0.39397758 0.14370905
000170 3f 0b 0e 3f 9d 64 14 3d c2 4d 03 3f 3f db de be
       0.5548591 0.036228765 0.51290524 -0.43526646
000180 91 20 d7 be 9f 19 08 3e 99 01 74 3e e7 4e c9 bd
       -0.42017034 0.13291024 0.23828734 -0.098295026
000190 b2 48 ce bc ee d0 ee bd cf 58 b4 3e 96 97 1b bf
       -0.025181148 -0.11660944 0.35224006 -0.60778177
0001a0 ce d9 9f be 61 93 e9 be 47 f3 1e bf b3 70 2a 3f
       -0.3122086 -0.45620254 -0.6208996 0.66578215
0001b0 13 58 14 bc fb d3 8a 3d a4 d1 d4 3e 12 64 7b be
       -0.009054202 0.06778713 0.41566193 -0.24549893
0001c0 92 f4 9f 3e 1f 8d 8e be 65 94 e6 be f7 f9 f0 be
       0.3124128 -0.27842042 -0.4503509 -0.47065708
0001d0 9b 68 f8 bd bc d3 25 bf 9d c7 99 3e f9 cf f3 3c
       -0.12129327 -0.64776206 0.30035105 0.029762255
0001e0 25 c0 b1 be 21 e1 4d be 65 d4 b1 3e 35 c0 c9 bd
       -0.34716907 -0.20105411 0.34732357 -0.09851114
0001f0 8f 00 42 bc 21 24 df 3e 0c b8 16 3f e2 65 e2 be
       -0.0118409535 0.43582252 0.58874583 -0.44218355
000200 39 65 2c 3f ab 7a f9 be 81 8b a5 be d7 10 da be
       0.67341954 -0.487264 -0.32332996 -0.42590973
000210 f5 3e 02 bf 86 2b 9b 3e ab 8d c1 3e 66 87 ea 3e
       -0.50877315 0.30306643 0.37803397 0.45806426
000220 01 9d 30 3f 1e 24 bb 3e 15 38 fa 3b 58 f7 3d 3d
       0.6898957 0.36550993 0.00763608 0.046378464
000230 e8 93 27 bf f9 d3 31 bf 6b fc e8 be 20 25 0b 3e
       -0.6546006 -0.6946407 -0.4550508 0.13588381
000240 22 fb f2 bd 65 53 e5 3d 83 d2 80 be fb 74 a8 be
       -0.11864306 0.11197547 -0.25160608 -0.3290175
000250 42 08 1f 3f a7 92 82 be 88 01 c4 be 0d aa cb be
       0.62121975 -0.25502512 -0.38282418 -0.39778176
000260 19 75 04 bf 41 d0 ea be f0 08 ee 3d 9d bd 65 be
       -0.51741177 -0.4586201 0.116227984 -0.22435613
000270 4f 48 0a 3e ac 01 03 be d3 87 85 3e 4d a5 08 bf
       0.13504146 -0.12793607 0.26080188 -0.5337723
000280 22 46 61 bd aa 9a 0e 3f a4 38 01 be 26 78 08 3e
       -0.054998524 0.5570475 -0.12619263 0.13327083
000290 17 3a 9a be 0a ac 33 3f 3b e2 a6 bc e6 47 cc be
       -0.30122444 0.70184386 -0.020371547 -0.39898604
0002a0 16 70 0b 3f 99 cc 16 3f d7 19 c6 3e 0c fe 7b 3a
       0.54467905 0.5890594 0.3869159 0.0009612746
0002b0 dc f0 bc be d3 65 ef 3d b4 67 da be b6 11 0f 3f
       -0.3690251 0.11689343 -0.42657244 0.558864
0002c0 5f 39 74 be 11 7c 33 3f 97 da 1f bf 8b 58 8a 3e
       -0.2385001 0.70111185 -0.62442917 0.27020678
0002d0 b6 bb cc 3e 8f 60 93 be 7f 67 04 bd 96 68 0c bf
       0.39986962 -0.28784606 -0.032325264 -0.54847085
0002e0 5b 26 09 be 1c df 2c bd 78 e8 05 bf 30 5d 32 3f
       -0.13393538 -0.04220496 -0.52307844 0.6967344
0002f0 33 b1 09 3f 4f e5 26 3f f3 42 00 3f 91 0b eb bd
       0.5378601 0.6519365 0.50102156 -0.114768155
000300 ee 28 18 3f 27 a1 0e bc 23 c8 62 3d e2 c2 29 3f
       0.59437454 -0.008705414 0.055366646 0.6631299
000310 4b 86 ce 3e 57 ee 14 bd 42 a3 df 3e 02 c5 1e bf
       0.40336832 -0.03636011 0.43679243 -0.6201936
000320 1e 0f a9 be b6 77 84 be ff 22 84 be 2d 71 a8 3e
       -0.33019346 -0.25872582 -0.2580795 0.32898846
000330 89 6c 0b 3f f6 df 63 be 1e 50 34 3f c1 fb 10 bf
       0.54462487 -0.22253403 0.7043475 -0.56634146
000340 a9 e2 d5 be 23 d7 85 be 0e be ec 3e 1b fb 2e 3f
       -0.4177449 -0.261407 0.4623875 0.68351907
000350 94 3d 40 3d 63 d2 e1 bd 4c 29 e0 be 55 4d 1a 3f
       0.046933725 -0.11026456 -0.43781507 0.6027425
000360 9d a9 23 3f 38 9b 02 3f e8 36 7b 3e 81 6d d8 3e
       0.63930684 0.51018095 0.24532664 0.42271045
000370 53 f7 8a 3e cc 65 f4 be 3d c6 23 3f ba 4f 47 3e
       0.27141818 -0.47733915 0.6397436 0.19464007
000380 29 1a c4 be 04 29 2f 3f be a3 06 3e 4a c6 1b 3f
       -0.3830121 0.6842196 0.131484 0.6084944
000390 f0 ff 8b be fc 5f d4 be aa 25 05 bf 93 9a 05 bf
       -0.27343702 -0.4147948 -0.52010596 -0.52188987
0003a0 ec 08 b6 3e 4d 2e a9 be 82 a2 30 bf 2e 51 12 bf
       0.35553682 -0.33043137 -0.6899797 -0.5715512
0003b0 71 d8 e2 bd 6e 41 41 be 8a da 21 bf d7 55 b4 3e
       -0.11076439 -0.18872616 -0.6322409 0.3522174
0003c0 96 80 f1 be 13 b5 f7 be 3f f8 60 bd 43 41 29 3f
       -0.47168416 -0.48380336 -0.054924246 0.66115206
0003d0 ed b7 26 3f 8d 87 1a bf 83 2f 58 3e e0 ef e4 3d
       0.651244 -0.60363084 0.21111874 0.11178565
0003e0 d4 30 18 bf c0 4c 48 bd cf 6f 94 be 30 37 e5 3b
       -0.59449506 -0.04890132 -0.28991553 0.0069951043
0003f0 eb ba 51 bd bf 19 1b 3f de 2b 49 3c d0 82 2c bf
       -0.05120365 0.6058616 0.012278525 -0.67387104

clf_net.0.bias f4 [256]
000000 1c c9 95 be 50 f8 12 3f 63 0d 04 3f 6a 62 01 bf
       -0.29254997 0.57410145 0.51582927 -0.5054079
000010 9d 60 31 bf a3 e4 db be b0 b3 c5 3e b7 bf 3d 3e
       -0.69288045 -0.42947873 0.38613653 0.18530165
000020 60 a2 d2 3e 40 d2 8a be cf 1a 6a 3e 44 36 df 3e
       0.41139507 -0.27113533 0.22861789 0.4359609
000030 27 91 e8 3e fd 48 e2 3e d1 c5 c3 3e 86 f1 70 3d
       0.45423242 0.4419631 0.3823686 0.058824085
000040 0c fa 16 3f 5e f6 6b be c1 e7 0b be bf 5d 75 3e
       0.5897529 -0.230432 -0.13662626 0.23961543
000050 26 0f d5 bd 10 54 e6 be 22 c1 21 3f 88 dc b5 3e
       -0.1040328 -0.4498601 0.6318532 0.35519814
000060 c0 0f 84 be dd e4 c2 3e 05 e0 13 3f 4d f9 ed be
       -0.25793266 0.38065234 0.577637 -0.46479264
000070 6d da 2a bf 17 e4 c7 3d 37 82 97 bd 36 a7 0d 3f
       -0.6673954 0.097603016 -0.073978834 0.5533327
000080 4f 38 d4 3b 93 ea 0b 3f 2f 2b 11 bf 13 00 1d 3f
       0.006476439 0.54654807 -0.5670652 0.6132824
000090 8b 03 d1 ba f6 50 99 be ec 14 a3 be b8 96 0e 3f
       -0.001594649 -0.2994458 -0.318519 0.5569873
0000a0 ef 85 0d 3e b5 93 2c bf c9 10 05 3f 97 a8 1d 3f
       0.13820623 -0.67412883 0.5197874 0.6158537
0000b0 c0 4e 0a 3f 75 32 8b 3d f1 1e 61 be d8 11 b5 bd
       0.5402641 0.06796733 -0.2198446 -0.08841294
0000c0 e2 d5 20 3f 0f c9 34 bf 1c f3 0e 3f 5c cb 2e 3f
       0.6282636 -0.7061929 0.55839705 0.6827905
0000d0 8e 95 d1 be 80 10 e2 be 9d 9f c0 be e4 7e 89 3e
       -0.40934414 -0.44153214 -0.37621775 0.26854622
0000e0 8e c8 81 3e a7 89 99 be 10 a4 2e 3f 15 51 18 bf
       0.25348324 -0.29987833 0.6821909 -0.5949872
0000f0 c1 c5 32 3f 81 a4 25 3f f6 f4 55 be 5d 18 05 3f
       0.69833 0.6470414 -0.20894226 0.519903
000100 23 32 c5 3c dd eb 56 be bf 8c 70 be 02 88 4b be
       0.024071759 -0.20988412 -0.2349119 -0.19876102
000110 f7 54 f2 3e 68 d6 00 bd 99 2c b1 be e1 08 0e bf
       0.47330448 -0.031454474 -0.34604338 -0.554823
000120 b0 fc 45 be 04 63 1c bf 8e 24 b7 3e 42 26 2c bf
       -0.19334674 -0.61088586 0.35770077 -0.67245877
000130 e9 a1 14 3f 95 07 27 3f 97 84 2c 3e b2 08 87 3e
       0.58059555 0.65245944 0.16847454 0.26373821
000140 c2 3f 41 3e cb ac c1 be ae 93 2d 3e 1a ab 0c bf
       0.18871978 -0.37827143 0.16950867 -0.5494858
000150 d3 7d 1d 3f da 4b 1d bd 6d bb 15 bf 53 a5 d7 3e
       0.6152012 -0.038402416 -0.58489114 0.4211832
000160 d2 97 05 3e 49 f9 00 3f ca 28 fa 3e bc 59 62 be
       0.13046196 0.5038038 0.48859245 -0.22104543
000170 f7 b3 89 be 57 d1 30 bf ae 44 d3 be 50 80 17 bd
       -0.26895115 -0.6906943 -0.41263336 -0.036987603
000180 d5 9f e9 3e 30 71 f6 3d 0d f8 92 bd 15 0f 2f be
       0.45629755 0.120333076 -0.07176218 -0.17095597
000190 37 10 cc 3e 9d 0f 0e 3f e1 27 30 bf 6e 2c 82 3e
       0.3985612 0.55492574 -0.6881085 0.25424522
0001a0 bb 36 35 3e c3 0b c0 be b3 65 ff be 02 7b 19 3f
       0.1769666 -0.37508973 -0.49882278 0.5995332
0001b0 e7 cf e9 be 07 09 d0 3a 27 ba fd 3e 4a 43 49 be
       -0.4566643 0.0015871831 0.49556085 -0.19654575
0001c0 e4 8c 8d be 32 e8 2a 3f bd 2e 88 be 41 21 f0 be
       -0.27646554 0.6676055 -0.26598158 -0.4690037
0001d0 69 ca 39 3e 76 f4 4b 3e fd b3 1e 3f 59 fd d0 3e
       0.1814362 0.19917473 0.6199339 0.4081829
0001e0 0a f9 06 bf 30 8b 9c 3d f6 1e 06 bb 32 d3 17 bd
       -0.52723753 0.076437354 -0.0020465232 -0.037066646
0001f0 62 0a 8f 3e 2a ae 15 3f 6c be f9 3e b0 8e 74 bd
       0.2793761 0.5846888 0.48778093 -0.05970639
000200 4e 4e a3 3e 74 06 03 be 5a ed e0 3e 01 3e f3 3e
       0.3189568 -0.1279543 0.43931085 0.47508243
000210 5b 2a 13 bf d9 59 9d be 8a 0b 29 bf 87 0e 98 3d
       -0.57486504 -0.3073261 -0.6603323 0.07424646
000220 43 91 12 bf ef 71 31 bf 16 f5 3d be c6 be 06 3f
       -0.572529 -0.69314474 -0.18550524 0.5263485
000230 ed 8b 82 be f4 4c 20 bf 3c 03 43 be e4 1c 11 3f
       -0.2549738 -0.6261742 -0.19044203 0.5668471
000240 2b 38 8b be 52 cf 40 3e 7c a0 29 3f 33 31 a8 be
       -0.2719129 0.18829086 0.66260505 -0.32850036
000250 78 aa f6 3c bb cc 8f bd 21 9b 2b bf 02 89 79 bd
       0.030110583 -0.07021471 -0.6703358 -0.060921676
000260 f4 fc 16 3f 10 00 cb be ce eb 83 3d 92 aa 41 bd
       0.58979726 -0.39648485 0.064414605 -0.04728181
000270 fc 61 7c 3e 25 91 ac 3e d6 9e f8 be 9a 3e c7 bd
       0.24646753 0.33704486 -0.48558682 -0.09728737
000280 f1 ee 0a bf 21 0e ff 3e 65 e2 d9 3d b2 f3 65 be
       -0.54270846 0.49815467 0.106388845 -0.22456244
000290 51 29 2f bd 5d 41 2a 3e e9 03 08 bf e7 ab 51 3e
       -0.04276401 0.16626497 -0.53130966 0.20475732
0002a0 fb 11 48 3d d8 cb 34 3f 50 b5 93 3e ac 8b 53 3e
       0.048845273 0.7062354 0.28849268 0.2065875
0002b0 d0 b9 c5 be e6 72 2a bf d2 50 44 be 20 cd 03 3e
       -0.38618326 -0.6658157 -0.19171456 0.12871218
0002c0 89 a3 2a bf 67 aa 9c 3e 0d 9b 00 3f a4 44 a7 be
       -0.66655785 0.30598757 0.5023659 -0.32669556
0002d0 c9 0c 1c 3f b4 e0 0e bf 7e bc 1d 3f d0 86 40 be
       0.6095701 -0.5581162 0.6161574 -0.18801427
0002e0 3a cd 2f bf 14 d0 5a 3e 8f 31 db be 70 1e b0 3d
       -0.68672526 0.21368438 -0.42811248 0.085995555
0002f0 e2 69 46 3e cb 1e 5f 3e dc a0 1c bf 18 ee b1 3e
       0.19376329 0.2178909 -0.6118295 0.34751964
000300 fe 68 a4 be 3a 43 cb be 08 5b ab be 5b 29 22 be
       -0.32111353 -0.39699727 -0.3346789 -0.15836088
000310 de 6e b5 3e eb 50 9b 3d 19 76 a5 3e 41 a5 f0 be
       0.35436147 0.07583793 0.32316664 -0.4700108
000320 e8 f4 9c 3d f7 ae 56 be 69 7a d3 3c c2 b0 1e bf
       0.076639 -0.20965181 0.025815206 -0.6198846
000330 8d d7 1d be cf f9 86 3d 8a d2 9f 3e 05 0e c1 3e
       -0.15414257 0.06590616 0.31215316 0.3770601
000340 6c dc db be ed 6e 8d be fa 28 30 3e 90 65 a6 3e
       -0.42941606 -0.27623692 0.17203131 0.3249936
000350 8b c8 7c 3d c5 dc e0 3e fc a4 19 bf ec 18 c8 be
       0.06171469 0.43918434 -0.6001737 -0.39081514
000360 90 8c 08 3f f5 cd 13 be f1 a5 f6 bd 41 df 23 bf
       0.5333948 -0.14434035 -0.120433696 -0.64012533
000370 d6 97 84 be b7 7c 2d 3e dc c3 17 bf 21 c0 8f bd
       -0.25897092 0.16942106 -0.5928323 -0.070190676
000380 c1 e7 e1 3e 3f 36 34 bf bf bc 5a 3e d9 6f d0 be
       0.44122127 -0.7039527 0.21361063 -0.40710333
000390 2f 65 46 3e 48 c5 db be fc 83 2d 3f 7c 05 c7 bd
       0.19374536 -0.4292395 0.6777952 -0.09717843
0003a0 b0 88 95 3e ad c3 ec be 06 e6 1a bf 47 97 03 bf
       0.29205847 -0.4624304 -0.6050724 -0.51402706
0003b0 06 8a 1f bf c4 b0 95 be 84 cd 37 3e 6e dd 1a 3f
       -0.6231998 -0.29236424 0.17949492 0.60494125
0003c0 6c 5d 63 be fb 2b c4 3d 2a b0 0d 3f 3b a2 9b 3d
       -0.22203606 0.09578701 0.5534693 0.075993024
0003d0 39 f1 c4 be 40 93 17 bf 3c c2 2d 3f cb 03 03 3d
       -0.38465288 -0.5920906 0.67874503 0.03198604
0003e0 c2 75 91 be 2d 57 12 3f 4b 09 b2 bd 78 d5 1a be
       -0.28410155 0.5716427 -0.08693179 -0.15120494
0003f0 5f 04 19 3f d6 2f 8b bd 69 01 ba 3e 25 d1 35 3e
       0.59772295 -0.06796233 0.363292 0.17755564

clf_net.1.weight f4 [256]
000000 7d 09 7e 3f c8 6a 80 3f a7 1e 7f 3f 68 22 7e 3f
       0.9923323 1.0032587 0.99656147 0.9927125
000010 25 d3 80 3f 08 53 80 3f 43 9b 7d 3f cb 16 7e 3f
       1.0064436 1.0025339 0.99065036 0.9925353
000020 74 c2 7f 3f d8 5a 7f 3f aa 85 80 3f 67 34 7e 3f
       0.99906087 0.9974799 1.0040791 0.9929871
000030 b8 af 7e 3f 03 a4 80 3f 62 c7 7d 3f 0b 74 80 3f
       0.99486876 1.0050052 0.9913236 1.0035414
000040 3a 99 7f 3f f0 90 7d 3f 5f c7 7f 3f 40 88 7f 3f
       0.9984318 0.9904928 0.9991359 0.99817276
000050 b9 5e 80 3f 89 9c 7f 3f 8e 6f 80 3f 0d b9 7f 3f
       1.0028907 0.9984823 1.0034044 0.9989174
000060 d6 31 80 3f c2 49 7e 3f 85 c5 7f 3f b3 9d 7f 3f
       1.0015209 0.99331295 0.99910766 0.99850005
000070 e5 34 80 3f e6 2c 80 3f 36 ac 7e 3f 04 b9 7f 3f
       1.0016142 1.0013702 0.99481523 0.99891686
000080 c5 e1 7e 3f 4c 46 7d 3f 39 9f 7f 3f a4 40 7f 3f
       0.99563247 0.9893539 0.9985233 0.9970801
000090 1d 87 80 3f c4 78 7d 3f ae ea 7f 3f 40 75 7e 3f
       1.0041233 0.990124 0.9996747 0.9939766
0000a0 d2 c3 7f 3f 9a c5 7f 3f 40 6b 80 3f a2 13 80 3f
       0.99908173 0.9991089 1.003273 1.0005991
0000b0 b2 ca 80 3f e2 c7 80 3f 7b 10 81 3f 04 b0 80 3f
       1.0061858 1.0060999 1.0083154 1.0053716
0000c0 2b 60 80 3f 79 81 81 3f 09 9e 7f 3f 5f 32 7f 3f
       1.0029348 1.0117637 0.9985052 0.99686235
0000d0 9d ff 7c 3f 86 5b 7e 3f 79 aa 7f 3f 3d 54 80 3f
       0.98827535 0.99358404 0.99869496 1.0025707
0000e0 03 c8 7e 3f b5 65 7f 3f b1 9f 7e 3f e6 19 81 3f
       0.99523944 0.9976457 0.9946242 1.0086029
0000f0 ee a8 7e 3f 89 d2 7e 3f 35 af 7d 3f 88 47 7e 3f
       0.99476516 0.9954 0.9909547 0.993279
000100 a2 a5 7d 3f eb 9a 80 3f 2b d1 7f 3f 94 86 81 3f
       0.9908086 1.0047277 0.9992854 1.0119195
000110 c0 80 7f 3f 55 05 7f 3f 68 c9 7e 3f 9e ad 80 3f
       0.9980583 0.9961751 0.9952607 1.0052984
000120 c4 31 7f 3f ec 11 7f 3f 04 f3 80 3f 23 ab 80 3f
       0.9968531 0.9963672 1.0074162 1.0052227
000130 09 31 7f 3f 6c 25 7f 3f a3 6a 7e 3f 90 09 7d 3f
       0.99684197 0.99666476 0.99381465 0.98842716
000140 c5 e2 7c 3f 10 d7 7d 3f b6 67 7f 3f 4b 36 80 3f
       0.9878352 0.99156284 0.99767625 1.0016569
000150 da c8 7d 3f b3 2b 80 3f 21 6e 7f 3f 33 e0 7f 3f
       0.991346 1.0013336 0.9977742 0.99951476
000160 3c dd 7e 3f 55 98 7f 3f b7 ca 80 3f 23 64 7f 3f
       0.99556327 0.99841815 1.0061864 0.9976217
000170 f9 9b 80 3f 45 20 7e 3f 72 85 7e 3f 64 89 7e 3f
       1.0047599 0.9926799 0.9942237 0.9942839
000180 ea 90 7f 3f aa 2a 7f 3f 50 e2 7f 3f f3 27 7e 3f
       0.99830496 0.99674475 0.999547 0.9927971
000190 d7 f1 7e 3f d7 cd 7d 3f a0 04 7f 3f 45 5f 80 3f
       0.9958777 0.9914221 0.9961643 1.0029074
0001a0 39 49 80 3f 7f 72 7e 3f ba 45 7f 3f bd 02 80 3f
       1.0022346 0.9939346 0.9971577 1.0000836
0001b0 cc 32 80 3f 16 d8 7f 3f e3 1e 7e 3f 78 14 7f 3f
       1.0015502 0.99939096 0.9926588 0.9964061
0001c0 7d bd 7f 3f 6c 01 80 3f 56 f8 7f 3f 77 49 81 3f
       0.9989851 1.0000434 0.99988306 1.0100545
0001d0 28 a0 7e 3f fe 06 80 3f 26 a2 80 3f 49 a8 7e 3f
       0.9946313 1.0002134 1.0049484 0.9947553
0001e0 e1 7d 7e 3f 52 35 80 3f 1e 85 7f 3f 1e 93 80 3f
       0.99410826 1.0016272 0.99812496 1.0044897
0001f0 6d 6b 81 3f c8 27 81 3f e9 9e 7f 3f f9 23 7f 3f
       1.0110909 1.0090265 0.9985185 0.99664265
000200 0c a5 80 3f 36 85 7e 3f 52 2a 7f 3f 43 3c 80 3f
       1.0050368 0.99422014 0.9967395 1.001839
000210 c6 bb 7e 3f 0f 50 7f 3f 07 2d 7f 3f d3 c5 7f 3f
       0.9950527 0.99731535 0.9967808 0.9991123
000220 c4 e2 7f 3f 4c 77 80 3f a4 36 80 3f 4b 1a 80 3f
       0.9995539 1.0036407 1.0016675 1.0008024
000230 b6 c7 7c 3f 1f 0e 7e 3f 7b ae 7c 3f 90 ca 7d 3f
       0.98742235 0.992403 0.98703736 0.9913721
000240 bd c7 7f 3f 99 37 80 3f 0b e5 7e 3f 72 d0 7d 3f
       0.9991415 1.0016967 0.9956824 0.9914619
000250 eb 11 80 3f 95 0b 7e 3f 8a 7d 7f 3f 7d 59 7e 3f
       1.0005468 0.9923642 0.9980093 0.993553
000260 30 89 80 3f 47 ad 7e 3f ed 1f 80 3f 43 17 81 3f
       1.0041866 0.9948315 1.0009743 1.0085224
000270 03 9d 7d 3f f8 0d 80 3f fd 7d 7f 3f d8 6f 7e 3f
       0.99067706 1.0004263 0.9980162 0.9938941
000280 e3 7d 7e 3f 6d 23 7f 3f d9 e7 7f 3f 26 0e 80 3f
       0.9941084 0.9966343 0.99963146 1.0004318
000290 c3 5b 80 3f 8d 7b 7e 3f 66 8a 7f 3f 0b 1d 80 3f
       1.0028003 0.99407274 0.99820554 1.0008863
0002a0 f2 82 7f 3f 53 cd 7e 3f bc 81 7f 3f 5f fa 7f 3f
       0.9980918 0.9953205 0.99807334 0.9999141
0002b0 ad dd 80 3f b4 a3 7e 3f 6a 7a 7e 3f f7 6a 7f 3f
       1.006765 0.9946854 0.9940554 0.9977259
0002c0 f1 68 80 3f 56 83 7f 3f f6 31 7f 3f 98 99 7f 3f
       1.0032026 0.9980978 0.9968561 0.9984374
0002d0 ff b3 7f 3f 20 f0 7e 3f 2f ba 7d 3f c2 2a 80 3f
       0.9988403 0.9958515 0.9911222 1.0013049
0002e0 a9 b9 7f 3f 62 1a 80 3f 11 06 80 3f 17 4b 80 3f
       0.9989267 1.0008051 1.0001851 1.0022916
0002f0 39 d5 7f 3f b1 af 7f 3f d8 11 81 3f 31 44 80 3f
       0.99934727 0.9987746 1.008357 1.002081
000300 f0 14 7f 3f 3e 4c 7f 3f 0e d4 7f 3f 8c 01 7d 3f
       0.99641323 0.9972571 0.99932945 0.98830485
000310 dd d4 7e 3f 37 7a 7f 3f c4 6f 7f 3f a0 3e 7e 3f
       0.99543554 0.9979586 0.99779916 0.9931431
000320 1f 98 7d 3f ea 24 7f 3f 57 47 7e 3f 4c 5a 7f 3f
       0.99060243 0.996657 0.99327606 0.9974716
000330 40 25 7f 3f e0 a9 7e 3f 59 4d 80 3f 70 ce 7f 3f
       0.99666214 0.9947796 1.0023605 0.99924374
000340 a7 f6 7e 3f b5 9c 7f 3f 7b f1 7f 3f c0 5b 7f 3f
       0.9959511 0.9984849 0.99977845 0.99749374
000350 94 b8 7f 3f 93 ff 7e 3f ab e1 7d 3f 3d 7c 7f 3f
       0.9989102 0.99608725 0.99172467 0.9979895
000360 dc d1 7e 3f c3 de 7f 3f 04 2c 80 3f 68 90 80 3f
       0.9953897 0.9994928 1.0013433 1.0044069
000370 90 b9 7f 3f ad 26 80 3f 4e 64 7e 3f 66 24 80 3f
       0.9989252 1.0011803 0.993718 1.0011108
000380 63 79 80 3f dc 09 80 3f 5b 33 7f 3f 05 f7 80 3f
       1.0037044 1.0003009 0.9968774 1.0075384
000390 04 f7 7f 3f a0 d8 7f 3f 87 7c 80 3f 23 5f 7f 3f
       0.9998629 0.9993992 1.0038003 0.9975454
0003a0 12 49 7f 3f 30 b4 7f 3f af 4b 80 3f 73 14 81 3f
       0.9972087 0.9988432 1.0023097 1.0084366
0003b0 d0 8c 7f 3f 06 e8 80 3f 33 69 7e 3f a3 86 80 3f
       0.9982424 1.0070808 0.9937927 1.0041088
0003c0 36 28 80 3f 17 15 80 3f ad ba 7f 3f fd 00 7f 3f
       1.0012271 1.0006436 0.9989422 0.99610883
0003d0 9b 47 80 3f 51 3f 80 3f f7 f0 7f 3f 51 4d 7f 3f
       1.0021852 1.0019323 0.9997706 0.9972735
0003e0 65 e3 7f 3f 8b e9 7f 3f 4a 2a 7f 3f 48 11 7f 3f
       0.9995635 0.99965733 0.99673903 0.99635744
0003f0 25 af 7f 3f a4 fc 7d 3f 67 ea 7f 3f 28 01 80 3f
       0.99876624 0.99213624 0.99967045 1.0000353

clf_net.1.bias f4 [256]
000000 5f 51 cd 3d 4c 66 e7 ba 31 8d de bc d9 c3 7a 3c
       0.10025286 -0.0017654388 -0.027166935 0.015305483
000010 30 36 00 bd c5 78 ae 3d 78 73 8d 3c b5 9a 95 bd
       -0.031301677 0.08519129 0.017266974 -0.07304899
000020 9a ef 51 3c be 98 e4 bc 51 5e d0 3d 2b 91 56 bb
       0.012813473 -0.027904864 0.101742394 -0.0032740335
000030 64 4d 81 bd 3e 1b a4 bd 1f 4f 09 bb bc 9d a3 3b
       -0.06313589 -0.080130085 -0.00209517 0.0049931686
000040 32 cd b7 bd 4f 7b aa bd f4 98 a8 bc 2f 8e 5b 3c
       -0.08974685 -0.083243005 -0.020580746 0.013400598
000050 e9 5b 26 bc 52 62 50 bc 96 79 33 bd 42 17 96 bc
       -0.010153749 -0.012718754 -0.043817125 -0.018321637
000060 74 ce a5 3d 19 74 27 bd 8f a0 00 3e 4a d7 06 3c
       0.080960184 -0.040882204 0.12561248 0.00823004
000070 16 4f 9d 3d 54 69 0a 3c 9a 7f fa 3a 07 bc 64 3a
       0.076811 0.008447964 0.0019111515 0.0008725528
000080 ee 7a 47 3d a1 da f1 3c 64 c4 14 3c bb 5e 41 3b
       0.04870122 0.029523196 0.009080026 0.0029505927
000090 12 9e b9 3c 05 5d fc 3c c2 08 13 3d 32 04 c2 bb
       0.022658382 0.030806074 0.035897024 -0.0059209103
0000a0 01 19 2f bd a5 7f e4 bb 4b 0b 0c bd 13 05 81 3c
       -0.042748455 -0.006973224 -0.034190457 0.01574949
0000b0 ca c7 c8 3d b2 61 c0 3d b5 b1 8a bd ad d6 c8 bd
       0.09803732 0.09393634 -0.06772176 -0.09806571
0000c0 35 4c 70 bd f6 94 c9 bc 82 69 98 3b 29 29 0c bd
       -0.058666427 -0.024607163 0.0046512494 -0.03421894
0000d0 ff 42 87 bd 28 4c 3e 3c f7 bb e3 3c 49 d2 eb bd
       -0.06604575 0.011614837 0.02779959 -0.11514718
0000e0 e6 4b d9 bc 86 e0 e6 bc ad f8 6c bc 4f d4 9d 3d
       -0.026525449 -0.028183233 -0.014463586 0.0770651
0000f0 7d c5 aa 3d 02 70 d8 3d a8 12 1b bd 8f 61 20 3d
       0.08338449 0.10568239 -0.03785959 0.03915554
000100 dc 28 c1 3d 25 81 96 bc cc ef 6e 3c bb 5d 13 bd
       0.094316214 -0.018372128 0.014583539 -0.03597806
000110 32 c8 98 3d 43 ce 13 bd ed 7b a3 bc f2 54 d8 3d
       0.07460059 -0.03608538 -0.019956553 0.10563077
000120 24 97 62 bd 2b e0 62 bd 39 d7 a1 bd 77 8d a0 3c
       -0.05531992 -0.055389564 -0.079023786 0.019598706
000130 e3 a8 6d bd e4 80 18 3d 0e 3f 59 3d 37 93 d3 bc
       -0.05802239 0.037232295 0.05303865 -0.025827033
000140 42 f5 a8 bc 9f 8f 6a bc 64 c3 de bc 40 0c 05 bc
       -0.02062476 -0.0143164685 -0.027192779 -0.008120596
000150 9c fd b5 3c dd 43 e0 3d c5 64 87 3c 32 46 f7 3b
       0.022215657 0.10950444 0.016527543 0.0075462097
000160 0b 5a 8a 3c b3 1a b5 bc 58 4d d4 bd f8 30 27 3c
       0.016888639 -0.022107458 -0.10366315 0.010204546
000170 b7 be 9b 3d 10 a6 c2 bb ed b6 ab 3c e1 80 33 3d
       0.07604735 -0.0059402063 0.02096125 0.04382408
000180 db da a0 bd 52 9c 1a bd a7 a5 db 3d e0 7c 19 bc
       -0.07854243 -0.037746735 0.10724955 -0.009368151
000190 20 bc 22 3d 25 b2 ca 3b 12 3f 8b 3d e9 85 d1 3c
       0.03973019 0.0061857873 0.06799139 0.025576549
0001a0 76 2e 83 bd 64 86 25 bc 2e e1 9e 3c 9c 3c 09 bc
       -0.06405346 -0.010102842 0.019394483 -0.008376267
0001b0 db cf 71 3d 55 3b da bc 81 92 ee 3c 00 2e a2 ba
       0.059036117 -0.02663962 0.029122593 -0.0012373328
0001c0 52 92 47 bc d0 41 94 bc 41 d9 4f bd ae 29 0f bd
       -0.012180882 -0.018097788 -0.0507443 -0.03495186
0001d0 4c 7a 56 3d b2 e4 80 bd 05 32 17 3d b6 bc 0a bd
       0.052362725 -0.0629362 0.036912937 -0.033871375
0001e0 1a 5e 47 3d 4b 5b de bc 54 0c 26 3d 65 58 16 3d
       0.048673727 -0.027143141 0.0405391 0.036705393
0001f0 c5 8c b8 3d 77 20 a2 3d f0 fa 1b 3d 85 2b d2 3c
       0.09011225 0.079163484 0.03808111 0.025655517
000200 b8 e6 4c bd 8c a8 f7 3d 35 90 a4 bb 77 d9 61 3d
       -0.050024718 0.12092695 -0.0050220736 0.05513903
000210 c9 24 c0 bd 31 30 bd bc 84 66 2d bc a6 5f 1c 3d
       -0.09382016 -0.023094269 -0.010583524 0.038177155
000220 ed 5b c5 3c 93 a6 5d bd 8b fe ba bd 7c 04 d3 bb
       0.024091685 -0.054113936 -0.091305815 -0.0064397436
000230 57 be 72 bc dc 52 ae 3c fd 5f 41 3d ce c1 77 bc
       -0.014815888 0.021279745 0.047210682 -0.01512189
000240 09 87 9c bc f3 32 ad bc e8 a9 ee bb 86 3a 30 3d
       -0.019107359 -0.021142459 -0.007283438 0.043024562
000250 23 30 81 bc 9f be b6 3d 31 1c 57 3c a8 91 39 3d
       -0.015770024 0.08923077 0.01312928 0.045304924
000260 40 eb ee bc 5f 54 93 bc 6b 24 01 bd 23 6e 1b bc
       -0.02916491 -0.017984567 -0.03152887 -0.009486708
000270 86 4f 55 bd ea 5b c3 3d 7f f8 e0 bc e7 42 6e bc
       -0.052077793 0.095390156 -0.027462242 -0.014542318
000280 2a 09 89 3c de 41 bf 3d 67 b9 80 bd 4e 0e 21 3d
       0.016728003 0.09338735 -0.06285363 0.039320283
000290 99 24 c8 3b cf ee 6e bc 72 65 e0 3d 11 00 8a 3d
       0.0061078784 -0.014583304 0.10956849 0.06738294
0002a0 b3 92 05 bc 2b f5 85 bd 8d 36 9b 3d b1 83 31 3c
       -0.008152652 -0.06540903 0.07578764 0.01083462
0002b0 3b 80 f7 bc 50 08 2e bc 1f b8 b0 bb 50 86 89 3c
       -0.030212512 -0.010622099 -0.0053930427 0.016787678
0002c0 1c 82 ca 3c 66 b7 05 bd cc 1e 3a 3c 9c ef d9 3c
       0.024720244 -0.032645606 0.011359882 0.026603512
0002d0 ac ea 1e 3d 86 57 cc 3c 25 8d 2a 3b 70 13 bb bc
       0.03879802 0.024944078 0.002602407 -0.022836417
0002e0 41 2e d5 3d b2 bf 43 bd 0e 57 dc 3c 75 cd 3e 3c
       0.10409213 -0.047790237 0.02689698 0.011645664
0002f0 5e 4c 1e bd 7d 2a f3 3c b7 ff ab bd de 15 61 bd
       -0.03864705 0.029683346 -0.08398383 -0.054952495
000300 1c c5 86 3c 7d 21 06 3d 40 fb 15 bd be c2 b0 3d
       0.016451411 0.03274678 -0.036616564 0.08630894
000310 27 3f d7 3d 20 95 21 bd 97 a9 f5 bc 6f 57 aa 3d
       0.10510092 -0.039448857 -0.029988093 0.08317458
000320 78 1e 03 3d 7a ce ad bc 8a 91 09 3d d2 19 4a 3d
       0.03201148 -0.02121662 0.033586062 0.04934103
000330 ad 89 08 3d 7b 26 c1 3d b1 5a f0 3c 08 5e 3a 3d
       0.033334423 0.09431168 0.02934012 0.04549983
000340 fa 80 d3 3c be ba ac bd 19 cf e9 3d 63 02 bf ba
       0.025818337 -0.08434056 0.11416454 -0.0014572855
000350 bb 0a 65 bd e2 80 11 bd 18 a7 c8 bb 09 a1 0c 3c
       -0.055918436 -0.035523303 -0.0061234348 0.008583316
000360 9c 58 9b 3c 55 3d 68 bd 1f a6 62 3c 34 19 17 bd
       0.01896315 -0.056699116 0.013833552 -0.03688927
000370 c9 9c 8e 3b 22 bf 08 bd 83 1c 9e bc be 20 5c bc
       0.0043521863 -0.033385403 -0.019300705 -0.013435541
000380 2c 5e 72 bd e9 d2 a0 bd f4 ea b7 3c 78 0b be bd
       -0.05917184 -0.07852728 0.022450902 -0.09279531
000390 42 bc 40 bc 43 ea 1f bd e7 7a ac 3d e6 d8 a0 bb
       -0.011763634 -0.03904177 0.08421879 -0.004908669
0003a0 06 78 12 bd 34 65 9d bc ef 2d 3d bc f7 e0 92 bd
       -0.035758995 -0.019213296 -0.011546596 -0.07171815
0003b0 34 05 04 3d c6 f1 26 3b 8f 21 51 3d fa b9 b4 3d
       0.032231525 0.0025473698 0.051057395 0.08824535
0003c0 70 5a 54 3c bb ac fe 3c ba 49 04 bd 8b 02 97 3d
       0.012961015 0.031088224 -0.032296874 0.07373532
0003d0 4b 2e c8 3c d0 e1 03 bd 73 f5 ce 3d 98 28 a3 3c
       0.024436137 -0.032197773 0.101054095 0.019916818
0003e0 50 a0 5b 3d 2c 63 b8 3d 0c 89 ea 3b 5e 7f 06 bd
       0.053619683 0.090032905 0.0071574505 -0.03283631
0003f0 e1 17 bc bd 8f 57 76 bd 7e 89 f3 bb 66 40 3e bd
       -0.09184242 -0.060142096 -0.007432162 -0.046448134

clf_net.1.running_mean f4 [256]
000000 4d 43 b7 bd 66 9a 50 3f b4 7c a0 3e bd 7e 6c be
       -0.089483835 0.81485593 0.3134514 -0.23095222
000010 9b 63 12 be a6 db 1c bf 1b d7 ae 3e dd 9b ce 3e
       -0.14295809 -0.61272657 0.34148487 0.4035329
000020 6d c4 da 3e 7f 2e e1 be c6 f3 97 3e 8a c5 03 3f
       0.42727986 -0.43980786 0.29678172 0.51473296
000030 34 a0 33 be f7 33 01 3f 29 63 9a 3e cb 1a 15 3c
       -0.17541581 0.5046992 0.30153778 0.009100626
000040 20 0d 45 3f 83 25 bc be 15 a9 05 3c 40 47 96 3e
       0.7697315 -0.3674737 0.008157988 0.29351234
000050 9e 26 0e bb 2e 46 9d be 38 d8 81 3f 55 1e 36 3f
       -0.0021690498 -0.30717605 1.014411 0.71140033
000060 d0 9c 9f be 0a 7f 47 3f b3 05 82 3e 7d c1 a3 be
       -0.31174326 0.7792822 0.25394973 -0.31983557
000070 fe ec 39 bf 13 39 50 be 89 f0 58 bb b0 5d 72 3f
       -0.72627246 -0.20334272 -0.0033102355 0.94674206
000080 32 8b 9e 3e d4 b9 4f 3e 21 11 7b be 0f f8 82 3e
       0.30965573 0.20285732 -0.24518253 0.2557988
000090 ec 72 8d 3e c4 c5 bf be 1b 40 50 bf 52 a5 f7 3e
       0.2762674 -0.3745557 -0.8134782 0.48368317
0000a0 97 7a e7 be 71 fb f1 be 00 af a4 3d 10 8c 35 3e
       -0.45210716 -0.47262147 0.08041191 0.17729211
0000b0 dd 15 8c 3e 46 ed 72 bd f2 4f 9e 3d 7b 04 3a bd
       0.2736043 -0.059308313 0.07730092 -0.04541443
0000c0 6d 32 f7 3e 79 88 22 bf 99 c7 f9 3e 58 43 0f 3f
       0.4828066 -0.6348949 0.48785093 0.55962133
0000d0 92 bd 4a bf 69 95 d9 be 34 cf b1 be ca 81 b6 3e
       -0.7919551 -0.42496803 -0.34728396 0.35645896
0000e0 ec c1 8b 3e 46 59 42 bf 2a 19 9a 3e b4 b2 db be
       0.27296388 -0.7591747 0.30097324 -0.42909777
0000f0 b2 32 d9 3e 7f f9 45 3f b4 ab 08 3a c9 fa 18 3f
       0.4242149 0.77333826 0.0005213574 0.5975767
000100 03 12 fa 3d fe 4c 15 bf 21 b4 ae be f5 20 5f 3e
       0.12210467 -0.58320606 -0.34121802 0.21789916
000110 a2 26 80 3f e6 f4 9b bb 70 6b 82 bf 22 72 37 bf
       1.001179 -0.004759419 -1.0189037 -0.7165853
000120 a1 23 4a be d9 76 66 bf 9a 59 0b 3f 48 e8 87 bf
       -0.19740154 -0.900251 0.54433596 -1.0617762
000130 b1 7f bf 3d 9c 96 19 3f b9 45 31 3e 73 62 06 3e
       0.09350527 0.59995437 0.17311753 0.13123493
000140 ef 76 df 3e 88 a3 c0 be 30 cb ba 3e c1 ca 41 bf
       0.43645427 -0.37624764 0.36483145 -0.757
000150 91 1b 97 3f c6 90 20 3e c2 6d 36 bf f1 0a f7 3e
       1.1805288 0.15680227 -0.7126123 0.48250535
000160 8e b2 b6 3e c3 69 a5 3e 49 3b 0c 3f e1 26 02 bf
       0.356831 0.32307252 0.5477796 -0.50840575
000170 88 c1 b6 be dc 0d 1c bf 5c a7 38 3e 26 43 22 3e
       -0.35694528 -0.6095865 0.18032593 0.15845928
000180 66 55 40 3f 98 ae f3 3e 2d ed e7 3d 38 e1 83 be
       0.7513031 0.47594142 0.113245346 -0.25757766
000190 bb fd d5 3d 56 88 16 3f c3 1d 06 bf 8b 65 a8 3e
       0.10448786 0.5880178 -0.5238916 0.3288997
0001a0 50 65 26 be 67 2e 48 3e df 85 07 bf 74 4e 2d 3f
       -0.16249585 0.19548951 -0.52938646 0.67697835
0001b0 3c 2c f0 3d 9f 03 ab 3e c1 c9 ca 3e c7 08 63 3e
       0.11727187 0.334012 0.3960705 0.22171317
0001c0 15 0e 06 be ec 6a 84 3f 6e d0 1b bf 50 1e 7d bf
       -0.1309131 1.034513 -0.60864913 -0.9887438
0001d0 b4 a3 49 3e 38 7c dc be da 18 f1 3e 7e 37 87 3e
       0.19691354 -0.4306352 0.47089273 0.26409525
0001e0 27 7c 80 bf e4 3a c0 3e 50 6d e0 3c d5 c8 fe 3d
       -1.0037888 0.3754493 0.027395874 0.124406494
0001f0 02 68 34 bd ec 6b e2 3e ba f8 42 3f 10 eb c5 be
       -0.044044502 0.44222963 0.76160777 -0.386559
000200 fe d7 d9 3e d7 82 5f be 75 aa 76 3f a0 ac 76 3f
       0.425476 -0.21827255 0.96353847 0.96357155
000210 62 0a 86 be 85 01 89 be 4a 3d 36 bf 0e 57 75 3d
       -0.26179796 -0.26758972 -0.7118727 0.059897475
000220 85 81 0d bf cb fd 77 bf aa 5a 7a be a5 17 a7 3e
       -0.55275756 -0.9687163 -0.24448648 0.32635227
000230 87 a2 aa be e7 ef 38 bf c2 6d 97 be 6e 72 c0 3e
       -0.33327124 -0.7224106 -0.29575926 0.37587303
000240 a4 2b 95 be 91 fa 49 3e 45 24 26 3f e5 dd f1 bb
       -0.29134858 0.1972449 0.6489909 -0.007381188
000250 29 2a b8 bd e6 7a a2 3d 79 66 e6 be fe 86 ce 3e
       -0.089924164 0.07933597 -0.45000055 0.40337366
000260 30 74 7d 3f 8e de ee bd ad b4 c8 be 2d a6 f5 bd
       0.99005413 -0.11663543 -0.39200345 -0.11994586
000270 7c e7 84 3d 38 8f f2 3e d3 0c f9 be 43 60 4a 3e
       0.06489465 0.47374892 -0.48642597 0.19763283
000280 ed ad d5 be c9 63 85 3e 79 39 02 3f e9 5d 02 bf
       -0.41734257 0.26052693 0.50868946 -0.50924546
000290 b2 06 c8 be 6c c5 4d bd 3c f5 10 bf 21 8c 04 be
       -0.39067608 -0.050237104 -0.566242 -0.1294408
0002a0 76 91 d0 3e ab fa cd 3e 16 ba 56 3f d4 fe 90 3e
       0.40735978 0.40230307 0.83877695 0.28319418
0002b0 d3 55 05 bf bd 3e 4c bf b1 b8 dd be b3 8f 16 3e
       -0.5208408 -0.7978323 -0.4330497 0.14703254
0002c0 26 6c b5 be 5d f5 84 3e d2 2f 73 bd 4e b2 99 bc
       -0.35434073 0.25968447 -0.059371777 -0.01876178
0002d0 a2 ee 8c 3f ac 05 2c bf 37 85 29 3f 83 aa 3d 3d
       1.1010325 -0.67196155 0.66218895 0.04630519
0002e0 d6 07 0e bf 67 64 64 be 8f a6 4f bf 53 2c 68 bd
       -0.55480707 -0.22303925 -0.81113523 -0.056682896
0002f0 1c 94 eb 3e e7 e6 12 3f 77 a7 90 bf da 91 f6 bd
       0.46011436 0.5738358 -1.1301106 -0.12039538
000300 52 24 91 be 02 68 5b be ae 7a 53 bf 89 d6 d5 bd
       -0.28348023 -0.21426395 -0.8260907 -0.1044131
000310 25 45 25 3d 9a fc 7f be e5 6f 16 3f 67 9d 29 bf
       0.040349144 -0.24998704 0.5876449 -0.662558
000320 d4 0b 4f 3e fb 6b 9b bc 89 64 1b 3f f7 7e 1b bf
       0.20219356 -0.018972388 0.6070028 -0.6074061
000330 3e 68 04 bf 3c 92 ef bd 20 ab 59 bd c9 c9 82 3e
       -0.5172156 -0.11697814 -0.053141713 0.25544575
000340 21 ed 30 bf ca ae 35 3d 3a 82 65 3e d3 3a d0 3e
       -0.6911183 0.044356145 0.22412959 0.4066988
000350 dc d3 ac 3e cf 05 20 3f af f7 35 bf 6d 70 00 bf
       0.33755386 0.62508863 -0.7108106 -0.5017155
000360 54 54 cb 3e 22 ed 2e bd 1f 80 d6 be 86 ea c3 be
       0.39712775 -0.042706616 -0.41894624 -0.38264865
000370 82 b8 32 bd 52 4e c5 3d a6 84 c8 be eb ec 3a be
       -0.04363299 0.09634079 -0.39163703 -0.1825444
000380 0f 40 71 3f 9a 42 a4 bf c6 d5 a9 3e fd ce 26 bf
       0.9423837 -1.2832825 0.3317091 -0.6515959
000390 2c 5d 70 bd f8 35 57 bf 93 05 17 3f 4c 05 d3 3d
       -0.058682606 -0.84066725 0.5899288 0.10303745
0003a0 02 d6 15 3e b4 05 a0 bd 3c 05 86 be f0 55 3d bf
       0.14632419 -0.07813588 -0.2617587 -0.73959255
0003b0 63 e2 2a bf 8a fd b6 be fe 7c 27 3f 07 42 2d 3f
       -0.6675169 -0.3574031 0.654251 0.67678875
0003c0 55 ca b8 3d a9 bc 3c be a0 a1 a7 3e b8 6c 32 3e
       0.09022967 -0.18431343 0.32740498 0.17424285
0003d0 88 be d0 be 70 38 6e bf e7 b0 5b 3f 53 76 ff 3e
       -0.40770364 -0.93054867 0.85816807 0.49894962
0003e0 39 b9 15 bf 42 14 1f 3f ed 27 66 bd 02 bc a2 3d
       -0.5848575 0.62140286 -0.05619042 0.07946016
0003f0 f3 b7 39 3f 90 a6 8b 3e c2 b9 f8 3d 27 80 b3 bd
       0.7254631 0.27275515 0.121448055 -0.087646775

clf_net.1.running_var f4 [256]
000000 35 1e 0a 3c ab 1e f7 3b c7 14 8f 3b de 4d 2c 3c
       0.0084300535 0.0075414977 0.0043664905 0.010516612
000010 6f eb c2 3c e8 25 99 3b 5d be 7e 3a 35 0d 74 3b
       0.023793904 0.004673708 0.00097176974 0.0037239317
000020 35 cd 52 3b f2 2a d9 3b d7 be 8d 3a 6f 86 da 3a
       0.003216577 0.006627434 0.0010814321 0.0016672144
000030 e5 64 fe 3c 66 98 d9 3a 2f 99 3b 3c 1d b2 9d 3b
       0.03105397 0.0016601204 0.011450096 0.0048124925
000040 f7 d4 2e 3b 09 82 fa 3b fa f5 03 3c 55 d2 24 3b
       0.002667723 0.007644896 0.008054251 0.0025149782
000050 7a ce 7e 3a 4f a9 23 3b 9a 11 3c 3c 91 e5 4f 3c
       0.00097200985 0.0024972742 0.011478806 0.01268901
000060 31 ad a0 3a a8 59 89 3c 88 f7 1d 3c c6 58 f2 3b
       0.0012258646 0.016766384 0.009641536 0.0073958365
000070 34 92 1b 3b 2b 14 11 3c 61 ed e1 3b 55 78 5b 3c
       0.0023738267 0.008854906 0.006894753 0.013395389
000080 24 92 f4 3b 83 06 51 3c 20 f4 46 3c 97 53 27 3c
       0.0074637104 0.0127579 0.012143165 0.0102128
000090 07 74 4e 3c bf 97 58 3a fe 33 b3 3c 67 15 e4 3b
       0.012600905 0.0008262358 0.021875378 0.006960559
0000a0 1c 10 e1 3c 62 cb 1d 3c 7a 38 8d 3c 46 99 9c 3c
       0.027473502 0.00963101 0.017238844 0.019116055
0000b0 26 20 02 3c d5 04 30 3b 84 93 f5 3b d6 e9 c5 3b
       0.007942235 0.002685835 0.007494392 0.0060398383
0000c0 ae 80 4a 3b 7d 29 80 3a 17 00 05 3a 1f fc 0d 3c
       0.0030899453 0.000977799 0.0005073561 0.008666067
0000d0 28 6a 48 3c 45 36 40 3c ed f8 05 39 15 9b 4d 3b
       0.012232341 0.011731689 0.000127766 0.0031372954
0000e0 2e 76 1a 3b 37 91 89 3c 04 6f 79 3c cc 0b 16 3b
       0.0023568976 0.016792877 0.015224222 0.0022895215
0000f0 59 2e bc 3b 51 38 0c 3b 40 e8 ba 3b f8 a7 ea 3b
       0.0057428298 0.0021395872 0.005703956 0.0071611367
000100 13 79 15 3c 96 8a 3b 3c 13 6b 9a 3b a9 e4 66 3c
       0.009123105 0.011446616 0.0047124713 0.014092603
000110 2f 51 ae 3c b2 6a a0 38 30 de 13 3d 5a 75 6f 3b
       0.021278946 7.649268e-05 0.036100566 0.0036538453
000120 1d 1b be 39 a8 0d e1 3b 8b c3 d9 3b de 84 45 3c
       0.00036259825 0.006868083 0.006645625 0.012055604
000130 eb 0c 98 3c a2 18 9b 3a 16 74 f7 39 4b 46 dc 3b
       0.018560847 0.0011832903 0.00047198002 0.0067222468
000140 ae 71 10 3c ec 71 f8 39 32 d3 40 3c 4a 4a a7 3b
       0.008816166 0.00047387125 0.011769103 0.0051052915
000150 b0 43 d1 3c 57 cb 5d 3b 68 33 1c 3b e7 dd f8 3b
       0.025544971 0.0033843124 0.0023834351 0.007594812
000160 23 2e 46 3c be 1c dc 3b 08 1a 52 3b fd 20 1f 3c
       0.012095961 0.0067172935 0.0032058973 0.009712455
000170 ad 45 1e 3a e7 97 40 3c d6 cc e9 3c 64 7f 96 3b
       0.0006037604 0.011754966 0.028540056 0.004592823
000180 b0 55 00 3c 2c b7 6d 3c d4 7b 5a 3b 5c 78 16 3c
       0.0078329295 0.014509004 0.0033337967 0.009183969
000190 12 73 db 3b d0 0e 2e 3b 6f 6e a7 3b 16 7e 31 3c
       0.006697067 0.0026559122 0.0051096003 0.010833284
0001a0 37 94 10 3c de 30 df 3c 67 37 98 39 94 f9 0e 3c
       0.0088244 0.027244981 0.00029032977 0.008726496
0001b0 bf 44 d1 3c 31 91 1b 3c 22 2f af 3b b6 5e 5e 3c
       0.025545476 0.009495066 0.005346195 0.013572386
0001c0 5b fc 33 3c 79 22 62 3c 01 aa 21 3c 17 55 af 3c
       0.010985459 0.013802164 0.009867192 0.021402879
0001d0 a6 a4 51 3b 6f b0 fc 3c 71 9f f9 3a d1 83 e9 3b
       0.0031989007 0.030845849 0.001904471 0.0071263094
0001e0 73 c2 93 3c 38 b0 4d 3c ef 46 2f 3c da 89 02 3b
       0.018037057 0.012554221 0.010698064 0.0019918592
0001f0 55 f4 0f 3c 32 ca f1 3a ce a5 2c 3c 72 0e 61 3c
       0.008786281 0.00184471 0.010537578 0.013736354
000200 e9 8e 6e 3a 20 48 e8 3a 20 64 ad 3c d0 46 b1 3c
       0.0009100275 0.001772169 0.021165907 0.021640211
000210 46 95 07 3c d9 f7 42 3c b8 8c 33 3b bc 0a fe 3b
       0.008275336 0.011899912 0.0027397107 0.0077527445
000220 e3 0e 1d 3c 0b 66 0d 3c e5 b1 24 3b a0 e1 2e 3c
       0.009586069 0.008630286 0.0025130447 0.01067391
000230 15 29 62 3a e7 66 cf 3b a2 4e dd 3b a9 72 69 3b
       0.00086273375 0.0063294056 0.0067537585 0.0035621321
000240 ca 56 ab 3a a0 92 06 3a f6 a3 6f 38 0d 51 0b 3c
       0.001307213 0.0005133543 5.713474e-05 0.008503211
000250 82 72 23 3c a9 e6 f9 3a e3 fe 8b 3b bc 9f 9d 3c
       0.009976031 0.0019065934 0.004272328 0.019241206
000260 d1 f9 53 3c c6 c5 1e 3c 3b f9 98 3c 88 07 80 3a
       0.012937979 0.009690708 0.01867353 0.000976787
000270 16 15 80 3b 2b 41 a9 3b 90 fb d0 3b 0d b9 f3 3b
       0.0039087636 0.0051652393 0.006377645 0.0074378313
000280 53 81 86 3b c2 c6 a2 3b 33 be 55 3c c7 80 52 3c
       0.004104772 0.0049675414 0.013045835 0.012848086
000290 f7 eb 40 3c ea e4 f9 3b a6 44 4f 39 e5 57 1c 3c
       0.011775008 0.0076261656 0.00019766632 0.00954244
0002a0 12 64 42 3c 9f dd 0c 3c 61 5e bf 3c 6d 53 f8 39
       0.011864679 0.00859776 0.023360433 0.00047364403
0002b0 0b e2 c7 3a 70 37 70 3b a4 1a b9 3b e8 a5 93 3b
       0.0015249861 0.0036654137 0.0056489278 0.0045058616
0002c0 33 2a 04 3c f0 21 bc 3a b0 42 d8 3c 08 44 32 3c
       0.008066702 0.0014353376 0.026398987 0.010880478
0002d0 21 e9 9d 3c 27 63 0f 3c 92 57 d0 3b 78 95 ce 3b
       0.019276204 0.008751667 0.0063580954 0.006304439
0002e0 74 31 8b 3b aa a4 83 3c 0f ba 66 3c 1a cb cd 3a
       0.0042478386 0.016069729 0.014082446 0.0015700788
0002f0 76 ed 03 3c f4 97 21 3c fb fd a7 3c b6 38 8a 3c
       0.008052221 0.009862889 0.02050685 0.016872745
000300 e0 ec e1 3b 06 38 34 3c 12 a3 b5 3c 89 dc 82 3a
       0.006894693 0.010999685 0.022172485 0.0009983937
000310 fd e4 0a 3c fc 59 53 3c 9e 85 fe 3b ca 8a 83 3b
       0.008477447 0.012899872 0.0077673933 0.0040143477
000320 98 97 ac 3b 9a ce a3 3b 72 0d dd 3c 37 18 21 3a
       0.005267095 0.004998994 0.02698395 0.0006145271
000330 2c c2 31 3c 93 d2 31 3b 2e 0c 38 3c ea 74 96 3a
       0.010849517 0.0027133569 0.011233373 0.0011478935
000340 f0 a9 1f 3c c9 f5 08 3c ae 9f 39 3a 0e 25 1c 3c
       0.009745106 0.008359381 0.0007080984 0.009530319
000350 08 1d c6 3b c5 2d 13 3c 2a 48 38 3b 13 db ca 3a
       0.0060459413 0.00898308 0.0028119185 0.0015476666
000360 28 6d 73 3b 9a a7 9a 3b 82 6f 18 3c 51 d6 c3 3b
       0.003714392 0.0047196867 0.009303929 0.0059764762
000370 a9 79 85 3b 59 59 c1 3a 36 59 37 3c a0 48 80 3b
       0.004073341 0.0014751359 0.011190703 0.0039149076
000380 38 2a 9d 3c 5f 93 e1 3c e6 f8 dc 3b 30 70 a4 3b
       0.01918517 0.027536092 0.006743538 0.0050182566
000390 3c 0b ff 3b b8 ac 7c 3c ee df 43 3a 01 69 3a 3c
       0.0077833217 0.015422039 0.0007472028 0.011377574
0003a0 20 b6 14 3b 0a 0b 49 3c a6 3a 1a 3c 05 cd 9c 3b
       0.0022691563 0.012270698 0.009413397 0.0047851824
0003b0 a2 0a 03 3b f4 80 51 3b 43 82 8f 3c 9a cf 86 3b
       0.0019995351 0.0031967731 0.017518168 0.0041141035
0003c0 0f 62 01 3c f5 5f f2 3b 3f 70 1f 3c 2f 7c af 3a
       0.007896914 0.007396693 0.009731351 0.001338845
0003d0 cd f9 ae 3b 56 d9 25 3c 7a 84 5d 3b 23 7c 93 3c
       0.005339837 0.010122618 0.0033800886 0.018003529
0003e0 83 d0 fd 3b 48 a5 51 3a 77 09 74 3b fa d1 d5 3b
       0.007745804 0.0007997346 0.0037237087 0.0065252753
0003f0 00 38 b8 3a 84 b5 14 3c 97 99 d1 3b 4c fa dc 3b
       0.0014054775 0.00907648 0.006396483 0.006743705

clf_net.3.weight f4 [256, 256]
000000 38 80 3a 3a 21 fd 5f bd 3e 41 ec 3c c0 2c 46 bd
       0.0007114443 -0.054684762 0.028839704 -0.04838252
000010 89 13 ac bc f0 23 38 3d 99 df 3b 3d 0c be bc bb
       -0.021005409 0.044956148 0.045867536 -0.00575996
000020 2f 12 a1 3c 95 84 68 bd e0 15 52 bd 54 d7 19 3c
       0.01966199 -0.056767065 -0.051290393 0.009389717
000030 9a 88 59 bd 6d 4b 51 3c 67 7c 08 bd a8 0c ef bc
       -0.05310879 0.012774331 -0.033321764 -0.02918084
000040 c1 79 15 bd 5b fe 4e bd ff 66 57 3d 91 11 1e bc
       -0.036493067 -0.05053554 0.05258846 -0.009647743
000050 85 70 44 3d 5e 55 12 bc ba 1f 42 bd 05 85 3f bd
       0.04795887 -0.008931486 -0.047393538 -0.046757717
000060 ec 86 08 3d a3 09 e9 3c 1d cd 77 3b 75 d2 7d 3d
       0.033331797 0.028446978 0.0037811466 0.061968286
000070 ec 6b 24 bd ea 1d cf bc d1 b9 42 3d 51 23 50 3c
       -0.040141985 -0.025282819 0.04754049 0.012703733
000080 19 6b 56 3d 01 45 16 bd 94 c4 1b bd df 7c 9d 3c
       0.05234823 -0.0366869 -0.03802927 0.019224582
000090 dd a1 ba bb c5 d3 45 bd ac a2 fa 3c fd d2 04 bd
       -0.005695565 -0.048297662 0.030595146 -0.032427777
0000a0 5b d7 35 3d d7 a7 b7 3b 28 d6 6f 3c b3 fd fb 3c
       0.044394832 0.005604725 0.014638461 0.030760622
0000b0 36 7c d4 3c c5 91 0b bd d4 27 64 bd d2 66 3f 3d
       0.025938135 -0.034074564 -0.055702046 0.046728916
0000c0 5c 15 47 3d 57 d4 55 3b 0d 0d 10 3c 29 89 45 3d
       0.048604354 0.0032627785 0.008792174 0.04822651
0000d0 ea a4 67 3d dd ee 26 bd ac 45 0b bd 51 77 59 bd
       0.05655376 -0.04075514 -0.03400199 -0.053092305
0000e0 37 db 57 bd b1 92 6c 3c 9c b7 12 bd 24 18 fd 3c
       -0.052699294 0.014439271 -0.035819635 0.0308953
0000f0 78 77 1a 3c 2a e5 f8 bc da e6 20 bd 25 03 64 3d
       0.009427898 -0.030382711 -0.039282657 0.05566706
000100 f5 16 dc 3c 81 2f 27 bd a9 4e 99 bb 6d ef 82 bd
       0.026866416 -0.040816788 -0.0046785665 -0.06393323
000110 2a bc f5 3c b8 4a 5e 3d ea 04 2c bd a0 c6 e9 bb
       0.02999695 0.054270476 -0.041996874 -0.0071342736
000120 2f 59 54 3d db 10 8b bd 39 41 60 3d ef fc 11 bd
       0.051842865 -0.06790324 0.0547497 -0.035641607
000130 88 37 20 bd 48 2e f3 bc fe be 5f bd a2 0c 81 bc
       -0.03911546 -0.029685155 -0.054625504 -0.015753094
000140 54 52 a8 bc 22 eb 47 bd bd 68 49 bd ea 53 83 3d
       -0.02054707 -0.048808224 -0.04917215 0.0641249
000150 f6 b6 00 bc e5 a5 76 bd cc 4c 5d 3d 30 bd 75 3d
       -0.007856121 -0.060216803 0.054028317 0.059994876
000160 cc 5c 02 3d 4a c9 2e 3d db da 0f 3d 05 ac cc 3c
       0.03182678 0.042672433 0.035120826 0.024984369
000170 e9 f6 99 bc 13 d1 84 39 cd 62 7e bd ff 44 20 bd
       -0.018794494 0.00025332774 -0.062105943 -0.0391283
000180 14 11 4c 3d 8f 5d 01 3d 77 18 61 bd f6 f2 5a bd
       0.049820974 0.031583365 -0.054954972 -0.05345436
000190 e9 13 87 3b 0d e7 00 bd 82 0c e6 3b 4f 8e 43 bd
       0.0041222465 -0.031470347 0.007020534 -0.047743138
0001a0 9f 63 11 bd 7d ef 68 bd cc a9 a6 bc 95 73 80 3c
       -0.035495397 -0.05686902 -0.020344637 0.015680114
0001b0 4e 6c c1 3c 42 68 61 bd d3 cc 15 3d 5b a3 9c bc
       0.023611214 -0.05503107 0.03657229 -0.019120863
0001c0 32 85 1f 3d 69 ca 71 3d ad ce 51 3c b8 42 07 3d
       0.038945384 0.059030924 0.012805623 0.033022612
0001d0 f2 74 7a bd c6 96 c6 3c f6 b6 c6 bc ff e9 6f 3d
       -0.061146684 0.024241816 -0.024257164 0.058572765
0001e0 b7 5b 2a 3d 24 1e 82 3d 4e 66 d8 bc b0 24 2e 3d
       0.041591372 0.06353405 -0.02641597 0.042515457
0001f0 f0 f8 d1 bc 29 98 ca 3c ac 70 13 bc 5b 17 96 bb
       -0.025631398 0.024730759 -0.008999031 -0.004580421
000200 24 e8 19 3d 07 df a2 bc 5a a1 2f bd 9f a2 9d 3a
       0.037574902 -0.019881738 -0.042878486 0.0012026614
000210 df d7 20 3d 08 a8 40 3d 86 71 2e bc 9e 01 c2 b9
       0.03926837 0.047035247 -0.010647183 -0.00037003768
000220 56 81 20 3d e4 5e 44 bd cc 89 76 bb 23 dd 52 bd
       0.039185844 -0.047942057 -0.0037618754 -0.051480424
000230 53 71 30 bc f1 8c d8 bb 2e 8a e9 bc ff 0c 3e bd
       -0.010769206 -0.0066085984 -0.028508272 -0.046399113
000240 13 fc dd bb d8 58 89 bc 61 fa f0 3c 1f 28 55 3d
       -0.0067744344 -0.016765997 0.029416265 0.052040216
000250 6d 7c 7b bd c2 8e d0 3c 99 47 13 bd 75 b8 e5 3c
       -0.06139796 0.025458697 -0.035956953 0.028042058
000260 31 3d 36 bd 7b 06 de bc 81 7c 2b bd 86 78 8f bc
       -0.04449195 -0.0271027 -0.041866783 -0.017513525
000270 88 32 ff 3c 49 0e ce ba 55 cd 14 3d 9f 37 51 bd
       0.031152025 -0.001572081 0.036328632 -0.051078435
000280 a1 2e 66 bd 19 f9 46 bd 18 56 98 3c 8c 96 dc 3c
       -0.056196813 -0.0485774 0.01859574 0.026927255
000290 aa b5 71 3b 84 7c dc bc 42 b3 6c bd 9c 88 81 3b
       0.0036881962 -0.026914842 -0.05778814 0.0039530527
0002a0 97 bc 58 3d 2e 25 28 3d 30 70 46 bc c2 3e fa 3c
       0.05291423 0.041051082 -0.0121117085 0.030547503
0002b0 f3 9d c8 bc 91 3f 3e bd a2 0b 0c 3d d4 8a f1 3b
       -0.024489379 -0.04644734 0.03419078 0.007371286
0002c0 b6 b8 70 bb d7 5d ec 3c fa 3f 1f 3a 30 34 48 3d
       -0.003673119 0.02885334 0.0006074902 0.048877895
0002d0 91 b5 b0 3a ff bd 74 bb 5c 7b e0 bc ad c2 87 ba
       0.0013481845 -0.0037344692 -0.027402572 -0.00103577
0002e0 0b c2 fb 3c f2 4d 5f 3d 54 d1 29 3c 5b 32 ef bc
       0.030732175 0.054517694 0.010364849 -0.029198816
0002f0 4d 62 49 bb 27 b8 04 bd 91 dc 58 3d 84 5b 8e 3c
       -0.0030728758 -0.032402184 0.052944724 0.017377622
000300 69 c2 2d 3c e6 be 1d 3d 9a 1c 69 bd 38 19 1d 3d
       0.010605433 0.038512133 -0.056912042 0.03835413
000310 17 f6 bc 3b a0 95 0d bc 19 b9 6d bc e7 70 b8 bc
       0.005766641 -0.00864163 -0.014509463 -0.022514774
000320 89 6e 18 3c 87 53 91 bc 54 dc 21 bd a9 dd 5b bd
       0.009303697 -0.017740024 -0.039516762 -0.05367819
000330 09 da 3c 3c c9 b1 45 bd 06 0a 7a bc ae d7 d5 bc
       0.011526593 -0.048265252 -0.015261179 -0.02610382
000340 13 8a 41 bc 02 4d 1c 3d 53 8f 20 bd 13 2f 1e 3d
       -0.011812705 0.038159378 -0.039199185 0.038619112
000350 c3 e1 85 bd 1e 77 5e 3d 35 3a 77 3d 5e 71 8c 3c
       -0.06537201 0.054312818 0.060358245 0.017143901
000360 6f 47 65 bb 6f 44 56 3d 18 7c 07 bd b0 14 11 b9
       -0.0034985205 0.052311357 -0.03307733 -0.00013835984
000370 fc 75 71 3b dc 90 10 bd f1 d4 c9 bc 3d 62 8e bc
       0.0036844006 -0.0352944 -0.024637671 -0.017380828
000380 eb 4e ff 3b 92 47 59 3d ce 43 ff 3c ef 99 e5 3c
       0.00779139 0.05304677 0.031160261 0.028027503
000390 b0 8a 4c bd 24 f0 1c bd a9 4f 31 bd 5f 28 35 bd
       -0.04993695 -0.038314953 -0.04328886 -0.044227954
0003a0 47 0d 64 3d 45 57 42 bc 49 fd 3b bd db 9b 0a 3d
       0.055676725 -0.011861627 -0.04589585 0.03384004
0003b0 91 46 e4 3b ad b1 1e bd 53 31 fe 3c ba d7 85 bd
       0.00696642 -0.038743664 0.031029379 -0.06535287
0003c0 87 22 37 3d 1a 41 36 3d ac fd 46 3d 88 74 6e bd
       0.044710662 0.04449568 0.048581764 -0.0582166
0003d0 93 ca 42 bd aa 43 13 bd 95 1a 54 bd e8 bf 85 bd
       -0.04755647 -0.0359532 -0.051783163 -0.06530744
0003e0 1d 2b 89 3a a0 6b ff 3c 65 b8 8f 3c 8c fe 45 3d
       0.0010465119 0.03117925 0.01754398 0.048338458
0003f0 d4 fd 6d bd 3c 52 12 3c 33 80 33 3c b9 ee 66 bd
       -0.058103397 0.008930739 0.010955858 -0.056380007
