EE8591/Project/classification_models/Hyperbolas/DNN/deepnn/training_models/net_3900.pt (torch, 282047 bytes, 14 tensors)

clf_net.0.weight f4 [256, 2]
00000000: 7cb6 323f 8d33 9bbe 4543 76bc 393a 003f
00000010: 30f2 64bd 7087 b4be 8d9a 4cbd 3141 1a3f
00000020: 26bd 113f 866e 083f 6768 02bf c32b 223e
00000030: 789f d23d 362b 58be d70e 703e 3f74 4f3e
00000040: 800e a1be 98c9 b43e 80e4 2d3e 47ab 05bf
00000050: 67fd 7b3e b84f f7bd 508c c2bd 5095 893e
00000060: 8e07 2ebf 7ce9 14bf 1ced 9f3e e9df 2dbe
00000070: 897f 033f 0966 30bf 775b f2be 1444 bf3e
00000080: 701a af3e 4ba3 3e3c 0590 28bf 426d bf3e
00000090: 6b6a 94be 51a4 143f 8dfa 56be 72eb a83e
000000a0: cbc3 6b3d 129e 163e dba4 0cbb f5a4 933e
000000b0: e7a8 ca3e 5cce bd3e 1381 0e3e 622a 143f
000000c0: 91d4 88be c69e 163e 2e5d f83d c0d6 2e3f
000000d0: c57f 27bf d6e1 1d3d a496 84be 7d85 0f3f
000000e0: 8c39 b7be a5e0 6b3e bef5 18be 53b0 e9be
000000f0: 6f7c bfbe 6457 0c3f fc1a 8a3e f64d 053f
00000100: 5352 073f 8018 9a3d d053 d5bd dfb7 16bf
00000110: 4e6f 183d 1810 1d3f c3a1 afbe 2572 bfbe
00000120: ba5d f8bd 7dcc 2e3f 799f 5dbe 276e 913d
00000130: 4aac a7be a808 2bbf 4495 c23e 161a 0bbf
00000140: 296d 1cbf d07b 12bf e4f0 5bbe 020a 203f
00000150: a23b 92be 2117 19bf 14a3 3cbe 1526 33bf
00000160: c649 24bf 7e52 053e 7ce6 c5be 4fce 1a3e
00000170: ce55 113f b047 ba3c bb75 063f 3a72 d8be
00000180: d452 d5be 08d9 0b3e a053 703e 46ab d0bd
00000190: d313 07bd 787e d9bd 3714 b83e 60ba 19bf
000001a0: cbe9 a5be 6e45 e3be 45c8 1dbf cd9d 2b3f
000001b0: 9cd2 5dbc 79b8 853d 75dc da3e 843c 6fbe
000001c0: a88a a03e 45fe 8dbe c5d3 e7be 44ba efbe
000001d0: e62d f8bd ccdd 25bf dd05 9c3e 2c16 d73c
000001e0: 7ce5 afbe da9e 51be 1ee5 b13e bdbb c9bd
000001f0: a662 4abc bc81 de3e b8e4 173f 8f0f e0be
00000200: 426d 2d3f f26a f7be 87b1 a1be 0dea ddbe
00000210: b068 02bf 1ed9 9a3e 8c49 bd3e 44ce ee3e
00000220: 86c0 353f 31a9 b03e a19e 2d3c ee85 083d
00000230: f79e 26bf ebc8 32bf c67e e5be 2418 123e
00000240: a22f 04be 5a08 cf3d 5184 82be 15bc a6be
00000250: 4373 1f3f 77c4 81be abd1 c9be 11d2 c5be
00000260: e724 08bf bf55 e3be 67a0 f53d 3408 62be
00000270: 56df 123e d470 f4bd 3be5 843e 58f7 08bf
00000280: b207 6bbd 8607 0e3f 395b fbbd bfd5 0b3e
00000290: acd2 9bbe 1de2 323f 8425 79bc 8dad cebe
000002a0: 25f0 0b3f 8751 163f bdd9 c83e ee77 8dbb
000002b0: b5f7 bbbe 1f62 f33d 77d7 d4be 1cd7 113f
000002c0: a364 6dbe 3f2b 353f 5486 1ebf 6c0a 8d3e
000002d0: b2ea d23e 7225 8dbe 643e eebc b457 0dbf
000002e0: 2f64 07be 4ba0 36bd 7ef9 06bf ed4e 313f
000002f0: caf9 0b3f ac9a 243f 1c72 fb3e 9f3e febd
00000300: a730 133f 8836 dfbc caad 813d aba5 273f
00000310: 3210 d03e f86d 04bd 167e db3e bed3 20bf
00000320: 1428 a4be 1d63 89be f7be 85be 45d8 a63e
00000330: 3147 0a3f 8774 68be 001b 343f ba32 11bf
00000340: 66c2 debe e324 79be 2ce4 e73e 945c 313f
00000350: 3931 253d 6cb9 edbd d801 e3be 4de2 183f
00000360: 7e63 243f 13e4 013f e558 813e 02ae d43e
00000370: 6190 8d3e a7ce f1be b8e0 243f 2ec0 423e
00000380: 1654 c2be 090d 303f acc6 093e aa04 1b3f
00000390: f8e1 86be ba39 d9be ff8f 06bf 9722 04bf
000003a0: fbeb b53e 1d55 a9be 6c46 33bf 24a5 0fbf
000003b0: 1d41 cfbd 9426 4bbe e728 23bf 45b9 b13e
000003c0: 6b23 f0be 0b18 f9be 47f5 4fbd 642d 2a3f
000003d0: cb96 283f 3aa9 18bf 120d 523e 7a3a f13d
000003e0: 5300 1abf 562c 2cbd d120 8ebe 2ab4 9e3c
000003f0: a8b9 6bbd 5a8b 193f d12c 2eba 8a89 2fbf
0.698097 -0.30312768 -0.015030687 0.5008884 -0.05589503 -0.3525958 -0.04995208 0.60255724
0.5692924 0.53293645 -0.50940555 0.15837006 0.102843225 -0.21110234 0.23443161 0.20259188
-0.31456375 0.35310054 0.16981697 -0.52214473 0.24608384 -0.12075752 -0.09499419 0.2687173
-0.6798028 -0.5816877 0.31235588 -0.16979946 0.5136648 -0.68905693 -0.47335407 0.37356627
0.34199858 0.011635612 -0.65844756 0.37388045 -0.2898744 0.58063227 -0.20994015 0.3299213
0.05755977 0.14708737 -0.0021460566 0.2883679 0.39581987 0.37071502 0.13916425 0.5787717
-0.26724675 0.14709005 0.121271476 0.6829643 -0.65429336 0.038545452 -0.2589618 0.5606306
-0.35786092 0.23034914 -0.14937493 -0.45642337 -0.37399623 0.5482085 0.26973712 0.52072084
0.5285999 0.07524204 -0.104163766 -0.58874315 0.037215523 0.6135268 -0.34303102 -0.37391773
-0.12127252 0.68280774 -0.21642865 0.07101088 -0.32748634 -0.66810083 0.38004506 -0.5433668
-0.61104065 -0.5722017 -0.21478611 0.6251527 -0.2856112 -0.59800917 -0.18421584 -0.69979984
-0.6417507 0.1301975 -0.38652408 0.15117763 0.5677155 0.022739261 0.5252339 -0.42274648
-0.41664755 0.1365701 0.234694 -0.10188918 -0.03297789 -0.10619825 0.35952923 -0.6005001
-0.32404932 -0.44388908 -0.6163371 0.6703766 -0.013538983 0.06529326 0.4274632 -0.23362929
0.31355786 -0.27733055 -0.45278755 -0.46821797 -0.121181294 -0.6479156 0.30473223 0.02625569
-0.3435477 -0.20470753 0.34745115 -0.09850261 -0.012352621 0.43458354 0.5933337 -0.4376187
0.6774484 -0.4832378 -0.31580755 -0.4334263 -0.5094099 0.30243772 0.36970174 0.46641743
0.7099689 0.34504083 0.010596902 0.03333085 -0.6508631 -0.69837826 -0.44823283 0.14267021
-0.12908795 0.10109015 -0.25491574 -0.3256537 0.6228525 -0.25345203 -0.39417776 -0.3863683
-0.5318131 -0.44401357 0.11993485 -0.22073442 0.14343008 -0.11935583 0.2595614 -0.53502417
-0.057380386 0.5548023 -0.12273259 0.13655756 -0.30434167 0.6987627 -0.015206698 -0.40366784
0.54663306 0.5871815 0.3922862 -0.0043172752 -0.36712423 0.118839495 -0.41570637 0.56968856
-0.23182921 0.70769113 -0.6192372 0.27547014 0.41194683 -0.2756763 -0.029082485 -0.5521195
-0.13221811 -0.04458646 -0.52724445 0.69261056 0.5467802 0.6429851 0.49110496 -0.12414288
0.5749611 -0.027247682 0.06331976 0.65487164 0.40637356 -0.032331437 0.42869633 -0.6282309
-0.32061827 -0.2683343 -0.26122257 0.32586876 0.5401488 -0.22700702 0.703537 -0.5671803
-0.4350769 -0.24330477 0.4529127 0.6928189 0.040330146 -0.11607632 -0.44337344 0.5972031
0.64214313 0.5073864 0.25263134 0.41539007 0.27649215 -0.47227976 0.64405394 0.19018623
-0.37954777 0.6876989 0.13454694 0.6055399 -0.26344275 -0.42426854 -0.5256347 -0.5161528
0.355316 -0.3307275 -0.7002933 -0.5611136 -0.10119841 -0.19838935 -0.6373429 0.34711662
-0.46902022 -0.48651156 -0.050771024 0.6647551 0.6585509 -0.5963322 0.20512798 0.11778732
-0.60156745 -0.04203447 -0.27759412 0.019373018 -0.057550102 0.5997826 -0.00066442514 -0.6856924

clf_net.0.bias f4 [256]
00000000: a09a 96be 2983 123f ea44 043f 879b 01bf
00000010: 324d 31bf fb89 dabe 091e c43e f5b4 393e
00000020: c53b d33e 99a0 8abe 58f8 693e 8b41 e03e
00000030: 5271 e83e 6fa4 dc3e f0af c33e d2f0 703d
00000040: 22f0 153f d9f8 6cbe d089 0bbe aa7c 743e
00000050: 0974 d5bd 1fcc e5be 3296 223f f3b1 b53e
00000060: 6d7c 7dbe e5df c23e 724f 143f 2bcd edbe
00000070: 5400 2bbf b659 c83d ec25 98bd 8f2d 0e3f
00000080: d077 e73b 69e9 0b3f 4015 11bf 558f 1c3f
00000090: 84aa 053a 1d76 95be 4bc2 a3be e388 0e3f
000000a0: 7beb 0d3e 623e 2cbf 4307 053f f095 1d3f
000000b0: 5a4f 0a3f 8119 933d 9ba9 60be 67ac b7bd
000000c0: f003 223f 3769 32bf c62b 0e3f 0845 2f3f
000000d0: 381e d1be cded e1be 3634 c1be 3b9c 873e
000000e0: 4106 813e b895 99be fb7c 2e3f 1bb2 19bf
000000f0: 7459 333f 062a 273f eb3c 56be 9679 053f
00000100: 2096 be3c 770d 56be 72b4 6fbe 99a3 4abe
00000110: d286 f23e d394 e3bc 8e6d b1be e5c8 0dbf
00000120: 61d2 45be c10c 1dbf c0f0 b33e ecbd 2bbf
00000130: 2fa9 143f 49b9 283f 54e7 2d3e a7a9 863e
00000140: f7fe 3f3e bc7d c2be fdfd 2b3e 053f 0cbf
00000150: 696d 1d3f 064f 11bd 726c 16bf 84a0 d73e
00000160: 17e0 053e 65eb 003f 8536 f93e d4a8 64be
00000170: 7a3f 89be 8ae6 30bf 325d d3be 6984 17bd
00000180: a1c4 e43e a31b fa3d 1929 94bd c4cb 2fbe
00000190: 4d64 cc3e ed68 0e3f c9e3 2fbf 6bf8 813e
000001a0: c22c 363e a626 c0be 641b fdbe a922 193f
000001b0: fe87 e9be c079 1a3a ab3d ff3e a4ba 49be
000001c0: 0ac6 8dbe 0c48 2b3f 9d78 87be 4c88 efbe
000001d0: 163d 393e 7f11 4c3e 47c4 1d3f 5680 d03e
000001e0: 813c 07bf 8d49 993d fbe0 0abb b8ef 11bd
000001f0: ca84 8f3e d5cf 153f 0116 fc3e 8e76 6ebd
00000200: 3d6b a03e e15d 00be f455 e03e fa36 f53e
00000210: 6c76 13bf efc9 9dbe 6d15 2abf 7d02 983d
00000220: 7dff 12bf f26e 30bf 0daf 3cbe 61ab 063f
00000230: 997e 85be 6551 1fbf 6040 42be a313 113f
00000240: 2450 8bbe 266d 3f3e a2bb 293f ef2e a8be
00000250: 4e3c fb3c 9a28 91bd 0b20 2cbf cf8f 72bd
00000260: d6b2 163f 9dc2 cabe 1306 843d 04db 3ebd
00000270: 6ea4 7c3e 63ca ad3e c908 f9be 5551 c6bd
00000280: 1fe6 0abf d1a0 ff3e 2dc1 d83d a6a6 65be
00000290: f4c0 2fbd fb43 2a3e 8643 09bf 4737 533e
000002a0: c08c 4b3d c5f2 343f 4a23 933e 1920 573e
000002b0: d7de c5be 465e 29bf 46d1 41be 0ec3 033e
000002c0: d177 2abf 3afe 993e 0f95 003f b83a a7be
000002d0: 4863 1c3f 8aaf 0ebf 234d 1e3f 0f4c 40be
000002e0: 6b8a 2ebf 8617 593e c89a dabe 8e29 ae3d
000002f0: 592c 453e 91e1 5e3e 65f5 1bbf dace b13e
00000300: 3486 a4be ac10 cbbe 2f83 aabe 7849 20be
00000310: 4d40 b63e 976c 9a3d 6181 a63e 9eac f0be
00000320: 4ed3 9f3d a17c 57be 4e92 d33c 3634 1fbf
00000330: dae3 1cbe 9004 8c3d 55eb 9f3e 9217 c33e
00000340: 81e8 dbbe 85d4 8dbe 9148 2c3e 0930 a63e
00000350: 3c03 7a3d a76d e03e c42a 1bbf 80ec cabe
00000360: 8b11 093f d9ce 13be 4416 f5bd d9b2 23bf
00000370: 887a 84be d7d4 2b3e 77a2 17bf bf3f 8fbd
00000380: 254d e23e e6be 33bf a8aa 5b3e 2db1 d1be
00000390: db12 463e 8c06 dcbe 6cfc 2d3f b730 c6bd
000003a0: a655 953e d3ef ecbe 4fe8 1abf 7e77 00bf
000003b0: f834 1ebf dd9e 96be e2c4 393e ccb7 1a3f
000003c0: db29 64be ac77 c03d 0b52 0d3f b4a2 a23d
000003d0: ad58 c4be 7cf5 17bf 438c 2e3f fd18 023d
000003e0: 4db8 90be b009 143f ecf4 b3bd a7b6 1abe
000003f0: 81b7 153f 33eb 8abd 9ccf b93e ff84 343e
-0.29414845 0.57231385 0.51667655 -0.5062794 -0.69258416 -0.42683396 0.38304165 0.18135436
0.41256538 -0.2707565 0.22848642 0.43800005 0.45398957 0.43094203 0.38220167 0.058823414
0.5856954 -0.23141803 -0.1362679 0.2387568 -0.104225226 -0.44882295 0.6351043 0.35487327
-0.24754496 0.38061443 0.57933724 -0.46445593 -0.66797376 0.09782736 -0.07429108 0.55538267
0.0070638433 0.5465303 -0.5667305 0.6115621 0.0005098956 -0.29191676 -0.3198417 0.5567762
0.1385936 -0.6728269 0.51964206 0.6155691 0.5402733 0.07182599 -0.219397 -0.0896843
0.6328726 -0.69691795 0.5553554 0.6846471 -0.40843368 -0.4412674 -0.37735146 0.26486382
0.25200084 -0.2999704 0.68159455 -0.6003739 0.7005837 0.652985 -0.20921676 0.5213865
0.023264945 -0.20903574 -0.23408678 -0.1978897 0.47368485 -0.027780926 -0.34653896 -0.55384666
-0.19318534 -0.61347586 0.35144615 -0.6708667 0.58070654 0.6590772 0.16982776 0.2630131
0.18749605 -0.37986553 0.16796108 -0.5478366 0.6149507 -0.035475753 -0.58759224 0.4211465
0.13073765 0.50359184 0.48674408 -0.22330028 -0.2680624 -0.69101775 -0.4128204 -0.03699151
0.44681266 0.122123025 -0.07234401 -0.17167574 0.39920273 0.55628854 -0.6870695 0.2538484
0.17790511 -0.37529486 -0.4943496 0.5981851 -0.45611566 0.0005892776 0.49851736 -0.19700104
-0.27690154 0.6690681 -0.26459208 -0.46783674 0.18089709 0.19928549 0.6162762 0.40722913
-0.52826697 0.07484732 -0.0021191228 -0.035629004 0.28030998 0.5852025 0.49235538 -0.05821853
0.31331816 -0.12535812 0.43815577 0.47893506 -0.5760257 -0.30818126 -0.66438943 0.074223496
-0.57421094 -0.6891929 -0.18426152 0.52605253 -0.2607315 -0.62233573 -0.1896987 0.5667059
-0.2720958 0.1869398 0.6630193 -0.32848307 0.030668404 -0.07087822 -0.67236394 -0.059219178
0.5886663 -0.39601603 0.06446471 -0.04659559 0.246721 0.3394347 -0.48639515 -0.096834816
-0.54257387 0.4992738 0.1058372 -0.22426853 -0.042908624 0.16627495 -0.5361866 0.20626555
0.049694777 0.70682937 0.2873786 0.21008338 -0.38646576 -0.66159475 -0.18927488 0.12867376
-0.66589075 0.30076772 0.50227445 -0.32661986 0.6108899 -0.557366 0.6183645 -0.18779014
-0.6817996 0.2120038 -0.42696214 0.0850402 0.19255199 0.21765734 -0.6092132 0.34728128
-0.3213364 -0.39661157 -0.3330321 -0.15653026 0.35595933 0.07540243 0.32520583 -0.47006696
0.07803975 -0.21043636 0.0258266 -0.6218904 -0.15321293 0.06836808 0.31234232 0.3810392
-0.42950824 -0.27701202 0.16824557 0.32458523 0.06103824 0.43833658 -0.6061213 -0.3963356
0.53542393 -0.14434375 -0.119671375 -0.63944775 -0.25874734 0.1678041 -0.59232277 -0.069945805
0.44199482 -0.7021316 0.21451819 -0.40955487 0.1934313 -0.42973745 0.6796329 -0.0967726
0.29166907 -0.4627672 -0.60510725 -0.5018233 -0.61799574 -0.29418078 0.18141511 0.604367
-0.22281592 0.093978256 0.5520331 0.079411894 -0.38348904 -0.59358954 0.6818277 0.031762112
-0.2826561 0.5782728 -0.087869495 -0.15108739 0.5848313 -0.06783142 0.36291206 0.17628859

clf_net.1.weight f4 [256]
00000000: be75 7c3f 540d 803f 4eea 7c3f ae44 7d3f
00000010: e7e0 803f f785 7f3f 1e2e 7b3f 8d0a 7d3f
00000020: 8eb5 7d3f 9fe0 7f3f 6bfc 7f3f 6900 7d3f
00000030: b91e 7d3f 8ccd 803f 113b 7d3f 1c6a 7f3f
00000040: 86aa 7e3f 8c12 7f3f ba24 7e3f ea01 7f3f
00000050: d857 803f 8ed1 7f3f a001 803f f1a6 7e3f
00000060: 8b3b 7e3f 361e 7d3f b5cc 7d3f f642 7d3f
00000070: b896 7e3f f931 803f 2991 7d3f aa28 7f3f
00000080: 635c 7d3f efc1 7c3f 3577 7e3f e8fd 7d3f
00000090: 6d3e 803f d5ba 7b3f a105 803f 3df8 7c3f
000000a0: b6b6 7e3f a66a 7d3f c23b 803f d19b 7f3f
000000b0: 2738 803f 9c4e 7f3f 6594 803f b931 803f
000000c0: ea82 803f 8164 813f ff6d 7e3f edd3 7e3f
000000d0: 62f4 7b3f 7f13 7d3f eca7 7e3f 4788 803f
000000e0: d6cd 7c3f 7196 7d3f df25 7d3f 1ce2 803f
000000f0: 0134 7e3f a666 7d3f 9272 7c3f 5ada 7c3f
00000100: d1b1 7c3f 6055 803f daa5 7d3f 234b 813f
00000110: 28df 7f3f 7b54 7e3f d749 7d3f b0b5 7f3f
00000120: d729 7f3f 22da 7d3f cd68 813f 039f 803f
00000130: 8b85 7e3f d599 7e3f 7059 7d3f 0bae 7b3f
00000140: d7bf 7a3f 6592 7b3f 2e01 7e3f b232 7f3f
00000150: 015b 7c3f e98f 7f3f 6c2f 7e3f 5a86 7f3f
00000160: d622 7d3f 90e6 7f3f 2679 803f b660 7f3f
00000170: 8c27 803f 2170 7d3f 0af8 7c3f c551 7c3f
00000180: 7ea9 7e3f 36f1 7d3f ddce 7d3f 6441 7c3f
00000190: 65c9 7e3f 4a24 7b3f a6d8 7b3f 8de7 7f3f
000001a0: dfba 7f3f bd3d 7d3f 17df 7d3f ff59 7f3f
000001b0: 991e 803f b865 7f3f 672b 7d3f 12f9 7d3f
000001c0: 386b 7e3f ce4c 7f3f ddc0 7e3f d6cd 803f
000001d0: 1561 7e3f 043d 7f3f d518 803f 5cd0 7f3f
000001e0: fa25 7e3f 6410 803f 19e9 7d3f 945d 7f3f
000001f0: 0f9c 803f be10 803f 97c2 7f3f 24db 7e3f
00000200: 3191 803f f2a7 7d3f 0753 7e3f 375c 803f
00000210: 2e1f 7e3f 5c4b 7f3f 7a6b 7e3f c079 7f3f
00000220: 483e 7f3f 2d57 803f 139c 803f b6f8 7d3f
00000230: 5f51 7a3f 012b 7d3f e19c 7a3f 8e1c 7c3f
00000240: 76c7 7e3f 3284 7f3f 7d67 7e3f f454 7c3f
00000250: 3b83 7f3f fc28 7d3f 922b 7e3f 6a9a 7d3f
00000260: 126e 803f b0a8 7d3f 86d5 7e3f c0d0 803f
00000270: 29b1 7c3f d22b 7e3f 62ac 7f3f 6227 7d3f
00000280: 12d7 7e3f eea4 7d3f e018 7f3f 4b6e 7e3f
00000290: a066 803f 32a2 7d3f dbab 7e3f 4fcc 7d3f
000002a0: 5dd9 7e3f 7839 7d3f 3957 7e3f 16b2 7e3f
000002b0: 45f7 803f 44e0 7d3f ac54 7e3f 1c31 7c3f
000002c0: 79a8 7f3f f128 7f3f 8eb5 7d3f e8b6 7e3f
000002d0: 14f6 7e3f 7cd7 7d3f 021b 7c3f 8917 7f3f
000002e0: affb 7e3f 1ecb 7e3f 0761 803f 0a51 7f3f
000002f0: b323 7e3f 3eb7 7e3f ee79 803f 7bbc 7f3f
00000300: ceeb 7e3f d175 7e3f 29f2 7e3f 23f6 7b3f
00000310: b705 7e3f 8507 7f3f b59a 7e3f 61e1 7c3f
00000320: a136 7e3f 046c 7e3f 3025 7d3f 8dbb 7d3f
00000330: 6662 7e3f 2bbc 7d3f a7ba 7d3f 0895 7d3f
00000340: ec70 7d3f b5bb 7e3f fb20 7f3f d9a1 7d3f
00000350: e84b 7f3f 2aa0 7d3f 1019 7c3f 0a0d 7e3f
00000360: 4655 7d3f 1a06 803f b5df 7f3f 5e68 803f
00000370: 3e63 7e3f 7f54 7f3f f167 7b3f a261 7f3f
00000380: 9db1 7f3f 3b80 7e3f 52fa 7c3f 6a3d 813f
00000390: deed 7e3f 8267 7e3f cbb6 7f3f c032 7f3f
000003a0: 54e0 7e3f 64aa 7e3f cc47 7f3f c035 813f
000003b0: 7151 7e3f 5d2c 813f b822 7c3f d227 7f3f
000003c0: 4933 803f aecb 7f3f dbbb 7d3f de31 7c3f
000003d0: c016 7f3f ee57 803f 6c49 7e3f 701c 7f3f
000003e0: b473 7f3f 87df 7d3f 0e2a 7d3f ffe0 7d3f
000003f0: cb5d 7f3f d7f2 7c3f 9e36 7f3f 522d 803f
0.9861716 1.0004067 0.9879502 0.9893292 1.0068635 0.9981379 0.98117244 0.98844224
0.99105155 0.9995212 0.99994534 0.9882875 0.98875004 1.0062728 0.98918253 0.99771285
0.9947895 0.99637675 0.9927479 0.99612296 1.0026808 0.9992913 1.0000496 0.9947348
0.99309605 0.98874223 0.99140483 0.989303 0.9944873 1.001525 0.9904962 0.99671423
0.98969096 0.9873342 0.99400645 0.99215555 1.0019051 0.9833196 1.0001718 0.9881628
0.99497545 0.9899086 1.0018237 0.9984713 1.0017136 0.99729323 1.0045286 1.0015174
1.0039952 1.0108796 0.9938659 0.99542123 0.98419774 0.98857874 0.9947498 1.0041589
0.9875158 0.9905768 0.9888591 1.0069003 0.992981 0.98984754 0.9861232 0.9877068
0.98708826 1.0026054 0.99081194 1.0101055 0.99949884 0.99347657 0.98940796 0.9988661
0.9967322 0.9916097 1.0110108 1.0048527 0.9942252 0.9945348 0.98964596 0.98312443
0.97948974 0.98270255 0.9922055 0.9968673 0.9857636 0.99828964 0.9929111 0.9981438
0.9888128 0.99961185 1.0036972 0.99756944 1.0012069 0.9899922 0.9881598 0.9856227
0.99477375 0.99196184 0.99143773 0.9853728 0.99526054 0.9810225 0.98377454 0.99962693
0.9989452 0.9892233 0.99168533 0.997467 1.0009338 0.99764585 0.9889435 0.99208176
0.9938235 0.9972657 0.99513036 1.0062816 0.99366885 0.9970248 1.0007578 0.99927306
0.992767 1.0005002 0.99183804 0.99752164 1.0047625 1.0005109 0.99906296 0.9955313
1.0044309 0.9908439 0.9934544 1.0028142 0.99266326 0.99724364 0.99382746 0.9979515
0.9970441 1.0026604 1.004763 0.9920763 0.9778041 0.98893744 0.9789563 0.9848107
0.99523103 0.9981109 0.9937666 0.9856713 0.99809617 0.9889066 0.99285233 0.9906374
1.0033591 0.9908552 0.9954456 1.0063705 0.98707825 0.99285614 0.9987241 0.9888822
0.9954692 0.9907979 0.9964733 0.99387044 1.0031319 0.99075615 0.9948098 0.99139875
0.9955042 0.98915815 0.9935184 0.9949049 1.0075461 0.9917033 0.9934795 0.98512435
0.99866444 0.99671847 0.99105155 0.9949784 0.99594235 0.9915693 0.9847871 0.99645287
0.9960279 0.9952868 1.002961 0.9973303 0.9927322 0.99498355 1.003721 0.99896973
0.9957856 0.99398524 0.9958826 0.9842245 0.9922747 0.9962085 0.99454814 0.987814
0.9930211 0.9938357 0.9888487 0.99114305 0.99368894 0.99115247 0.99112934 0.9905553
0.9900043 0.9950517 0.996597 0.99075085 0.997252 0.99072516 0.9847574 0.99238646
0.9895824 1.0001862 0.99950725 1.003185 0.9937018 0.99738306 0.98205477 0.9975835
0.9988039 0.99414414 0.9881946 1.0096867 0.99581707 0.9937669 0.99888295 0.99686813
0.9956105 0.99478745 0.9971893 1.0094528 0.9934302 1.0091664 0.98490477 0.99670136
1.0015651 0.99920166 0.9911477 0.9851359 0.9964409 1.0026834 0.9933078 0.9965277
0.99785924 0.991692 0.98892295 0.9917144 0.9975249 0.98808044 0.99692714 1.0013831

clf_net.1.bias f4 [256]
00000000: dc6f 353e aac1 bdbc 91d9 50bd 2c34 233d
00000010: a297 4bbd 186e 263e d915 943c 2c93 d5bd
00000020: 9b36 2abc 2b05 69bd e098 333e ffc8 3f3b
00000030: a4e2 c7bd 4e69 2cbe 496b a0bc 5e1f 42bc
00000040: 3a51 21be 9f8d 15be 4342 5dbd 61c0 3a3d
00000050: 44dc dcbc e6ac 26b8 dcb6 8dbd e2c5 f1bc
00000060: ab74 3b3e af43 8abd 2c1a 423e cb82 9a3c
00000070: aef2 103e 138e c63c 5d03 293d a2d5 18bc
00000080: d6d2 cd3d 8951 173d 3750 0f3c 96ec 8b3c
00000090: 14bc 233d cea5 813d 41af 5a3d 361f 2cbd
000000a0: 3a7f 91bd a40e 31bc ea66 7cbd d1bf ea3c
000000b0: 73ee 273e 1560 2a3e 6e26 fabd 3c8c 17be
000000c0: 4be8 11be f1bd cebd f7d6 5f3b defc 87bd
000000d0: 9b1b c3bd 84b4 093c 9e29 283d d924 54be
000000e0: a9dc 79bd 59d6 49bd ad96 c1bc 343d 0b3e
000000f0: 2d40 c33d 1da7 433e f5d4 5fbd beb6 523d
00000100: a435 073e 096a fdbc d4df 0f3d b5c0 42bd
00000110: 898e df3d 5b86 66bd 8a79 04bd 368a 3a3e
00000120: d714 bebd 6ac9 a0bd b8d8 32be 2425 4d3c
00000130: 1e50 c3bd 78ab 8d3d c834 7a3d 0ccf fbbc
00000140: ea1f 29bd 6def 99bc 8aaf 75bd 0e1c 34bd
00000150: 5836 2b3d 430e 2c3e 1227 c03c 4c2e 293d
00000160: 0b86 0c3d 4255 11be aa20 3bbe 07e8 373c
00000170: be8b d93d 2fd5 f0bc 01e6 0a3c 92b0 bb3d
00000180: bd13 20be 674d 84bd 520a 3a3e c32a 08bd
00000190: 3c10 2f3d 5ae4 bbbc fac3 193e 3da4 bb3c
000001a0: dbfc d6bd 299c fcbc 48a9 b93c 63e0 09bd
000001b0: 85fc bb3d ee42 20bd 2d95 883d e27e d3bc
000001c0: 6450 b4bc 3026 29bd 49de 98bd 570b 91bd
000001d0: 25e3 303d e4d0 c8bd b5be 273d d10e ddbd
000001e0: 9fc8 823d a252 28bd b786 333d 8f32 703d
000001f0: 54c5 023e 5b9f 0a3e 67c0 753d b14b 513d
00000200: 0f38 88bd e861 553e 5e2d 66bb 6fb6 b03d
00000210: 8022 24be c1ea 81bd 8891 0fbd 5d51 f63c
00000220: 82c2 583c 0322 16be 5cfa 12be 421c 44bc
00000230: 5cc4 35bd 06a2 633d 0e15 973d d1c2 abbc
00000240: 9cb2 1ebd 51cd 35bd 38d8 a13a 6e61 6a3d
00000250: 57eb f6bc 3c43 223e 540e 943c 3c0e 8b3d
00000260: 61c1 4dbd f6d5 b6bc 6bef 83bd cc52 93bd
00000270: 0d1b a5bd 8f02 2f3e dbf1 3dbd 55fb bdbc
00000280: a751 2d3d dbcd 1d3e a122 f1bd af5a 813d
00000290: da0a 883c d290 a1bd 9c72 483e 1c07 ef3d
000002a0: 4a19 b7bc e297 ccbd 21bb ce3d 6771 9d3c
000002b0: b62b 5ebd d2dc 0cbd 22f0 70bb ba85 6a3c
000002c0: ded3 603d 518e 7fbd 1b67 b93b 67b5 253d
000002d0: d2db 203d bb4a 6e3d ec3a f5bc 000e 3abd
000002e0: d709 323e dafd a6bd 427e 323d b548 8dbb
000002f0: 70cc 80bd 8660 663c e421 02be 668f cebd
00000300: 9adc 8ebb 7d9c 6b3d 2ec2 6cbd d766 183e
00000310: 9d6c 243e 563d 8bbd 44b8 3fbd a1ee 1c3e
00000320: 84a0 883d cf83 2abd f03e 303d b8de 9e3d
00000330: 90f7 233d 18c8 043e 98c6 763c 13c6 333d
00000340: 69a0 233d e964 0fbe a24a 473e b900 94bc
00000350: 07a2 9dbd bc0e 8cbd 543b c7bc f52e fd3b
00000360: a292 003d fc30 f7bd c93b 933c 6fd1 6ebd
00000370: 5f42 b4bc 28ba e9bd 2578 4bbd 9df2 01bd
00000380: 2249 d1bd 855f f8bd 9995 ac3c 11d8 1cbe
00000390: 5008 03bd 81a7 74bd de65 073e a19c 7e3c
000003a0: 79aa 7ebd 915f 2bbd 404a 22bd 6a75 21be
000003b0: 386a 913d 21b7 77bd b6ff 953d c130 123e
000003c0: ad5a a33c 6371 443d b9d2 38bd ba83 243e
000003d0: 6cc8 0a3d f70b 39bd d486 3f3e c759 313c
000003e0: 6fd0 8b3d bf12 293e bc34 a9bc 1a90 7fbd
000003f0: 7485 26be 1b8f afbd 067b 17ba 400e 03be
0.17718452 -0.023163635 -0.050988737 0.039844677 -0.049705155 0.16252935 0.018076824 -0.104284614
-0.0103889955 -0.056889694 0.17538786 0.002926409 -0.09760025 -0.16837046 -0.019582408 -0.011848299
-0.15753642 -0.14604805 -0.05401827 0.045593623 -0.0269605 -3.973851e-05 -0.06919643 -0.029513303
0.18306224 -0.06751191 0.18955296 0.018861195 0.14155075 0.024237668 0.041262973 -0.009328278
0.100499794 0.036942992 0.008747152 0.017080586 0.039974287 0.06330453 0.05338979 -0.042021953
-0.07104345 -0.010806713 -0.061621584 0.028655918 0.16399555 0.16638215 -0.12214361 -0.14799589
-0.14248769 -0.10094822 0.0034155229 -0.066400275 -0.0952675 0.008404855 0.041055314 -0.20717181
-0.061001454 -0.049276683 -0.023631418 0.13597566 0.09533725 0.19106717 -0.05464645 0.051443808
0.13204056 -0.03093435 0.03512557 -0.04754706 0.10915858 -0.056280475 -0.03234247 0.18216786
-0.09281319 -0.07850917 -0.17465484 0.012521062 -0.095367655 0.06917471 0.061085492 -0.030738376
-0.0412902 -0.018790925 -0.05998186 -0.043972068 0.041799873 0.16802315 0.02345613 0.041303918
0.03430752 -0.1419268 -0.18274179 0.011224753 0.10622357 -0.029398529 0.008477689 0.091645375
-0.1563253 -0.06460076 0.18168 -0.033243906 0.04274009 -0.022936035 0.15016165 0.022905463
-0.10497447 -0.030836182 0.022663727 -0.033661257 0.09179024 -0.03912633 0.06669078 -0.025817338
-0.02201099 -0.041296184 -0.074642725 -0.07082241 0.043185372 -0.09805468 0.040953357 -0.10793842
0.06385922 -0.04109443 0.043829646 0.058641966 0.12770587 0.13537352 0.059997942 0.051097576
-0.06651317 0.2083813 -0.0035122256 0.086285464 -0.16028786 -0.06343604 -0.0350509 0.030068094
0.013229968 -0.14661412 -0.14353317 -0.011969628 -0.044376716 0.05557444 0.07377063 -0.02096692
-0.038744554 -0.044385258 0.0012347763 0.057221822 -0.030141516 0.1584596 0.018073238 0.06789824
-0.05023325 -0.022318821 -0.0644215 -0.071935266 -0.080618 0.1709082 -0.04637323 -0.023191134
0.042314198 0.15410559 -0.11774183 0.06316125 0.016606737 -0.078889504 0.1957497 0.11671278
-0.022350926 -0.09989907 0.10094286 0.019219114 -0.054240905 -0.03439028 -0.0036764224 0.014314109
0.054889552 -0.062391583 0.005658043 0.040456202 0.039272137 0.058176737 -0.029935323 -0.045423508
0.17386566 -0.08153887 0.04357744 -0.004311646 -0.06288993 0.014061099 -0.12708241 -0.10085945
-0.004359794 0.057522286 -0.05780237 0.1488298 0.16057058 -0.06798808 -0.04680659 0.15325405
0.06671241 -0.04162961 0.043028772 0.07757324 0.040031016 0.12966955 0.015061997 0.04389007
0.0399479 -0.14003338 0.19462064 -0.01806675 -0.0769692 -0.06838748 -0.024320282 0.007726545
0.03138984 -0.1206989 0.017972844 -0.0583052 -0.022004304 -0.114124596 -0.049675126 -0.031725515
-0.10219027 -0.12127594 0.021067427 -0.15316798 -0.03199035 -0.059730057 0.13222453 0.015540273
-0.062174294 -0.041839186 -0.03962159 -0.15767446 0.07100338 -0.06047738 0.073241636 0.1427641
0.019940699 0.047959697 -0.045122836 0.16065875 0.033882543 -0.045177426 0.18703777 0.010824627
0.06826865 0.16511057 -0.020655029 -0.062393285 -0.16261846 -0.08572217 -0.0005778525 -0.12798405

clf_net.1.running_mean f4 [256]
00000000: 8cf0 bdbd d6ef 4f3f e7ee a03e 8c38 6fbe
00000010: ad47 12be 23d8 1abf 0f32 a93e 817d cc3e
00000020: df87 db3e 6ff9 e2be e7d3 953e 76e2 053f
00000030: f3a2 33be b30f 013f 63ab 993e ee22 af3b
00000040: b473 433f 7e7b c1be 35f1 9d3b 13a8 973e
00000050: 565b 29bb 1265 9dbe 8e3a 823f 12fc 353f
00000060: 7a5c 9ebe 8273 473f 0cd8 893e 68a7 a2be
00000070: 36f4 3bbf 46b9 4fbe 18bc 0a3c 6dc9 723f
00000080: 06cd 9e3e 0115 503e 3fb6 7abe 6f2a 823e
00000090: 70c9 8d3e 9e41 bbbe c891 50bf 877b f53e
000000a0: 9f30 e7be c9a2 f1be 70c8 a43d 7f58 353e
000000b0: b942 903e 3c55 44bd b593 9e3d 68ca 0cbd
000000c0: 2c46 fb3e 4d14 21bf a3fc f83e 629d 113f
000000d0: 6671 4abf f911 d7be cc2b b4be d096 ba3e
000000e0: 599e 8b3e 3f55 42bf 03d7 993e 1543 debe
000000f0: fa6b da3e b873 473f cc46 37ba 3486 1a3f
00000100: 164a 003e 2303 15bf f48c aebe 2fd0 5f3e
00000110: cd2b 803f 061c c4bb 7870 82bf 7b76 35bf
00000120: 0621 55be 0613 67bf e21d 0a3f bab0 87bf
00000130: ef09 c03d 053d 1c3f cd66 3b3e a955 043e
00000140: 5894 dd3e 0f8f bfbe dd63 b83e 6645 41bf
00000150: 300d 973f 3894 233e cfab 36bf 2cb2 fc3e
00000160: 6a49 ba3e 240c a83e 61c8 0e3f eec0 02bf
00000170: 4696 b6be 1530 1dbf 7849 383e d747 183e
00000180: 29fb 383f 1f85 f43e 2cd8 ed3d af6a 88be
00000190: 21b1 d73d a4fb 153f 850a 07bf 77ab a73e
000001a0: 440e 25be 7a93 473e 0a0b 08bf 6d94 2b3f
000001b0: 39ed f03d f976 aa3e 50f6 ce3e a546 623e
000001c0: 5718 03be f69a 843f fa54 1bbf 6ec0 7cbf
000001d0: b5e8 483e b84c dcbe 5846 ef3e 9b2b 843e
000001e0: 5c97 80bf 906d c13e da3e 0d3d 66c9 003e
000001f0: 7176 30bd 1206 e93e 9982 423f 9077 cbbe
00000200: 12e6 d63e e8ad 5fbe dd47 763f 2883 773f
00000210: b724 87be a26f 88be 1f9a 37bf bda4 5a3d
00000220: 0393 0ebf a933 76bf a771 82be 7939 ab3e
00000230: 2dcf a6be 45ab 37bf 803f 96be 005b c03e
00000240: 696e 95be b3cf 443e 44fd 253f 01b7 f8bb
00000250: c9f5 b4bd d285 a23d 2f6e e7be f64e cf3e
00000260: 9a1e 7d3f 95ee ecbd bc95 c8be 83e7 fabd
00000270: 95b1 863d 16ce f13e 8aaf f3be 9c87 4a3e
00000280: a2fd cfbe 75dc 8c3e 5e06 023f cf12 03bf
00000290: d1f8 c7be c384 68bd 19d7 11bf 59de 02be
000002a0: bfec d03e f96a ce3e 0a64 563f d25a 923e
000002b0: ec65 05bf 84a5 4abf ec1f dcbe 89c8 103e
000002c0: 18b6 b5be f14b 843e bf6c 72bd e26c 9abc
000002d0: ce13 8d3f 016b 29bf 7670 293f 2da9 3c3d
000002e0: 13d1 0cbf 9200 66be 8f48 4fbf b534 6abd
000002f0: 5ac1 ea3e adc4 123f 9448 90bf f6b7 f6bd
00000300: be06 93be 3693 5bbe 5bef 52bf a257 d3bd
00000310: 3ad3 2b3d 7839 80be daee 163f c211 28bf
00000320: 803f 513e 02cd 97bc ce45 1b3f 8763 19bf
00000330: c925 04bf f4ac eabd cca5 57bd 250c 853e
00000340: 0c8d 31bf 29f3 313d 8330 663e 38d5 cc3e
00000350: f866 ac3e 0f6c 1e3f 64e8 37bf d076 02bf
00000360: a876 c83e eadd 0ebd 36cd d5be 9ca6 c3be
00000370: 2e8a 32bd 264a bb3d 35b3 c6be 8ec2 40be
00000380: 8c6b 713f 8cfe a3bf 944c b13e ea49 27bf
00000390: 54a6 71bd 6348 57bf 0c83 193f d9a5 e33d
000003a0: 8063 163e ae1c a1bd 1539 86be cce2 37bf
000003b0: 7888 27bf bcbc bcbe 57ea 273f 6eee 2e3f
000003c0: 31fe b63d 0a24 3ebe 31e2 a83e 5ae2 2d3e
000003d0: 9ef0 cdbe 7f91 6ebf 007e 5d3f 5249 ff3e
000003e0: c84a 15bf 1107 213f bf99 88bd a26d a13d
000003f0: dbbc 313f a5a3 8b3e add2 f83d 09d1 a9bd
-0.09274396 0.81225336 0.31432268 -0.23361415 -0.14285155 -0.6048605 0.33046004 0.39939502
0.428771 -0.44330928 0.2926323 0.52298677 -0.17542629 0.5041458 0.3001357 0.00534474
0.76348424 -0.3778953 0.004820014 0.29620418 -0.0025841794 -0.30741173 1.017412 0.71087754
-0.3092993 0.77910626 0.26922643 -0.31768346 -0.7341951 -0.2028552 0.008467697 0.948386
0.31015795 0.20320512 -0.24483584 0.25423 0.27692747 -0.365735 -0.81472445 0.47945806
-0.45154282 -0.47194508 0.08046043 0.1770954 0.28175905 -0.04793285 0.07743017 -0.034372717
0.49076974 -0.629216 0.48630247 0.5688077 -0.7907928 -0.420059 -0.35189664 0.36443186
0.27269247 -0.75911325 0.30046853 -0.43410555 0.42660505 0.7791095 -0.00069914456 0.6036103
0.12528262 -0.5820791 -0.34091914 0.2185676 1.0013367 -0.005984786 -1.0190573 -0.7088391
-0.20813379 -0.902634 0.5395185 -1.0600808 0.09376895 0.6103061 0.18300934 0.12923302
0.4327724 -0.37413833 0.3601369 -0.7549652 1.18009 0.1597451 -0.7135591 0.49354684
0.36384135 0.32821763 0.55774504 -0.5107564 -0.35661525 -0.6140149 0.17996776 0.14871155
0.7225824 0.47757813 0.11613497 -0.26643893 0.105318315 0.585871 -0.52750427 0.32748005
-0.16118723 0.19489852 -0.53141844 0.67023355 0.11763997 0.33293894 0.40422297 0.22097261
-0.12802254 1.035979 -0.6067654 -0.98731124 0.1962002 -0.43027282 0.46733356 0.25814518
-1.0046191 0.37778902 0.034483768 0.12576827 -0.043081705 0.45512444 0.75980526 -0.39739656
0.41972405 -0.21843684 0.96203405 0.96684504 -0.263952 -0.2664767 -0.71719545 0.053379763
-0.5569307 -0.9617258 -0.25477335 0.33442286 -0.32579938 -0.7174571 -0.29345322 0.37569427
-0.291858 0.19219856 0.6483958 -0.007590175 -0.08835942 0.079356804 -0.4520125 0.4048993
0.9887482 -0.115689434 -0.39176738 -0.122511886 0.0657684 0.47227544 -0.47594863 0.19778293
-0.40623194 0.27511945 0.50790966 -0.51200575 -0.3905702 -0.056767236 -0.5696884 -0.12780131
0.40805623 0.4031599 0.837464 0.28584915 -0.52108645 -0.79158807 -0.42993104 0.14138998
-0.3549049 0.2583919 -0.05918574 -0.018850747 1.1021669 -0.661789 0.66187227 0.046059776
-0.5500652 -0.22461155 -0.8097009 -0.05717917 0.4585064 0.57331353 -1.1272149 -0.120468065
-0.2871608 -0.21442875 -0.8239648 -0.10319449 0.04194949 -0.25043845 0.5895821 -0.65652096
0.2043438 -0.018530373 0.6065339 -0.5991749 -0.51620156 -0.114587694 -0.05264835 0.25985828
-0.69355845 0.043444786 0.22479443 0.40006423 0.3367231 0.61883634 -0.71838975 -0.50962543
0.39153028 -0.034879602 -0.41758126 -0.3821305 -0.04358881 0.09145002 -0.388086 -0.18824217
0.9430473 -1.2812057 0.34628737 -0.6534716 -0.058996513 -0.8409483 0.59965587 0.11115617
0.14686394 -0.07866798 -0.26215425 -0.7183044 -0.6544261 -0.36862743 0.6559195 0.68332565
0.08935202 -0.18568435 0.3298507 0.16980878 -0.4022264 -0.9319076 0.86520386 0.49860626
-0.5831723 0.6290141 -0.0666995 0.07882239 0.69428796 0.27273288 0.12149558 -0.082918234

clf_net.1.running_var f4 [256]
00000000: 2d5f 0a3c 740f f73b a5f4 8f3b 90b2 2b3c
00000010: 6cb5 c13c c7ad 953b 9f67 8b3a 70e5 713b
00000020: c10f 563b b62a df3b 0812 8b3a e5c8 e93a
00000030: 2ebe fb3c 3c88 e43a 65b4 3e3c 87df 9f3b
00000040: d6d8 323b 9c82 003c a99e 033c ce58 2a3b
00000050: 1df3 793a 58c3 263b 6160 3b3c 4046 513c
00000060: 4dda a73a 3367 893c 3ac6 133c 95ce f63b
00000070: 8e97 1f3b 065d 0d3c 1524 ed3b 7f63 5d3c
00000080: 33f5 f33b 1518 4c3c 12cb 473c 1ea0 263c
00000090: 2a7d 4e3c 6207 573a 1e5b b13c 1df1 e93b
000000a0: 5a3c df3c a3cc 1e3c 2960 8c3c da4f 9c3c
000000b0: d422 fb3b 8893 293b 5c29 f83b 8e3b c83b
000000c0: e52e 473b 1d2e 7a3a 0223 f139 9e79 0c3c
000000d0: 4341 453c c929 443c 5e87 ed38 d04d 563b
000000e0: 9a80 1c3b 37a6 883c 797c 793c 4822 173b
000000f0: 8001 bb3b 0ebf 0c3b af34 ba3b 2e2b ee3b
00000100: 4daf 173c cbd2 3b3c 0e2f 9c3b 6205 673c
00000110: b825 ad3c e936 3f38 fa41 133d 3f35 673b
00000120: 7dff bc39 c22a df3b f703 dc3b 352a 433c
00000130: 3f5a 963c dcbc 973a ad55 f639 c7e4 df3b
00000140: 195b 0f3c e9a5 003a d1bd 403c df9f a93b
00000150: 1f01 d03c 9398 5f3b b6d7 1a3b 37b3 013c
00000160: 9ad3 4c3c cafd d93b 2acc 573b 5db4 203c
00000170: cdbb 1d3a c5c1 413c 1da6 e73c aaac 8e3b
00000180: 66f1 e63b f3e3 6a3c ce61 5f3b e8b5 1b3c
00000190: 7b1c db3b 0856 2e3b 9c87 a53b 43e3 333c
000001a0: a410 0f3c 9066 df3c 8be7 ae39 241b 0f3c
000001b0: d9d7 cf3c 49bb 193c abaa ad3b c138 5d3c
000001c0: 1f00 383c bf2d 613c d25d 223c e7dd ad3c
000001d0: 9cc0 543b c87f fa3c f919 ff3a 90ff ed3b
000001e0: ce22 933c 77f2 513c 1112 313c 5db0 013b
000001f0: c05b 103c 0c75 d23a 6a7a 283c f65d 6d3c
00000200: 2274 6e3a 54a7 ed3a a780 ac3c 4ceb b33c
00000210: a24b 0a3c 1392 453c 6318 373b 1130 023c
00000220: 60cf 1e3c 1eb0 0b3c 1527 2a3b 572b 2b3c
00000230: 9bf3 333a 0c4c d13b 6779 df3b 071b 6e3b
00000240: b1b4 ad3a 8d0a 0a3a 6905 8338 5409 0b3c
00000250: 7617 253c 420d 013b 2f7e 8a3b 19ec 9d3c
00000260: 6e49 533c 64ed 203c 2c9a 983c 466d 843a
00000270: c059 833b 96ef a83b 4221 d13b d24f f53b
00000280: 7a0d 913b 1f99 953b a116 563c f247 563c
00000290: ec68 3d3c c245 003c 7f99 4c39 2db0 1c3c
000002a0: d99b 423c 468c 0e3c c1fa bd3c 1875 013a
000002b0: 8ea0 c03a 0ed1 6e3b 5738 bc3b 10b1 963b
000002c0: f980 013c 5aad b83a be2d d83c 7b7c 343c
000002d0: e9ff 9c3c eb2e 0d3c 2619 d23b a8e2 c93b
000002e0: 902c 8c3b 6705 823c 572b 633c 85fa cc3a
000002f0: 4105 023c f9db 203c 64de a63c 3bf0 883c
00000300: 0697 e33b e2d3 353c 305e b73c 6db0 833a
00000310: 8f99 0b3c 8f6f 543c 6ef8 fc3b 5201 7d3b
00000320: ac19 af3b 43d3 a53b 90ce dc3c 2033 233a
00000330: 89ae 303c 6c85 303b 4c4c 373c 498a 963a
00000340: 6340 223c a40d 093c 54e9 413a fc06 1c3c
00000350: f109 c53b eb4c 113c 2bce 3c3b 2f9f d23a
00000360: bd42 813b c3a2 9e3b 842c 133c 89e2 c33b
00000370: 7a7e 863b 2d46 c63a 5a20 3b3c e732 863b
00000380: 1a1a 9c3c f5d2 e03c 05b7 eb3b 3c75 a63b
00000390: 2055 fe3b f43b 7d3c 4475 2c3a d36a 413c
000003a0: 2eba 1b3b 2580 483c 8722 183c 176a 933b
000003b0: 676d fe3a c1e9 563b 72cb 8e3c 9293 893b
000003c0: 10d7 003c d383 ea3b 77eb 1d3c 0ed4 a33a
000003d0: 02f6 af3b a4ad 223c b86a 633b 100d 923c
000003e0: ca6d fa3b 77bb 543a 39f6 703b 9aca d23b
000003f0: f306 953a 0d04 143c 4e8b d53b b77b d53b
0.008445543 0.007539684 0.0043931776 0.010479584 0.023646079 0.004567835 0.001063574 0.0036910437
0.0032663199 0.0068105115 0.0010610232 0.001783636 0.030730333 0.001743562 0.011639689 0.0048789415
0.0027289889 0.00784364 0.008033433 0.0025992873 0.0009534823 0.0025446024 0.011436553 0.012773097
0.0012806148 0.016772842 0.009019429 0.0075319507 0.0024351808 0.008628136 0.0072369673 0.013512491
0.0074450015 0.0124569135 0.012194412 0.010170011 0.012603084 0.0008202699 0.021649893 0.0071393386
0.027250458 0.009692344 0.017135696 0.019081045 0.007664064 0.002587529 0.00757329 0.006110615
0.0030392942 0.00095436146 0.00045993185 0.008573918 0.012039485 0.011972853 0.00011326255 0.0032700188
0.0023880363 0.01668082 0.0152274305 0.0023061205 0.005706966 0.0021476182 0.00568255 0.007268331
0.009258104 0.011463831 0.0047663515 0.014100404 0.02113615 4.5589088e-05 0.035951592 0.003527954
0.00036048508 0.006810517 0.00671434 0.011911918 0.01835358 0.001157667 0.0004698461 0.0068326923
0.008749747 0.0004907535 0.011764006 0.005176529 0.02539116 0.003411804 0.002362711 0.007916263
0.012501622 0.0066525685 0.0032928088 0.009808627 0.0006017059 0.011825983 0.028277451 0.0043540793
0.00704782 0.014336574 0.0034085396 0.009503819 0.0066867447 0.0026601572 0.0050515663 0.010979476
0.008731995 0.027270585 0.0003336038 0.008734498 0.025371479 0.009383031 0.005299886 0.013502301
0.011230498 0.013743817 0.009910064 0.021223975 0.0032463437 0.030578509 0.0019462697 0.0072631314
0.017960932 0.012814156 0.01080753 0.0019788959 0.008810937 0.0016056611 0.010283092 0.014487734
0.00090962846 0.0018131533 0.02105744 0.021962784 0.008440884 0.012058753 0.002793812 0.00794603
0.009692997 0.008525876 0.0025963236 0.010447345 0.0006864608 0.0063872393 0.006819892 0.0036332028
0.0013252703 0.00052658544 6.2475745e-05 0.008486111 0.010076394 0.001969174 0.004226468 0.01927762
0.012895925 0.009822223 0.018628202 0.0010103367 0.004008502 0.005155514 0.0063821385 0.007486322
0.0044266554 0.0045653726 0.013066919 0.013078677 0.01156066 0.007829132 0.00019512138 0.009563488
0.011877977 0.008700436 0.023190858 0.0004938408 0.0014696287 0.0036440524 0.005744021 0.004598744
0.007904285 0.0014089749 0.026389 0.011016007 0.019164996 0.008617143 0.0064116893 0.0061610527
0.004277773 0.015871717 0.0138653135 0.0015638625 0.007935823 0.009818071 0.020369716 0.016716113
0.0069454936 0.01109788 0.02238378 0.0010047086 0.008520498 0.012966051 0.007720045 0.0038605523
0.0053436365 0.0050605848 0.026953965 0.0006225575 0.0107838 0.0026934994 0.011187624 0.0011485304
0.009903046 0.008365069 0.00073971343 0.00952315 0.006013148 0.008868436 0.002880941 0.0016069169
0.0039447234 0.00484118 0.008982781 0.005977933 0.0041044326 0.0015127115 0.011421287 0.0040954235
0.019055415 0.027444342 0.0071934485 0.0050798934 0.0077616125 0.0154561885 0.0006578753 0.011805254
0.0023762095 0.012237583 0.009285576 0.004498731 0.0019411267 0.0032793137 0.017430995 0.0041985
0.007863775 0.007156828 0.009638659 0.001249911 0.0053699026 0.009929094 0.003470106 0.017828494
0.0076424824 0.00081150926 0.0036767854 0.0064328434 0.0011369869 0.009034169 0.0065168506 0.006514992

clf_net.3.weight f4 [256, 256]
00000000: d68d 21bc 3b40 60bd 4194 e03c c05c 4abd
00000010: da6d a4bc 439c 4f3d e0ea 3c3d 6bb2 52bb
00000020: 8df1 a93c 583d 78bd 9094 7fbd b9db 153c
00000030: 0a94 68bd be65 093d 5149 08bd 8154 f9bc
00000040: 6cb1 d6bc 4f44 77bd 23fc 5c3d 6188 22bc
00000050: a729 463d f0dc 12bc 6e56 3cbd 4096 3dbd
00000060: d628 1e3d ba35 f23c 3a11 133c 5419 7d3d
00000070: 2f26 16bd 929e cfbc 355f 433d 5107 513c
00000080: 05af 4a3d 6cb1 14bd 07da 1dbd 5144 963c
00000090: 4a92 e8bb 8c76 3fbd f85f fe3c 80af 08bd
000000a0: 4454 2a3d 590a b13b 7e93 553c 0939 fd3c
000000b0: e228 013d a94a e5bc 657b 42bd b87f 753d
000000c0: 7a78 253d dcef 7b3c 51a8 0c3c ede4 363d
000000d0: ec2e 5b3d 4c00 23bd 2397 10bd 2b1b d5bc
000000e0: 7d0e 42bd e224 493c c34f 16bd aac3 d53c
000000f0: 3ee4 243c 04f2 1fbd 977f 1dbd 394f 573d
00000100: ad05 933c 8ad6 2cbd 6e60 c6bb 4419 81bd
00000110: 3286 d93c 1337 643d 232e 33bd ee2e bbb9
00000120: 8c3c 463d d780 90bd a96d 9c3d 2c4d 15bd
00000130: 7912 2fbd 82fe e2bc 0344 65bd 8981 95bc
00000140: d84f a5bc d978 43bd 5810 44bd ae75 803d
00000150: 75ea 10bc 9963 89bd b480 5c3d 3e91 763d
00000160: fa61 fb3c cfda 0b3d 8078 613d 9e75 ca3c
00000170: e49d 93bc 23bf e03a a463 80bd 709d 25bd
00000180: 2cc6 7d3d 51a9 053d d52b 80bd b0cd 5ebd
00000190: e3eb 693b ecc9 f7bc 4204 f4b9 0e7f 46bd
000001a0: d9d3 23bd 7e59 67bd b16a a8bc aa8a 8c3c
000001b0: 3242 ad3c 9992 5ebd 7363 1e3d 7fe2 91bc
000001c0: 2378 233d 0c29 743d 599b 2c3c 8dad f83c
000001d0: 15e5 7abd 2db6 a73c 511b c5bc 69c1 513d
000001e0: d775 2a3d bb42 833d 06e1 d6bc 6fe6 263d
000001f0: c98c c1bc 7ff6 e23c db7f 2dbc 9689 8bbb
00000200: 39bd 1f3d 8066 42bc 1aa8 2fbd e3fc b2b9
00000210: 5233 4e3d d965 563d c99a 42bc f3b7 1a3b
00000220: 6032 243d 89a5 64bd d507 4bbc 1511 5bbd
00000230: 38b2 55bc 48c5 97bb 6421 e2bc 4e5e 41bd
00000240: 6ddc 07bc e1b3 51bc 4806 e03c 6b8e 4f3d
00000250: 0cd8 80bd fe80 9e3c cb5f 14bd c2d4 da3c
00000260: bfd4 32bd f0a7 dbbc 3ef3 31bd a075 b3bc
00000270: befc e63c 47c8 55bc 66d7 223d 846d 4fbd
00000280: 49d0 6abd 0f5e 39bd 9f28 cd3c 36bb e03c
00000290: f3bd 6a3b d952 ffbc 3e77 4ebd 591c b43b
000002a0: b01d 5a3d 500a 1e3d edd5 76bc 36b9 f73c
000002b0: 190f d8bc e079 49bd 2656 0a3d 215d 133c
000002c0: e187 95bb 4939 d13c 8633 7a38 0e11 443d
000002d0: a2ec 6938 2091 ceba 3aa7 d4bc 5ddd f8b9
000002e0: 90ce a03c f886 553d 3ec7 2e3c e311 fbbc
000002f0: adb9 07bb 5332 08bd 3a75 423d c544 5b3c
00000300: 67a5 3c3c 4acd 183d 48ff 6ebd 14ab e73c
00000310: e972 143c c98c 35bc ca72 60bc d23e 90bc
00000320: a013 023c 8ddd 8dbc 95b8 26bd 6113 69bd
00000330: 829c 3a3c f5d6 3ebd d9ed 87bc 65df d8bc
00000340: 495b 40bc db89 3d3d e69c 54bd f5cc 223d
00000350: b57d 82bd 65da 633d 0d38 6d3d 7543 883c
00000360: 72eb 87bb e4d0 873d 3f42 07bd 1e6b 603a
00000370: 73c2 793b e192 2ebd ddda c2bc 3d16 a1bc
00000380: 345a 383c 1860 4a3d fce5 fc3c 7470 a13c
00000390: 8427 52bd 3f73 23bd 33d5 21bd d8f0 36bd
000003a0: 3f82 5c3d 179d 37bc 3ade 31bd 7ad5 ce3c
000003b0: 10bd 273c 1d23 30bd c7c3 ed3c 565a 99bd
000003c0: a9b1 343d dbc6 373d 304a 383d 7ec8 82bd
000003d0: 245f 37bd 161d 19bd 838c 73bd 1dda 86bd
000003e0: facd ca3a eebf a43c e97f 993c b7aa 493d
000003f0: 26ac 38bd 1eb8 333c 4ddc 293c 0be5 81bd
-0.0098604765 -0.054748755 0.027414443 -0.04940486 -0.020071913 0.050686132 0.04612243 -0.0032149802
0.020745063 -0.060605377 -0.06239754 0.009146624 -0.056781806 0.033544295 -0.033273045 -0.030435802
-0.026207648 -0.06036788 0.053951394 -0.009920211 0.048379567 -0.008963808 -0.045980863 -0.046285868
0.038613163 0.029566634 0.008976275 0.061791733 -0.03665751 -0.025344167 0.04769822 0.012758092
0.049483318 -0.036302015 -0.038538005 0.018343123 -0.007097517 -0.046743914 0.03105162 -0.033370495
0.04158427 0.005402845 0.013035653 0.030910986 0.03153313 -0.027989702 -0.04748096 0.059936255
0.0403981 0.015377011 0.008585052 0.044651914 0.053511545 -0.039795205 -0.035300385 -0.026013931
-0.0473771 0.01227686 -0.03669716 0.026094276 0.010064183 -0.039049163 -0.038451757 0.052565787
0.017947042 -0.042196788 -0.006053976 -0.06303647 0.026553247 0.055716585 -0.04374517 -0.00035702385
0.048397586 -0.07055824 0.076381035 -0.03645055 -0.042742226 -0.02770925 -0.055973064 -0.018250244
-0.020179674 -0.04772267 -0.04786715 0.062724456 -0.008844961 -0.0670845 0.05383368 0.060197107
0.030686367 0.03414422 0.05504656 0.024714287 -0.018019624 0.0017146807 -0.06269005 -0.040433347
0.06195657 0.032632176 -0.0625836 -0.054395378 0.0035693578 -0.030247651 -0.0004654248 -0.048461013
-0.039996956 -0.05648183 -0.020558687 0.017155964 0.021149728 -0.054339025 0.03866906 -0.017808197
0.039909493 0.059609458 0.010535085 0.030356193 -0.061253626 0.02047261 -0.024060877 0.05120984
0.041616287 0.06409212 -0.026230346 0.040747102 -0.023626702 0.02770543 -0.010589565 -0.004258345
0.038998816 -0.011865258 -0.042884924 -0.0003413922 0.05034191 0.052343223 -0.011877724 0.0023608177
0.040087104 -0.05582193 -0.012392004 -0.053483088 -0.013042979 -0.004631672 -0.027603813 -0.047209077
-0.0082923 -0.012799234 0.027346745 0.05067293 -0.06291208 0.019348618 -0.036224168 0.026712779
-0.04365992 -0.026813477 -0.043444864 -0.021906674 0.028196689 -0.013048238 0.0397562 -0.05064155
-0.057327542 -0.045255717 0.025043784 0.02743302 0.0035818785 -0.031167435 -0.050406687 0.0054965434
0.05325097 0.038584054 -0.015065652 0.030239683 -0.026374387 -0.049188495 0.033773564 0.008994372
-0.004563317 0.025540011 5.965263e-05 0.047867827 5.577191e-05 -0.0015759803 -0.025958646 -0.00047467175
0.019629747 0.05213067 0.01066762 -0.030648177 -0.0020710037 -0.033251118 0.047475077 0.013383095
0.011514044 0.037305154 -0.058348924 0.028279819 0.0090606 -0.011080929 -0.013699243 -0.01760808
0.007939249 -0.017317558 -0.040703375 -0.056903247 0.011389853 -0.046591718 -0.016592907 -0.02647371
-0.011740514 0.046274047 -0.051907443 0.039746244 -0.06371633 0.0556282 0.057914782 0.016633729
-0.0041479403 0.066316396 -0.03302216 0.00085608836 0.0038110286 -0.042620543 -0.023786003 -0.019663924
0.011251975 0.04940805 0.030871384 0.019706942 -0.051307216 -0.03990483 -0.039509963 -0.04466328
0.05383515 -0.011206887 -0.043424822 0.025248278 0.010237947 -0.043002237 0.029024018 -0.07487933
0.044114742 0.044867378 0.044992626 -0.06385897 -0.044768468 -0.037381254 -0.059460174 -0.065845706
0.0015472763 0.02011105 0.01873775 0.049235072 -0.04508605 0.01096919 0.010367465 -0.063425146

clf_net.3.bias f4 [256]
00000000: f15b 263d 559f 593d 5913 eabb 38ee 243d
00000010: d15b 5bbc ce72 ffba bf67 0c3d 5270 df3c
00000020: c8b2 43bd 65e5 1abd 8358 333d ae93 3c3d
00000030: 3f12 043d 582f 6dbd 6cfc 5a3d 4a8f 3dbb
00000040: 89aa 233d 0067 483d bb6c d83c c094 443d
00000050: e2d6 23bd b744 45bd aedf 6d3c 09b2 0a3d
00000060: d555 1b3d 3d5d c23c 71d2 71bd 9517 01bd
00000070: 4be3 38bd 2fd0 f33c 2843 ef3c ca89 6e3d
00000080: ce23 653d a9f0 59bd e11f d93c b7a5 eb3c
00000090: 5438 5ebd 1abc c93c 6c4d abbc 2510 c93b
000000a0: 04c3 0dbd c42c 01bd 097a 303b d118 ac3c
000000b0: e48e 1cbc 0b89 d0bc 52f8 fa3a cb49 f5bc
000000c0: 28ae 343d 9ee9 2dbd 5f3a 1b3d 4b7f eabb
000000d0: c5a4 4ebc 7543 e53c e006 653d e437 483d
000000e0: dad5 21bd c5ea 0cbd f6b2 5a3d c904 e63c
000000f0: 403d f03c d316 6a3d ae88 a63b bed0 113c
00000100: b5ec 78bd cb42 fd3c 1b33 f93c 13e1 21bd
00000110: 9c6b 893c 1fe2 61bd b666 603d 24b5 24bd
00000120: c0c9 5e3c 4c35 683c eac5 263d 810e 3e3d
00000130: 1b7f 083a 4547 57bd 9b1a 08bd 5ab5 7e3d
00000140: f149 183d faee 28bd 705a 4c3d f365 6fbd
00000150: 7f0a 083d eef3 033c 211b 35bd 1ca8 ed3c
00000160: 22ec 2ab9 c4aa 90bc ea9f a33c 114b bc3c
00000170: 1e63 37bd 97e6 6abd 1d28 b8bc f6f5 8a3c
00000180: 1edd 5abd 3d43 303d c0fe 48bd db42 42bc
00000190: 9463 1d3d d104 a23c 64bd 4e3d 71f4 4e3d
000001a0: 3113 933c 1cfa 693d 8042 f63c 7f38 cfbb
000001b0: a9b2 debb 96c2 08bd 5c60 ddbc 2612 2c3d
000001c0: a1ac 113d 3d9b 54bd 663f 0d3d 3020 75bd
000001d0: 45bc 773d e291 01b9 fe95 ea3c 5e2e 4fbd
000001e0: 31f3 53bc 209f 0a3c 6913 78bd 5568 563d
000001f0: d18b 153d dcac 8039 fc73 1d3d b9ef 7bbd
00000200: 904a 54bc 15c5 4dbc 30d2 ccbc 92a4 203d
00000210: fd53 4c3d 6143 3bbd 3619 61bb 035b 54bd
00000220: eb09 78bd ff2b f2bc 983b 923c 8182 cb3c
00000230: 12c4 c03c 1f22 383d 9a45 7dbd 7b54 c63c
00000240: 006d 783b 0d75 553d 8f73 583d d643 0ebc
00000250: dd4a 2b3d 0e02 b13c 3b90 093d 1060 a2bc
00000260: a945 bd3b 039d 77bc edae 53bd 3cb0 1b3d
00000270: b393 ddbc b124 8bbc b082 3c3c 7cb6 6cbd
00000280: 3689 6ebd 4766 013d 46a5 443d ad95 6bbc
00000290: 6af9 38bd 4e06 48bb 0146 10bd 92cf 22bb
000002a0: f05d dc3c 25fe 44bd c6cb 813c 8db0 e0bc
000002b0: 17b4 d53c 70ba 3abc dfdc a03c 30d8 e6bc
000002c0: 478c 32bd be9c febc 72be dabc ea14 29bd
000002d0: 5d31 933c 4b83 87bb 93ce 3e3d f10c 453c
000002e0: 6a62 75bd a594 003d 9b8c 683d cd24 173c
000002f0: 2d85 e73b b2c3 e33b 332e 64bd df74 c53b
00000300: cbb4 e1ba 2665 503d 3596 583b 16fa 58bd
00000310: 763b e93a 6ebf 5c3d c994 fcbc afe5 11bd
00000320: 9ad0 033d 2bd2 ea3b eb07 f5bb f70d 273d
00000330: 4d09 e8bc 4506 453d 3770 ecbb 4a88 06bd
00000340: 27ed 533d 4f65 0dbd 43f6 8e3c 1543 6e3d
00000350: 8300 3cbd 254d 4dbc 389d fa3b 3dc4 67bd
00000360: 3c52 7e3d 1acc 6c3d 2b91 8c3b c2a5 f83c
00000370: c8c2 273d 84e8 e3bc d8e9 793d 8974 bf3c
00000380: 8d84 27bd 3e57 dab9 16c1 50bd 0196 29b9
00000390: f6c2 09bd 3fc1 3ebc f812 09bd abe4 483c
000003a0: 16dc 9b3b 99a9 92bb f3b0 d73c 5f26 483d
000003b0: 60a1 d8bc 739b 47bd fa51 5abd 8a90 aa3c
000003c0: f851 693d 911c b0bb 7c4c 6ebc 1f53 15bd
000003d0: c1ed 47bd 5fa1 b6bb 426e 503d 65c6 d43c
000003e0: c269 d439 7688 293d 5dc8 c93c 0001 0dbd
000003f0: b9a3 60bd 6dd7 a83b 0e05 2d3d 2ef2 7bbd
0.040615026 0.053130466 -0.0071434197 0.040266246 -0.01338859 -0.001948917 0.034278627 0.027275238
-0.04777792 -0.037816424 0.043785583 0.046039276 0.032243963 -0.05790648 0.053463385 -0.0028924518
0.039957557 0.048926353 0.026419034 0.04799342 -0.03999985 -0.048161235 0.014518661 0.033861194
0.037923653 0.0237261 -0.059038583 -0.03151663 -0.04513864 0.029762356 0.029206827 0.058236875
0.05594235 -0.053208027 0.026504459 0.028765542 -0.054252937 0.024625827 -0.020910941 0.006135958
-0.03460981 -0.031536832 0.0026928207 0.021007927 -0.009555552 -0.025455972 0.0019147492 -0.029942414
0.0441114 -0.042459123 0.037897464 -0.007156288 -0.012612526 0.027986268 0.05591476 0.048881426
-0.039510585 -0.03440358 0.053393327 0.028078454 0.029326081 0.057150673 0.0050822115 0.008899866
-0.060772616 0.030915638 0.030419877 -0.039521288 0.016774945 -0.055147287 0.054785453 -0.04021181
0.013597906 0.014172863 0.04071609 0.04640055 0.00052069285 -0.052558202 -0.033228498 0.06218467
0.03717989 -0.04124353 0.049890935 -0.058446836 0.033213135 0.008053763 -0.044215325 0.029010825
-0.0001630043 -0.017659552 0.019973714 0.022985013 -0.04477226 -0.057348814 -0.022480065 0.016962986
-0.05343353 0.043032873 -0.049071074 -0.01185676 0.038425043 0.019777687 0.050473586 0.050526086
0.017953487 0.05712329 0.030061007 -0.0063238735 -0.0067962003 -0.033388697 -0.027023487 0.042009495
0.035565022 -0.05190586 0.03448429 -0.05984515 0.060482282 -0.00012356744 0.028635975 -0.05058133
-0.012936399 0.00846079 -0.060565386 0.052345593 0.036510292 0.00024542853 0.03844069 -0.061507914
-0.01295723 -0.012559195 -0.025002569 0.039219446 0.049884785 -0.045718554 -0.0034347302 -0.051844608
-0.060556334 -0.029561995 0.017850682 0.024842503 0.023530994 0.044954415 -0.061833955 0.024210205
0.0037906766 0.05211358 0.05284458 -0.008683166 0.041819442 0.021607425 0.033584815 -0.019821197
0.0057761264 -0.015113118 -0.051680494 0.038009867 -0.027047968 -0.01698527 0.011505768 -0.05779122
-0.058236323 0.03159168 0.04800918 -0.014378947 -0.045159735 -0.0030521336 -0.03522301 -0.002484296
0.026900262 -0.048093934 0.015844237 -0.027427936 0.02608685 -0.011396989 0.01963657 -0.028179258
-0.04359081 -0.0310806 -0.02670214 -0.04127971 0.017967874 -0.0041355244 0.046583723 0.012027011
-0.059908308 0.03139176 0.056774717 0.009225083 0.0070654363 0.006950819 -0.05570812 0.006025895
-0.0017220018 0.050877713 0.0033048515 -0.052972876 0.001779421 0.0538935 -0.030832665 -0.035619434
0.03218136 0.0071661673 -0.0074777505 0.040784802 -0.028324747 0.048101682 -0.0072155255 -0.03284482
0.051739838 -0.034520444 0.017451411 0.058169443 -0.045898926 -0.0125306 0.0076481365 -0.05658363
0.062090144 0.057811834 0.0042897663 0.030352477 0.040957242 -0.027820833 0.061014026 0.023370998
-0.040897895 -0.000416452 -0.05096539 -0.00016172977 -0.033633195 -0.011642753 -0.033465356 0.01226155
0.004756461 -0.004475784 0.026329493 0.04886472 -0.026444137 -0.048732232 -0.053300835 0.020820875
0.056962937 -0.005374499 -0.0145446025 -0.036456224 -0.048810724 -0.005573436 0.0508864 0.025973508
0.00040514587 0.041389905 0.024631673 -0.03442478 -0.054843638 0.005152634 0.04224115 -0.061510257
