EE8591/Project/classification_models/Hyperbolas/DNN/deepnn/training_models/net_2700.pt (torch, 282047 bytes, 14 tensors)

clf_net.0.weight f4 [256, 2]
0	0x3f330931	0.699359
1	0xbe9a8aa8	-0.3018391
2	0xbc65ef5d	-0.014034119
3	0x3f006610	0.50155735
4	0xbd624f9d	-0.055251706
5	0xbeb4e277	-0.3532903
6	0xbd55a255	-0.052156765
7	0x3f19a3bc	0.60015464
8	0x3f120aff	0.5704803
9	0x3f081f19	0.5317245
10	0xbf02ab55	-0.5104268
11	0x3e211270	0.1572969
12	0x3dd6243c	0.1045613
13	0xbe567e25	-0.20946558
14	0x3e6f0da3	0.23345046
15	0x3e508463	0.20363002
16	0xbea0e0cd	-0.3142151
17	0x3eb4f4f7	0.35343143
18	0x3e2eef71	0.17083527
19	0xbf0565cb	-0.5210845
20	0x3e7c90b5	0.24664576
21	0xbdf5fcbf	-0.12011098
22	0xbdc5fc33	-0.09667244
23	0x3e88b1f0	0.26698256
24	0xbf2d37b2	-0.6766311
25	0xbf15b9fb	-0.5848691
26	0x3e9dfc6b	0.30856642
27	0xbe31ca14	-0.17362243
28	0x3f03452c	0.5127742
29	0xbf309fb8	-0.6899371
30	0xbef25f76	-0.47338456
31	0x3ebf3f00	0.37352753
32	0x3eabe9e4	0.33576882
33	0x3c9e832e	0.01934966
34	0xbf27bb8a	-0.65520537
35	0x3ec114f6	0.37711304
36	0xbe945c90	-0.2897687
37	0x3f14a96a	0.58071005
38	0xbe577bf9	-0.21043386
39	0x3ea8a72c	0.32940042
40	0x3d6ee60c	0.05832486
41	0x3e15d314	0.14631301
42	0x3b867dd5	0.004104356
43	0x3e9247ed	0.285705
44	0x3ecba6a0	0.39775562
45	0x3ebccfa3	0.36877164
46	0x3e0f142e	0.13972542
47	0x3f14035c	0.57817626
48	0xbe86ca30	-0.26326132
49	0x3e1aa68e	0.15102598
50	0x3df7a6ec	0.12092385
51	0x3f2eebd2	0.68328583
52	0xbf28b89a	-0.6590668
53	0x3d0a79ad	0.033807445
54	0xbe86a395	-0.26296678
55	0x3f0e7c25	0.5565818
56	0xbeb6099c	-0.35554206
57	0x3e6e3815	0.23263581
58	0xbe171e6c	-0.14757699
59	0xbeea98ca	-0.45819694
60	0xbec1ca48	-0.3784964
61	0x3f0b3114	0.5437176
62	0x3e8ac839	0.27105883
63	0x3f04f805	0.5194095
64	0x3f068d83	0.5255968
65	0x3da01f2d	0.07818446
66	0xbdcec9a6	-0.10097055
67	0xbf178b6c	-0.59197116
68	0x3d07a0f2	0.033112474
69	0x3f1e114d	0.6174515
70	0xbeadf566	-0.33976287
71	0xbec117b2	-0.3771339
72	0xbdee3233	-0.116306685
73	0x3f300f9c	0.6877382
74	0xbe5b7155	-0.21429951
75	0x3d957455	0.07297579
76	0xbea7139e	-0.32632154
77	0xbf2b5201	-0.66922003
78	0x3ec3d174	0.38245738
79	0xbf0a7abb	-0.5409352
80	0xbf1b742e	-0.6072415
81	0xbf13753a	-0.5760075
82	0xbe59ae8e	-0.21257994
83	0x3f2099bf	0.627346
84	0xbe943e7b	-0.2895392
85	0xbf18141b	-0.5940568
86	0xbe3a9a68	-0.18222964
87	0xbf33a7a3	-0.7017767
88	0xbf24954e	-0.6429032
89	0x3e0414f4	0.12898618
90	0xbec6efd8	-0.3885486
91	0x3e18af5a	0.14910641
92	0x3f108964	0.5645964
93	0x3cd55809	0.026042955
94	0x3f05889a	0.5216156
95	0xbeda4d29	-0.42636994
96	0xbed64090	-0.41846132
97	0x3e09ed5e	0.13469455
98	0x3e70958e	0.2349455
99	0xbdd00aa0	-0.101582766
100	0xbce7efc9	-0.02831258
101	0xbde51375	-0.11185352
102	0x3eb70d0c	0.3575214
103	0xbf1a3dc3	-0.6025049
104	0xbea7219a	-0.32642823
105	0xbee20913	-0.44147548
106	0xbf1e1deb	-0.617644
107	0x3f2b4765	0.66905814
108	0xbc133162	-0.008983942
109	0x3d8d4221	0.06897379
110	0x3ed9096b	0.42389998
111	0xbe72e749	-0.23721041
112	0x3ea0a76e	0.3137774
113	0xbe8dddb8	-0.2770822
114	0xbee5fea0	-0.44920826
115	0xbef18e74	-0.47178996
116	0xbdf8371b	-0.121198855
117	0xbf25daba	-0.64786875
118	0x3e9a26d6	0.30107754
119	0x3cf1f553	0.029535925
120	0xbeaebdb1	-0.34129098
121	0xbe53e2fc	-0.20692056
122	0x3eb24807	0.34820578
123	0xbdc8053f	-0.097666256
124	0xbc280c9a	-0.010256911
125	0x3edf7c2c	0.43649423
126	0x3f17eab6	0.59342515
127	0xbee000aa	-0.43750507
128	0x3f2dc970	0.67885494
129	0xbef6b089	-0.4818156
130	0xbea29d2c	-0.31760538
131	0xbedcfe65	-0.43162838
132	0xbf024b8f	-0.50896543
133	0x3e9b13f0	0.3028865
134	0x3ebf15db	0.37321362
135	0x3eed0288	0.46290994
136	0x3f347036	0.7048372
137	0x3eb34b14	0.35018218
138	0x3c353883	0.011060837
139	0x3d115efa	0.035490967
140	0xbf275865	-0.65369254
141	0xbf320f27	-0.6955437
142	0xbee6693e	-0.45002168
143	0x3e103563	0.14082865
144	0xbe035703	-0.12826161
145	0x3dd0a2c0	0.10187292
146	0xbe81a71d	-0.2532281
147	0xbea7972b	-0.3273252
148	0x3f1f568a	0.62241423
149	0xbe81fa90	-0.25386477
150	0xbec7162f	-0.38884112
151	0xbec88ece	-0.3917145
152	0xbf07006c	-0.5273502
153	0xbee5a0bf	-0.44849202
154	0x3deedfe2	0.11663796
155	0xbe656cb8	-0.22404754
156	0x3e104812	0.14089993
157	0xbdf98956	-0.12184398
158	0x3e86b8d2	0.26312882
159	0xbf080dd3	-0.53146094
160	0xbd66edea	-0.056379236
161	0x3f0e44ae	0.55573547
162	0xbe0247c4	-0.12722689
163	0x3e073d93	0.13207082
164	0xbe9b5d27	-0.30344507
165	0x3f331bbb	0.6996419
166	0xbc7573d4	-0.014981229
167	0xbecec5b6	-0.40385216
168	0x3f0b98b9	0.5452991
169	0x3f16a6e3	0.588484
170	0x3ec957cd	0.393248
171	0xbad4ca10	-0.0016234536
172	0xbebc3db7	-0.36765835
173	0x3df2274a	0.118239
174	0xbed61685	-0.41814056
175	0x3f11378f	0.567254
176	0xbe6ea33f	-0.23304461
177	0x3f34dc77	0.706489
178	0xbf1e85fd	-0.619232
179	0x3e8d0657	0.275439
180	0x3ed1b661	0.40959457
181	0xbe8e58b6	-0.27802056
182	0xbd0239cc	-0.0317934
183	0xbf0c94c6	-0.5491451
184	0xbe0444d0	-0.12916875
185	0xbd3fbf88	-0.046813518
186	0xbf06fd9b	-0.5273072
187	0x3f314902	0.69252026
188	0x3f0bc012	0.5458995
189	0x3f24d384	0.6438525
190	0x3efbaae9	0.49153832
191	0xbdfd5004	-0.123687774
192	0x3f14b560	0.58089256
193	0xbcb25507	-0.02176906
194	0x3d78e274	0.060762838
195	0x3f284bd4	0.65740705
196	0x3ed1722d	0.40907422
197	0xbcf0f552	-0.029413853
198	0x3ede825a	0.43458825
199	0xbf1f569d	-0.62241536
200	0xbea66ecc	-0.32506406
201	0xbe871ffe	-0.26391596
202	0xbe85a18a	-0.26099807
203	0x3ea6f21c	0.3260659
204	0x3f0ad90e	0.5423745
205	0xbe662751	-0.22475936
206	0x3f345fa6	0.7045845
207	0xbf10ed3e	-0.56612
208	0xbedd6ed4	-0.43248618
209	0xbe7bd470	-0.24592757
210	0x3ee838a8	0.45355725
211	0x3f313396	0.6921934
212	0x3d335349	0.0437806
213	0xbde7d579	-0.113200136
214	0xbee10328	-0.4394772
215	0x3f19e1cb	0.6011016
216	0x3f245197	0.64186996
217	0x3f01f474	0.5076363
218	0x3e805949	0.2506812
219	0x3ed5a93d	0.4173068
220	0x3e8c28e0	0.27374935
221	0xbef33322	-0.4749995
222	0x3f251038	0.6447787
223	0x3e4201e1	0.18946029
224	0xbec46f96	-0.38366383
225	0x3f2f0000	0.68359375
226	0x3e092933	0.13394623
227	0x3f1b2802	0.6060792
228	0xbe86ce6e	-0.26329368
229	0xbed94cf3	-0.4244152
230	0xbf06bece	-0.52634895
231	0xbf03f271	-0.5154181
232	0x3eb5ebde	0.35531515
233	0xbea952dc	-0.3307103
234	0xbf329146	-0.6975292
235	0xbf105ad8	-0.56388617
236	0xbdd5b47c	-0.10434815
237	0xbe48155b	-0.19539396
238	0xbf229f00	-0.63523865
239	0x3eb2c933	0.34919128
240	0xbef0437c	-0.46926486
241	0xbef8f582	-0.48624808
242	0xbd43fe58	-0.047849983
243	0x3f2ae6e9	0.6675859
244	0x3f27090e	0.6524819
245	0xbf1a3815	-0.60241824
246	0x3e509fd0	0.20373464
247	0x3df3c368	0.11902505
248	0xbf198177	-0.5996317
249	0xbd336d1a	-0.04380522
250	0xbe90a7f8	-0.2825315
251	0x3c69b1b0	0.014263555
252	0xbd5ee70e	-0.05441957
253	0x3f1a5494	0.60285306
254	0x3b05dd59	0.0020426123
255	0xbf2ec057	-0.6826224

clf_net.0.bias f4 [256]
0	0xbe962e4a	-0.2933219
1	0x3f130238	0.5742526
2	0x3f04330d	0.516404
3	0xbf01733c	-0.5056646
4	0xbf3152d3	-0.69267005
5	0xbedc1c29	-0.42990234
6	0x3ec4ddfd	0.38450614
7	0x3e375643	0.17904
8	0x3ed320c8	0.41235948
9	0xbe8b3a1e	-0.27192777
10	0x3e672a7f	0.22574805
11	0x3ee0bcb7	0.43893978
12	0x3ee87062	0.4539824
13	0x3edfb2b6	0.43691033
14	0x3ec3c4ea	0.3823617
15	0x3d72431d	0.059146035
16	0x3f156514	0.5835736
17	0xbe6c92cc	-0.23102874
18	0xbe0b958e	-0.1363127
19	0x3e73e940	0.23819447
20	0xbdd677d5	-0.10472075
21	0xbee5e7f7	-0.44903538
22	0x3f22a1c1	0.63528067
23	0x3eb612dc	0.35561264
24	0xbe813f4a	-0.25243598
25	0x3ec2cbf2	0.38046223
26	0x3f149554	0.58040357
27	0xbeedbfa4	-0.46435273
28	0xbf2b5005	-0.66918975
29	0x3dc7efdf	0.09762549
30	0xbd97b11f	-0.0740683
31	0x3f0e0c97	0.5548796
32	0x3becb330	0.0072235093
33	0x3f0be6dd	0.54649144
34	0xbf11148e	-0.5667199
35	0x3f1cad70	0.61202145
36	0xb9946860	-0.00028306525
37	0xbe974656	-0.2954585
38	0xbea3bee2	-0.3198157
39	0x3f0ead1d	0.557329
40	0x3e0d3bda	0.13792363
41	0xbf2c79c0	-0.67373276
42	0x3f0516de	0.5198802
43	0x3f1da1ea	0.61575186
44	0x3f0ac5af	0.5420789
45	0x3d90523f	0.07046937
46	0xbe60010f	-0.21875404
47	0xbdb75a50	-0.089527726
48	0x3f21b486	0.6316608
49	0xbf32d845	-0.6986125
50	0x3f10154b	0.5628249
51	0x3f2f0e26	0.68380964
52	0xbed14352	-0.40871674
53	0xbee216ad	-0.44157925
54	0xbec0ceb7	-0.3765771
55	0x3e87bad1	0.26509717
56	0x3e818e86	0.2530405
57	0xbe99c3a4	-0.30032074
58	0x3f2e94f9	0.68196064
59	0xbf19aafc	-0.60026526
60	0x3f33463e	0.70029056
61	0x3f26cc35	0.65155345
62	0xbe567b2f	-0.20945428
63	0x3f055de7	0.5209641
64	0x3cc1526b	0.02359887
65	0xbe55e69d	-0.20888753
66	0xbe70342a	-0.23457399
67	0xbe4aa19a	-0.19788209
68	0x3ef20c4c	0.47275007
69	0xbcf66b92	-0.03008059
70	0xbeb0e1c3	-0.34547243
71	0xbf0e2316	-0.55522287
72	0xbe46f941	-0.1943102
73	0xbf1cf5f2	-0.6131278
74	0x3eb58595	0.35453478
75	0xbf2bc360	-0.67094994
76	0x3f14a4ba	0.5806385
77	0x3f28b338	0.65898466
78	0x3e2ae45a	0.16688672
79	0x3e86c2e3	0.26320562
80	0x3e40417a	0.18774977
81	0xbec1fb71	-0.37887147
82	0x3e2c1f10	0.16808724
83	0xbf0c5663	-0.54819316
84	0x3f1d9563	0.6155607
85	0xbd181eb0	-0.03713864
86	0xbf16ba9f	-0.5887851
87	0x3ed7f3c2	0.4217816
88	0x3e057fff	0.13037108
89	0x3f00eb1f	0.50358766
90	0x3ef987a1	0.4873629
91	0xbe648f3b	-0.22320263
92	0xbe88e958	-0.26740527
93	0xbf30f7f8	-0.6912837
94	0xbed35a72	-0.41279942
95	0xbd1777b2	-0.036979385
96	0x3ee667f5	0.45001188
97	0x3df7a319	0.12091655
98	0xbd92de8a	-0.07171352
99	0xbe2f7fee	-0.17138645
100	0x3ecc5371	0.3990741
101	0x3f0eb250	0.55740833
102	0xbf3053bd	-0.68877774
103	0x3e8203fa	0.2539366
104	0x3e36dd54	0.17857867
105	0xbec023c0	-0.37527275
106	0xbefd64f8	-0.49491096
107	0x3f1909d6	0.59780633
108	0xbee9a999	-0.45637205
109	0x3a8c6765	0.0010711966
110	0x3efdf1e6	0.49598616
111	0xbe49ccd0	-0.19707036
112	0xbe8dbc8f	-0.2768292
113	0x3f2b2b57	0.66863006
114	0xbe8836cc	-0.26604307
115	0xbeef6018	-0.46753
116	0x3e395393	0.18098287
117	0x3e4ba977	0.19888864
118	0x3f1da4cb	0.6157958
119	0x3ed0b301	0.4076157
120	0xbf074a97	-0.5284819
121	0x3d9ab5a9	0.0755418
122	0xbb02ac0f	-0.001993898
123	0xbd12b3f2	-0.03581614
124	0x3e8f61e0	0.2800436
125	0x3f167656	0.58774316
126	0x3efb3509	0.490639
127	0xbd6f9911	-0.058495585
128	0x3ea19673	0.31560096
129	0xbe032d5b	-0.1281027
130	0x3ee091b3	0.4386116
131	0x3ef54735	0.4790589
132	0xbf12fcbf	-0.5741691
133	0xbe9d4e8d	-0.30723992
134	0xbf29f04f	-0.66382307
135	0x3d9787e4	0.07398966
136	0xbf12e5e8	-0.5738206
137	0xbf316ebd	-0.693096
138	0xbe3bf7a6	-0.18356189
139	0x3f06c631	0.52646166
140	0xbe84a7c7	-0.25909254
141	0xbf1fab26	-0.62370527
142	0xbe41ea62	-0.18937066
143	0x3f1147b0	0.5675001
144	0xbe8c04d6	-0.2734744
145	0x3e3d85c2	0.18508056
146	0x3f299349	0.66240364
147	0xbea8254a	-0.3284095
148	0x3cf8a839	0.030353652
149	0xbd91c951	-0.07118476
150	0xbf2bc569	-0.670981
151	0xbd7246f0	-0.059149683
152	0x3f16aaeb	0.5885455
153	0xbecab11a	-0.39588243
154	0x3d846ca8	0.06466037
155	0xbd435102	-0.047684677
156	0x3e7cf6ec	0.24703568
157	0x3ead64f0	0.33866072
158	0xbef882b5	-0.48537222
159	0xbdc4fe54	-0.09618822
160	0xbf0ae2b8	-0.54252195
161	0x3eff9ac4	0.49922764
162	0x3dd85d36	0.105646536
163	0xbe65f4b3	-0.22456627
164	0xbd2efa47	-0.04271915
165	0x3e2a712b	0.16644733
166	0xbf0a18c2	-0.5394403
167	0x3e52dcfa	0.20592108
168	0x3d4d2ea8	0.050093323
169	0x3f34ec0d	0.70672685
170	0x3e933e92	0.28758675
171	0x3e56adb1	0.20964696
172	0xbec5ba54	-0.3861872
173	0xbf29054d	-0.66023713
174	0xbe438412	-0.1909335
175	0x3e0425bc	0.1290502
176	0xbf2a8b3f	-0.6661872
177	0x3e9a2683	0.30107507
178	0x3f0096ea	0.50230277
179	0xbea747f1	-0.32672074
180	0x3f1c27c0	0.60998154
181	0xbf0f1dff	-0.55905145
182	0x3f1e3591	0.61800486
183	0xbe4012ee	-0.18757221
184	0xbf2f3a89	-0.6844869
185	0x3e59afbf	0.21258448
186	0xbeda1bba	-0.4259928
187	0x3daf871f	0.08570694
188	0x3e46c07f	0.19409369
189	0x3e5e815b	0.21729033
190	0xbf1bfd05	-0.6093295
191	0x3eb1cf94	0.34728682
192	0xbea41c02	-0.32052618
193	0xbecb0eaf	-0.3965964
194	0xbeaadb07	-0.3337023
195	0xbe209655	-0.15682347
196	0x3eb5b6f7	0.35491154
197	0x3d9a1fcf	0.07525598
198	0x3ea638dc	0.32465255
199	0xbef10a76	-0.47078294
200	0x3d9f3352	0.077734604
201	0xbe578283	-0.2104588
202	0x3cd48b1a	0.025945235
203	0xbf1ef218	-0.62088156
204	0xbe1c88fa	-0.15286627
205	0x3d8a5506	0.06754498
206	0x3e9fee07	0.31236288
207	0x3ec17413	0.3778387
208	0xbedc17f9	-0.4298704
209	0xbe8def19	-0.2772148
210	0x3e2e89a6	0.17044696
211	0x3ea6900f	0.32531783
212	0x3d77f996	0.060540758
213	0x3ee07a43	0.43843278
214	0xbf1ab85e	-0.6043757
215	0xbeca16be	-0.39470476
216	0x3f08ddfa	0.5346371
217	0xbe13dae9	-0.14438976
218	0xbdf4c418	-0.119514644
219	0xbf236c40	-0.6383705
220	0xbe845807	-0.2584841
221	0x3e2c3ae7	0.16819344
222	0xbf178bea	-0.59197867
223	0xbd90545d	-0.07047341
224	0x3ee1959c	0.44059455
225	0xbf33d7da	-0.7025124
226	0x3e5a7ced	0.21336718
227	0xbed21ca4	-0.41037476
228	0x3e465117	0.19366871
229	0xbedbe5b7	-0.42948696
230	0x3f2e3561	0.680502
231	0xbdc67813	-0.09690871
232	0x3e950935	0.29108587
233	0xbeece56e	-0.4626879
234	0xbf1ad558	-0.60481787
235	0xbf0127ff	-0.50451654
236	0xbf1f0627	-0.6211876
237	0xbe95745b	-0.29190335
238	0x3e39c350	0.18140912
239	0x3f1b5243	0.60672396
240	0xbe63f513	-0.22261457
241	0x3dc0b2bf	0.09409093
242	0x3f0d5feb	0.55224484
243	0x3d9ea2f9	0.07745928
244	0xbec48826	-0.38385123
245	0xbf17a180	-0.59230804
246	0x3f2e892d	0.68178064
247	0x3d007860	0.0313648
248	0xbe8fde6b	-0.2809938
249	0x3f1338bd	0.5750845
250	0xbdb2f360	-0.08737826
251	0xbe1ab134	-0.1510666
252	0x3f1565b7	0.5835833
253	0xbd8b40e0	-0.06799483
254	0x3eb9d0fd	0.36292258
255	0x3e34fcaa	0.17674509

clf_net.1.weight f4 [256]
0	0x3f7c5cb2	0.9857894
1	0x3f8059a7	1.002736
2	0x3f7eb2d2	0.9949161
3	0x3f7cfc81	0.9882279
4	0x3f80dbe3	1.0067104
5	0x3f7f7a2e	0.99795806
6	0x3f7cc5b7	0.9873919
7	0x3f7d7e81	0.99021155
8	0x3f7e7691	0.9939967
9	0x3f7f52dd	0.99735814
10	0x3f7fdfe5	0.9995101
11	0x3f7ce9f4	0.98794484
12	0x3f7dddb8	0.9916644
13	0x3f80a952	1.0051672
14	0x3f7cd10a	0.9875647
15	0x3f7fe227	0.99954456
16	0x3f7eba91	0.9950343
17	0x3f7e6eef	0.9938802
18	0x3f7f3f2c	0.9970577
19	0x3f7fd54e	0.9993485
20	0x3f805c14	1.00281
21	0x3f800d52	1.0004065
22	0x3f801e9a	1.0009339
23	0x3f7fdd0b	0.9994666
24	0x3f7f5506	0.9973911
25	0x3f7e3e14	0.99313474
26	0x3f7df61a	0.99203646
27	0x3f7eb2a1	0.99491316
28	0x3f7ef03b	0.9958531
29	0x3f8037d9	1.0017043
30	0x3f7da3d1	0.9907809
31	0x3f7f6f03	0.99778765
32	0x3f7df214	0.99197507
33	0x3f7d2c70	0.9889593
34	0x3f7e306d	0.9929264
35	0x3f7dec39	0.9918857
36	0x3f808297	1.0039853
37	0x3f7c02d0	0.9844179
38	0x3f7fd378	0.9993205
39	0x3f7dbd98	0.9911742
40	0x3f7ecee5	0.99534446
41	0x3f7e551b	0.9934861
42	0x3f802847	1.0012292
43	0x3f7ff600	0.9998474
44	0x3f80423b	1.0020212
45	0x3f7fdda6	0.99947584
46	0x3f80a811	1.005129
47	0x3f808226	1.0039718
48	0x3f804a12	1.0022604
49	0x3f816291	1.0108205
50	0x3f7ef31b	0.995897
51	0x3f7ec5f7	0.9952082
52	0x3f7c1d14	0.9848187
53	0x3f7e0865	0.9923156
54	0x3f7f64c4	0.9976313
55	0x3f809461	1.0045282
56	0x3f7e3bab	0.99309796
57	0x3f7da73c	0.99083304
58	0x3f7d7241	0.9900246
59	0x3f80fa28	1.0076342
60	0x3f7ea9b6	0.9947771
61	0x3f7da320	0.99077034
62	0x3f7c71ef	0.9861135
63	0x3f7d4913	0.9893963
64	0x3f7ce067	0.9877991
65	0x3f805838	1.0026922
66	0x3f7ed227	0.9953942
67	0x3f8154ad	1.0103966
68	0x3f7ff98c	0.99990153
69	0x3f7e7d9c	0.99410415
70	0x3f7dba60	0.9911251
71	0x3f7fd7c2	0.99938595
72	0x3f7efd30	0.99605083
73	0x3f7df768	0.99205637
74	0x3f816360	1.0108452
75	0x3f80a840	1.0051346
76	0x3f7ee39e	0.99566066
77	0x3f7f14d2	0.99641144
78	0x3f7d1323	0.98857325
79	0x3f7c6074	0.98584676
80	0x3f7c34b6	0.9851793
81	0x3f7c4571	0.9854346
82	0x3f7e9030	0.9943876
83	0x3f801cb8	1.0008764
84	0x3f7cf192	0.9880611
85	0x3f7ff02e	0.9997586
86	0x3f7e1c0c	0.99261546
87	0x3f7fd54e	0.9993485
88	0x3f7e3f12	0.9931499
89	0x3f7fe8ae	0.99964416
90	0x3f80b394	1.0054803
91	0x3f7f087e	0.99622333
92	0x3f7fc3d9	0.99908215
93	0x3f7e13da	0.9924904
94	0x3f7e5423	0.9934713
95	0x3f7d4596	0.98934305
96	0x3f7ebacc	0.9950378
97	0x3f7e19a7	0.9925789
98	0x3f7e7351	0.9939471
99	0x3f7c91df	0.9866008
100	0x3f7f7554	0.99788404
101	0x3f7bb0e6	0.983168
102	0x3f7cd9e7	0.9876999
103	0x3f7fe48a	0.999581
104	0x3f800618	1.000186
105	0x3f7d7a6d	0.9901493
106	0x3f7eadc8	0.9948392
107	0x3f7f7532	0.997882
108	0x3f802f51	1.001444
109	0x3f7ef0bc	0.9958608
110	0x3f7d31e8	0.98904276
111	0x3f7e2fb4	0.9929154
112	0x3f7eca7b	0.9952771
113	0x3f7fc87a	0.9991528
114	0x3f7f2c42	0.9967691
115	0x3f80fe10	1.0077534
116	0x3f7f33c0	0.9968834
117	0x3f7f9bbd	0.9984701
118	0x3f80995f	1.0046805
119	0x3f7fbd4a	0.9989821
120	0x3f7e8ea9	0.9943643
121	0x3f8014c4	1.0006337
122	0x3f7ead69	0.9948335
123	0x3f80132c	1.0005851
124	0x3f80c1dd	1.0059162
125	0x3f803e6c	1.001905
126	0x3f800246	1.0000694
127	0x3f7f1324	0.9963858
128	0x3f809733	1.0046142
129	0x3f7dd8ff	0.99159235
130	0x3f7eeb47	0.99577755
131	0x3f8071d3	1.0034736
132	0x3f7e0162	0.9922086
133	0x3f7f2e8b	0.99680394
134	0x3f7e1ad9	0.99259716
135	0x3f7fa844	0.9986613
136	0x3f7f32d2	0.9968692
137	0x3f805e4d	1.0028778
138	0x3f8091df	1.0044516
139	0x3f7f5c8c	0.9975059
140	0x3f7aac2b	0.9791896
141	0x3f7d4d15	0.9894574
142	0x3f7bc312	0.9834453
143	0x3f7cb2c3	0.9871027
144	0x3f7ee3ed	0.9956654
145	0x3f7ff15a	0.9997765
146	0x3f7eb20b	0.9949042
147	0x3f7d3b49	0.98918587
148	0x3f8005a0	1.0001717
149	0x3f7db188	0.99099016
150	0x3f7e1b3d	0.9926031
151	0x3f7e3b83	0.9930956
152	0x3f807c7c	1.003799
153	0x3f7de6e9	0.99180466
154	0x3f7f8edf	0.9982738
155	0x3f80cfab	1.0063375
156	0x3f7ce590	0.98787785
157	0x3f7eca1b	0.9952714
158	0x3f7f6b0f	0.99772733
159	0x3f7da172	0.9907447
160	0x3f7ee0f4	0.99562
161	0x3f7dcafe	0.99137866
162	0x3f7f2aa9	0.9967447
163	0x3f7f4c0d	0.9972542
164	0x3f807e1e	1.0038488
165	0x3f7deed9	0.9919258
166	0x3f7eea44	0.9957621
167	0x3f7e2cb4	0.9928696
168	0x3f7f28fd	0.9967192
169	0x3f7d8892	0.99036515
170	0x3f7e84eb	0.99421567
171	0x3f7f4714	0.9971783
172	0x3f8105a2	1.0079844
173	0x3f7e3008	0.9929204
174	0x3f7e4749	0.9932752
175	0x3f7df842	0.99206936
176	0x3f7fd9d9	0.99941784
177	0x3f7f28e2	0.9967176
178	0x3f7def21	0.99193007
179	0x3f7efa89	0.99601036
180	0x3f7f465f	0.9971675
181	0x3f7de145	0.9917186
182	0x3f7cdb72	0.98772347
183	0x3f7fc9ff	0.99917597
184	0x3f7f0f85	0.99633056
185	0x3f7f5ea6	0.997538
186	0x3f802731	1.001196
187	0x3f7fb4fd	0.9988554
188	0x3f7edeba	0.99558604
189	0x3f7ecf53	0.995351
190	0x3f809029	1.0043994
191	0x3f804d02	1.0023501
192	0x3f7edbf5	0.9955438
193	0x3f7ebfd9	0.99511486
194	0x3f7f033a	0.996143
195	0x3f7c388b	0.9852378
196	0x3f7dec2f	0.9918851
197	0x3f7fac05	0.99871856
198	0x3f7e7e67	0.99411625
199	0x3f7d7143	0.9900095
200	0x3f7df30c	0.99198985
201	0x3f7ece26	0.9953331
202	0x3f7dd823	0.99157923
203	0x3f7e4149	0.9931837
204	0x3f7ec5a5	0.9952033
205	0x3f7dcbc5	0.9913905
206	0x3f7f3bec	0.9970081
207	0x3f7e4d57	0.9933676
208	0x3f7e70ef	0.99391073
209	0x3f7ef33d	0.995899
210	0x3f7f2736	0.99669206
211	0x3f7f0032	0.99609673
212	0x3f7f354f	0.9969072
213	0x3f7df38d	0.99199754
214	0x3f7d222d	0.98880273
215	0x3f7f4757	0.9971823
216	0x3f7e7d0e	0.9940957
217	0x3f7fff92	0.99999344
218	0x3f8035a0	1.0016365
219	0x3f804c1c	1.0023227
220	0x3f7f6035	0.99756175
221	0x3f7f9b38	0.9984622
222	0x3f7ccb95	0.9874814
223	0x3f7fc864	0.99915147
224	0x3f80031e	1.0000951
225	0x3f7f4ac8	0.9972348
226	0x3f7da02d	0.99072534
227	0x3f815754	1.0104775
228	0x3f7ed795	0.995477
229	0x3f7e4f66	0.993399
230	0x3f7f4afc	0.9972379
231	0x3f7f825c	0.9980829
232	0x3f7eedb7	0.99581474
233	0x3f7f1c5a	0.99652636
234	0x3f7fb8fe	0.9989165
235	0x3f815a9f	1.010578
236	0x3f7f5d60	0.99751854
237	0x3f812ae8	1.0091219
238	0x3f7d4cf9	0.98945576
239	0x3f8017dd	1.0007282
240	0x3f80138f	1.0005969
241	0x3f7fed36	0.9997133
242	0x3f7eea05	0.99575835
243	0x3f7c9313	0.9866192
244	0x3f7f65ad	0.9976452
245	0x3f80815d	1.0039479
246	0x3f7ebe44	0.9950907
247	0x3f7f39a4	0.9969733
248	0x3f7faa43	0.99869174
249	0x3f7e6230	0.9936857
250	0x3f7e8432	0.99420464
251	0x3f7e631b	0.9936997
252	0x3f7f4b00	0.99723816
253	0x3f7d4cb4	0.98945165
254	0x3f7f94c3	0.9983637
255	0x3f8025a9	1.0011493

clf_net.1.bias f4 [256]
0	0x3e2424d3	0.16029672
1	0xbc7e85b9	-0.015534812
2	0xbd313355	-0.043261845
3	0x3d043ec8	0.032286435
4	0xbd3936e6	-0.04521837
5	0x3e11cb7b	0.14237778
6	0x3c9d669e	0.01921397
7	0xbdc6705a	-0.09689398
8	0xbb6d9017	-0.0036249214
9	0xbd4e98ad	-0.05043857
10	0x3e204700	0.15652084
11	0xb9d6a2df	-0.0004093861
12	0xbdb6af8d	-0.089202024
13	0xbe18a35c	-0.14906067
14	0xbc9537e1	-0.018215122
15	0xbb2266b2	-0.002478045
16	0xbe13aa5d	-0.14420457
17	0xbe03f62c	-0.12886876
18	0xbd34b248	-0.044115335
19	0x3d1eafa0	0.038741708
20	0xbcb2855b	-0.021792104
21	0xbb55a98c	-0.0032602279
22	0xbd80645a	-0.062691405
23	0xbcbfbf3a	-0.023406614
24	0x3e232d97	0.1593536
25	0xbd76fc52	-0.060299225
26	0x3e3400f6	0.17578492
27	0x3c721a9c	0.014776852
28	0x3e03085d	0.12796159
29	0x3ca342a5	0.01992924
30	0x3cf97777	0.030452473
31	0xbb41508d	-0.0029497475
32	0x3dad0d11	0.08449758
33	0x3d14b725	0.036307473
34	0x3c03eec5	0.008052533
35	0x3c7f4d95	0.015582462
36	0x3d1e6f70	0.038680494
37	0x3d5a47f7	0.053291287
38	0x3d583942	0.05278898
39	0xbce19ea2	-0.027541462
40	0xbd81e2a9	-0.0634206
41	0xbc05ffa6	-0.008178627
42	0xbd5a5533	-0.05330391
43	0x3cde9d20	0.027174532
44	0x3e19a9e8	0.1500622
45	0x3e16c947	0.14725219
46	0xbde0c9ad	-0.109759666
47	0xbe09c6e6	-0.1345478
48	0xbdf82f92	-0.12118448
49	0xbda55a94	-0.08073917
50	0x3bba72d6	0.005689959
51	0xbd6f0f94	-0.058364466
52	0xbdb5f6fa	-0.08884998
53	0x3c093a74	0.008375753
54	0x3d2b65cf	0.04184514
55	0xbe3f53df	-0.18684338
56	0xbd42b378	-0.047534436
57	0xbd317785	-0.043326873
58	0xbca9a928	-0.020710543
59	0x3df69b1e	0.12041305
60	0x3dc12e6b	0.09432682
61	0x3e2ec734	0.17068177
62	0xbd4e29bb	-0.050332766
63	0x3d3c3130	0.045945346
64	0x3df89586	0.12137894
65	0xbcc6d889	-0.024273174
66	0x3d028fae	0.031875305
67	0xbd326f40	-0.043563128
68	0x3dd1af4e	0.10238515
69	0xbd4e6975	-0.05039354
70	0xbcd23377	-0.025659306
71	0x3e26cfd1	0.16290213
72	0xbda3bb8f	-0.07994758
73	0xbd94aff9	-0.072601266
74	0xbe1c26b7	-0.15249144
75	0x3c876f4b	0.01653256
76	0xbdb269e5	-0.08711604
77	0x3d7b7d8b	0.061399024
78	0x3d6ddb9c	0.058070764
79	0xbcf78dba	-0.030218948
80	0xbd077d29	-0.033078346
81	0xbca5bf29	-0.020232754
82	0xbd505224	-0.050859585
83	0xbd03a6e9	-0.0321416
84	0x3d1b0c4f	0.037853535
85	0x3e1c5bb7	0.15269361
86	0x3c9cc511	0.019136937
87	0x3d106c1f	0.035259362
88	0x3ce458e6	0.027874421
89	0xbdf377f3	-0.11888113
90	0xbe297bf7	-0.16551195
91	0x3c5f068b	0.0136124
92	0x3dcef8dc	0.1010606
93	0xbc9d80bc	-0.019226424
94	0x3c6a9353	0.014317351
95	0x3da3ada6	0.07992105
96	0xbe0f3b96	-0.13987574
97	0xbd701170	-0.05861038
98	0x3e27655a	0.16347256
99	0xbca72a34	-0.020405866
100	0x3d275078	0.040848225
101	0xbc7b88e6	-0.015352463
102	0x3e0610bf	0.13092326
103	0x3cb4e07c	0.022079699
104	0xbdc0754e	-0.09397374
105	0xbcc6b242	-0.024254922
106	0x3cb6d657	0.022319002
107	0xbcb8c565	-0.022555063
108	0x3daca513	0.08429923
109	0xbd0ca9d4	-0.03434165
110	0x3d661e7e	0.056181423
111	0xbc938e2f	-0.018012134
112	0xbc874199	-0.016510772
113	0xbd013c0e	-0.031551413
114	0xbd89de50	-0.06731856
115	0xbd8298ae	-0.063767776
116	0x3d39ba6a	0.045343794
117	0xbdb30a59	-0.08742208
118	0x3d290388	0.041263133
119	0xbdb5fc1f	-0.08885979
120	0x3d7fcec6	0.062453054
121	0xbd245d67	-0.040128138
122	0x3d2a0755	0.0415109
123	0x3d5e9665	0.054342646
124	0x3df60033	0.12011757
125	0x3df96b3d	0.12178657
126	0x3d61e292	0.055147715
127	0x3d3a156c	0.045430586
128	0xbd79d3ec	-0.06099312
129	0x3e40ca73	0.18827228
130	0xba6f554a	-0.00091298355
131	0x3da2e0f6	0.07953064
132	0xbe15fbdd	-0.1464686
133	0xbd59ec1e	-0.053203695
134	0xbce23548	-0.027613297
135	0x3cfa74d2	0.030573282
136	0x3c674147	0.014114684
137	0xbdfa3314	-0.12216774
138	0xbe040b72	-0.12894991
139	0xbc06a707	-0.008218533
140	0xbd123e98	-0.035704225
141	0x3d3cd9fc	0.046106324
142	0x3d8e613b	0.06952139
143	0xbcac917e	-0.02106547
144	0xbcf77fd2	-0.030212317
145	0xbd15c8b1	-0.036568347
146	0xbaf02a91	-0.0018323233
147	0x3d6aa58c	0.057286784
148	0xbcc6be6d	-0.024260724
149	0x3e120da6	0.14263019
150	0x3c779efa	0.015113587
151	0x3d814a1f	0.063129656
152	0xbd2ec448	-0.042667657
153	0xbca82975	-0.02052758
154	0xbd62273a	-0.05521319
155	0xbd60a7b7	-0.054847445
156	0xbd94bda9	-0.07262737
157	0x3e1e7f33	0.1547821
158	0xbd341a92	-0.043970652
159	0xbc9e4d23	-0.019323891
160	0x3d0f826f	0.0350365
161	0x3e0f2929	0.13980545
162	0xbddb3d5a	-0.10705061
163	0x3d741187	0.059587028
164	0x3c83b214	0.016076125
165	0xbd597f68	-0.05310002
166	0x3e346630	0.17617106
167	0x3dd5f3a7	0.104468636
168	0xbc8fbfe7	-0.01754756
169	0xbdbb3833	-0.091415785
170	0x3dc40b0c	0.095724195
171	0x3ca32f50	0.019920021
172	0xbd3bf1a3	-0.04588474
173	0xbcde5a4d	-0.027142668
174	0xbb6b6334	-0.0035917284
175	0x3ca93ae0	0.020657957
176	0x3d2e4061	0.042541865
177	0xbd5e3d72	-0.054257818
178	0x3c163880	0.009168744
179	0x3d172591	0.03690106
180	0x3d2b8a41	0.041879896
181	0x3d422583	0.047399055
182	0xbcbde4b4	-0.023180343
183	0xbd16428d	-0.03668456
184	0x3e201d70	0.1563623
185	0xbd946a84	-0.07246879
186	0x3d1fafd5	0.038986046
187	0x3a178c57	0.0005781105
188	0xbd61b054	-0.0550998
189	0x3ca03364	0.019555755
190	0xbdee8312	-0.116460934
191	0xbdb8294d	-0.089922525
192	0x3b41669d	0.0029510625
193	0x3d543745	0.05181052
194	0xbd52883a	-0.051399447
195	0x3e0595a3	0.13045363
196	0x3e17e7aa	0.14834467
197	0xbd744453	-0.05963547
198	0xbd35f5b6	-0.04442378
199	0x3e0e633e	0.13905045
200	0x3d7232aa	0.05913035
201	0xbd10b290	-0.03532654
202	0x3d2f2bb2	0.04276628
203	0x3d87f18f	0.066378705
204	0x3d21d05a	0.03950534
205	0x3dfb8685	0.12281517
206	0x3cd7819c	0.02630692
207	0x3d394d27	0.045239594
208	0x3d1f0d4a	0.038831033
209	0xbe024940	-0.12723255
210	0x3e36bb20	0.1784482
211	0xbc19f19a	-0.009395981
212	0xbd93f7e8	-0.07225019
213	0xbd76212a	-0.06009022
214	0xbc911119	-0.017708348
215	0x3c26db71	0.010184155
216	0x3cee78a3	0.029110258
217	0xbdd9a0e6	-0.10626392
218	0x3c960e08	0.018317237
219	0xbd53eccc	-0.0517395
220	0xbc310e68	-0.010806657
221	0xbdb4d76f	-0.08830153
222	0xbd29e112	-0.04147441
223	0xbccfef19	-0.025382565
224	0xbdc136f5	-0.0943431
225	0xbde10536	-0.10987322
226	0x3cbe8e7b	0.0232613
227	0xbe0c7522	-0.13716558
228	0xbcd4ac36	-0.025961023
229	0xbd61e737	-0.055152144
230	0x3df6fe46	0.120602176
231	0x3c728943	0.014803234
232	0xbd5e758a	-0.054311313
233	0xbd1701c4	-0.03686692
234	0xbd00a948	-0.03141144
235	0xbe0bcee6	-0.13653144
236	0x3d7a55e7	0.06111708
237	0xbd386e82	-0.045027263
238	0x3d873663	0.0660217
239	0x3e040238	0.12891471
240	0x3cb549eb	0.022129973
241	0x3d3651af	0.044511493
242	0xbd26b498	-0.04069957
243	0x3e070b14	0.1318782
244	0x3cfa210f	0.030533342
245	0xbd23f36f	-0.04002708
246	0x3e2a61b5	0.16638835
247	0x3c80aa0a	0.015706081
248	0x3d83e4b4	0.06440106
249	0x3e17b539	0.14815225
250	0xbc53f43c	-0.012936648
251	0xbd619e8d	-0.055082846
252	0xbe16a7f7	-0.14712511
253	0xbda47258	-0.08029622
254	0xb91325ae	-0.00014033049
255	0xbdddfc83	-0.108391784

clf_net.1.running_mean f4 [256]
0	0xbdb9783d	-0.09056137
1	0x3f50a41a	0.815004
2	0x3ea0a2cd	0.31374207
3	0xbe707e85	-0.23485763
4	0xbe11c5d1	-0.14235617
5	0xbf1be4a7	-0.6089577
6	0x3eab14a8	0.33414197
7	0x3ecb8dee	0.3975672
8	0x3edbe93e	0.42951387
9	0xbee34984	-0.44392025
10	0x3e949e2f	0.29026935
11	0x3f05b79d	0.52233297
12	0xbe34459b	-0.17604677
13	0x3f01aa86	0.50650823
14	0x3e98fbe2	0.2987967
15	0x3bc7188c	0.0060759243
16	0x3f432116	0.7622236
17	0xbebfdce7	-0.37473223
18	0x3ba62600	0.005070448
19	0x3e972b7b	0.2952536
20	0xbb42a3f6	-0.002969978
21	0xbe9c7b98	-0.30563045
22	0x3f8249fa	1.0178826
23	0x3f363ee8	0.7118974
24	0xbe9f2226	-0.3108074
25	0x3f478513	0.7793743
26	0x3e8803a9	0.26565292
27	0xbea45e11	-0.32103017
28	0xbf3ba04c	-0.7329147
29	0xbe5018c0	-0.20321941
30	0x3b92f554	0.004484812
31	0x3f72bf1d	0.94822866
32	0x3e9efe31	0.31053308
33	0x3e4fb586	0.2028409
34	0xbe7a7d15	-0.24461778
35	0x3e823ce6	0.25437087
36	0x3e8fed17	0.28110573
37	0xbebc3ce5	-0.3676521
38	0xbf50a98b	-0.815087
39	0x3ef6c5ff	0.48197934
40	0xbee7dc22	-0.45285136
41	0xbef0e62c	-0.47050607
42	0x3da4542e	0.080238685
43	0x3e3512d6	0.17682967
44	0x3e909b68	0.28243566
45	0xbd51dae0	-0.051234126
46	0x3da0af2f	0.078459136
47	0xbd19e7ce	-0.03757458
48	0x3ef96e74	0.48717082
49	0xbf216a8f	-0.6305322
50	0x3efc91b7	0.49329922
51	0x3f10bf27	0.56541675
52	0xbf4a9a30	-0.7914152
53	0xbed7c22e	-0.42140335
54	0xbeb1b9e7	-0.34712145
55	0x3eb90e3c	0.36143672
56	0x3e8c6ddd	0.2742757
57	0xbf4288b3	-0.75989836
58	0x3e99d042	0.300417
59	0xbede23df	-0.43386742
60	0x3eda4be0	0.42636013
61	0x3f47373e	0.7781867
62	0x3a98f155	0.0011668602
63	0x3f1a7205	0.6033023
64	0x3e0216fb	0.12704079
65	0xbf15125d	-0.58231145
66	0xbeaeaf57	-0.3411815
67	0x3e602df7	0.21892534
68	0x3f801ac0	1.0008163
69	0xbbe7dfda	-0.0070762457
70	0xbf826600	-1.0187378
71	0xbf364c58	-0.7121024
72	0xbe55c76c	-0.20876855
73	0xbf66fa78	-0.90225935
74	0x3f0ae060	0.5424862
75	0xbf87c112	-1.0605795
76	0x3dbee2df	0.09320616
77	0x3f1b56f1	0.6067954
78	0x3e35dde0	0.1776042
79	0x3e07a02d	0.13244696
80	0x3ede5999	0.43427733
81	0xbec111ee	-0.37708992
82	0x3eb90341	0.36135295
83	0xbf416202	-0.75540173
84	0x3f9732e8	1.181241
85	0x3e2380bf	0.15967081
86	0xbf372e15	-0.7155469
87	0x3efbbb85	0.49166504
88	0x3eb97107	0.36219046
89	0x3ea7d80b	0.32782015
90	0x3f0e623b	0.5561864
91	0xbf02c64f	-0.51083845
92	0xbeb60453	-0.35550174
93	0xbf1d3655	-0.6141103
94	0x3e38ed7b	0.18059342
95	0x3e191df0	0.14952826
96	0x3f3b7738	0.7322879
97	0x3ef409dc	0.47663772
98	0x3df519b9	0.11967797
99	0xbe854ca0	-0.26035023
100	0x3dd6aea9	0.104825325
101	0x3f16603f	0.5874061
102	0xbf06d9ff	-0.52676386
103	0x3ea84a3f	0.32869145
104	0xbe24b738	-0.16085517
105	0x3e4838ae	0.19552872
106	0xbf075784	-0.52867913
107	0x3f2c6c8a	0.6735312
108	0x3df1a092	0.117982045
109	0x3eaadc93	0.3337141
110	0x3ecc658f	0.39921233
111	0x3e62ad97	0.22136532
112	0xbe06de83	-0.13170819
113	0x3f849a4d	1.0359589
114	0xbf1bcb5d	-0.6085718
115	0xbf7cd1dd	-0.98757726
116	0x3e48c438	0.19606102
117	0xbedcd55f	-0.4313154
118	0x3eeeeb0f	0.4666371
119	0x3e8541d6	0.2602679
120	0xbf80ad4d	-1.0052887
121	0x3ec33e05	0.38133255
122	0x3cebd0d7	0.028786106
123	0x3e007b33	0.12546997
124	0xbd32a8f4	-0.043618158
125	0x3ee76714	0.4519583
126	0x3f42eccd	0.7614258
127	0xbeca40b0	-0.39502478
128	0x3ed81141	0.42200664
129	0xbe625c38	-0.22105491
130	0x3f769335	0.9631837
131	0x3f77adf5	0.9674981
132	0xbe85d36b	-0.26137862
133	0xbe888c14	-0.2666937
134	0xbf37d6b6	-0.71812
135	0x3d627890	0.05529076
136	0xbf0deeb7	-0.55442375
137	0xbf779c11	-0.96722513
138	0xbe80af5f	-0.25133798
139	0x3ea9930d	0.33120003
140	0xbea89346	-0.3292486
141	0xbf384b68	-0.7199006
142	0xbe960e1c	-0.2930764
143	0x3ec0ae51	0.37632993
144	0xbe956697	-0.29179832
145	0x3e41fc70	0.18943954
146	0x3f2523f2	0.64507973
147	0xbbec4003	-0.007209779
148	0xbdb5b071	-0.08871544
149	0x3da18ea1	0.078885324
150	0xbee6a84e	-0.4505028
151	0x3ecf932a	0.40541965
152	0x3f7d364a	0.98910964
153	0xbdecab24	-0.1155608
154	0xbec8b493	-0.39200267
155	0xbdfb3d2e	-0.122675285
156	0x3d872dfd	0.066005684
157	0x3ef1402a	0.47119266
158	0xbef4d1aa	-0.4781621
159	0x3e4b9e22	0.19884542
160	0xbed0782f	-0.40716693
161	0x3e883942	0.26606184
162	0x3f0215dc	0.50814605
163	0xbf027c32	-0.50970757
164	0xbec7f7f2	-0.39056355
165	0xbd62ddb7	-0.055387225
166	0xbf128d04	-0.5724642
167	0xbe0379e1	-0.12839462
168	0x3ed14c20	0.4087839
169	0x3ece4691	0.40288213
170	0x3f5697b9	0.8382526
171	0x3e9240df	0.28565118
172	0xbf0573ea	-0.52129996
173	0xbf4a5296	-0.79032266
174	0xbedd169b	-0.4318131
175	0x3e109096	0.14117655
176	0xbeb5b1ed	-0.3548731
177	0x3e841e1b	0.2580422
178	0xbd74c31f	-0.059756394
179	0xbc98cd63	-0.018652624
180	0x3f8d05f4	1.1017442
181	0xbf2b9f53	-0.67039984
182	0x3f2919c1	0.6605492
183	0x3d3e6e84	0.046492115
184	0xbf0d7a66	-0.5526489
185	0xbe65d686	-0.22445115
186	0xbf4f2141	-0.80910116
187	0xbd682834	-0.056678966
188	0x3eebad63	0.4603072
189	0x3f12c482	0.573311
190	0xbf9068c4	-1.1281972
191	0xbdf7b41a	-0.120948985
192	0xbe910dee	-0.2833094
193	0xbe5a0659	-0.21291484
194	0xbf5346e6	-0.8253006
195	0xbdd3cc62	-0.10341717
196	0x3d267c26	0.04064574
197	0xbe807515	-0.25089327
198	0x3f16da02	0.58926404
199	0xbf285dcd	-0.6576813
200	0x3e540a61	0.20707084
201	0xbc92a39b	-0.017900279
202	0x3f1b7585	0.60726196
203	0xbf19be42	-0.60055935
204	0xbf042782	-0.51622784
205	0xbdec8a51	-0.11549819
206	0xbd5920a7	-0.053009655
207	0x3e833e45	0.25633445
208	0xbf30df26	-0.690905
209	0x3d32a776	0.043616734
210	0x3e6873f9	0.2270049
211	0x3ece2f4b	0.40270457
212	0x3eac3e95	0.33641496
213	0x3f1f059e	0.62117946
214	0xbf372994	-0.7154782
215	0xbf01e96a	-0.50746787
216	0x3ec89354	0.39174902
217	0xbd1833dc	-0.037158832
218	0xbed5f96c	-0.41791856
219	0xbec2f879	-0.38080195
220	0xbd30393f	-0.043023344
221	0x3dbdbc6e	0.09264456
222	0xbec6f4ea	-0.3885873
223	0xbe3c0451	-0.18361022
224	0x3f7132b5	0.94218
225	0xbfa41f40	-1.2822037
226	0x3eadfa91	0.3398023
227	0xbf2792bc	-0.65458274
228	0xbd70bf95	-0.058776457
229	0xbf5757ae	-0.84118164
230	0x3f19cb04	0.600754
231	0x3de432bb	0.111424886
232	0x3e15580e	0.14584371
233	0xbda0117a	-0.078158334
234	0xbe85de82	-0.26146322
235	0xbf3a0847	-0.7266888
236	0xbf28e30a	-0.65971434
237	0xbeba17a2	-0.36346155
238	0x3f280879	0.6563793
239	0x3f2ed741	0.682972
240	0x3db821d0	0.08990824
241	0xbe3e3700	-0.18575668
242	0x3ea81442	0.32827955
243	0x3e2f7d81	0.1713772
244	0xbecd2509	-0.40067318
245	0xbf6e4960	-0.9308071
246	0x3f5dd963	0.8665983
247	0x3eff5702	0.4987107
248	0xbf14f2bd	-0.5818289
249	0x3f1fca57	0.6241812
250	0xbd81d715	-0.06339852
251	0x3da1a161	0.07892109
252	0x3f334096	0.70020425
253	0x3e8bbe7c	0.27293766
254	0x3df81626	0.121135995
255	0xbdb07c34	-0.0861744

clf_net.1.running_var f4 [256]
0	0x3c0af8f0	0.008482203
1	0x3bf5d234	0.007501865
2	0x3b8f02fa	0.0043643685
3	0x3c28ab40	0.010294735
4	0x3cc0ab32	0.023519132
5	0x3b967591	0.0045916517
6	0x3a8790e3	0.0010342862
7	0x3b710bb8	0.0036780667
8	0x3b55d295	0.0032626737
9	0x3bdcc3ee	0.006737224
10	0x3a8b835b	0.0010644005
11	0x3ae4b56e	0.001744909
12	0x3cfac168	0.030609801
13	0x3ae1471a	0.0017187328
14	0x3c3e6374	0.011620391
15	0x3b9fb5a3	0.0048739477
16	0x3b312c13	0.0027034327
17	0x3bffe550	0.0078093186
18	0x3c02dc8e	0.007987155
19	0x3b28fa5b	0.002578399
20	0x3a77750a	0.00094397424
21	0x3b2534ad	0.00252084
22	0x3c3a438a	0.011368642
23	0x3c4f9528	0.012669839
24	0x3aa541d3	0.0012608118
25	0x3c8880f3	0.01666305
26	0x3c16e0c9	0.009208866
27	0x3bf1a698	0.007374596
28	0x3b1ed54a	0.0024236017
29	0x3c0ce49e	0.008599428
30	0x3be908de	0.0071116528
31	0x3c5bb28e	0.01340927
32	0x3bf2ed3f	0.007413536
33	0x3c4bced5	0.012439449
34	0x3c4783bf	0.012177407
35	0x3c26110c	0.0101359
36	0x3c50db46	0.012747591
37	0x3a533be0	0.00080579333
38	0x3cb0629d	0.021531397
39	0x3be76cb7	0.0070625204
40	0x3cde65f9	0.027148234
41	0x3c1f0d53	0.009707767
42	0x3c8af3a9	0.01696189
43	0x3c9b8227	0.01898296
44	0x3bfc5328	0.0077003427
45	0x3b2b6690	0.0026153661
46	0x3bf718b6	0.0075407876
47	0x3bc805b3	0.006104195
48	0x3b49ae85	0.0030774188
49	0x3a7b882c	0.00095951813
50	0x39fb7eb9	0.00047968866
51	0x3c0cc16c	0.008591037
52	0x3c43c479	0.011948698
53	0x3c434ac7	0.011919684
54	0x3909872f	0.00013115698
55	0x3b544fc4	0.0032396177
56	0x3b1c2b2e	0.0023829448
57	0x3c882eca	0.016623873
58	0x3c77b02e	0.015117688
59	0x3b15af76	0.0022840179
60	0x3bba50bc	0.005685894
61	0x3b0d9b69	0.0021607524
62	0x3bbb0cd0	0.0057083145
63	0x3bee0a96	0.0072644455
64	0x3c17c26b	0.009262661
65	0x3c3a76d7	0.011380873
66	0x3b9c2b00	0.004765868
67	0x3c653906	0.013990646
68	0x3cac866a	0.021060187
69	0x38551907	5.0806466e-05
70	0x3d125d3b	0.035733443
71	0x3b698c71	0.0035636688
72	0x39bcb490	0.00035992684
73	0x3bde44b0	0.0067830905
74	0x3bdc0ac4	0.0067151506
75	0x3c42b5d5	0.011884172
76	0x3c95dae4	0.018292852
77	0x3a9be20b	0.0011892928
78	0x39f6903a	0.00047028234
79	0x3bdb9d93	0.006702134
80	0x3c0efdef	0.008727535
81	0x39fa27de	0.0004771342
82	0x3c4004a9	0.011719861
83	0x3ba88725	0.0051430636
84	0x3ccefdab	0.025267443
85	0x3b61d2e8	0.0034457985
86	0x3b1c0c65	0.0023811099
87	0x3c004f01	0.007831336
88	0x3c4a48a3	0.0123464195
89	0x3bda5ff5	0.006664271
90	0x3b57135c	0.0032817936
91	0x3c1e8795	0.00967588
92	0x3a1b673e	0.0005928165
93	0x3c40f1bd	0.011776385
94	0x3ce6815c	0.028137855
95	0x3b8f4db3	0.004373276
96	0x3bee9497	0.007280897
97	0x3c6a1bb5	0.014288832
98	0x3b640470	0.0034792684
99	0x3c18a7d7	0.00931736
100	0x3bd9a434	0.006641889
101	0x3b2dc7f8	0.0026516896
102	0x3ba71bc7	0.005099747
103	0x3c33b319	0.010967993
104	0x3c0e9354	0.008702118
105	0x3cde0bcb	0.027105233
106	0x39a24f8e	0.0003095832
107	0x3c0faf7e	0.008769868
108	0x3cceea24	0.025258131
109	0x3c191163	0.009342524
110	0x3bae4b09	0.0053190035
111	0x3c5ccb8e	0.013476266
112	0x3c34d62b	0.01103739
113	0x3c5fbe9b	0.013656284
114	0x3c2162c1	0.009850205
115	0x3cacee60	0.02110976
116	0x3b545a6b	0.0032402526
117	0x3cf98610	0.030459434
118	0x3afbdef1	0.0019216222
119	0x3bed50a6	0.00724228
120	0x3c925f99	0.01786785
121	0x3c52a382	0.012856366
122	0x3c314e10	0.010821834
123	0x3b0118e0	0.0019698665
124	0x3c0fd33a	0.008778388
125	0x3adf2258	0.0017023785
126	0x3c299e54	0.01035269
127	0x3c68a6f8	0.014199965
128	0x3a6c5a9b	0.0009016187
129	0x3aedc573	0.001814051
130	0x3cabb3e3	0.0209598
131	0x3cb18447	0.02166952
132	0x3c097b9f	0.00839129
133	0x3c455039	0.012043052
134	0x3b378870	0.0028004907
135	0x3c015314	0.0078933425
136	0x3c1ebf4c	0.009689163
137	0x3c0c84d8	0.008576594
138	0x3b293741	0.0025820287
139	0x3c2c2bac	0.010508459
140	0x3a428e8d	0.00074217544
141	0x3bd0e1c8	0.0063745715
142	0x3bdf6f6b	0.006818702
143	0x3b6a6986	0.0035768463
144	0x3aad9ef1	0.0013246221
145	0x3a0a2303	0.00052694994
146	0x38909905	6.894957e-05
147	0x3c0a9471	0.008458243
148	0x3c24274f	0.0100191375
149	0x3afea6fe	0.001942843
150	0x3b8a148b	0.0042138747
151	0x3c9c69c7	0.019093407
152	0x3c51cd6b	0.012805323
153	0x3c1e03a1	0.00964442
154	0x3c97b450	0.018518597
155	0x3a8383ec	0.0010033823
156	0x3b81baae	0.0039590215
157	0x3ba8d7bb	0.00515267
158	0x3bd16118	0.0063897483
159	0x3bf18f95	0.0073718526
160	0x3b8ee0c3	0.00436029
161	0x3b9ed892	0.0048475945
162	0x3c552626	0.013009584
163	0x3c5210f9	0.012821429
164	0x3c3bad98	0.011454962
165	0x3bff9901	0.007800222
166	0x394a553e	0.00019295976
167	0x3c1c1391	0.009526149
168	0x3c411e6d	0.011787039
169	0x3c0d2fa3	0.0086173145
170	0x3cbd477f	0.023105381
171	0x39fe2bb4	0.00048479217
172	0x3ac163ec	0.001475451
173	0x3b6cc8cb	0.0036130424
174	0x3bbbdaa4	0.005732851
175	0x3b96708b	0.004591053
176	0x3c019ea1	0.007911355
177	0x3ab88ce5	0.0014080076
178	0x3cd674aa	0.026178677
179	0x3c3290f6	0.010898819
180	0x3c9c6f98	0.01909618
181	0x3c0f48f7	0.0087454235
182	0x3bd0ced7	0.0063723135
183	0x3bc885d5	0.0061194696
184	0x3b8c4245	0.004280361
185	0x3c81c159	0.015839266
186	0x3c6176eb	0.013761262
187	0x3acc73d0	0.001559848
188	0x3c018c2c	0.007906955
189	0x3c202758	0.009775005
190	0x3ca649a9	0.020298796
191	0x3c887703	0.016658312
192	0x3be42589	0.0069624824
193	0x3c357128	0.011074342
194	0x3cb5e36c	0.02220317
195	0x3a83c15e	0.0010052135
196	0x3c0afc77	0.008483044
197	0x3c526618	0.012841724
198	0x3bfbb7e3	0.007681833
199	0x3b7d9d7a	0.00386986
200	0x3bb0730e	0.0053848093
201	0x3ba50c4a	0.0050368654
202	0x3cdbbfb3	0.026824808
203	0x3a22a5db	0.0006204524
204	0x3c2f6c78	0.010707013
205	0x3b2f9993	0.0026794418
206	0x3c36b065	0.011150454
207	0x3a95805b	0.0011406051
208	0x3c1e8da0	0.009677321
209	0x3c089fe8	0.008338906
210	0x3a41dcb0	0.0007395251
211	0x3c1bfa36	0.009520104
212	0x3bc3f49b	0.005980087
213	0x3c117770	0.008878574
214	0x3b3a3c77	0.0028417388
215	0x3acf803a	0.0015831061
216	0x3b7ea294	0.0038854228
217	0x3b9df903	0.0048209443
218	0x3c13234d	0.008980584
219	0x3bc234c7	0.0059267017
220	0x3b8468a4	0.0040407944
221	0x3ac571cf	0.0015063825
222	0x3c392c3d	0.011302051
223	0x3b81481e	0.0039453646
224	0x3c9b8f36	0.018989187
225	0x3cdf5aad	0.027264917
226	0x3be551ab	0.006998261
227	0x3ba58aba	0.005051938
228	0x3bfc73f5	0.007704253
229	0x3c7aae7f	0.015300392
230	0x3a2b07a0	0.00065242685
231	0x3c4036e7	0.01173184
232	0x3b18147d	0.0023205571
233	0x3c46a769	0.012124875
234	0x3c184277	0.00929319
235	0x3b9860b9	0.004650202
236	0x3affdbb9	0.0019520439
237	0x3b55e0a3	0.0032635115
238	0x3c8e384a	0.017360825
239	0x3b891f41	0.004184634
240	0x3c001bb5	0.007819106
241	0x3beaddd2	0.0071675563
242	0x3c1dd644	0.009633604
243	0x3aa90eed	0.0012898125
244	0x3baeb1fb	0.0053312755
245	0x3c22731b	0.009915139
246	0x3b65ebc1	0.0035083147
247	0x3c91580d	0.017742181
248	0x3bf8349f	0.0075746323
249	0x3a52b951	0.00080384786
250	0x3b71e3f8	0.0036909562
251	0x3bd15dd4	0.006389359
252	0x3aa3613d	0.0012464892
253	0x3c1324e2	0.0089809615
254	0x3bd15e13	0.0063893883
255	0x3bd99102	0.0066396007

clf_net.3.weight f4 [256, 256]
0	0xbbc96bd8	-0.006146889
1	0xbd5e01a6	-0.05420079
2	0x3ce9aa4a	0.028523583
3	0xbd471818	-0.048606962
4	0xbc9f3fbf	-0.019439576
5	0x3d470de3	0.048597228
6	0x3d3fb3e3	0.046802413
7	0xbb3d6e0c	-0.0028904704
8	0x3ca35a77	0.019940598
9	0xbd70ad8d	-0.05875926
10	0xbd70af3c	-0.058760867
11	0x3c1b8848	0.009492941
12	0xbd61a5fb	-0.055089932
13	0x3cd84d51	0.026404055
14	0xbd0546f3	-0.032538366
15	0xbcfa95f3	-0.03058908
16	0xbce7591b	-0.028240731
17	0xbd6b3609	-0.05742458
18	0x3d5b40e9	0.0535287
19	0xbc21a522	-0.009866031
20	0x3d489b38	0.048976153
21	0xbc086048	-0.0083237365
22	0xbd3a1eb8	-0.045439452
23	0xbd3b2a6b	-0.04569475
24	0x3d1472eb	0.036242407
25	0x3cf5c684	0.030001886
26	0x3bf1ef2a	0.007383247
27	0x3d7dd5c2	0.061971433
28	0xbd1d62fd	-0.03842448
29	0xbcca55dc	-0.024699144
30	0x3d42e071	0.047577325
31	0x3c5cb472	0.013470756
32	0x3d51690a	0.051125564
33	0xbd1238d7	-0.035698738
34	0xbd1af969	-0.037835512
35	0x3c9cc4e8	0.019136861
36	0xbbcd3f17	-0.0062636244
37	0xbd425f69	-0.04745427
38	0x3d01277e	0.031531803
39	0xbd041b31	-0.032252494
40	0x3d30254c	0.04300432
41	0x3bbca855	0.0057573714
42	0x3c6775a1	0.014127166
43	0x3d011bbf	0.0315206
44	0x3cf2e415	0.029649774
45	0xbcf80ccb	-0.030279538
46	0xbd488a69	-0.048960123
47	0x3d65baf5	0.0560865
48	0x3d320c1f	0.04346859
49	0x3c3d5b5f	0.011557429
50	0x3c18a46e	0.009316547
51	0x3d3e332e	0.046435528
52	0x3d6156fd	0.0550146
53	0xbd2652dd	-0.04060637
54	0xbd0d5582	-0.034505375
55	0xbd0fc6a3	-0.035101544
56	0xbd48c293	-0.049013685
57	0x3c5cdf75	0.013481011
58	0xbd128b2e	-0.035777263
59	0x3ce71e24	0.028212614
60	0x3c2a11d4	0.010380227
61	0xbd11e083	-0.0356145
62	0xbd1bf3d2	-0.038074322
63	0x3d59b923	0.053155076
64	0x3ca65b28	0.020307139
65	0xbd28e6e5	-0.041235823
66	0xbbcb638b	-0.006206935
67	0xbd7fa394	-0.06241186
68	0x3ce6b216	0.02816109
69	0x3d656948	0.056008607
70	0xbd2edf14	-0.042693213
71	0xbb33a856	-0.0027413568
72	0x3d49c48d	0.04925971
73	0xbd8daad3	-0.06917348
74	0x3d8e798e	0.069567785
75	0xbd11f36f	-0.035632547
76	0xbd282dc8	-0.041059285
77	0xbce249b3	-0.027623033
78	0xbd638175	-0.05554338
79	0xbc8a6264	-0.01689262
80	0xbca1e81e	-0.019764002
81	0xbd476f92	-0.048690386
82	0xbd454139	-0.048157904
83	0x3d82dcf8	0.06389803
84	0xbc001ae2	-0.007818909
85	0xbd83f809	-0.06443793
86	0x3d5ca8b2	0.053871818
87	0x3d75b733	0.059989166
88	0x3d00676a	0.031348623
89	0x3d1913ba	0.03737233
90	0x3d47ef7f	0.048812386
91	0x3cd10351	0.025514277
92	0xbc92a497	-0.017900748
93	0x3a675397	0.00088244065
94	0xbd7d27d3	-0.061805557
95	0xbd1f33d9	-0.038867805
96	0x3d724964	0.059152022
97	0x3d0751e0	0.033037066
98	0xbd7403af	-0.059573825
99	0xbd5a4e09	-0.053297076
100	0x3b8b29c9	0.0042469245
101	0xbcfe82c6	-0.031068217
102	0x3b2ed03d	0.0026674413
103	0xbd46ce1e	-0.048536412
104	0xbd1be81b	-0.03806315
105	0xbd649afa	-0.05581186
106	0xbca22f77	-0.019798024
107	0x3c85dfe4	0.016342111
108	0x3cb870e6	0.022514772
109	0xbd5c1800	-0.053733826
110	0x3d1e4ede	0.038649432
111	0xbc8ec37f	-0.017427204
112	0x3d220270	0.039553106
113	0x3d7664ca	0.060154714
114	0x3c4180bd	0.011810479
115	0x3d0203fe	0.03174209
116	0xbd7aef78	-0.06126353
117	0x3cb5bae5	0.022183845
118	0xbcc0b6a8	-0.023524597
119	0x3d5b3ccc	0.053524777
120	0x3d2caf56	0.0421594
121	0x3d841537	0.06449359
122	0xbcd6cf2b	-0.026221832
123	0x3d2bdcce	0.041958623
124	0xbcc57d85	-0.024107704
125	0x3cdaa9f0	0.02669236
126	0xbc1e7b53	-0.0096729575
127	0xbb6ef871	-0.0036464
128	0x3d21ed4a	0.039532937
129	0xbc730e65	-0.014834975
130	0xbd2c26bc	-0.042029127
131	0x3a3a8a11	0.00071159104
132	0x3d452c5e	0.048138015
133	0x3d4fa6c4	0.05069615
134	0xbc2f3157	-0.010692916
135	0x3b0708dc	0.0020604646
136	0x3d2113c2	0.039325483
137	0xbd57d01a	-0.052688695
138	0xbc22c087	-0.009933597
139	0xbd55dcee	-0.052212648
140	0xbc3e4eb6	-0.011615446
141	0xbb98006d	-0.0046387226
142	0xbce9af0f	-0.028525857
143	0xbd3dd912	-0.046349593
144	0xbc08f229	-0.008358517
145	0xbc610742	-0.013734641
146	0x3ce9d430	0.028543562
147	0x3d53e024	0.05172743
148	0xbd7d1881	-0.061790947
149	0x3cb2e5fd	0.021838183
150	0xbd112e42	-0.035444506
151	0x3ce30274	0.02771113
152	0xbd3042eb	-0.043032568
153	0xbcd72491	-0.026262553
154	0xbd2d6a4d	-0.042337704
155	0xbca548d4	-0.020176329
156	0x3cf3bc44	0.029752858
157	0xbc1a1d45	-0.009406392
158	0x3d1fd0a5	0.03901734
159	0xbd4cb73d	-0.049979437
160	0xbd681739	-0.05666277
161	0xbd3db3b6	-0.046313964
162	0x3cc6373a	0.024196256
163	0x3ce56660	0.028002918
164	0x3b8afcfa	0.004241583
165	0xbcf0c558	-0.029390976
166	0xbd594b43	-0.05305029
167	0x3ba5f66a	0.0050647752
168	0x3d5cb145	0.053879995
169	0x3d23b9a8	0.039971977
170	0xbc5f182f	-0.013616606
171	0x3cfe5618	0.031046912
172	0xbcce8001	-0.025207521
173	0xbd432c99	-0.047649954
174	0x3d0d8129	0.034547005
175	0x3c0cb1b3	0.008587289
176	0xbb65c094	-0.0035057412
177	0x3cdf20bd	0.02723729
178	0x3a53f96d	0.00080861786
179	0x3d478ef5	0.04872032
180	0x3a8ec1e0	0.001089152
181	0xbad70f2f	-0.0016407723
182	0xbcdc1231	-0.026864143
183	0x37e1ad90	2.6902911e-05
184	0x3cbec690	0.023288041
185	0x3d5b06b2	0.053473182
186	0x3c37d451	0.011220054
187	0xbcf338ee	-0.029690232
188	0xbad80ed4	-0.0016483911
189	0xbd0450ba	-0.03230355
190	0x3d4b9b94	0.049708918
191	0x3c78c077	0.015182606
192	0x3c30ed01	0.010798694
193	0x3d1b08bb	0.037850123
194	0xbd6abc37	-0.057308402
195	0x3d0077f5	0.0313644
196	0x3c055e32	0.008140134
197	0xbc1e6670	-0.009667978
198	0xbc58a2fb	-0.013222451
199	0xbc9e5b18	-0.019330546
200	0x3c0c30e6	0.00855658
201	0xbc8a5ad6	-0.016889017
202	0xbd227fd9	-0.039672706
203	0xbd65b2e8	-0.05607882
204	0x3c44bcf3	0.01200794
205	0xbd3fe95c	-0.04685341
206	0xbc830bf6	-0.015996914
207	0xbcd36d2b	-0.025808891
208	0xbc34e2e2	-0.011040421
209	0x3d389f3d	0.045073736
210	0xbd4443c6	-0.047916196
211	0x3d200bd5	0.039073784
212	0xbd8177ac	-0.06321654
213	0x3d630330	0.05542296
214	0x3d7322fa	0.059359528
215	0x3c8f6919	0.01750617
216	0xbb5452a6	-0.0032397895
217	0x3d7bbe45	0.061460752
218	0xbd04843f	-0.032352682
219	0x3ab3a739	0.0013706452
220	0x3b92b2a9	0.0044768644
221	0xbd2448fe	-0.040108673
222	0xbcc37a84	-0.023862131
223	0xbc95b96a	-0.018276889
224	0x3c39ab58	0.011332355
225	0x3d517331	0.051135246
226	0x3cfdc81d	0.03097921
227	0x3cbab844	0.022792943
228	0xbd4d7b9b	-0.050166707
229	0xbd1f0c71	-0.038830224
230	0xbd2738f2	-0.04082579
231	0xbd3542e2	-0.044253238
232	0x3d619d90	0.055081904
233	0xbc2d5e1a	-0.010581518
234	0xbd316bbd	-0.043315638
235	0x3ce95938	0.028484926
236	0x3c2110d5	0.009830673
237	0xbd2bec74	-0.041973546
238	0x3cf8092e	0.030277815
239	0xbd941f7c	-0.07232568
240	0x3d386677	0.045019593
241	0x3d39eb6a	0.045390524
242	0x3d3f4bf5	0.046703298
243	0xbd79d9ca	-0.060998715
244	0xbd38887e	-0.045052044
245	0xbd14fd7d	-0.036374558
246	0xbd662c3a	-0.05619452
247	0xbd851792	-0.06498636
248	0x3b03a7ae	0.0020088959
249	0x3cc0b8b6	0.023525577
250	0x3c92ab73	0.017904019
251	0x3d4b4865	0.049629588
252	0xbd450f73	-0.048110437
253	0x3c3ad4e5	0.011403297
254	0x3c37ae8c	0.011211049
255	0xbd78b5ad	-0.060720135
