EE8591/Project/classification_models/Hyperbolas/DNN/deepnn/training_models/net_1100.pt (torch, 282047 bytes, 14 tensors)

clf_net.0.weight f4 [256, 2]
000000 5f 0f 33 3f 97 7a 9a be 17 92 64 bc 43 50 00 3f
       0.6994533 -0.30171654 -0.013950846 0.5012247
000010 ae 84 6b bd 4a c3 b3 be 39 10 49 bd 5f 65 1a 3f
       -0.05749958 -0.3510993 -0.049087737 0.6031093
000020 6f 10 11 3f b6 17 09 3f f0 a2 03 bf 21 2d 1d 3e
       0.566657 0.53551805 -0.514205 0.15349247
000030 68 f2 e0 3d 89 34 51 be aa 98 6c 3e 48 0d 53 3e
       0.10983735 -0.20430197 0.23105112 0.20610535
000040 63 5f a1 be 5a 73 b4 3e f2 80 30 3e bd 00 05 bf
       -0.31518087 0.35244256 0.17236689 -0.5195425
000050 b2 a3 7e 3e 96 c3 f1 bd 6b 1d d0 bd 18 3c 86 3e
       0.24867132 -0.11804883 -0.10161861 0.26217723
000060 35 f2 2a bf 8c 08 18 bf 54 18 9b 3e 0a 9d 37 be
       -0.6677583 -0.5938804 0.30291998 -0.17931
000070 e6 98 03 3f 0f 4b 30 bf 01 ca f0 be cc d4 c0 3e
       0.5140518 -0.6886453 -0.47029117 0.3766235
000080 90 ca a5 3e 01 37 09 3d 3d 81 26 bf 25 8d c3 3e
       0.32381105 0.03349972 -0.6504095 0.38193622
000090 a2 85 92 be a3 93 15 3f 4a 32 59 be e0 c8 a7 3e
       -0.2861758 0.584284 -0.2121059 0.32770443
0000a0 49 ff 6a 3d cb f2 16 3e 89 2c b1 3b a9 f0 90 3e
       0.057372365 0.14741056 0.0054069203 0.2830861
0000b0 3c 99 cc 3e 9e dc bb 3e f3 ba 11 3e f6 59 13 3f
       0.3996066 0.36691755 0.14231472 0.57559144
0000c0 4b fd 85 be 6e 34 1c 3e 03 0c f8 3d 6d dd 2e 3f
       -0.2616981 0.15254375 0.12111666 0.6830662
0000d0 68 93 2a bf ae 9f db 3c 13 59 85 be c9 20 0f 3f
       -0.66631174 0.02680954 -0.2604452 0.559094
0000e0 95 79 b3 be c1 51 73 3e 87 bf 0c be 80 0b f0 be
       -0.35053697 0.23761655 -0.13744937 -0.46883774
0000f0 8e 70 c5 be 4f 60 09 3f 50 bb 8f 3e cf 8e 02 3f
       -0.38562435 0.5366258 0.28072596 0.5099916
000100 43 46 06 3f 97 23 a2 3d c3 7d bf bd a5 90 19 bf
       0.5245096 0.079169445 -0.09350159 -0.59986335
000110 ef 36 0b 3d e7 cf 1d 3f 72 90 b0 be 8c 89 be be
       0.033987936 0.6164536 -0.34485203 -0.37214315
000120 57 25 f8 bd 32 d0 2e 3f 72 f2 5e be 6d 66 8e 3d
       -0.12116497 0.6828643 -0.21772173 0.0695313
000130 b1 bc a4 be 2c 7d 2c bf 4d 68 c4 3e f2 30 0a bf
       -0.3217521 -0.673785 0.38360825 -0.53980935
000140 b9 6e 1a bf d0 7b 14 bf 54 8b 5b be 94 20 20 3f
       -0.603252 -0.5800142 -0.21439868 0.6254971
000150 4f 4e 92 be 46 11 19 bf b3 bb 3a be 0a 9b 33 bf
       -0.2857537 -0.5979198 -0.18235664 -0.70158446
000160 e6 01 26 bf 39 d7 fc 3d d4 7a c9 be d5 a0 13 3e
       -0.64846647 0.12345738 -0.39351523 0.14416821
000170 e9 24 0e 3f 24 a5 12 3d 5c e7 03 3f 13 9e dd be
       0.5552507 0.03580202 0.515249 -0.43284664
000180 e8 21 d7 be 03 1a 08 3e 91 6e 72 3e 33 57 cc bd
       -0.42018056 0.13291173 0.2367499 -0.099775694
000190 0f fc e0 bc c1 f5 e8 bd 31 d4 b4 3e 45 59 1b bf
       -0.02746394 -0.11374999 0.3531814 -0.6068309
0001a0 36 a6 a1 be a0 b5 e7 be 87 da 1e bf aa 89 2a 3f
       -0.3157212 -0.45255756 -0.62052196 0.6661631
0001b0 24 ce 06 bc 3f 47 8c 3d 36 63 d5 3e 93 3f 7a be
       -0.008227859 0.068495266 0.41677254 -0.24438314
0001c0 f1 38 a0 3e 8b 48 8e be 12 43 e6 be 5b 4b f1 be
       0.31293443 -0.2778972 -0.44973046 -0.47127804
0001d0 4d 96 f6 bd 0d 0d 26 bf 92 6a 98 3e fb 9a 03 3d
       -0.12040386 -0.64863664 0.29768807 0.032130223
0001e0 13 c0 b0 be bd d9 4f be 1b 45 b2 3e 26 e6 c7 bd
       -0.3452154 -0.20297904 0.34818348 -0.09760694
0001f0 8c 2f 2f bc fd 77 df 3e 5c d0 16 3f 1b 35 e2 be
       -0.010692488 0.4364623 0.5891168 -0.4418114
000200 94 97 2c 3f f0 14 f9 be 57 54 a5 be 8e 48 da be
       0.6741879 -0.48648787 -0.3229091 -0.4263348
000210 61 2f 02 bf 26 4b 9b 3e 90 50 c1 3e e0 c5 ea 3e
       -0.50853544 0.3033077 0.37756777 0.45854092
000220 ee 57 31 3f c0 a2 b9 3e e0 4b 08 3c 2e c7 38 3d
       0.69274795 0.3625698 0.008318871 0.045111828
000230 17 76 27 bf ca f1 31 bf 34 56 e8 be 11 65 0c 3e
       -0.65414566 -0.69509566 -0.45378268 0.13710429
000240 d8 21 f8 bd 36 e0 df 3d f9 b3 81 be 24 93 a7 be
       -0.1211583 0.10931437 -0.2533262 -0.32729447
000250 a0 21 1f 3f 14 60 82 be 71 83 c4 be d0 27 cb be
       0.6216068 -0.25463927 -0.38381532 -0.39678812
000260 23 3f 05 bf 45 33 e9 be e6 84 ee 3d 99 81 65 be
       -0.52049464 -0.45546928 0.11646442 -0.22412719
000270 1f 05 0b 3e 0d 39 02 be 31 3d 85 3e d8 ca 08 bf
       0.13576172 -0.12717076 0.26023248 -0.53434515
000280 e4 03 61 bd 7d 9e 0e 3f ea 4c 01 be d0 5d 08 3e
       -0.05493535 0.55710584 -0.12626997 0.13317037
000290 46 47 9a be 96 a5 33 3f 5c c8 8d bc 15 b3 cd be
       -0.30132502 0.7017454 -0.017307453 -0.4017569
0002a0 df 6c 0b 3f d6 cf 16 3f 6c 5c c6 3e 68 4d 6e 3a
       0.54463 0.5891088 0.38742387 0.0009090514
0002b0 f3 4e bd be 97 d4 ed 3d 46 c7 d9 be 6d 61 0f 3f
       -0.36974296 0.11612814 -0.42534846 0.56008035
0002c0 2c d4 73 be 06 95 33 3f e1 ea 1e bf a9 37 8c 3e
       -0.23811406 0.70149267 -0.62077147 0.27386215
0002d0 f3 8b cd 3e e0 8d 92 be 9b 59 fe bc dc b7 0c bf
       0.40145835 -0.28623867 -0.031048587 -0.5496805
0002e0 cf 13 08 be 76 dc 30 bd bf 11 06 bf 0d 34 32 3f
       -0.13288806 -0.043178998 -0.5237083 0.69610673
0002f0 79 92 09 3f 3d 04 27 3f 99 30 ff 3e e5 d8 ef bd
       0.53739125 0.6524084 0.49841765 -0.11711291
000300 5f 4b 18 3f 81 8a f1 bb aa 89 63 3d 0e b5 29 3f
       0.5949001 -0.0073712473 0.05555121 0.6629189
000310 0a 56 d0 3e 15 fc 01 bd c3 bf df 3e 10 b7 1e bf
       0.40690643 -0.031734545 0.4370099 -0.6199808
000320 56 88 a8 be 69 01 85 be 97 7d 84 be bb 14 a8 3e
       -0.32916516 -0.25977638 -0.25877067 0.32828316
000330 17 e8 0a 3f 27 e3 65 be 13 94 34 3f 7c b7 10 bf
       0.5426039 -0.22449933 0.70538443 -0.56529975
000340 9b a7 d7 be aa fb 83 be 68 47 ec 3e 47 35 2f 3f
       -0.4212006 -0.25777942 0.4614823 0.6844067
000350 4c 16 3e 3d 3f e8 e2 bd 81 bc df be 7c 83 1a 3f
       0.046407983 -0.11079454 -0.43698505 0.6035688
000360 8e 9f 23 3f a0 a5 02 3f 00 5b 7a 3e 1a dc d8 3e
       0.63915336 0.51033974 0.24448776 0.42355424
000370 a4 18 8b 3e 38 44 f4 be cf 35 24 3f 88 86 45 3e
       0.27167237 -0.47708297 0.64144605 0.19289601
000380 dd 80 c4 be 4d f6 2e 3f e6 fb 05 3e 57 f0 1b 3f
       -0.38379565 0.68344575 0.13084373 0.60913604
000390 cb 8d 8a be 18 bc d5 be 33 16 06 bf 8a a0 04 bf
       -0.27061304 -0.41745067 -0.52377623 -0.51807463
0003a0 8f 67 b6 3e 93 cf a8 be 0e 15 31 bf e4 dc 11 bf
       0.35625884 -0.32970867 -0.6917275 -0.5697768
0003b0 84 54 e0 bd f6 97 42 be d0 21 22 bf d5 c4 b3 3e
       -0.1095362 -0.19003281 -0.63332844 0.35111108
0003c0 21 88 f1 be fd ad f7 be 85 16 55 bd bc e7 29 3f
       -0.4717417 -0.4837493 -0.05202343 0.66369224
0003d0 5e 93 26 3f 56 ac 1a bf ad f7 55 3e 86 59 e9 3d
       0.65068614 -0.60419214 0.20895262 0.11394028
0003e0 9a 2b 18 bf f9 93 48 bd 1f a4 94 be 49 0e d4 3b
       -0.5944153 -0.048969243 -0.29031464 0.0064714295
0003f0 2b 79 56 bd 3d d0 1a 3f 76 3a 2a 3c 65 05 2d bf
       -0.05236165 0.60473996 0.010389915 -0.67586356

clf_net.0.bias f4 [256]
000000 32 cc 95 be da 2c 13 3f 67 26 04 3f fc 5c 01 bf
       -0.2925735 0.57490313 0.516211 -0.5053251
000010 fb 60 31 bf 54 4d dc be ce 9e c5 3e 30 2e 3c 3e
       -0.69288605 -0.43027747 0.3859772 0.18376994
000020 36 51 d2 3e 95 f7 8a be 43 11 6a 3e 25 b5 df 3e
       0.41077584 -0.27142015 0.22858147 0.4369289
000030 b6 8a e8 3e 0b 2f e1 3e 3d d1 c3 3e 6d 9a 71 3d
       0.45418328 0.43981203 0.38245574 0.058985163
000040 b5 a7 16 3f 29 7c 6c be a3 e6 0b be 15 7c 75 3e
       0.5884965 -0.23094238 -0.136622 0.23973115
000050 76 7c d5 bd 07 b0 e6 be 8f 03 22 3f dd f2 b5 3e
       -0.1042413 -0.45056173 0.6328668 0.35536852
000060 be ff 83 be 93 0e c3 3e 0e ff 13 3f ce d9 ed be
       -0.25781053 0.38097057 0.5781106 -0.46455234
000070 8c d9 2a bf 1f d6 c7 3d 16 95 97 bd 0c b4 0d 3f
       -0.667382 0.09757637 -0.07401483 0.55352855
000080 1a ab cc 3b c4 f3 0b 3f 5b 2b 11 bf 6c f3 1c 3f
       0.006245983 0.5466883 -0.5670678 0.6130893
000090 c9 1c bb ba 8e d0 98 be 59 3f a3 be c5 87 0e 3f
       -0.0014275546 -0.29846615 -0.31884268 0.5567592
0000a0 c9 5f 0d 3e de a8 2c bf bf 11 05 3f 54 a2 1d 3f
       0.1380607 -0.6744517 0.51980203 0.6157582
0000b0 99 6e 0a 3f 3f 71 8c 3d 2d 54 61 be 05 a6 b5 bd
       0.5407501 0.068575375 -0.22004767 -0.08869556
0000c0 23 20 21 3f 36 a3 34 bf e2 33 0f 3f a8 ea 2e 3f
       0.6293966 -0.7056154 0.5593854 0.6832681
0000d0 18 b0 d1 be 8a 29 e2 be f6 a9 c1 be 83 5d 89 3e
       -0.4095466 -0.44172317 -0.37824982 0.26829156
0000e0 b1 ca 81 3e 77 78 99 be e1 9b 2e 3f a0 35 18 bf
       0.25349954 -0.2997472 0.682066 -0.59456825
0000f0 9e d1 32 3f df 5a 25 3f 20 3a 56 be 9c 3a 05 3f
       0.698511 0.64591783 -0.2092061 0.52042556
000100 57 fc c6 3c 0a 0a 57 be 65 8e 70 be ad 35 4b be
       0.024290247 -0.20999923 -0.23491819 -0.19844694
000110 06 44 f2 3e ca 25 02 bd 1b 2f b1 be 38 de 0d bf
       0.47317523 -0.03177432 -0.3460625 -0.55417204
000120 73 77 46 be 5a 66 1c bf ef 98 b6 3e c7 04 2c bf
       -0.19381504 -0.61093676 0.35663554 -0.6719479
000130 c3 9b 14 3f 12 41 27 3f c4 d9 2b 3e 4d b4 86 3e
       0.58050174 0.65333664 0.1678229 0.26309434
000140 53 b6 40 3e f8 91 c1 be ea 9f 2d 3e 0d e2 0c bf
       0.18819551 -0.37806678 0.16955534 -0.55032426
000150 6d a2 1d 3f 25 a0 1b bd 3e c5 15 bf e4 5d d7 3e
       0.6157597 -0.037994523 -0.5850409 0.4206382
000160 2a cd 05 3e b4 f8 00 3f 54 57 fa 3e 49 b7 62 be
       0.13066545 0.5037949 0.4889475 -0.2214023
000170 47 e6 88 be a8 d8 30 bf 49 49 d3 be 6b cb 17 bd
       -0.26738188 -0.6908059 -0.4126685 -0.03705923
000180 f1 9f e9 3e ae 3a f6 3d 43 e2 91 bd 0b 31 2f be
       0.45629838 0.12022911 -0.07123234 -0.17108552
000190 e4 27 cc 3e fc 4c 0e 3f 55 16 30 bf 9f 24 82 3e
       0.39874184 0.5558622 -0.68784076 0.25418565
0001a0 9d 6c 35 3e c8 11 c0 be 38 8a ff be ba 60 19 3f
       0.17717214 -0.37513566 -0.4991014 0.5991322
0001b0 49 c3 e9 be 82 bb d8 3a 61 54 fd 3e 65 8a 49 be
       -0.45656803 0.0016535374 0.49478438 -0.196817
0001c0 eb 9f 8d be dd 2d 2b 3f 24 f9 87 be 33 04 f0 be
       -0.2766107 0.66866857 -0.26557267 -0.46878204
0001d0 f8 19 3a 3e 7e 0b 4c 3e 40 8b 1e 3f af 1f d1 3e
       0.18173969 0.19926259 0.6193123 0.40844485
0001e0 3f 28 07 bf 04 b0 9c 3d 99 0b f7 ba 54 13 17 bd
       -0.52795786 0.0765076 -0.0018848061 -0.036883667
0001f0 1d 2c 8f 3e 38 64 15 3f 23 d0 fa 3e 5f 5f 73 bd
       0.27963343 0.58356047 0.4898692 -0.059417125
000200 4a 5e a3 3e a8 27 02 be 88 fe e0 3e 86 7f f3 3e
       0.31907874 -0.1271044 0.43944192 0.4755823
000210 92 25 13 bf 45 4d 9d be e5 32 29 bf 37 ed 97 3d
       -0.574792 -0.30723014 -0.66093284 0.07418292
000220 ff 82 12 bf 0b 38 31 bf e6 7b 3e be 24 b7 06 3f
       -0.57231134 -0.6922614 -0.18601951 0.526232
000230 bb 3d 83 be e9 e3 1f bf 9a 81 42 be 2c f0 10 3f
       -0.25633034 -0.6245714 -0.18994752 0.56616473
000240 3e 41 8b be 13 e9 3f 3e 82 17 2a 3f 2f 2c a8 be
       -0.27198213 0.18741255 0.6644212 -0.3284621
000250 40 f9 f5 3c 75 89 90 bd 3b 96 2b bf 0f 34 78 bd
       0.030026078 -0.07057468 -0.6702611 -0.060596522
000260 06 ef 16 3f ea 02 cb be 67 ad 84 3d 36 70 40 bd
       0.5895847 -0.3965066 0.06478386 -0.046982013
000270 b0 0f 7c 3e 2b 28 ac 3e 2b 77 f8 be ec 48 c7 bd
       0.2461536 0.33624396 -0.48528418 -0.097307056
000280 72 f3 0a bf a4 0e ff 3e 16 f1 d9 3d 0c 16 66 be
       -0.5427772 0.49815857 0.106416866 -0.22469348
000290 65 73 2e bd 58 51 2a 3e 5c 48 08 bf 9e b8 51 3e
       -0.042590518 0.16632593 -0.5323541 0.20480582
0002a0 81 1a 47 3d a5 06 35 3f 60 6e 93 3e fc c3 53 3e
       0.04860926 0.70713264 0.28795147 0.20680231
0002b0 96 8e c6 be 85 47 2a bf 59 06 44 be 66 36 04 3e
       -0.3878066 -0.6651538 -0.19143046 0.12911376
0002c0 2d a3 2a bf 9a c4 9b 3e fb 9a 00 3f 98 38 a7 be
       -0.66655236 0.30423433 0.5023648 -0.32660365
0002d0 9b 2e 1c 3f 92 ea 0e bf 8f de 1d 3f ff 84 40 be
       0.61008614 -0.55826676 0.6166772 -0.18800734
0002e0 f6 9b 2f bf da 20 5b 3e 97 81 db be 36 52 b0 3d
       -0.6859735 0.2139925 -0.42872307 0.086094305
0002f0 43 c1 46 3e 01 a0 5f 3e 72 e4 1c bf e7 ef b1 3e
       0.19409661 0.2183838 -0.6128608 0.34753343
000300 fb 61 a4 be bc 23 cb be 0c 3a ab be 6e 27 23 be
       -0.32106003 -0.396757 -0.33442724 -0.1593301
000310 ec a1 b5 3e 01 ff 9a 3d 55 a8 a5 3e d4 c3 f0 be
       0.354751 0.075681694 0.3235499 -0.47024405
000320 a7 5c 9c 3d e3 dd 56 be e7 74 d5 3c 93 b6 1e bf
       0.076348595 -0.2098308 0.02605672 -0.61997336
000330 af b4 1d be b4 9f 87 3d 4f c7 9f 3e 43 85 c1 3e
       -0.15400957 0.06622258 0.31206748 0.37796983
000340 61 d4 db be 34 7e 8d be 32 03 30 3e 1e a2 a6 3e
       -0.4293547 -0.27635348 0.17188719 0.3254556
000350 76 b4 7a 3d c0 2b e1 3e 3c 8a 19 bf 5e 76 c7 be
       0.061207257 0.4397869 -0.59976554 -0.38957494
000360 73 ac 08 3f 8b d9 13 be c7 f3 f6 bd 3c ef 23 bf
       0.53388137 -0.14438455 -0.120582156 -0.6403692
000370 92 83 84 be ba 90 2d 3e 9f b5 17 bf b3 22 90 bd
       -0.2588163 0.1694974 -0.59261507 -0.07037868
000380 6b 7e e1 3e 5b 44 34 bf f9 ee 5a 3e 6c 5c d0 be
       0.44041762 -0.704168 0.21380223 -0.40695512
000390 1e 1f 46 3e a3 c1 db be cf a3 2d 3f 18 16 c7 bd
       0.19347808 -0.4292117 0.6782808 -0.09721011
0003a0 22 71 95 3e 5f e1 ec be d5 ea 1a bf da 59 03 bf
       0.29187876 -0.46265694 -0.60514575 -0.5130898
0003b0 29 ed 1e bf 21 35 96 be 4b bc 37 3e 82 b1 1a 3f
       -0.6208063 -0.2933741 0.17942922 0.60427105
0003c0 b1 82 63 be d3 53 c4 3d 2c b0 0d 3f 53 81 9a 3d
       -0.22217824 0.09586301 0.5534694 0.07544198
0003d0 3e c6 c4 be 04 99 17 bf c4 0a 2e 3f 7c b6 03 3d
       -0.38432497 -0.5921786 0.6798518 0.032156453
0003e0 84 8f 91 be 0c f5 12 3f 15 ce b1 bd 41 e3 1a be
       -0.28429806 0.5740516 -0.08681885 -0.15125753
0003f0 d4 d2 17 3f af b9 8a bd ad ea b9 3e 0e 85 35 3e
       0.59306073 -0.067736976 0.36311856 0.17726538

clf_net.1.weight f4 [256]
000000 45 8e 7d 3f 43 68 80 3f 6f 34 7f 3f 65 15 7e 3f
       0.9904521 1.0031818 0.9968938 0.99251395
000010 e6 c0 80 3f a0 31 80 3f d0 94 7d 3f 5b 29 7e 3f
       1.0058868 1.0015144 0.99055195 0.99281853
000020 ae a6 7f 3f c7 4c 7f 3f a5 4c 80 3f c5 14 7e 3f
       0.9986371 0.9972653 1.002339 0.9925044
000030 6a 7b 7e 3f 3d b0 80 3f 77 9b 7d 3f b2 67 80 3f
       0.99407065 1.0053784 0.99065346 1.0031645
000040 06 66 7f 3f 69 a3 7d 3f 29 c2 7f 3f 2b 71 7f 3f
       0.9976505 0.9907747 0.9990564 0.99782056
000050 68 4e 80 3f 73 bd 7f 3f ab 67 80 3f c9 d2 7f 3f
       1.0023928 0.9989845 1.0031637 0.9993101
000060 08 fb 7f 3f c8 79 7e 3f 56 4e 7f 3f c7 92 7f 3f
       0.9999242 0.99404573 0.99728906 0.9983334
000070 87 03 80 3f 83 3d 80 3f a8 c8 7e 3f 4c 87 7f 3f
       1.0001076 1.0018772 0.9952493 0.9981582
000080 63 c4 7e 3f 4d 3e 7d 3f f5 58 7f 3f 10 53 7f 3f
       0.9951841 0.9892319 0.9974511 0.9973612
000090 a7 80 80 3f 74 30 7d 3f a6 e9 7f 3f 4c 38 7e 3f
       1.0039262 0.9890206 0.99965894 0.9930465
0000a0 f4 93 7f 3f 31 72 7f 3f 9d 5e 80 3f 6e 12 80 3f
       0.99835134 0.9978362 1.0028874 1.0005624
0000b0 33 b5 80 3f be 9b 80 3f 01 e9 80 3f a0 be 80 3f
       1.0055298 1.0047529 1.0071107 1.0058174
0000c0 12 5d 80 3f 28 8d 81 3f 65 b1 7f 3f c0 2d 7f 3f
       1.0028403 1.0121202 0.9988006 0.99679184
0000d0 38 d8 7c 3f 38 41 7e 3f 69 9f 7f 3f 2a 69 80 3f
       0.98767424 0.99318266 0.99852616 1.0032094
0000e0 0a a4 7e 3f 0d 24 7f 3f 63 6a 7e 3f cf 17 81 3f
       0.99469054 0.99664384 0.99381083 1.0085391
0000f0 05 c6 7e 3f f0 70 7e 3f db 78 7d 3f ca 34 7e 3f
       0.99520904 0.9939108 0.99012536 0.992993
000100 06 3a 7d 3f a7 8c 80 3f cf 96 7f 3f b1 95 81 3f
       0.9891666 1.0042924 0.9983949 1.0123807
000110 e2 92 7f 3f 91 e9 7e 3f 1c 9c 7e 3f f2 86 80 3f
       0.998335 0.99575144 0.99456954 1.0041182
000120 a0 2d 7f 3f 6f 00 7f 3f 43 13 81 3f 7b c5 80 3f
       0.99678993 0.99610037 1.0084003 1.0060266
000130 86 5d 7f 3f c9 10 7f 3f 0f 28 7e 3f 89 f2 7c 3f
       0.9975208 0.9963499 0.99279875 0.9880758
000140 f4 db 7c 3f 9e 9e 7d 3f 60 4a 7f 3f d0 36 80 3f
       0.9877312 0.99070156 0.9972286 1.0016727
000150 90 9a 7d 3f 51 19 80 3f 65 25 7f 3f 94 db 7f 3f
       0.9906397 1.0007726 0.99666435 0.99944425
000160 b1 c6 7e 3f b3 af 7f 3f be d7 80 3f 11 47 7f 3f
       0.9952193 0.9987747 1.0065839 0.99717814
000170 87 66 80 3f 6e 51 7e 3f 76 a5 7e 3f ac 70 7e 3f
       1.0031289 0.99343 0.99471223 0.99390674
000180 2b 78 7f 3f bf f5 7e 3f f6 63 7f 3f ff b4 7d 3f
       0.99792737 0.9959373 0.99761903 0.99104303
000190 b6 0c 7f 3f 0f 7c 7d 3f b8 84 7e 3f 62 60 80 3f
       0.9962877 0.99017423 0.9942126 1.0029414
0001a0 9c 43 80 3f cf 2c 7e 3f d5 55 7f 3f 8d e9 7f 3f
       1.0020633 0.9928712 0.99740344 0.99965745
0001b0 a7 2f 80 3f 41 98 7f 3f af 12 7e 3f 98 f3 7e 3f
       1.0014542 0.99841696 0.9924726 0.99590445
0001c0 f1 c3 7f 3f d6 0d 80 3f 84 d5 7f 3f 0f 74 81 3f
       0.9990836 1.0004222 0.99935174 1.0113543
0001d0 52 84 7e 3f 04 e8 7f 3f ba a2 80 3f e1 ba 7e 3f
       0.99420655 0.999634 1.004966 0.99503905
0001e0 91 64 7e 3f f1 1a 80 3f ad 5c 7f 3f de 6e 80 3f
       0.993722 1.0008222 0.99750787 1.0033834
0001f0 20 4f 81 3f bd 19 81 3f 29 98 7f 3f b8 14 7f 3f
       1.0102272 1.008598 0.9984155 0.9964099
000200 69 ab 80 3f db 59 7e 3f 0b 28 7f 3f 59 45 80 3f
       1.005231 0.9935586 0.99670476 1.0021163
000210 15 b3 7e 3f 9e 4b 7f 3f aa 1e 7f 3f 67 77 7f 3f
       0.9949201 0.9972476 0.99656165 0.9979157
000220 c3 fd 7f 3f 79 67 80 3f 40 41 80 3f b4 24 80 3f
       0.99996585 1.0031577 1.0019913 1.0011201
000230 07 7b 7c 3f fa 09 7e 3f 51 5e 7c 3f b2 bd 7d 3f
       0.98625225 0.99233973 0.98581415 0.9911758
000240 c4 7f 7f 3f 51 22 80 3f d0 bc 7e 3f 4a aa 7d 3f
       0.9980433 1.0010473 0.99506855 0.99087965
000250 7e 03 80 3f 10 a3 7d 3f 9f 5a 7f 3f 5b 50 7e 3f
       1.0001066 0.9907694 0.9974765 0.9934136
000260 ee 82 80 3f 57 ac 7e 3f 4e 1f 80 3f b7 17 81 3f
       1.0039957 0.9948172 1.0009553 1.0085362
000270 91 91 7d 3f 01 79 7f 3f 8d 92 7f 3f a7 79 7e 3f
       0.9905024 0.9979401 0.99832994 0.99404377
000280 20 96 7e 3f 7d f4 7e 3f 1e a9 7f 3f 02 ea 7f 3f
       0.9944782 0.9959181 0.9986743 0.9996644
000290 57 61 80 3f bc 69 7e 3f 70 76 7f 3f 5a 09 80 3f
       1.0029706 0.9938009 0.99790096 1.0002854
0002a0 3e 6b 7f 3f d2 9e 7e 3f 32 53 7f 3f 58 cf 7f 3f
       0.99773014 0.9946109 0.9973632 0.99925756
0002b0 1c f3 80 3f c8 97 7e 3f 2a 4c 7e 3f 09 19 7f 3f
       1.0074191 0.9945035 0.9933497 0.99647576
0002c0 47 48 80 3f 93 78 7f 3f c9 11 7f 3f eb 4b 7f 3f
       1.0022057 0.99793357 0.99636513 0.99725217
0002d0 05 b4 7f 3f db 1c 7f 3f 94 83 7d 3f f3 2b 80 3f
       0.99884063 0.99653405 0.990289 1.0013412
0002e0 fe 67 7f 3f 39 13 80 3f be 20 80 3f 99 35 80 3f
       0.99768054 1.0005866 1.0009992 1.0016357
0002f0 22 bb 7f 3f 8a 6d 7f 3f a2 f9 80 3f 1b 59 80 3f
       0.99894917 0.9977652 1.0076182 1.0027193
000300 26 55 7f 3f 49 38 7f 3f 96 b1 7f 3f 01 de 7c 3f
       0.997393 0.9969526 0.9988035 0.9877625
000310 51 91 7e 3f 86 86 7f 3f cd 4b 7f 3f ee 4f 7e 3f
       0.99440485 0.9981464 0.9972504 0.99340713
000320 48 c7 7d 3f 7c 06 7f 3f f9 18 7e 3f 11 2b 7f 3f
       0.99132204 0.9961927 0.99256855 0.9967509
000330 63 0e 7f 3f 9e 62 7e 3f 7f 39 80 3f 65 69 7f 3f
       0.9963133 0.9936923 1.0017546 0.99770194
000340 60 f5 7e 3f fe 74 7f 3f 28 b2 7f 3f a0 24 7f 3f
       0.9959316 0.9978789 0.9988122 0.9966526
000350 34 c5 7f 3f e7 df 7e 3f af b8 7d 3f 64 34 7f 3f
       0.99910283 0.995604 0.9910993 0.99689317
000360 a3 d1 7e 3f 22 ce 7f 3f 13 2b 80 3f fe 91 80 3f
       0.9953863 0.9992391 1.0013145 1.0044553
000370 66 e7 7f 3f e6 19 80 3f 08 08 7e 3f 4b 1f 80 3f
       0.9996246 1.0007904 0.99231005 1.000955
000380 6e 72 80 3f 77 00 80 3f 22 cb 7e 3f 5d 27 81 3f
       1.0034921 1.0000142 0.99528706 1.0090138
000390 d3 e3 7f 3f 30 a3 7f 3f 09 71 80 3f 85 81 7f 3f
       0.9995701 0.9985838 1.0034496 0.99807006
0003a0 b0 62 7f 3f 04 a1 7f 3f 3e 23 80 3f 15 3a 81 3f
       0.9975996 0.99855065 1.0010755 1.009585
0003b0 3f 73 7f 3f 5a 0b 81 3f 78 d1 7d 3f c7 4e 80 3f
       0.99785227 1.0081589 0.9914775 1.0024041
0003c0 15 25 80 3f e9 0e 80 3f 4a a7 7f 3f db 5d 7e 3f
       1.0011317 1.000455 0.9986464 0.9936196
0003d0 8a 4c 80 3f f0 58 80 3f e3 55 7f 3f f4 44 7f 3f
       1.0023358 1.0027142 0.9974043 0.9971459
0003e0 a5 03 80 3f 64 79 7f 3f 82 29 7f 3f 85 16 7f 3f
       1.0001112 0.997946 0.9967271 0.9964374
0003f0 1f e0 7f 3f 29 e6 7d 3f 3f b7 7f 3f 60 05 80 3f
       0.99951357 0.9917932 0.99888986 1.000164

clf_net.1.bias f4 [256]
000000 a7 0b e4 3d 3b c5 26 bb 3e dc e3 bc f7 81 97 3c
       0.11135035 -0.0025447148 -0.02781498 0.01849459
000010 2e 0d 0d bd 87 20 c2 3d c4 71 a0 3c a5 70 a1 bd
       -0.034436397 0.0947886 0.019585498 -0.07882813
000020 29 10 21 3c 84 66 04 bd 58 41 e7 3d fb 31 2b bb
       0.009830513 -0.03232433 0.1129176 -0.002612232
000030 e6 29 90 bd b8 cb c2 bd 59 33 ba bb dc fb 98 3a
       -0.070392415 -0.095115125 -0.0056823906 0.001167174
000040 dd 2a d0 bd 49 bb b9 bd af 91 bd bc 62 b8 96 3c
       -0.101644255 -0.09068925 -0.023140756 0.018398467
000050 84 9c 5a bc a6 cb 34 bc b3 1d 40 bd bb 39 91 bc
       -0.01334298 -0.011034882 -0.046903323 -0.017727723
000060 37 1f c3 3d cf ff 34 bd 7f 3d 0a 3e a9 4e 28 3c
       0.09527438 -0.04418927 0.13500021 0.01027266
000070 8e a6 b0 3d 65 00 2e 3c 49 56 af 3b 97 a2 9f 3a
       0.08625518 0.010620211 0.005350862 0.0012179193
000080 1c a9 65 3d e9 23 fa 3c 76 26 33 3c 4f 6a 09 3c
       0.05606948 0.030534701 0.010934463 0.008387162
000090 ef 93 d2 3c 16 fa 09 3d fd d1 2d 3d de 6d 0c bc
       0.025705306 0.033685766 0.04243659 -0.008571116
0000a0 66 13 46 bd 09 f2 f3 bb 5c 11 1c bd ef e3 91 3c
       -0.048358344 -0.0074446243 -0.038102493 0.017808883
0000b0 d3 4f dd 3d 37 b7 d2 3d 9e e4 97 bd be f8 d4 bd
       0.10806241 0.10288852 -0.07416652 -0.10399006
0000c0 48 a3 8a bd 5c fb 14 bd 1b 48 f5 3b 86 0e 24 bd
       -0.06769425 -0.036372527 0.0074854023 -0.040052913
0000d0 79 e3 95 bd 7d 18 34 3c ba 53 01 3d 48 d9 03 be
       -0.073187776 0.010992167 0.03157399 -0.12875855
0000e0 0a fc fd bc d5 a6 06 bd 19 7b 6a bc 96 fe b5 3d
       -0.03100397 -0.032873947 -0.014311575 0.08886449
0000f0 7b 8f b1 3d a6 9d f1 3d 42 e1 26 bd d9 9b 26 3d
       0.08669945 0.11797647 -0.040742166 0.04067597
000100 cb a4 ca 3d 5e 21 8f bc 9b 3f 88 3c 47 fe 18 bd
       0.09894713 -0.017471965 0.016631892 -0.037351873
000110 87 b6 a5 3d 9f 75 1b bd 9c 5d b0 bc 0a 18 ec 3d
       0.08091455 -0.03795397 -0.021529011 0.115280226
000120 33 76 74 bd 46 e4 72 bd fa 09 bc bd 22 31 c1 3c
       -0.059683036 -0.05929973 -0.091815904 0.023582999
000130 2a c5 83 bd d4 93 2e 3d 74 d7 5f 3d b7 67 df bc
       -0.064340904 0.04262145 0.05464883 -0.027271135
000140 f2 0f be bc 3c 64 80 bc 78 1e 04 bd 22 a0 32 bc
       -0.023200963 -0.015672795 -0.03225562 -0.010902436
000150 56 18 cd 3c 49 6e f4 3d 2a ed 8f 3c 2b d3 3f 3c
       0.025036018 0.11935098 0.017569143 0.011708061
000160 c3 1e 98 3c 70 8b 1b bd ef 02 ed bd 7d 0a 35 3c
       0.018569356 -0.037974775 -0.11572825 0.011049864
000170 d6 24 aa 3d 6c 5e f6 bb 32 d1 ab 3c 18 09 46 3d
       0.08307807 -0.00751858 0.020973776 0.048348516
000180 64 f2 b2 bd d4 af 2b bd c1 89 f9 3d dd 19 44 bc
       -0.087376386 -0.04191573 0.121844776 -0.011969057
000190 f5 51 28 3d 01 7d 72 3b 6d d2 a7 3d 67 21 d3 3c
       0.041093785 0.0037000778 0.081944324 0.025772763
0001a0 a3 9e 91 bd f4 58 31 bc 98 d4 a5 3c 33 7c 29 bc
       -0.07110336 -0.010824431 0.020242974 -0.010344553
0001b0 11 f4 83 3d b9 7f e0 bc 82 a3 10 3d b7 2f 67 bb
       0.06443036 -0.027404653 0.035312183 -0.0035276243
0001c0 04 f8 41 bc 9f be ac bc 37 f6 5e bd dd 34 26 bd
       -0.011838917 -0.021086989 -0.054434028 -0.040577758
0001d0 42 ca 53 3d 13 2f 8e bd 31 a3 1b 3d 4d 23 25 bd
       0.05170656 -0.069425724 0.03799743 -0.04031687
0001e0 1d 44 54 3d a9 be fd bc 2d 35 28 3d 1e bf 2f 3d
       0.05182277 -0.030974703 0.041066337 0.042906873
0001f0 d6 e4 c6 3d dd 4b b4 3d 87 6a 24 3d 72 67 e9 3c
       0.09711616 0.08803532 0.040140655 0.02849171
000200 0e 71 58 bd 9a 52 08 3e b8 52 a6 bb 20 ca 78 3d
       -0.052842192 0.1331276 -0.005075779 0.060739636
000210 1a 4c d6 bd cf b3 ed bc 37 8e 37 bc 00 1b 1b 3d
       -0.10463734 -0.029016403 -0.01120334 0.037867546
000220 72 3d b8 3c c1 0f 85 bd eb d4 c9 bd c0 6d f1 bb
       0.022490237 -0.064971454 -0.09855064 -0.0073678195
000230 0e f4 91 bc 18 c7 d9 3c 57 56 53 3d 9f 84 a1 bc
       -0.01781657 0.026584193 0.051596012 -0.019716559
000240 c6 90 b4 bc 96 c2 a5 bc 3b d6 c7 bb 11 b4 3b 3d
       -0.02204169 -0.020234387 -0.0060985363 0.04582602
000250 f0 11 8c bc 47 80 d4 3d 71 69 51 3c 71 37 55 3d
       -0.017098397 0.103760295 0.012781487 0.052054826
000260 89 d0 03 bd c6 f2 a2 bc f8 ff 10 bd 49 fa 85 bc
       -0.032181296 -0.019891154 -0.03540036 -0.016354697
000270 88 de 67 bd bc 92 dc 3d 51 fe ee bc 18 e9 7d bc
       -0.056608707 0.10770175 -0.029174002 -0.015497468
000280 58 09 a1 3c 41 1b d0 3d f9 cb 92 bd 6e 98 2e 3d
       0.019657776 0.10161448 -0.07167811 0.042625837
000290 49 ff 11 3c 1b 24 9c bc a4 5b f9 3d d4 8d 9a 3d
       0.008910962 -0.019060185 0.12175682 0.07546583
0002a0 f7 20 25 bc d7 f3 92 bd e4 a1 a4 3d e0 c5 44 3c
       -0.01007866 -0.07175415 0.08038691 0.012010068
0002b0 70 d5 ff bc c4 ac 59 bc b3 80 5d bb 0a fc a6 3c
       -0.031229705 -0.013285819 -0.0033798635 0.020383853
0002c0 3f cd de 3c e8 cd 1a bd a6 de 45 3c 7a 1f ea 3c
       0.027197478 -0.037794024 0.012077009 0.028579462
0002d0 0a dc 2d 3d 43 e4 fa 3c 0d 30 61 bb 53 3f c6 bc
       0.042446174 0.030626422 -0.0034360916 -0.024200117
0002e0 c9 e8 e6 3d 46 38 59 bd 21 2d f7 3c ad 62 36 3c
       0.11274869 -0.053032182 0.030172886 0.011131925
0002f0 61 fe 22 bd 84 85 d1 3c 12 18 be bd e0 bc 82 bd
       -0.039793376 0.02557636 -0.09281935 -0.06383681
000300 2f 1b 8c 3c e6 ce 18 3d ec 77 20 bd da eb bc 3d
       0.017102806 0.03730669 -0.039176866 0.092246726
000310 df 12 ea 3d db bf 34 bd cc 7a 07 bd 9c 70 c0 3d
       0.114293806 -0.04412828 -0.033076093 0.093964785
000320 6c cc 22 3d fa 41 c1 bc 5a 66 16 3d e1 2f 4c 3d
       0.039745733 -0.02359103 0.036718704 0.04985035
000330 e2 4f 0c 3d 9a 1b cd 3d 98 80 e8 3c 38 c7 3f 3d
       0.03425587 0.1001503 0.02838163 0.04682085
000340 20 d9 f2 3c 77 eb c0 bd 10 d0 01 3e 62 21 a3 ba
       0.029644549 -0.09419911 0.12677026 -0.0012445862
000350 4b e9 73 bd 50 04 26 bd 2f b6 f7 bb d5 11 f0 3b
       -0.059548657 -0.040531456 -0.00755956 0.0073263445
000360 96 98 ab 3c 68 c8 84 bd 52 f7 82 3c 67 fb 22 bd
       0.020946782 -0.06483537 0.015987072 -0.039790537
000370 60 43 2b 3a ed 8b 22 bd ee 5f d0 bc d8 ab 61 bc
       0.0006533172 -0.039684225 -0.025436368 -0.013773881
000380 ec 88 8d bd 7f fa b0 bd 36 39 c1 3c 81 72 d1 bd
       -0.069108814 -0.08641528 0.02358685 -0.10226918
000390 54 d3 63 bc b6 c7 2e bd e5 9a b8 3d 71 bc 7b 3a
       -0.013905365 -0.042670928 0.09013919 0.000960297
0003a0 5f b1 17 bd 4d 43 c4 bc 50 7e 99 bc 58 ae b1 bd
       -0.03703439 -0.023957873 -0.018736988 -0.086758316
0003b0 d5 ef 1b 3d 43 6f 1c bc 6b b5 5a 3d 98 49 c8 3d
       0.03807052 -0.009548011 0.05339567 0.09779662
0003c0 6e 77 87 3c 83 0f 0e 3d e3 d2 0f bd 88 a0 a8 3d
       0.01653644 0.034682762 -0.035113227 0.08233744
0003d0 51 bc bf 3c a5 c4 02 bd f8 01 e7 3d 8c b0 ae 3c
       0.023405226 -0.031925816 0.112796724 0.021324418
0003e0 ff 3a 63 3d cf 19 cf 3d 2f fb 89 3b 1e 97 15 bd
       0.055476185 0.101123445 0.0042108516 -0.03652107
0003f0 62 9d d5 bd 16 59 85 bd 15 73 f9 bb 7b 42 72 bd
       -0.10430409 -0.065111324 -0.007612596 -0.059145432

clf_net.1.running_mean f4 [256]
000000 ee 1c b7 bd 5a cc 50 3f 45 8a a0 3e 07 2f 6d be
       -0.08941065 0.81561816 0.3135549 -0.23162471
000010 c2 dd 11 be b9 04 1d bf 4b 4b ae 3e c4 e5 cd 3e
       -0.1424475 -0.6133533 0.3404182 0.4021436
000020 92 40 da 3e 47 00 e2 be 73 3f 97 3e 90 ee 03 3f
       0.42627388 -0.44140837 0.29540595 0.5153589
000030 13 4d 34 be 23 f5 00 3f 96 fb 99 3e e0 aa 0a 3c
       -0.17607526 0.5037405 0.30074757 0.008463591
000040 1c b2 44 3f f1 47 bd be bf 96 07 3c 22 f0 96 3e
       0.76834273 -0.3696895 0.008275687 0.29480082
000050 c4 df 1c bb 7d 8a 9d be 98 02 82 3f d6 38 36 3f
       -0.0023937086 -0.3076972 1.0157042 0.71180475
000060 bc df a0 be e6 a6 47 3f cf db 82 3e 27 82 a3 be
       -0.31420696 0.7798904 0.25558326 -0.31935236
000070 98 f9 39 bf 40 74 50 be 6f d9 44 bb 14 74 72 3f
       -0.72646475 -0.20356846 -0.0030036827 0.9470837
000080 2f 93 9e 3e 22 b1 4f 3e bd da 7a be 7c ad 82 3e
       0.30971667 0.20282415 -0.24497505 0.25522983
000090 e8 0d 8d 3e 10 8c bf be 82 74 50 bf 3c 55 f7 3e
       0.27549672 -0.37411547 -0.81427777 0.48307216
0000a0 24 d4 e7 be 23 2b f2 be da ee a3 3d 84 10 35 3e
       -0.45279038 -0.47298536 0.08004542 0.17682081
0000b0 95 d2 8c 3e e0 9f 6f bd 47 b4 9e 3d 5b d2 30 bd
       0.2750441 -0.058502078 0.07749229 -0.04316936
0000c0 02 82 f7 3e 99 c2 22 bf 78 8c fa 3e 57 a3 0f 3f
       0.48341376 -0.6357818 0.48935294 0.5610861
0000d0 9a de 4a bf 4e 93 d9 be cc 65 b2 be d1 02 b7 3e
       -0.79245913 -0.42495197 -0.3484329 0.35744336
0000e0 ba 21 8c 3e 50 70 42 bf 91 e1 99 3e 00 83 db be
       0.2736948 -0.75952625 0.30054906 -0.42873383
0000f0 e1 25 d9 3e ea d9 45 3f f7 3a ad 3a 98 47 19 3f
       0.42411712 0.77285635 0.0013216425 0.5987487
000100 aa d6 fc 3d 36 67 15 bf 5d a4 ae be ce e0 5f 3e
       0.123456314 -0.5836061 -0.34109774 0.218631
000110 fb 35 80 3f 3f c0 ac bb 98 7f 82 bf aa 19 37 bf
       1.0016474 -0.005271941 -1.0195189 -0.71523535
000120 81 8c 4d be 33 87 66 bf 5a 4e 0b 3f 8d e4 87 bf
       -0.20073129 -0.9005005 0.5441643 -1.0616623
000130 fb 4d be 3d bd de 19 3f d5 78 31 3e 32 0e 05 3e
       0.09292217 0.60105497 0.1733125 0.12993696
000140 5f 46 df 3e c8 49 c0 be 6f d2 ba 3e cb 02 42 bf
       0.43608376 -0.3755629 0.36488673 -0.7578551
000150 fe 3e 97 3f 9f 51 21 3e 7a b7 36 bf 54 79 f7 3e
       1.1816099 0.15753792 -0.71373713 0.48334754
000160 0c 32 b7 3e bb 24 a7 3e 27 b7 0c 3f 93 48 02 bf
       0.3578037 0.3264521 0.5496697 -0.5089199
000170 eb 35 b6 be 2a 42 1c bf f1 31 39 3e ca ee 1f 3e
       -0.3558801 -0.6103846 0.18085457 0.15618435
000180 9d 9d 40 3f e3 c6 f3 3e 9d 71 f1 3d 65 e5 83 be
       0.752405 0.47612676 0.11789248 -0.25760952
000190 88 be d5 3d 50 78 16 3f a4 82 06 bf 17 f3 a8 3e
       0.104367316 0.5877733 -0.5254309 0.32997963
0001a0 47 98 26 be c6 ab 48 3e b6 de 07 bf 4d 6e 2d 3f
       -0.16269027 0.19596776 -0.53074205 0.6774643
0001b0 ef 93 f1 3d db 34 ab 3e 93 9b ca 3e 8b 20 63 3e
       0.11795794 0.33438763 0.3957182 0.22180383
0001c0 1e 11 07 be 64 99 84 3f e1 c1 1b bf 85 2f 7d bf
       -0.13190123 1.0359311 -0.6084271 -0.98900634
0001d0 10 f8 4a 3e 67 c0 dc be 0c b2 f0 3e 0a 99 86 3e
       0.19821191 -0.4311554 0.4701084 0.26288635
0001e0 0b a3 80 bf 4b d9 c1 3e b4 9c de 3c d4 73 ff 3d
       -1.0049757 0.37861094 0.027174331 0.12473264
0001f0 b1 b1 34 bd 1a 74 e1 3e 35 3e 43 3f a5 f5 c6 be
       -0.044114772 0.4403389 0.76266795 -0.38859287
000200 e5 ee d9 3e 8c c6 5e be cd cf 76 3f 31 e5 76 3f
       0.42565075 -0.21755427 0.9641083 0.9644347
000210 40 b9 85 be f2 77 88 be b5 73 36 bf 07 d6 74 3d
       -0.26117897 -0.2665401 -0.71270305 0.059774425
000220 43 90 0d bf 0d c6 77 bf b6 e1 7c be 87 0f a7 3e
       -0.5529825 -0.96786577 -0.24695477 0.32629034
000230 7a a8 a9 be 63 70 38 bf 6f 38 97 be d7 f8 bf 3e
       -0.3313635 -0.7204649 -0.29535243 0.37494537
000240 03 16 95 be b1 dc 47 3e 98 95 26 3f 4e 8c e8 bb
       -0.29118356 0.19517781 0.6507201 -0.0070968037
000250 e1 fc b8 bd 17 15 a2 3d f3 3b e6 be 72 e2 ce 3e
       -0.09032608 0.07914179 -0.44967613 0.4040714
000260 79 7c 7d 3f 6d a9 ee bd e3 b6 c8 be 62 f0 f8 bd
       0.99018055 -0.11653409 -0.39202031 -0.121552244
000270 a7 2b 84 3d 74 c2 f0 3e 6d 0b f7 be 72 87 4a 3e
       0.064536385 0.47023356 -0.48250905 0.19778231
000280 80 7a d4 be 19 6f 85 3e 73 52 02 3f 4c 67 02 bf
       -0.4149971 0.26061323 0.5090706 -0.5093887
000290 30 1b c8 be bc 97 59 bd d2 f2 10 bf b9 d6 04 be
       -0.39083242 -0.05312322 -0.56620514 -0.12972535
0002a0 19 a0 d0 3e 79 48 ce 3e ad b8 56 3f 13 13 91 3e
       0.40747145 0.40289667 0.8387554 0.28334865
0002b0 36 d6 05 bf 36 fe 4b bf 07 ad dd be 0b 8a 14 3e
       -0.52279985 -0.7968477 -0.43296072 0.14505784
0002c0 23 b2 b5 be c0 1b 84 3e 26 59 75 bd 0a f4 96 bc
       -0.3548747 0.25802422 -0.05989947 -0.018426914
0002d0 bc 0e 8d 3f 9e 12 2c bf f0 44 29 3f 28 01 3e 3d
       1.1020122 -0.6721591 0.66120815 0.04638782
0002e0 24 ef 0d bf d1 8a 64 be 00 de 4f bf ab 3f 68 bd
       -0.55443025 -0.2231858 -0.8119812 -0.056701344
0002f0 de ca eb 3e cd 19 13 3f f1 d7 90 bf c8 72 f7 bd
       0.46053213 0.57461244 -1.13159 -0.1208244
000300 38 7a 91 be 8e 61 5b be b4 87 53 bf ea 69 d8 bd
       -0.28413558 -0.21423933 -0.8262894 -0.105670765
000310 97 96 25 3d 3a 3d 80 be dd 99 16 3f 75 b9 29 bf
       0.040426817 -0.25046712 0.58828527 -0.6629861
000320 85 fe 4e 3e 73 0d 92 bc 6d 93 1b 3f 77 f5 1a bf
       0.20214279 -0.017828679 0.6077183 -0.605308
000330 f7 77 04 bf d4 53 ef bd 7a 17 5b bd ed 3a 83 3e
       -0.5174555 -0.11685911 -0.053489186 0.25630894
000340 b5 88 30 bf ab 68 36 3d f4 13 66 3e 3b 9d d0 3e
       -0.689586 0.044533413 0.22468549 0.40744957
000350 ea b1 ac 3e 6a fd 1f 3f 23 df 35 bf 09 40 00 bf
       0.33729488 0.62496054 -0.71043605 -0.5009771
000360 37 e7 ca 3e 6b 33 2c bd 6c a7 d6 be ba f5 c3 be
       0.39629528 -0.042041223 -0.41924608 -0.38273412
000370 70 49 31 bd 8f 41 c3 3d 16 ed c7 be b1 90 3a be
       -0.043282926 0.09533989 -0.3904807 -0.18219258
000380 d4 34 71 3f bb 5b a4 bf 53 e0 aa 3e d6 d3 26 bf
       0.94221234 -1.2840494 0.3337427 -0.65166986
000390 cb 31 72 bd 08 48 57 bf 24 cc 17 3f ee b9 d2 3d
       -0.059129518 -0.84094286 0.5929587 0.102893695
0003a0 ef 9a 15 3e 36 b7 9f bd 97 e3 85 be 86 29 3d bf
       0.14609884 -0.077986166 -0.261502 -0.73891485
0003b0 42 ed 29 bf ce 1c b8 be 6c 92 27 3f 93 0b 2d 3f
       -0.6637765 -0.35959476 0.654578 0.67595786
0003c0 6e 1c b9 3d 63 ac 3c be 9b 7d a7 3e 64 24 31 3e
       0.09038626 -0.18425135 0.32713017 0.17299038
0003d0 d2 e0 cf be 76 53 6e bf 3e 8c 5c 3f c0 c4 ff 3e
       -0.40601212 -0.930961 0.8615149 0.49954796
0003e0 33 d3 15 bf 6a 6b 1f 3f ba de 67 bd d4 17 a2 3d
       -0.5852539 0.62273276 -0.056608893 0.07914701
0003f0 96 5e 38 3f 01 f3 8b 3e 48 8c f8 3d 64 f5 b3 bd
       0.72019327 0.27333835 0.121361315 -0.08787039

clf_net.1.running_var f4 [256]
000000 4a 6d 09 3c 6c 29 f7 3b e5 fe 8e 3b 7c fb 2b 3c
       0.008387873 0.0075427797 0.004363882 0.01049697
000010 84 68 c0 3c 62 5f 97 3b 8b d0 81 3a 23 d5 70 3b
       0.023487337 0.004619525 0.000990407 0.0036748133
000020 79 3b 55 3b a7 26 dc 3b 25 04 8c 3a 4a f8 db 3a
       0.003253667 0.006718475 0.0010682388 0.001678237
000030 cb a9 fa 3c bd dc da 3a 6a 56 3e 3c 6d fb 9e 3b
       0.030598542 0.0016697865 0.011617282 0.0048517496
000040 d5 4d 2c 3b 49 7f fb 3b c9 6f 05 3c 77 19 28 3b
       0.0026291509 0.0076750857 0.008144327 0.0025649944
000050 0e 8a 79 3a 05 ec 23 3b 65 9a 39 3c ad 84 4f 3c
       0.0009519168 0.0025012505 0.011328314 0.01266591
000060 06 83 a2 3a 0b ff 88 3c da 5c 1a 3c 66 1c f5 3b
       0.0012398667 0.016723176 0.009421552 0.007480192
000070 67 47 1c 3b 14 e2 0f 3c 40 0d e5 3b 37 fb 59 3c
       0.002384627 0.008781929 0.006990105 0.013304523
000080 9d 18 f0 3b bd 4b 4f 3c d6 43 48 3c 53 48 25 3c
       0.007327153 0.012652335 0.012223205 0.010088044
000090 6d 7a 4e 3c 4d 25 58 3a f1 59 b1 3c 63 55 e7 3b
       0.012602431 0.00082453043 0.021649333 0.0070597394
0000a0 61 28 de 3c 21 fe 1e 3c 53 ba 8b 3c 20 04 9c 3c
       0.027118864 0.009704144 0.01705662 0.019044936
0000b0 64 89 ff 3b 29 59 2e 3b 09 7a f1 3b ef 8a c7 3b
       0.0077983607 0.0026603437 0.007369284 0.00608956
0000c0 44 f1 48 3b 87 eb 7b 3a e4 0d 01 3a 29 34 0f 3c
       0.0030661384 0.00096099864 0.00049230293 0.008740463
0000d0 e2 b0 45 3c 39 9c 42 3c 14 d2 09 39 55 71 4e 3b
       0.012066098 0.011878067 0.00013143598 0.0031500657
0000e0 e6 e2 1b 3b 01 e1 87 3c 8b f7 78 3c 38 8d 12 3b
       0.0023786365 0.016586782 0.015195738 0.0022362005
0000f0 e4 3e b9 3b 77 d1 0b 3b 78 15 bc 3b cb 50 ec 3b
       0.005653249 0.0021334568 0.005739864 0.0072117797
000100 91 75 16 3c 95 8c 39 3c 27 a9 9a 3b c9 4e 64 3c
       0.009183303 0.011325021 0.0047198716 0.0139347995
000110 20 7e ab 3c c4 ec 99 38 9b 0d 12 3d bd a7 6b 3b
       0.020934165 7.3397096e-05 0.035657506 0.0035958134
000120 e0 32 be 39 6b 2d de 3b 03 ef d8 3b f0 e8 42 3c
       0.0003627753 0.0067803166 0.0066202893 0.011896357
000130 a6 cb 95 3c 25 d9 9c 3a 92 55 f9 39 11 3b df 3b
       0.018285584 0.001196657 0.00047556736 0.006812461
000140 b8 d8 10 3c a4 78 fb 39 ec aa 42 3c 9c 5f a8 3b
       0.008840732 0.00047964335 0.011881571 0.0051383507
000150 60 b0 ce 3c a0 a2 5a 3b a6 a2 1b 3b d1 e2 fc 3b
       0.025230587 0.0033361092 0.002374807 0.0077174683
000160 52 46 48 3c 42 c4 d8 3b 98 a8 53 3b 64 72 1f 3c
       0.012223797 0.0066151926 0.0032296535 0.009731863
000170 ff 2d 1b 3a 67 d4 42 3c 6f 1f e7 3c 42 b0 92 3b
       0.0005919635 0.011891461 0.02821323 0.004476578
000180 8d 93 fd 3b 1f 70 6d 3c 03 35 5d 3b 49 5b 18 3c
       0.0077385367 0.014492064 0.0033753521 0.009299108
000190 db 71 d8 3b ca aa 2f 3b 06 3b a5 3b 48 f1 32 3c
       0.0066053695 0.002680468 0.0050424365 0.010921784
0001a0 73 34 0e 3c 30 0e dd 3c 26 94 9c 39 a5 29 11 3c
       0.008679497 0.026984304 0.00029865018 0.0088600265
0001b0 d0 4c ce 3c fd 41 1a 3c c4 07 b1 3b 1a aa 5a 3c
       0.025183111 0.009415147 0.005402537 0.013346219
0001c0 45 a8 35 3c e1 8a 61 3c 9b 66 20 3c aa c4 ac 3c
       0.011087482 0.0137660215 0.009790088 0.02108987
0001d0 0c a0 53 3b d8 0a f9 3c 4c 48 f8 3a fd 1f ea 3b
       0.003229144 0.030400679 0.0018942445 0.0071449266
0001e0 ce e2 91 3c 04 a2 50 3c c4 2d 31 3c d5 71 00 3b
       0.017808344 0.01273394 0.010814134 0.00195991
0001f0 9c 6d 0d 3c af e6 ee 3a 68 4c 2c 3c 3f 37 63 3c
       0.00863209 0.0018226708 0.010516264 0.013868152
000200 8f 2d 6b 3a 93 7a e7 3a fa de aa 3c 05 6a b0 3c
       0.00089713273 0.0017660431 0.020858277 0.021534929
000210 3f df 05 3c 3b dc 44 3c a0 0b 36 3b 90 95 00 3c
       0.008170902 0.012015398 0.0027777925 0.0078481585
000220 4d e2 1e 3c 3f 7b 0b 3c bd f5 25 3b 2e 5e 30 3c
       0.009697509 0.008513271 0.0025323473 0.010764642
000230 1c 5f 56 3a 09 8f d1 3b 80 34 de 3b 26 56 69 3b
       0.00081776245 0.006395225 0.006781161 0.0035604327
000240 28 f2 ac 3a a4 73 08 3a ef 70 74 38 d9 11 0a 3c
       0.0013194727 0.000520522 5.827931e-05 0.008427107
000250 70 99 25 3c ea 87 f6 3a 4b d3 8a 3b 36 b0 9c 3c
       0.010107383 0.0018808816 0.004236614 0.019126993
000260 ff 6a 51 3c 58 0c 1f 3c 3c d8 97 3c b4 30 81 3a
       0.0127818575 0.009707533 0.018535726 0.0009856434
000270 c3 7d 80 3b 7f bf a7 3b ff 70 d2 3b 52 5a f1 3b
       0.003921242 0.0051192637 0.0064221616 0.0073655033
000280 9d b4 89 3b 3f f1 9f 3b 7c 33 52 3c a7 34 53 3c
       0.004202439 0.0048810537 0.012829658 0.012890971
000290 c5 13 3f 3c f4 3d fa 3b a3 ff 4a 39 59 b2 19 3c
       0.011662428 0.00763678 0.00019359453 0.0093809
0002a0 06 24 41 3c 6d 1d 0c 3c 6b 8c bc 3c 29 90 f7 39
       0.011788374 0.0085519375 0.023016175 0.0004721892
0002b0 66 ab c4 3a b7 77 71 3b 40 02 b9 3b b9 97 95 3b
       0.0015004694 0.0036845037 0.00564602 0.004565206
0002c0 2c 76 00 3c e2 1e be 3a 62 03 d6 3c 3f 7f 32 3c
       0.007840674 0.0014505053 0.02612466 0.010894596
0002d0 49 fd 9b 3c ef 2f 11 3c 08 54 d2 3b 2f 82 cd 3b
       0.019041674 0.008861526 0.0064187087 0.0062716226
0002e0 66 94 8a 3b 7d 36 82 3c d5 44 64 3c 9c ea ca 3a
       0.0042291163 0.015895123 0.013932426 0.0015481296
0002f0 f5 02 03 3c f1 78 1f 3c 9e 49 a5 3c f3 22 88 3c
       0.0079963105 0.0097334245 0.020176705 0.016618228
000300 23 79 e4 3b 03 ea 35 3c cb a9 b4 3c 3d 96 82 3a
       0.0069724484 0.011103156 0.02205362 0.0009962987
000310 03 a9 08 3c f5 7c 52 3c f4 8a fe 3b aa d1 81 3b
       0.008341077 0.012847175 0.0077680293 0.0039617615
000320 e2 87 ae 3b f5 65 a5 3b ff 96 da 3c 3e 2c 22 3a
       0.005326257 0.0050475546 0.026683329 0.0006186402
000330 33 a1 2f 3c cd 4a 2e 3b 09 97 34 3c 24 8d 94 3a
       0.010719585 0.0026594878 0.011022338 0.0011333567
000340 02 d0 1e 3c 14 79 06 3c 63 2e 3a 3a 6f 3e 1e 3c
       0.009693148 0.008207578 0.0007102249 0.00965844
000350 8e 6c c3 3b ef f0 13 3c 0c 48 3a 3b 77 ab cb 3a
       0.0059638685 0.009029611 0.002842429 0.0015538771
000360 d0 40 77 3b a9 2b 9b 3b db 27 17 3c 22 b8 c2 3b
       0.003772784 0.0047354293 0.009225811 0.0059423605
000370 e0 f8 83 3b 4e 05 c2 3a 86 9a 39 3c c9 32 81 3b
       0.004027471 0.0014802606 0.011328345 0.0039428216
000380 6e a4 9a 3c 93 f6 de 3c c3 0b e1 3b dc ef a1 3b
       0.018877234 0.027217185 0.006867857 0.0049419235
000390 f7 c9 fe 3b 5d 9c 7a 3c 64 b2 38 3a 69 08 3c 3c
       0.007775541 0.015296069 0.0007045625 0.0114766145
0003a0 0f fc 14 3b de 72 46 3c 56 66 17 3c 5c 37 9a 3b
       0.0022733246 0.012112347 0.009240707 0.0047063064
0003b0 93 69 03 3b 05 d3 52 3b 2a 94 8d 3c da 7e 87 3b
       0.002005194 0.0032169234 0.017282564 0.004134995
0003c0 30 42 ff 3b 09 4e ee 3b 32 90 20 3c fc 27 ac 3a
       0.0077898726 0.007272486 0.009800004 0.0013134475
0003d0 6f a8 b0 3b a5 e4 23 3c ab 5e 5d 3b ed be 91 3c
       0.0053911726 0.010003244 0.003377835 0.017791236
0003e0 64 3d fa 3b 79 2f 50 3a aa c7 76 3b 09 08 d4 3b
       0.007636713 0.0007941644 0.003765563 0.0064706844
0003f0 a6 8c b5 3a 01 a6 12 3c 3e ef d1 3b 28 32 d9 3b
       0.0013851121 0.008950711 0.0064066937 0.0066282935

clf_net.3.weight f4 [256, 256]
000000 83 ad 2e 39 5e 6a 5f bd 7d ee e9 3c d7 e4 45 bd
       0.00016658571 -0.0545448 0.028556103 -0.04831394
000010 d5 76 a8 bc be 59 38 3d 71 36 3d 3d 78 88 a6 bb
       -0.020564476 0.04500746 0.046194497 -0.0050821863
000020 8c aa a1 3c f5 5d 69 bd 92 b0 54 bd 38 1f 1b 3c
       0.019734643 -0.05697437 -0.051926203 0.009467892
000030 da 8d 5c bd 7c 52 70 3c 2d 74 06 bd c5 00 f0 bc
       -0.053846218 0.014668103 -0.032825638 -0.029297242
000040 0a 27 0f bd 69 86 52 bd bd fe 57 3d 3a 16 1d bc
       -0.03494934 -0.051397715 0.05273317 -0.009587819
000050 d8 7d 45 3d db 47 0f bc d2 07 40 bd a5 79 3e bd
       0.048215717 -0.008745159 -0.046882458 -0.046502728
000060 c7 d3 08 3d a7 93 eb 3c e2 2b 7d 3b c3 13 7e 3d
       0.03340509 0.02875693 0.0038630893 0.062030565
000070 7c fd 23 bd 9b fa d0 bc 27 13 43 3d c5 22 54 3c
       -0.040036663 -0.025510123 0.047625687 0.012947743
000080 c4 cb 56 3d b8 a9 16 bd 08 3a 1b bd 16 d8 99 3c
       0.05244042 -0.03678295 -0.03789714 0.018779796
000090 50 42 ba bb ad e5 46 bd 21 d0 f8 3c b8 1c 03 bd
       -0.0056841746 -0.04855888 0.030372681 -0.03200981
0000a0 3a 39 33 3d c8 5d ba 3b 89 f9 68 3c 9f 69 fa 3c
       0.043755747 0.005687449 0.01421965 0.030567942
0000b0 77 e4 d4 3c 9d 18 0b bd 2f a3 5e bd c8 94 47 3d
       0.025987847 -0.03395902 -0.054354843 0.048725873
0000c0 d7 ad 43 3d 0f d4 91 3b 47 64 0c 3c 82 d2 45 3d
       0.04777321 0.004450328 0.00856883 0.04829646
0000d0 57 14 65 3d a1 9e 26 bd 73 2b 0b bd 11 1a 4f bd
       0.0559276 -0.040678624 -0.033976983 -0.05056197
0000e0 a8 46 53 bd 85 52 63 3c ad b5 13 bd 8c ca fb 3c
       -0.051581055 0.013874655 -0.03606193 0.03073623
0000f0 e4 7b 16 3c dd 46 fc bc f3 eb 1f bd 12 c1 64 3d
       0.009184811 -0.030795509 -0.039043378 0.05584819
000100 ff 79 d8 3c 4a 1d 29 bd da d6 a3 bb 19 17 82 bd
       0.02642536 -0.041287698 -0.0049999775 -0.06352062
000110 d9 7d f4 3c d3 9d 5f 3d 69 30 2e bd 8d 74 e4 bb
       0.029845165 0.054593872 -0.042526636 -0.0069719017
000120 f7 d5 53 3d 94 4c 8c bd 22 94 68 3d 0c a9 13 bd
       0.051717725 -0.068505436 0.056781895 -0.036049888
000130 6a 2f 23 bd fd bb ef bc b6 71 5d bd d4 08 81 bc
       -0.03984014 -0.029264444 -0.05406352 -0.01575128
000140 fa e9 a6 bc f6 9c 47 bd 2d c5 48 bd 07 ee 82 3d
       -0.02037524 -0.048733674 -0.049016166 0.06393056
000150 8b f4 fb bb 47 7b 78 bd f6 dc 5b 3d 96 0d 76 3d
       -0.007689064 -0.06066444 0.05367752 0.06007155
000160 83 68 02 3d 9e 40 2c 3d 5f 50 19 3d ca a5 cb 3c
       0.03183795 0.04205381 0.037430163 0.024859328
000170 4f 3d 9c bc 7c 74 bd 39 8c a8 7d bd 5e d9 1e bd
       -0.019072203 0.00036135677 -0.061928317 -0.038781516
000180 e5 a4 52 3d 8e 8b 02 3d e3 e8 62 bd 5e 59 59 bd
       0.051426787 0.03187137 -0.05539788 -0.053063743
000190 9d f5 74 3b d3 91 00 bd f4 85 e1 3b fe b3 41 bd
       0.0037377842 -0.03138907 0.0068824235 -0.047290795
0001a0 45 cc 14 bd 68 b7 67 bd 74 50 a5 bc a7 5d 81 3c
       -0.03632762 -0.056571394 -0.020179965 0.015791727
0001b0 8a 2c c1 3c 64 02 60 bd 35 a0 17 3d ec 7e 98 bc
       0.023580808 -0.05468978 0.03701802 -0.018615209
0001c0 49 09 20 3d cd d3 72 3d c8 02 49 3c f3 c5 04 3d
       0.039071355 0.05928402 0.0122687295 0.03241534
0001d0 fe 52 78 bd ac 64 c0 3c c3 d5 c8 bc a4 4d 6d 3d
       -0.060626023 0.023485504 -0.024515992 0.057935372
0001e0 9a 0f 29 3d 66 84 82 3d cf 7f d3 bc 12 90 2e 3d
       0.041274644 0.06372909 -0.02581778 0.042617865
0001f0 d5 7d d3 bc ae 33 c9 3c cc 6c 13 bc 33 c3 97 bb
       -0.025816837 0.024560776 -0.008998107 -0.004631424
000200 17 f3 1b 3d 65 89 a0 bc b6 38 2e bd c3 7a a5 3a
       0.038073625 -0.019596765 -0.042534553 0.0012625087
000210 63 91 27 3d 34 18 45 3d d9 a8 28 bc d8 8d e1 39
       0.040910136 0.048118785 -0.010294163 0.00043021026
000220 68 ca 20 3d 37 f8 47 bd b1 d4 92 bb 32 f0 52 bd
       0.03925553 -0.0488207 -0.004480921 -0.0514986
000230 95 95 33 bc 98 51 c9 bb 6e 24 ea bc 83 3a 3f bd
       -0.010960956 -0.00614376 -0.028581824 -0.04668666
000240 44 24 e2 bb 5d ce 80 bc e1 16 f1 3c 08 7e 55 3d
       -0.006901296 -0.015723402 0.029429855 0.052122146
000250 f1 83 7a bd 10 37 ce 3c d3 73 12 bd 4b 70 e6 3c
       -0.061160985 0.02517274 -0.03575499 0.028129717
000260 a7 9f 34 bd 6c 63 dc bc 99 24 2d bd 43 9e 93 bc
       -0.04409757 -0.026902877 -0.04227123 -0.018019801
000270 3b 1a fc 3c e9 2f 11 bb b0 9a 18 3d da fb 4f bd
       0.030774226 -0.00221538 0.037256896 -0.050777294
000280 ee 1a 66 bd e2 74 47 bd 68 01 a2 3c 46 17 dd 3c
       -0.056178026 -0.048695453 0.019776061 0.026988637
000290 ce 4d 62 3b 42 df e0 bc dc c5 6b bd 4d b4 70 3b
       0.0034531238 -0.027450208 -0.05756174 0.0036728561
0002a0 8e c5 59 3d 3e 36 26 3d 43 8d 48 bc ce 10 fc 3c
       0.05316692 0.040579073 -0.012240711 0.030769732
0002b0 9f ac cc bc fb ce 3e bd 84 ff 0a 3d f4 37 05 3c
       -0.024984656 -0.04658411 0.033935085 0.008131016
0002c0 25 ad 5a bb e5 4d ed 3c 7b 2a 83 39 b9 8f 48 3d
       -0.0033367362 0.028967807 0.00025017918 0.04896519
0002d0 30 8f bc 3a 56 79 55 bb 15 bf df bc 50 15 50 ba
       0.0014385935 -0.0032573543 -0.027312795 -0.0007937746
0002e0 b2 4b f6 3c 9c 1b 5d 3d 6d 91 26 3c 2e 37 f3 bc
       0.030065391 0.05398141 0.010166508 -0.029689398
0002f0 fa 4e 36 bb dd 22 04 bd 9e fe 54 3d ca 21 88 3c
       -0.002781807 -0.03225981 0.052000634 0.016617674
000300 b7 d8 2e 3c 49 b2 1d 3d 23 b7 6a bd 70 a2 1a 3d
       0.010671786 0.038500104 -0.05730356 0.03775257
000310 d4 6a ba 3b 7d db 12 bc 39 39 69 bc e5 c0 b8 bc
       0.0056890044 -0.008963463 -0.014234834 -0.022552917
000320 77 3b 18 3c 84 d5 8f bc d2 63 21 bd 04 61 5a bd
       0.009291521 -0.017557867 -0.039401837 -0.053315178
000330 59 ab 37 3c 23 76 46 bd ba 0d 81 bc cb bd d8 bc
       0.011210286 -0.048452508 -0.015753616 -0.026457688
000340 32 e1 41 bc 0f 11 22 3d 59 1f 24 bd 50 93 1e 3d
       -0.011833476 0.03956705 -0.040068958 0.038714707
000350 b1 c6 84 bd 79 2b 5f 3d 8d e2 76 3d 45 75 8b 3c
       -0.0648321 0.054484818 0.06027465 0.017023692
000360 9d 64 64 bb 0b 42 5c 3d ef 28 08 bd 62 26 54 39
       -0.003485001 0.05377392 -0.033242162 0.00020232194
000370 2f 65 80 3b bb 47 13 bd 9f c1 c8 bc b2 57 8e bc
       0.003918312 -0.03595708 -0.024506388 -0.0173758
000380 d5 19 0d 3c 47 71 56 3d cb 8d ff 3c 46 42 dc 3c
       0.008612116 0.052354123 0.031195542 0.02688707
000390 d1 60 4d bd 8f 9d 1e bd 1e b7 31 bd d9 d0 34 bd
       -0.05014116 -0.03872448 -0.043387525 -0.044144485
0003a0 73 c7 62 3d 59 d1 3c bc e5 48 39 bd ac 56 06 3d
       0.05536599 -0.011524522 -0.045235533 0.0327975
0003b0 58 64 f8 3b cc ec 1f bd 95 58 fe 3c 46 ca 86 bd
       0.0075803213 -0.039044186 0.031048099 -0.06581549
0003c0 cf fb 37 3d 70 6b 35 3d f3 d3 45 3d 3c 8b 6e bd
       0.044917878 0.044291914 0.048297834 -0.058238253
0003d0 c1 9b 3f bd 25 03 15 bd d7 91 55 bd 5d 61 85 bd
       -0.046779398 -0.036379952 -0.052141037 -0.06512711
0003e0 08 ea 57 3a b7 41 fa 3c a3 5f 90 3c 16 02 47 3d
       0.00082364725 0.030548913 0.017623728 0.048585974
0003f0 12 f7 66 bd b1 61 1c 3c 23 38 30 3c ed 90 6a bd
       -0.05638797 0.009544776 0.010755572 -0.05726712
