EE8591/Project/classification_models/Hyperbolas/DNN/deepnn/training_models/net_400.pt (torch, 282047 bytes, 14 tensors)

clf_net.0.weight f4 [256, 2]
00000000: 4ee6 323f 06cb 9abe ec21 3cbc 75b1 003f
00000010: ee4d 4ebd 8ba0 b7be 05b1 4ebd 210f 1a3f
00000020: e719 113f ca0d 093f 9547 04bf 4796 1a3e
00000030: 3ddc dd3d acc0 52be bd0c 6a3e 8c85 553e
00000040: aa14 9ebe 3fb2 b73e 040e 363e 489e 03bf
00000050: 54ba 7e3e 518e f1bd 4148 dabd 68ce 833e
00000060: 0e94 27bf 2370 1bbf 0073 9a3e 0beb 38be
00000070: 4348 043f ec98 2fbf a5ac edbe 7d02 c43e
00000080: a8b7 a23e 7add 253d 2481 25bf 9690 c53e
00000090: 6147 92be 76b2 153f 9553 63be 2cc6 a23e
000000a0: 60e2 403d a67f 223e a6bf 2e3c 4fe5 8e3e
000000b0: ebac cc3e e0c8 bb3e 1c8f 1a3e ea47 113f
000000c0: a39a 84be 5b1f 1f3e 16ce 083e ee00 2c3f
000000d0: 0069 2bbf 6a2a c03c 74ee 84be 1157 0f3f
000000e0: 936a b3be 656b 733e 1dd3 ffbd c3b7 f6be
000000f0: 5d26 c7be 6485 083f bbe5 933e ee7e 003f
00000100: c795 063f d5c5 9f3d a512 9fbd 6ff4 1dbf
00000110: 9832 173d 6f24 1d3f 8202 b3be 941e bcbe
00000120: 91d7 fabd fc75 2e3f cd39 62be 45d7 873d
00000130: 2ea3 a1be 8b06 2ebf 0cf1 c63e fded 08bf
00000140: ecc3 1abf 8e26 14bf 738c 59be 29a1 203f
00000150: 6c81 8ebe 2d03 1bbf 50d2 40be 2816 32bf
00000160: ea2b 27bf 2e88 f33d 2542 ccbe 9305 0e3e
00000170: 29cb 0e3f ce7f 093d 4168 003f ebd6 e4be
00000180: 8427 d5be 6202 0c3e 65d4 7e3e e74a b4bd
00000190: 3ff0 33bc 4b62 07be c1a2 b23e 7d75 1cbf
000001a0: f2a0 98be a138 f1be 91de 1ebf 0a86 2a3f
000001b0: 3ee6 37bc a72d 873d f028 d43e e7b4 7cbe
000001c0: cb27 9f3e f85c 8fbe 7fd7 e6be 1eb6 f0be
000001d0: afbd 00be a0b1 24bf b58b 9b3e da0a db3c
000001e0: bf62 b2be b790 4cbe 7136 ae3e a6b2 d8bd
000001f0: 8d5a acbc 0e82 db3e 7970 163f 44f5 e2be
00000200: 2aef 2a3f 7c6b fcbe af2f a6be 2e6a d9be
00000210: 2e1a 02bf ad75 9b3e 6cd2 be3e a656 ed3e
00000220: 0e32 2d3f 960e c23e bf8b 333b f5e3 513d
00000230: 014f 28bf b518 31bf 5b86 ecbe e744 043e
00000240: c5aa ecbd 5ee4 eb3d bfad 80be a299 a8be
00000250: fdf9 1e3f b7ae 82be 99c8 c4be 7cdd cabe
00000260: 8f96 02bf d59a eebe 9a5b f63d 4ca0 61be
00000270: c876 033e 8626 0abe f7c6 853e 8084 08bf
00000280: 50fb 68bd f32a 0e3f 79d4 00be dff0 083e
00000290: f9c0 9abe 2f69 333f b7c6 cabc 0fdb c9be
000002a0: 4a65 0c3f f3d9 153f d02e c43e 52ae 783b
000002b0: 6dcb b9be 9b96 fc3d 9ad8 ddbe 2257 0d3f
000002c0: fe7b 77be 2faf 323f 52e1 1fbf 8f51 8a3e
000002d0: 5640 cb3e 36df 94be fa8f 0ebd 6ac3 0bbf
000002e0: fc80 0abe 1f0a 28bd 122b 06bf 5c1a 323f
000002f0: 1b4f 093f 2a47 273f 5597 033f 55b7 d2bd
00000300: 43b8 163f 2242 8ebc c900 513d 69ee 2a3f
00000310: 1daa c63e dbd5 61bd 62a3 e23e ec4b 1dbf
00000320: 5cb8 aabe beba 82be c185 82be 9812 aa3e
00000330: 160f 0c3f b268 61be b068 343f 41e3 10bf
00000340: 83b0 d1be 8e2d 8abe 560b f03e 5958 2d3f
00000350: d6d3 4b3d 090d dcbd fbd3 e1be 0478 193f
00000360: acd8 223f d16d 033f 4ce9 7b3e d70f d83e
00000370: b16b 893e 87f6 f5be 6ee3 223f cde3 4a3e
00000380: cd50 c5be 088f 2e3f a178 073e bd90 1b3f
00000390: 49bf 91be 10d6 cebe aacb 02bf ff03 08bf
000003a0: dafb b53e 023a a9be 5536 2fbf 26c1 13bf
000003b0: 2e41 dabd ee8a 45be 9a8c 21bf edf5 b43e
000003c0: 28e7 f2be 9553 f6be 91ab 7dbd d1a5 273f
000003d0: 023e 263f b101 1bbf 0c2f 593e e3e4 e23d
000003e0: fe35 1abf b0c0 29bd e78d 94be 7f91 ed3b
000003f0: e38e 4fbd cc31 1b3f 5a16 1f3c b21c 2dbf
0.6988267 -0.3023302 -0.011482697 0.5027078 -0.05036729 -0.35864672 -0.050461788 0.60179335
0.5668015 0.53536665 -0.51671726 0.15096389 0.10833023 -0.20581311 0.22856422 0.20851725
-0.3087514 0.35878178 0.17778784 -0.51413393 0.24875766 -0.11794723 -0.106583126 0.25743413
-0.6546029 -0.6071798 0.30165863 -0.18058412 0.5167276 -0.68592715 -0.4642078 0.38283148
0.31780744 0.04049442 -0.6465018 0.38586873 -0.28570083 0.58475435 -0.22199853 0.31791818
0.047090888 0.15869007 0.01066581 0.27909324 0.39975676 0.36676693 0.15093654 0.5675036
-0.25899228 0.15539305 0.13359866 0.6718892 -0.6695709 0.023457725 -0.25963175 0.5599223
-0.35042247 0.23771437 -0.124914385 -0.48187074 -0.38896456 0.5332854 0.28886208 0.5019368
0.5257229 0.07801405 -0.07767228 -0.617011 0.036913484 0.6138372 -0.3496285 -0.3674208
-0.12248147 0.6814878 -0.22092362 0.06632856 -0.3156981 -0.67978734 0.3885578 -0.5348814
-0.60455203 -0.5787133 -0.21244983 0.6274591 -0.27833116 -0.6055172 -0.18830228 -0.6956506
-0.6530138 0.118912086 -0.39894214 0.13869314 0.5577875 0.03356915 0.5015908 -0.4469522
-0.4163171 0.13672784 0.2488571 -0.08803349 -0.010982572 -0.1322109 0.34889796 -0.6111677
-0.29810292 -0.47113517 -0.6205836 0.6661078 -0.011224328 0.06600504 0.41437483 -0.24678384
0.31085047 -0.28000617 -0.45086285 -0.47013944 -0.12572359 -0.64333534 0.30380026 0.026738573
-0.34840962 -0.1997708 0.3402591 -0.105809495 -0.021039272 0.4287266 0.5876537 -0.44327748
0.66771185 -0.49300754 -0.32458255 -0.4246382 -0.508212 0.30363217 0.37269914 0.4635517
0.676545 0.37901753 0.0027396528 0.051242787 -0.6574555 -0.69178325 -0.46196255 0.12916909
-0.11556009 0.11518167 -0.25132558 -0.32929713 0.621002 -0.25523922 -0.38434294 -0.39622104
-0.51010984 -0.46602502 0.1202919 -0.22033805 0.1283828 -0.13491258 0.2612836 -0.5332718
-0.056880295 0.55534285 -0.12581052 0.13373135 -0.3022535 0.7008237 -0.024752958 -0.3942494
0.54842055 0.5853569 0.38316965 0.00379457 -0.36288014 0.12333413 -0.43329316 0.5521108
-0.24168393 0.6979856 -0.62453187 0.2701535 0.39697522 -0.29076546 -0.034805275 -0.54595053
-0.13525766 -0.041025277 -0.5240947 0.6957147 0.5363633 0.6534296 0.5140279 -0.10288874
0.5887491 -0.017365519 0.05102614 0.66770035 0.3880166 -0.05513559 0.44265276 -0.6144397
-0.3334378 -0.25533098 -0.2549267 0.3321731 0.5471052 -0.22012594 0.7047224 -0.5659676
-0.4095498 -0.2698788 0.4688365 0.6771293 0.04976257 -0.10744674 -0.4410704 0.59948754
0.63611865 0.5133944 0.24600714 0.42199585 0.26839975 -0.48039648 0.6362828 0.19813462
-0.3853821 0.68187 0.1322961 0.6076773 -0.28466251 -0.40397692 -0.51092017 -0.531311
0.3554371 -0.3305207 -0.6844228 -0.57716596 -0.10656963 -0.19291279 -0.63105166 0.35343876
-0.47441983 -0.48110643 -0.061931197 0.6548739 0.64938366 -0.60549456 0.21209353 0.11078813
-0.60238636 -0.041443527 -0.29014513 0.0072500105 -0.050673377 0.6062286 0.009709919 -0.6762191

clf_net.0.bias f4 [256]
00000000: d993 96be 3ee0 123f df19 043f 3755 01bf
00000010: 9854 31bf 93df dbbe 5d1f c63e b159 3e3e
00000020: a85c d23e 1bb9 89be 79f0 653e 7361 de3e
00000030: 06ed e83e 6fbd e23e e2e0 c33e edda 703d
00000040: 5806 183f 5c59 6abe bfd2 0bbe c882 763e
00000050: e2ad d4bd cb51 e5be 4d87 213f 7095 b53e
00000060: 8d03 84be ad86 c23e 10c0 133f 0ae5 edbe
00000070: 1d4e 2bbf d967 c73d c522 98bd 5785 0d3f
00000080: 3e6c c43b 6000 0c3f 513b 11bf f8f9 1c3f
00000090: 5b1d a0ba 514f 99be a5ec a2be 4aa7 0e3f
000000a0: 82e5 0e3e 2368 2cbf 2d34 053f 11ad 1d3f
000000b0: 9440 0a3f 523c 873d f88b 61be 41b7 b2bd
000000c0: 86f0 203f 3cc3 33bf 7724 0e3f 85a1 2e3f
000000d0: 778a d1be 3404 e2be f831 c2be 211a 8a3e
000000e0: 3c44 823e 376c 99be 8bb3 2e3f 3f3a 19bf
000000f0: 4247 333f 703e 253f d482 55be 61ba 043f
00000100: 8182 be3c e572 56be 9598 70be e803 4bbe
00000110: 9024 f23e 5f29 f2bc 84f3 b0be 4a20 0ebf
00000120: cf7d 41be 5839 1bbf 6c92 b63e d60a 2cbf
00000130: 60b5 143f 657a 273f 2af9 293e 495a 873e
00000140: df34 413e 2d21 c1be 65bc 2d3e 1a34 0dbf
00000150: 825a 1d3f f3c4 23bd 3665 15bf 2f5e d73e
00000160: cf60 053e bf14 013f 466e fa3e 1d9e 62be
00000170: 049c 88be 35db 30bf 6b44 d3be 8473 1abd
00000180: ad90 ea3e 7459 f63d 9f4c 96bd 6016 2fbe
00000190: 65cb cb3e d277 0e3f ca93 30bf 4a25 823e
000001a0: b03d 363e c530 c0be 71d0 fdbe 5a02 1a3f
000001b0: 1cfe e9be 4dd4 c63a 329a fd3e c802 49be
000001c0: 757a 8dbe 2a24 2b3f 24da 88be e2d7 efbe
000001d0: 59de 393e 4679 4c3e a1ce 1c3f 705d d13e
000001e0: eb89 07bf b110 9b3d 72c9 12bb 8752 1abd
000001f0: 6b6d 8e3e 04cd 153f 58aa f83e 00aa 74bd
00000200: 85c1 a33e b490 01be ce84 e03e 74bf f33e
00000210: 6a5a 13bf 9b4f 9dbe 6471 29bf 3b8f 983d
00000220: 33cb 12bf 64fd 30bf dc3c 3cbe bcdc 063f
00000230: 13df 81be d276 20bf d602 43be d41a 113f
00000240: ae07 8bbe 3978 413e 0728 2b3f 145a a8be
00000250: 6a5f f63c efc5 92bd 846f 2bbf 0e14 77bd
00000260: e279 173f d7f6 cabe 7630 853d 9c57 3cbd
00000270: ff9b 7c3e 1a86 ac3e da5a f8be e2c1 c4bd
00000280: 16ce 0abf 5778 fe3e 03cb d93d 06c6 66be
00000290: 2a7a 32bd b6dd 2a3e 65b9 08bf daa9 503e
000002a0: 1c44 483d b785 343f 0cd7 933e c9bf 533e
000002b0: f8c9 c4be 937c 2abf f7ea 42be 7de9 033e
000002c0: c77e 2abf 6ecf 9b3e a491 003f 6a52 a7be
000002d0: f5ef 1b3f e6df 0ebf 02a7 1d3f a8c1 40be
000002e0: 286a 2fbf 79ce 5b3e 86cb dbbe acc6 af3d
000002f0: b5ce 463e a1d0 5f3e 017b 1cbf 1b1b b23e
00000300: ad54 a4be e65c cbbe b151 abbe 73b5 22be
00000310: 10db b43e 7f51 9d3d e158 a53e 0cf0 f0be
00000320: 0a10 9c3d 7e04 56be 4895 d23c 686c 1fbf
00000330: 1c3d 1ebe 2e13 843d a6ac 9f3e 733f c13e
00000340: a8a7 dbbe ede8 8cbe 0cdb 2d3e d866 a63e
00000350: 8979 803d 3707 e13e 50a9 19bf 3c8b c7be
00000360: 2aab 083f cdd5 12be 5f96 f6bd de6d 23bf
00000370: c861 84be 4818 2e3e 50e6 17bf c29b 90bd
00000380: 44cb e13e f052 34bf e988 5a3e c34e d0be
00000390: 4582 463e c1c3 dbbe 4605 2d3f 9f19 c7bd
000003a0: 5818 963e e3b4 ecbe 3cc4 1abf 36a7 03bf
000003b0: fc41 20bf 34cb 95be 7fb0 373e 8682 1b3f
000003c0: 975f 63be 992c c43d 9fbf 0d3f 48e9 943d
000003d0: fc8c c5be f00d 17bf 923a 2d3f ede3 f93c
000003e0: 5be9 91be b91c 133f 8663 b2bd accc 1abe
000003f0: 36f8 183f ff6a 89bd 902d ba3e 18e3 353e
-0.29409674 0.57373416 0.51601976 -0.5052065 -0.69269705 -0.4294401 0.38695803 0.18588902
0.41086316 -0.26899037 0.22455014 0.43433723 0.45493335 0.4428515 0.3825751 0.058802534
0.5938468 -0.2288565 -0.13654612 0.24073327 -0.10384728 -0.44788966 0.6309708 0.35465574
-0.2578396 0.37993374 0.5771494 -0.46463805 -0.66916066 0.09736604 -0.07428507 0.55281585
0.005994349 0.5468807 -0.56731135 0.6131892 -0.001221578 -0.29943326 -0.3182117 0.5572401
0.13954738 -0.673464 0.5203274 0.61592203 0.5400479 0.06603302 -0.2202605 -0.08726359
0.6286701 -0.7021978 0.5552439 0.6821521 -0.40925953 -0.44143832 -0.37928748 0.2697306
0.25442684 -0.29965374 0.6824271 -0.598545 0.70030606 0.645484 -0.20850688 0.5184689
0.023255588 -0.20942266 -0.23495705 -0.19825709 0.4729352 -0.029560743 -0.34560788 -0.5551802
-0.18895648 -0.60634375 0.35658586 -0.67204034 0.58089256 0.65421134 0.16598955 0.2643607
0.18867825 -0.37720624 0.16966398 -0.55157626 0.6146623 -0.039982747 -0.5835756 0.42064044
0.13025211 0.5042228 0.48912257 -0.22130628 -0.2668153 -0.69084483 -0.41263136 -0.03770782
0.45813504 0.120287806 -0.07338833 -0.17098379 0.39803615 0.5565158 -0.6897551 0.25419074
0.1779697 -0.37537208 -0.4957309 0.6015984 -0.45701683 0.0015169472 0.49531704 -0.19629967
-0.2763249 0.66852057 -0.26728928 -0.46844393 0.18151225 0.19968137 0.6125279 0.408916
-0.5294482 0.07571543 -0.0022397903 -0.03767636 0.27817854 0.58515954 0.48567462 -0.059732437
0.3198358 -0.12652856 0.43851322 0.47607005 -0.57559836 -0.30724797 -0.66188645 0.07449194
-0.5734131 -0.69136643 -0.18382591 0.52680564 -0.25365505 -0.62681305 -0.1904405 0.5668156
-0.27154297 0.18893518 0.6685795 -0.32881224 0.030074794 -0.07166659 -0.66967034 -0.06032186
0.59170353 -0.3964145 0.06503384 -0.04598199 0.24668883 0.3369606 -0.48506814 -0.09607293
-0.5422071 0.49701187 0.106344245 -0.22536477 -0.043573536 0.16686139 -0.5340789 0.20377293
0.04889308 0.7051653 0.28875005 0.20678629 -0.3843534 -0.66596335 -0.19034944 0.12882037
-0.66599697 0.30431694 0.5022223 -0.32680064 0.6091302 -0.5581039 0.6158296 -0.18823874
-0.68521357 0.21465482 -0.42928714 0.085828155 0.1941479 0.2185693 -0.6112519 0.34786305
-0.32095852 -0.39719313 -0.33460763 -0.1588953 0.3532338 0.0768156 0.32294372 -0.4705814
0.07620247 -0.20900151 0.025705948 -0.6227479 -0.15452999 0.06448971 0.31186408 0.3774372
-0.4290135 -0.27521458 0.16978091 0.3250034 0.06273181 0.43950817 -0.60023975 -0.38973415
0.53386176 -0.14339371 -0.120404 -0.6383952 -0.2585585 0.1700145 -0.59335804 -0.070609584
0.44100392 -0.7043905 0.2134129 -0.4068509 0.19385631 -0.42922786 0.6758617 -0.09721684
0.29315448 -0.46231756 -0.6045568 -0.5142702 -0.62600684 -0.29256594 0.17938422 0.6074604
-0.22204433 0.09578819 0.55370516 0.07271057 -0.38584125 -0.5900564 0.67667496 0.030504191
-0.2849835 0.574657 -0.08710389 -0.15117139 0.5975374 -0.06709861 0.36362886 0.1776241

clf_net.1.weight f4 [256]
00000000: ba24 7f3f a369 803f 5172 7f3f 33a3 7e3f
00000010: 8a7a 803f 61ba 803f e75a 7e3f 0371 7e3f
00000020: c85a 803f 1058 7f3f 09d0 803f 8cdf 7e3f
00000030: 56f1 7e3f 5f9f 803f 48b6 7e3f 3cc8 803f
00000040: c61a 803f 64bf 7d3f 7e30 803f 6a28 7f3f
00000050: eb47 803f cb69 7f3f 5277 803f ade3 7f3f
00000060: 04da 803f 0644 7e3f 8a75 803f 469e 7f3f
00000070: cab1 803f 633f 803f 0e3c 7f3f c10d 803f
00000080: 738f 7f3f 6e8d 7d3f f6eb 7f3f 5487 7f3f
00000090: 6483 803f 9e6b 7e3f 28d8 7f3f c8f3 7e3f
000000a0: 3e06 803f 4169 803f 6a5d 803f c411 803f
000000b0: 0058 813f 263e 813f 4e63 813f 0648 803f
000000c0: 7d30 803f 2956 813f 5905 803f 05ff 7f3f
000000d0: 9e32 7d3f dc39 7f3f 64fc 7f3f 622f 803f
000000e0: c2e5 7e3f 43c3 7f3f a4e6 7e3f 49d6 803f
000000f0: 8fa9 7e3f ba81 7f3f f3c5 7e3f da0a 7f3f
00000100: 13de 7e3f f49d 803f 5e38 803f 2602 813f
00000110: 9e52 7f3f 4e55 7f3f c344 7f3f 8f3e 813f
00000120: 7b46 7f3f c638 7f3f 13c9 803f 3279 803f
00000130: fc1b 7f3f a29e 7e3f 552a 7f3f a420 7d3f
00000140: 06ad 7d3f 9dc2 7e3f 81f0 7f3f d94b 803f
00000150: 6980 7e3f d01b 803f e107 803f cd01 803f
00000160: c4ed 7e3f 4920 803f a7a5 803f 1a88 7f3f
00000170: f525 813f e08f 7e3f c968 7f3f 99d2 7e3f
00000180: e20a 803f 408f 7f3f ae07 803f 4ceb 7e3f
00000190: 73cc 7e3f 026f 7e3f 49aa 7f3f ecbc 803f
000001a0: 224f 803f e337 7f3f 5157 7f3f db10 803f
000001b0: b116 803f d645 7f3f a397 7e3f 13ab 7f3f
000001c0: 9c19 803f 9fe0 7f3f 4920 803f 28d2 803f
000001d0: 140a 7f3f 9d1d 803f b693 803f d066 7f3f
000001e0: 54e2 7e3f a15f 803f 0b12 803f 2db7 803f
000001f0: 0c30 823f 5389 813f 4344 7f3f 9c06 7f3f
00000200: 887d 803f 088d 7f3f 1b82 7f3f 6b52 803f
00000210: c4b3 7f3f a164 7f3f 481d 7f3f 60db 7f3f
00000220: f1de 7f3f 82a0 803f 1b42 803f f937 803f
00000230: d524 7e3f 3a4e 7e3f 18d1 7d3f 9f71 7e3f
00000240: c328 803f 116b 803f c80b 7f3f 150e 7f3f
00000250: 0100 803f 94de 7e3f 52a0 7f3f aba5 7e3f
00000260: f17a 803f b1fa 7e3f 8328 803f ca19 813f
00000270: e245 7d3f 0d92 803f a21a 7f3f 3816 7f3f
00000280: eea0 7e3f 1243 803f 3b27 803f 6e4c 803f
00000290: b75c 803f 12de 7e3f 7158 803f 663a 803f
000002a0: e8c5 7f3f 0c07 7f3f c239 803f 4e27 803f
000002b0: 399b 803f 4aa8 7e3f 9068 7e3f 5b0f 803f
000002c0: 5480 803f fba3 7f3f fb13 7f3f b7b7 7f3f
000002d0: c4e3 7f3f ccad 7f3f cf1b 7e3f 0f56 803f
000002e0: f370 803f b21f 803f f7cf 7f3f a169 803f
000002f0: 810f 803f 7a09 803f 5233 813f 5e48 803f
00000300: 6047 7f3f bb9d 7f3f 1ac1 7f3f 3713 7e3f
00000310: b62e 803f c518 7f3f 28b0 7f3f 54c1 7e3f
00000320: 8e1c 7f3f 61af 7f3f efb6 7f3f 3111 803f
00000330: 4c36 7f3f cec6 7f3f 6acf 803f 9566 803f
00000340: 1e5d 7f3f 040c 803f 1582 803f 2659 7f3f
00000350: e8c1 7f3f 68a0 7f3f 5ce0 7e3f a1de 7e3f
00000360: f306 7f3f 0f0b 803f 306c 803f 578f 803f
00000370: 44a3 7f3f 3882 803f c540 7f3f cf5e 803f
00000380: a5a2 803f 0216 803f 39cb 7f3f 6e1d 803f
00000390: 65d9 7f3f 5809 803f 62e0 803f e977 7f3f
000003a0: b17b 7f3f cb5f 7f3f c566 803f 0892 803f
000003b0: f778 7f3f b507 813f 4e2b 7f3f dcd5 803f
000003c0: 3203 803f 4afa 7f3f 67c6 7f3f a40d 803f
000003d0: cd4e 803f 64b4 7f3f ae4a 803f 978e 7f3f
000003e0: 6aeb 7f3f f232 803f 2ecc 7f3f de49 7f3f
000003f0: ee01 803f 740c 7e3f d407 803f 1338 803f
0.99665415 1.0032238 0.9978381 0.9946777 1.0037396 1.0056878 0.99357456 0.9939119
1.0027704 0.9974375 1.0063487 0.99559855 0.99587 1.0048636 0.9949689 1.0061107
1.0008171 0.99120164 1.0014799 0.9967104 1.0021948 0.997708 1.0036414 0.9995678
1.0066533 0.99322546 1.003587 0.9985088 1.0054257 1.0019344 0.9970101 1.0004197
0.9982826 0.9904393 0.9996942 0.9981587 1.0040097 0.9938296 0.99939203 0.9959073
1.0001905 1.0032121 1.0028508 1.0005422 1.010498 1.0097091 1.010843 1.002198
1.0014797 1.0104419 1.0001632 0.99998504 0.9890536 0.9969766 0.9999449 1.001446
0.9956933 0.9990732 0.9957068 1.0065395 0.99477476 0.9980732 0.99520797 0.99625933
0.9955761 1.0048203 1.0017202 1.0078781 0.9973544 0.9973954 0.997143 1.0097216
0.9971692 0.99696004 1.0061363 1.0036986 0.99652076 0.99460804 0.9967397 0.9887793
0.9909214 0.99515706 0.99976355 1.0023147 0.9941469 1.0008488 1.0002404 1.000055
0.9958155 1.0009853 1.0050553 0.9981705 1.0089709 0.99438286 0.99769264 0.99540097
1.0003321 0.9982796 1.0002344 0.99577785 0.99530715 0.99388134 0.9986921 1.0057654
1.002415 0.9969465 0.9974261 1.0005144 1.0006925 0.99715936 0.9945013 0.99870414
1.0007815 0.9995212 1.0009853 1.0064135 0.99624753 1.0009037 1.0045078 0.99766254
0.995641 1.0029184 1.0005506 1.0055901 1.0170913 1.0120033 0.99713534 0.9961946
1.0038309 0.9982457 0.998079 1.0025152 0.99883676 0.9976292 0.99654055 0.99944115
0.99949557 1.0048983 1.0020174 1.0017081 0.9927495 0.99338114 0.99147177 0.9939212
1.001244 1.0032674 0.9962735 0.9963086 1.0000001 0.9955838 0.99854004 0.9947154
1.0037519 0.99601275 1.0012363 1.0085995 0.9893476 1.0044571 0.99650013 0.9964328
0.9946431 1.0020468 1.0011972 1.0023324 1.0028294 0.995576 1.002699 1.0017822
0.99911356 0.9962013 1.0017626 1.0011995 1.004737 0.9947554 0.993783 1.0004686
1.0039163 0.9985959 0.9963986 0.998897 0.9995692 0.9987457 0.9926118 1.0026263
1.0034469 1.0009673 0.99926704 1.0032235 1.0004731 1.0002892 1.0093787 1.0022085
0.99718285 0.9985005 0.99904025 0.9924807 1.0014255 0.9964717 0.9987817 0.99513745
0.99652946 0.9987698 0.9988851 1.0005246 0.99692225 0.99912727 1.0063298 1.0031306
0.9975146 1.0003667 1.0039698 0.99745405 0.9990525 0.99854136 0.99561095 0.99558455
0.9961998 1.0003375 1.0033016 1.0043744 0.998585 1.003974 0.99708205 1.0028933
1.0049635 1.0006716 0.9991947 1.0008981 0.9994109 1.0002851 1.0068476 0.99792343
0.99798113 0.99755543 1.0031363 1.0044565 0.9979395 1.0080477 0.9967545 1.0065265
1.0000975 0.99991286 0.9991211 1.0004163 1.0024048 0.9988463 1.002279 0.9982695
0.9996859 1.0015547 0.9992093 0.9972209 1.0000589 0.9923775 1.0002389 1.0017112

clf_net.1.bias f4 [256]
00000000: cd4d 513d c7e6 49bb 7cc5 81bc bea8 0d3c
00000010: 8641 3ebc c5cf 453d 5d9c ce3a 2027 08bd
00000020: bb7f 513c 97fc 15bc 9d69 523d 6ab6 a3bb
00000030: 62b7 abbc 7cfd ffbc 4c70 d03a f063 9b3c
00000040: 438d 2bbd 9a98 fcbc b1ec f3bb 5dff 39bb
00000050: 34a3 59b9 981b 81bc d190 c8bc 47cb 86bc
00000060: 585b 503d 29b5 bebc 376a 8f3d afbe 273a
00000070: 37da 1f3d c0fb 34bc ebe9 e1ba b373 16bb
00000080: 20d6 d23c ccff dc3b 411a 533b c008 073c
00000090: 1543 ff3b dacc 093c ff83 3c3c bd85 523b
000000a0: 2416 94bc a555 c93a a51b 4fbc cccf 273c
000000b0: 7d70 4e3d 00d7 5c3d 439c 1abd 2654 37bd
000000c0: 579f bdbc a108 903c ff54 c2ba 4785 5dbc
000000d0: ab16 f6bc 9009 3d3c 04d7 513c c70e 5abd
000000e0: 0313 61bb 0d7b 4ebb a1da efbb 7f34 b43c
000000f0: 82ec 263d ba19 613d fdf5 8ebc 5ade 393c
00000100: 1da2 583d 2d80 4abc fdee 203c 6df7 4fbc
00000110: 41d9 173d 7fbd 9dbc 7f69 78bb e31a 783d
00000120: 9e2f e5bc 51fd b5bc 6e2d 17bd d3c9 9f3b
00000130: f9e6 f9bc 6b2e 973c b303 e43c 4954 2dbc
00000140: e438 06bc 4054 c9bb 9261 07bc 660f adb9
00000150: d532 dc3b ce19 423d ff9c 193c 27ec 8b3a
00000160: 5a3a d73b 6faa 883b b1d5 2ebd 8c09 893b
00000170: 32f9 283d d4f9 3d3b a70e 323c 86af ff3c
00000180: 7d8c eabc bebd 8fbc 5304 423d 4bf3 81ba
00000190: 431b 923c 72f0 ed3b 1ef3 113d e378 9e3c
000001a0: 79a1 c5bc c809 a1bc d573 003c 711e 09ba
000001b0: 4977 053d 5f7f 65bc 5bad 533b 55a1 febb
000001c0: 6404 92bb 7053 09bc b7fd adbc a214 26bc
000001d0: 4d31 1e3d 4929 05bd 121c 863c 9763 19bc
000001e0: 7389 c83c e162 4abc 297f f33c ce9e 823c
000001f0: 3d12 3a3d 84cf 423d 68c8 803c 1ba3 383c
00000200: dca9 bfbc 56e5 7c3d 33c6 debb 3d67 d53c
00000210: a7da 29bd 3f03 2fbb a97a acb9 2605 d73c
00000220: d51c 783c adfb cfbc 6a71 15bd 65d0 a3bb
00000230: f477 eabb e320 afba c25e c13c 3d31 03ba
00000240: c746 f03b f6a0 35bc 60ae 35bc a834 903c
00000250: 660c 13bb 5d62 fd3c 1d9f b83b fe14 813c
00000260: 41e8 6cbc 7f22 70bc b320 4cbc ef53 463c
00000270: 7312 a9bc c31a 503d 1705 38bb 316f 12bc
00000280: 1882 9d3b a003 613d 67d9 13bd 4f74 8f3c
00000290: 61f3 02ba afbd e63b 6fa6 523d 7762 123d
000002a0: 9943 9abb 0b42 fdbc e579 223d f1b5 be3b
000002b0: 60f3 98bc d53b 32ba f7a8 c7bb 7ac6 2d3c
000002c0: 8d57 e43c cb9d 29bc 8834 2f3b d86f 373c
000002d0: 25ec b63c c45b 003c 13ad 163c f521 0dbc
000002e0: d15c 523d 1a3a a7bc 4f5c c03b e0fe 223c
000002f0: 91eb b2bc a77b 9c3c 2024 14bd 4c43 afbc
00000300: be98 763c 1f80 623c a3a2 80bc d320 193d
00000310: bf5c 653d 69e4 94bc f895 6dbc 11a1 273d
00000320: a65b d13b 67ae 10bc 99a4 aa3b 3e48 ae3c
00000330: fbbc a43c 0dad 583d 23ae 5f3c f5dd df3c
00000340: a208 373c 0c2d 09bd 64cd 4e3d be7e e9bb
00000350: efc8 d2bc 76ad 71bc e002 5abc a995 a53b
00000360: 1969 b93b 396a dfbc e303 35ba f277 a1bc
00000370: 3ad6 3f3c d23b f7bb b2c0 99bb 863c dbbb
00000380: d023 cdbc 8f49 27bd 5e7d 463c b800 1bbd
00000390: 6a9a 1c39 f899 40bc dc6b 193d 3a42 8abb
000003a0: 0ba5 a0bc 94f5 60bb a246 823b 311d 8abc
000003b0: 43c9 003c 7607 843c fa6c cc3c 467e 2e3d
000003c0: 2be4 953b efa6 493c b938 87bc 7cc1 333d
000003d0: 4c26 aa3c 5ca9 d4bc b158 2a3d 7d55 743b
000003e0: 7737 0f3d 68cf 2a3d 35ec 243c 369d 49bc
000003f0: b24f 2abd 6368 f5bc 7892 a8bb a0b4 91bc
0.051099587 -0.003080772 -0.015841238 0.008646188 -0.011612302 0.048293848 0.0015763153 -0.033240438
0.012786801 -0.00915446 0.051370252 -0.0049961107 -0.020961467 -0.0312488 0.0015902608 0.018968552
-0.041882765 -0.030834485 -0.0074439873 -0.0028380968 -0.0002075553 -0.015760228 -0.024483116 -0.016454352
0.050868362 -0.023279743 0.07002681 0.00063989585 0.039026465 -0.01104635 -0.0017235851 -0.0022957146
0.025736868 0.0067443606 0.0032211693 0.008241832 0.007789979 0.008410657 0.01150608 0.0032123171
-0.018076964 0.0015360607 -0.012640868 0.010242414 0.050400246 0.053915977 -0.03774668 -0.044757985
-0.023147268 0.01758224 -0.0014826356 -0.013520545 -0.030040106 0.011537924 0.012807611 -0.05323675
-0.0034343607 -0.003150645 -0.007319764 0.021997688 0.040752895 0.054956175 -0.01745128 0.011344517
0.05288898 -0.012359661 0.009822604 -0.012693268 0.037072424 -0.019255398 -0.0037904677 0.060572516
-0.027976807 -0.022215517 -0.03690856 0.0048763542 -0.030505644 0.018454751 0.027833795 -0.010579177
-0.008192275 -0.0061440766 -0.008263009 -0.00033008604 0.006719927 0.04738789 0.00937581 0.0010675237
0.0065682353 0.004170708 -0.04268426 0.0041820463 0.041253276 0.002898802 0.010867751 0.031211626
-0.028631443 -0.01754653 0.047367405 -0.0009914426 0.017835265 0.0072613293 0.035632245 0.019344753
-0.024124848 -0.019657984 0.0078401165 -0.00052306714 0.032584462 -0.014007418 0.0032299373 -0.007770697
-0.00445609 -0.008381709 -0.021239145 -0.010136755 0.038621236 -0.032510076 0.016370807 -0.009362123
0.024479603 -0.012352676 0.02972372 0.015944865 0.04542755 0.047561184 0.015720561 0.011269356
-0.023396425 0.06174215 -0.0067985295 0.026050204 -0.04146829 -0.0026704816 -0.00032897785 0.026247572
0.015143593 -0.025388563 -0.036485113 -0.004999208 -0.007155413 -0.0013361241 0.023604754 -0.00050045905
0.007332656 -0.011085739 -0.0110889375 0.017603233 -0.002243781 0.030930692 0.005634202 0.01575708
-0.0144596705 -0.014656662 -0.012458968 0.012104972 -0.02063868 0.050806772 -0.0028079206 -0.008937643
0.004806768 0.054935098 -0.036096003 0.017511515 -0.0004995373 0.007041655 0.051428255 0.035738435
-0.0047077653 -0.03091528 0.03966703 0.005820029 -0.018670738 -0.0006799077 -0.00609314 0.0106064025
0.027873779 -0.010352562 0.0026734192 0.011196099 0.0223294 0.007834379 0.009196538 -0.008614053
0.051358048 -0.020413447 0.005870379 0.009948462 -0.021840842 0.01910193 -0.036167264 -0.021394394
0.015051065 0.013824492 -0.015702551 0.03738482 0.055996653 -0.01817532 -0.014501087 0.04092509
0.006389099 -0.008830643 0.00520761 0.021274682 0.020109644 0.05289941 0.013652357 0.027327517
0.011171492 -0.033490226 0.050488845 -0.0071257045 -0.025730578 -0.014750829 -0.0133063495 0.0050532413
0.0056582806 -0.02727233 -0.0006905181 -0.019710515 0.01170879 -0.007544973 -0.0046921605 -0.0066905646
-0.02504149 -0.040841635 0.012114851 -0.037842482 0.00014934843 -0.011755459 0.03745638 -0.0042193206
-0.019609949 -0.0034326063 0.0039757052 -0.016859623 0.0078604845 0.016116839 0.024954308 0.042600892
0.004574319 0.0123078665 -0.01650654 0.043885693 0.020770214 -0.025959663 0.04158849 0.00372824
0.034965005 0.041701704 0.010066082 -0.012305548 -0.04157991 -0.029957002 -0.0051444136 -0.017786324

clf_net.1.running_mean f4 [256]
00000000: 078e bbbd 190f 513f 365d a03e bf81 6ebe
00000010: 9baf 11be a670 1dbf 12ee ad3e b0ee ce3e
00000020: 7e97 dd3e 2419 debe e04b 953e e107 023f
00000030: 4e74 33be 8367 013f 4b75 9b3e aacc 6b3c
00000040: 142a 463f c52b babe 1274 0f3c a196 923e
00000050: dd87 d3ba 21dc 9bbe 66c1 813f 1b23 363f
00000060: e083 9fbe 7f99 473f 91bb 803e 7c03 a3be
00000070: 9862 3abf ebe0 50be 959e cebb d75b 723f
00000080: 326e 9e3e cb56 4f3e 13e5 7abe f6b1 823e
00000090: 1f6a 8c3e b671 c1be 9e46 50bf 8613 fa3e
000000a0: 9c16 e7be 40b3 f0be f6ec a43d dc1b 353e
000000b0: 2239 8a3e a0b8 87bd 0e5e 9e3d f09b 64bd
000000c0: a840 f93e 13cb 1ebf 56f7 f73e 5035 0e3f
000000d0: 39e4 4abf 4657 d9be 116e b4be bf83 b63e
000000e0: 518c 8b3e 5c69 42bf 4e03 9a3e d749 ddbe
000000f0: ed17 da3e a9bc 433f 72cf eabb e16c 183f
00000100: 812e ed3d 513d 15bf 3f7e aebe a51c 603e
00000110: fb29 803f 93e1 40bb 7a72 82bf 5849 39bf
00000120: c5b4 42be 7856 65bf aa07 0b3f aae5 87bf
00000130: 2d1f bf3d 1d12 1b3f 9cd6 273e fc55 073e
00000140: 238f de3e 9daa bfbe cb63 ba3e 3553 42bf
00000150: 871c 973f c09d 1e3e 4899 34bf 197a f33e
00000160: eb27 b53e 9481 a53e 9399 0b3f a148 02bf
00000170: d6ee b5be f555 1cbf b234 393e 258e 2e3e
00000180: 1706 3f3f 5ee1 f33e 5bf5 c13d 8ffa 80be
00000190: ae74 d43d 12aa 173f 5de9 05bf 8c92 a83e
000001a0: a0cc 25be ae8a 483e 721e 06bf cd0f 2d3f
000001b0: 6d8e f03d 191c ab3e 7231 c93e fea5 633e
000001c0: 7060 08be 9c95 843f 4d4d 1cbf aa1a 7dbf
000001d0: 48f1 493e 8b81 dcbe 1a48 ed3e 0226 883e
000001e0: 53d5 80bf 29a2 bc3e bf15 d13c 0a08 fe3d
000001f0: 87bf 3bbd 729f e23e 5b97 423f 8464 c7be
00000200: 9673 da3e d93c 5fbe 4995 763f 7f10 773f
00000210: 240d 86be 7bc3 87be 8991 35bf c6fa 773d
00000220: 3195 0bbf 7aa3 77bf b9e7 74be 31d1 a53e
00000230: ffb1 acbe f0c3 39bf ab82 98be 1b3e c03e
00000240: 4103 97be 1d32 493e 2276 273f f692 efbb
00000250: 9f3f afbd 1bf0 9f3d 2ff4 e5be e90c cf3e
00000260: ad09 7e3f 02b8 edbd f59c c8be 35e8 e4bd
00000270: 2400 853d 0c3d f63e 36de f8be 5cd8 4b3e
00000280: a496 d8be e63f 843e fb4d 023f b5db 02bf
00000290: 4f9d c8be 7d80 30bd a240 13bf 63df 05be
000002a0: 98c5 d03e 5246 cd3e 43e9 563f fd14 913e
000002b0: adf5 04bf 2ce3 4cbf 346b ddbe 6eda 143e
000002c0: 05d9 b2be 0b8d 833e ccfb 75bd 1858 97bc
000002d0: e8ee 8c3f 1745 2cbf bb66 2a3f a926 3f3d
000002e0: e9ae 0dbf 78d2 63be 8822 50bf 9b03 6abd
000002f0: 6634 ec3e 6633 133f 989d 90bf e6b3 f6bd
00000300: 2332 90be 59c8 5dbe c29a 53bf 59f9 d6bd
00000310: 0c97 1f3d f65d 7fbe 5677 163f cb14 29bf
00000320: 7ed1 4c3e 417f aebc b688 1b3f a9f2 1cbf
00000330: c798 04bf 9c24 f3bd 6022 5ebd 30cf 823e
00000340: 0c97 30bf ce4e 3c3d 24a0 5e3e 58e9 ce3e
00000350: f97f ad3e eca0 203f 0e80 36bf bc1d 01bf
00000360: 3773 cc3e d365 32bd bdd1 d6be 7cef c2be
00000370: 644e 30bd be37 d03d c08b cbbe ae0b 3bbe
00000380: 1755 713f b561 a4bf 2941 a73e 36c5 26bf
00000390: ddcd 70bd 534d 57bf 0e07 163f eae2 d93d
000003a0: f997 163e 6d00 9fbd 4e84 85be 2994 3cbf
000003b0: 6a28 2cbf 73d7 b4be 5995 273f 7485 2c3f
000003c0: 6c61 b93d c38d 3dbe a0e1 a83e da81 303e
000003d0: 877c d2be f6cb 6dbf 5ccb 593f 1bec fe3e
000003e0: 2510 16bf 5e00 213f ee0a 61bd 5113 a53d
000003f0: 58bd 393f 9e44 8c3e 6dc2 f63d 1fd0 b3bd
-0.09157949 0.8166366 0.31321114 -0.23291682 -0.14227144 -0.6150001 0.33970696 0.4041648
0.43279642 -0.43378556 0.2915945 0.5079327 -0.17524835 0.5054857 0.30362925 0.014392057
0.77407956 -0.36361519 0.008755701 0.28630546 -0.0016138513 -0.30441383 1.0137146 0.71147317
-0.311553 0.7796859 0.25143102 -0.31838596 -0.7280669 -0.203983 -0.0063055255 0.94671386
0.30943447 0.20247953 -0.24501447 0.25526398 0.27424714 -0.37782067 -0.81357753 0.4884302
-0.45134437 -0.47011757 0.08053009 0.17686409 0.26996714 -0.06627011 0.07732783 -0.055812776
0.4868214 -0.62028617 0.4843089 0.555501 -0.7925449 -0.42449397 -0.35240224 0.3564739
0.2725549 -0.75942016 0.30080646 -0.43220398 0.4259638 0.7645975 -0.0071658427 0.59541136
0.115811355 -0.58296686 -0.34080693 0.21885927 1.0012811 -0.0029431328 -1.0191185 -0.7237754
-0.1901427 -0.89585066 0.5430857 -1.0616963 0.09332118 0.60574514 0.1639046 0.13216394
0.4346858 -0.37434855 0.3640426 -0.75908214 1.1805581 0.15489864 -0.7054639 0.4755409
0.35382017 0.32325423 0.5453121 -0.5089207 -0.3553378 -0.6106866 0.18086508 0.17046411
0.7461867 0.4763288 0.09470626 -0.2519116 0.103738174 0.5924388 -0.5230921 0.32924306
-0.1619134 0.19584152 -0.52390206 0.67602235 0.117459156 0.33419874 0.39295536 0.2223129
-0.13318038 1.0358157 -0.6105545 -0.9886881 0.19720948 -0.43067583 0.46344072 0.26591498
-1.0065101 0.36842468 0.025523065 0.12403877 -0.04583695 0.44262272 0.760122 -0.38943875
0.4266631 -0.21800555 0.9632154 0.96509546 -0.261819 -0.26516327 -0.70925194 0.06054189
-0.54524523 -0.9673382 -0.2391652 0.32386163 -0.3372955 -0.725646 -0.29787192 0.37547383
-0.2949467 0.19648023 0.6541463 -0.0073112203 -0.08557057 0.07809468 -0.4491286 0.40439537
0.99233514 -0.11607362 -0.3918225 -0.111771025 0.064941674 0.4809345 -0.48607033 0.19906753
-0.4230243 0.2583 0.5090024 -0.51116496 -0.39182517 -0.043091286 -0.57520497 -0.13073497
0.40775752 0.40092713 0.8394968 0.28336325 -0.5193737 -0.80034137 -0.43245852 0.1453645
-0.34931198 0.25693545 -0.060054585 -0.018474624 1.1010408 -0.6729292 0.66563004 0.04666773
-0.55345017 -0.22248256 -0.8130269 -0.057132345 0.46133727 0.575003 -1.1298094 -0.12046032
-0.2816325 -0.21658458 -0.82658017 -0.10496778 0.03896241 -0.24938187 0.5877584 -0.6604735
0.2000179 -0.021300914 0.6075548 -0.6130777 -0.5179562 -0.11872217 -0.054232 0.25548697
-0.6898048 0.04597359 0.21740776 0.40412402 0.33886698 0.6274555 -0.71289146 -0.50435996
0.39931652 -0.04355414 -0.41956893 -0.38073337 -0.04304351 0.10166882 -0.39755058 -0.18266174
0.9427046 -1.2842318 0.326669 -0.6514467 -0.058790077 -0.8410236 0.58604515 0.106389835
0.1470641 -0.07763753 -0.26077503 -0.73663574 -0.67249167 -0.35320625 0.6546226 0.67391133
0.09051785 -0.18511109 0.32984638 0.17237034 -0.41110632 -0.92889345 0.85075927 0.4978951
-0.58618385 0.62891185 -0.054942064 0.08060325 0.7255454 0.273961 0.120488025 -0.0877993

clf_net.1.running_var f4 [256]
00000000: b781 093c 331c f93b f9d7 913b fb46 2a3c
00000010: f1bc c03c afc2 993b 325f 833a c6b4 713b
00000020: 530a 583b 4e8c d53b 1b65 8c3a c442 d13a
00000030: 872b fc3c 2aff d93a c25a 3c3c d5c3 9e3b
00000040: e3c9 2b3b 3311 fa3b 8ef4 043c 103e 1f3b
00000050: 1320 843a c472 213b 5fef 393c 8e14 4d3c
00000060: c0dd a03a 63f4 863c 426a 1d3c c3e1 f43b
00000070: 1d26 1c3b 62f4 123c 5d04 e23b 315a 583c
00000080: 236c f13b 3702 553c 8aff 463c 7704 253c
00000090: a972 4c3c 9a2b 603a 9029 b23c e715 e33b
000000a0: d46f de3c 6f78 1f3c 88b4 8c3c 67c9 9a3c
000000b0: 58dc 023c 102f 343b ca85 f33b dc76 c83b
000000c0: ee31 453b 2d32 8c3a b9a6 163a e392 103c
000000d0: f576 493c a9e4 413c 7cc5 f638 2146 4d3b
000000e0: 5fcd 1b3b 6f00 883c aab4 763c 948a 153b
000000f0: 1cb4 b93b b768 043b 9d4f b13b 32d2 eb3b
00000100: 95ce 153c 4475 393c 0d94 9a3b ed61 653c
00000110: 7f1b ac3c 7a7d b038 2317 123d cc17 773b
00000120: 7d8a c239 cbce de3b a3ea d83b 8320 433c
00000130: ecb4 963c 3343 963a 84d8 003a 742a dd3b
00000140: d106 0f3c 4499 fb39 4006 413c 4c85 a43b
00000150: 9ea7 ce3c 8dc1 583b 5063 153b a20a f73b
00000160: 35c3 443c 5398 db3b 0494 523b 9edd 1d3c
00000170: 55b7 1c3a 25cf 413c 447a e73c 1634 a03b
00000180: d4f0 f43b f3c8 6e3c 06ad 3e3b d28e 153c
00000190: bf5f d83b ae98 313b 1d5b a83b 7d94 323c
000001a0: f110 0f3c ec3d dc3c 2013 9039 650c 0f3c
000001b0: 9be7 ce3c 0f0e 1a3c 5a9f b23b de18 5b3c
000001c0: 24e6 333c c9b9 603c b79f 1e3c 9c1c ae3c
000001d0: e128 533b 0507 fa3c 2a06 fa3a 2739 e93b
000001e0: 44ee 913c 9a05 483c 1ac8 303c 0dd2 003b
000001f0: 1185 0f3c e8e0 ee3a f6e9 2c3c 35f1 623c
00000200: c428 6c3a 5754 e93a c924 ab3c 55f6 ae3c
00000210: c23b 073c 592a 443c a676 313b b4f8 ff3b
00000220: 755d 203c 5c3c 0c3c a08e 243b 7876 313c
00000230: b324 763a 80d0 d23b 4395 de3b d863 693b
00000240: 862b ac3a 0d32 083a 5260 7c38 9e15 093c
00000250: a095 223c 5e54 f43a c8ac 8a3b fc97 9c3c
00000260: cc8d 513c 9c2f 1e3c 1984 983c 2cf2 713a
00000270: 34cd 7d3b 92b0 ac3b 2bbb d23b 5d2b f23b
00000280: c351 823b d7f2 a03b eacd 523c e64f 533c
00000290: a9e7 413c 093b f33b 1d55 6d39 adf1 193c
000002a0: 2048 403c 5678 0b3c 7415 bd3c 2ea7 f139
000002b0: a833 c83a 3982 743b e331 b33b fc08 953b
000002c0: f6b4 093c 3cb9 be3a 047c d63c c8de 2f3c
000002d0: 6a34 9c3c 38ce 103c 270d d43b b140 d23b
000002e0: f1dc 8a3b acc7 823c 677a 6c3c 2cba ca3a
000002f0: 90c9 063c f72f 1f3c f7cf a53c dd9b 883c
00000300: e2a5 e43b 49d5 333c 6fff b23c b2f4 823a
00000310: 8f33 093c bcb2 523c e10c 003c 610d 803b
00000320: 08f8 ab3b d947 a03b 16f7 d93c bb18 233a
00000330: e43d 303c 2706 313b cbb3 373c f9ce 933a
00000340: f4ba 1e3c 8d34 083c 8fbd 333a 206e 1c3c
00000350: 8dec c33b f2e1 143c 455a 3c3b 4140 c63a
00000360: 6fff 703b 4481 9a3b 7759 1c3c 27a1 c13b
00000370: 16b7 843b 9606 bd3a 2899 343c 96ad 803b
00000380: 5a1e 9b3c c197 e03c 0039 da3b 9339 a03b
00000390: b1ba fe3b bdba 7a3c 4baf 473a 8a6a 3d3c
000003a0: 3b2f 133b 5e52 483c a10b 193c 719f 973b
000003b0: dda4 053b 0d5b 513b beb0 8d3c 20c2 863b
000003c0: 7c60 003c 7baa f83b cc27 1e3c 7e6d b03a
000003d0: 174c b13b 93f0 253c dffd 523b 2311 923c
000003e0: f2e7 ff3b 47c6 573a ba1e 773b fb9c d93b
000003f0: c74b b53a 4411 133c 44f6 cc3b b58d da3b
0.008392743 0.0076022386 0.004450795 0.0103929 0.023527594 0.0046923975 0.0010022877 0.003688143
0.0032965138 0.0065169698 0.0010711284 0.0015965332 0.030782474 0.0016631831 0.011496248 0.0048451223
0.0026212863 0.007631445 0.008114947 0.0024298467 0.001008036 0.0024635056 0.011348574 0.012517108
0.0012273118 0.016473955 0.009607853 0.007473202 0.0023826428 0.008969398 0.006897493 0.013205097
0.007367627 0.013001016 0.012145886 0.010071865 0.012478509 0.0008551419 0.021748334 0.006930101
0.027152933 0.009733303 0.017175928 0.018894864 0.007987104 0.0027493872 0.0074317204 0.0061176848
0.0030089575 0.0010696106 0.00057468895 0.008824083 0.012296428 0.011834302 0.000117669784 0.0031322318
0.0023773534 0.01660177 0.015057722 0.0022818195 0.0056672227 0.0020204016 0.005411102 0.007196688
0.009143491 0.011319462 0.004717356 0.014000398 0.021009205 8.415706e-05 0.035666596 0.0037703393
0.00037105745 0.006799554 0.0066197678 0.011909607 0.018396817 0.0011464119 0.0004915076 0.0067494456
0.0087296525 0.00047988642 0.011781275 0.005020773 0.02522641 0.003307435 0.002279479 0.0075391093
0.012009432 0.006701508 0.0032131681 0.009635357 0.00059782463 0.011829172 0.028256543 0.0048890216
0.007474998 0.014574277 0.002909483 0.009128289 0.0066032107 0.002709906 0.0051378147 0.01089966
0.0087320665 0.026884995 0.0002748007 0.008730982 0.025256922 0.009402766 0.005451125 0.013372628
0.010980163 0.01371617 0.009681634 0.021253876 0.003222041 0.030520925 0.0019075323 0.007117409
0.01781381 0.012208367 0.010789895 0.001965645 0.008759753 0.0018224986 0.0105538275 0.013851454
0.000900876 0.0017801624 0.020891564 0.021357695 0.0082539935 0.011972987 0.0027078777 0.00781163
0.009787907 0.008559313 0.0025109425 0.010831468 0.0009389624 0.0064335465 0.0067926957 0.003561249
0.001313553 0.00051954464 6.0171187e-05 0.00836697 0.009923369 0.0018640866 0.004232023 0.01911544
0.012790155 0.009654906 0.018617677 0.0009229507 0.0038727047 0.0052700723 0.0064310036 0.007390423
0.003977032 0.0049117613 0.012866477 0.012897467 0.011835017 0.007422809 0.00022633788 0.009395999
0.011735946 0.008512577 0.023081519 0.0004609166 0.0015274184 0.0037309064 0.0054685934 0.00454819
0.008404961 0.0014551054 0.026182182 0.0107342675 0.019067962 0.008838229 0.0064712944 0.006416403
0.004237764 0.015964352 0.01443348 0.001546686 0.008226767 0.009716026 0.020240767 0.016675884
0.0069777826 0.010976144 0.021850316 0.0009991138 0.008374109 0.012859996 0.007815571 0.003907845
0.0052480735 0.0048913774 0.026607078 0.00062216417 0.010756943 0.0027011724 0.0112123 0.0011276893
0.009688128 0.00831331 0.00068565545 0.00954774 0.005979127 0.009087073 0.0028740328 0.001512535
0.0036773344 0.0047151167 0.009542814 0.0059091034 0.004050146 0.0014421518 0.011022843 0.003926943
0.018935371 0.027416112 0.006659627 0.004889676 0.00777372 0.015303311 0.0007617368 0.011561045
0.0022458571 0.012226669 0.009341151 0.004627161 0.0020392456 0.003194514 0.017296191 0.004112497
0.007835504 0.007588682 0.009653043 0.0013460366 0.005410682 0.010128158 0.0032194776 0.017830437
0.0078096325 0.0008231145 0.0037707523 0.006641028 0.0013831788 0.008976284 0.006254943 0.006669725

clf_net.3.weight f4 [256, 256]
00000000: f6fb b23b 2b5a 62bd 6ab4 f13c aca0 47bd
00000010: bed0 abbc da21 333d 247d 343d d458 debb
00000020: bbf7 9e3c cad0 69bd e917 3dbd c588 103c
00000030: 1801 4fbd ad4b 113c a4bd 0fbd e251 efbc
00000040: fc87 1fbd 9630 44bd a0be 543d 180b 23bc
00000050: 0e80 423d 1b24 1fbc 04a4 43bd 679b 42bd
00000060: a655 043d 6687 e03c f356 123b c7cf 7b3d
00000070: a30c 28bd ab7b cbbc c379 413d 9591 503c
00000080: 97a4 633d ae13 17bd 99ab 1dbd 0397 a83c
00000090: 4c03 c2bb 934b 45bd a0ec fd3c f9df 0bbd
000000a0: f20b 3f3d e949 a73b bcfb 813c 8755 fd3c
000000b0: 1e04 cb3c f09e 11bd 798b 6cbd f802 233d
000000c0: 8013 4f3d 5543 453b 194a 133c aa57 413d
000000d0: d66a 703d 892a 28bd 9f04 0cbd b0d4 73bd
000000e0: 539f 60bd ca3c 853c 3acb 10bd 469b 0d3d
000000f0: e48c 1b3c 9a89 d4bc baca 24bd 7d36 6c3d
00000100: 7c52 043d 0e78 20bd 94a8 86bb 0c89 83bd
00000110: 8a2d 0a3d 06e1 593d 2f06 25bd 378b 10bc
00000120: aeae 563d e7b2 86bd bb30 503d daf8 0cbd
00000130: 0084 15bd ca94 02bd b218 60bd 451c 89bc
00000140: c30a aebc 584a 48bd 8c53 4cbd bd8a 833d
00000150: 53b7 ddbb efbf 61bd 5bb3 5e3d cab5 743d
00000160: d426 013d d8ca 323d 7a07 ec3c 5ce7 cb3c
00000170: f556 98bc 729c 0ab8 9c1d 7abd ab94 17bd
00000180: 4ceb 413d 8983 fa3c 7232 4fbd 82ba 61bd
00000190: 0b9f a53b 34e6 01bd 583a 233c df2c 3ebd
000001a0: a7be 05bd 22a5 69bd 7227 b4bc ea98 7b3c
000001b0: b658 d73c 9b8c 63bd 189b 0d3d d446 93bc
000001c0: ba3c 1d3d 64eb 6e3d fc6c 723c 6c13 0f3d
000001d0: 7206 75bd 1c5e dd3c 6222 c3bc 6a68 763d
000001e0: 4007 2d3d 5288 803d 1e55 d2bc 0b3b 383d
000001f0: 9364 d5bc fb14 c63c 2f13 15bc d781 a4bb
00000200: 9056 173d 4f70 b2bc 6013 2cbd daf2 fb3a
00000210: a6fb 143d 3ac0 383d c286 48bc 54fb bcba
00000220: e727 1f3d 27d6 3bbd 568d afba fd6f 56bd
00000230: b9f7 2fbc 540a 0cbc 28c8 ebbc 66d2 3bbd
00000240: 813c d2bb ebce 9cbc 05e0 e93c ce98 5a3d
00000250: d1af 80bd 814b f23c 4eae 12bd dcf7 e93c
00000260: a3db 36bd e4a8 e4bc 449e 26bd 02d8 89bc
00000270: 5e37 033d c5f3 673b c539 0b3d 5416 52bd
00000280: a6b0 67bd 7bf3 49bd cb53 8c3c 3171 d53c
00000290: 5ef3 853b dcb5 d6bc fe8e 73bd 555e 833b
000002a0: 1732 573d ae9d 2e3d f8b0 0fbc 0a12 013d
000002b0: 49ff babc 1119 40bd dfd5 0e3d 2121 da3b
000002c0: eb42 c2ba 7026 e33c 17bf d33a f96a 473d
000002d0: d09b 433b 6f4d bfbb ab6f e2bc c59d eeba
000002e0: 97ba 133d c2d6 663d e590 2c3c 8b49 e3bc
000002f0: 7220 87bb 85cc f8bc 3a9e 663d 2b5d a33c
00000300: e8a8 293c 25c2 1c3d 402c 64bd e5ce 313d
00000310: 26ae a13b 553c 03bc 9ca2 7cbc 14c8 bebc
00000320: 578d 133c 154e 97bc 0c41 1cbd 0091 56bd
00000330: 5583 473c 0b95 47bd a5d1 6cbc b0c2 cfbc
00000340: bcd1 4abc a8f0 133d bbb7 07bd acd2 1c3d
00000350: 8d52 87bd 0c4b 5b3d ff45 753d cf85 8b3c
00000360: a329 8dbb 8985 4a3d 2502 07bd e51d 69ba
00000370: 04be 7d3b 2db2 0abd d60e cfbc 7b77 96bc
00000380: 93d1 ed3b 35e5 633d 0fe4 fc3c b62a 013d
00000390: e81c 4cbd 071c 18bd 45bc 33bd 0c89 37bd
000003a0: 4165 673d 1782 42bc f2a8 37bd d646 143d
000003b0: a6ee 9d3b 9d64 1dbd c230 093d 58ad 78bd
000003c0: 8be4 393d 76d5 363d 11ad 473d 57bc 61bd
000003d0: c36a 49bd 1e4b 0dbd a0a2 43bd 9673 84bd
000003e0: 1ef2 933a c8d6 123d 87ca 8d3c 4c5b 423d
000003f0: 6f81 79bd 06f5 043c cb37 393c 3483 5ebd
0.005462165 -0.055261772 0.029504973 -0.048737213 -0.02097356 0.043733455 0.044064656 -0.0067854915
0.019405236 -0.057083882 -0.04616538 0.008821671 -0.050538152 0.00886814 -0.035092965 -0.02921385
-0.038948044 -0.047897898 0.051939607 -0.009951375 0.047485404 -0.009713198 -0.04776384 -0.047511484
0.032308243 0.027408313 0.0022329658 0.06147745 -0.041027676 -0.024839243 0.04723526 0.012730022
0.055576887 -0.036884002 -0.038493726 0.02057982 -0.005920803 -0.048167776 0.03099662 -0.034149144
0.04664225 0.0051052463 0.015867107 0.030924572 0.024782237 -0.035551965 -0.0577502 0.039797753
0.050555706 0.0030099947 0.008989834 0.047202744 0.058695637 -0.04105619 -0.034184095 -0.059529006
-0.054839443 0.016264338 -0.035350062 0.03457191 0.00949404 -0.02594452 -0.040232398 0.05766915
0.032305226 -0.039176993 -0.0041094515 -0.06422624 0.033734836 0.053193115 -0.0402891 -0.008822254
0.05241268 -0.06577092 0.050827723 -0.03441701 -0.036502838 -0.031880178 -0.05471105 -0.016737113
-0.021245366 -0.048899025 -0.049884364 0.064229466 -0.0067662387 -0.055114683 0.054370265 0.05974368
0.03153117 0.043650478 0.028812159 0.024890594 -0.018596152 -3.3047465e-05 -0.061063394 -0.037007015
0.047343537 0.030580299 -0.050585218 -0.05510951 0.00505436 -0.03171368 0.009962641 -0.04642951
-0.032652523 -0.05704225 -0.021991465 0.015356282 0.026287418 -0.055554014 0.034571737 -0.01797811
0.03838799 0.058329955 0.014796492 0.03493063 -0.0598206 0.027022414 -0.023820106 0.06015817
0.042243242 0.06276001 -0.025675353 0.044978183 -0.026048934 0.024179926 -0.009098812 -0.005020361
0.036947787 -0.021782069 -0.042010665 0.0019222156 0.036372803 0.045105197 -0.01223916 -0.0014418163
0.038856413 -0.04585853 -0.0013393562 -0.052352894 -0.010740214 -0.008547384 -0.028781965 -0.04585495
-0.006415904 -0.019141635 0.028549204 0.053368382 -0.06283534 0.029577019 -0.03581076 0.028560571
-0.044643056 -0.027912565 -0.040678278 -0.016826633 0.032035224 0.00353931 0.03399064 -0.051290825
-0.05656495 -0.049304467 0.0171298 0.02605495 0.0040878495 -0.026209764 -0.05946254 0.004009048
0.052538004 0.042630844 -0.00877022 0.031511344 -0.022826808 -0.046898905 0.034871932 0.0066567813
-0.0014820968 0.02772829 0.0016154972 0.048686 0.002984751 -0.005838088 -0.027641138 -0.0018204978
0.036066618 0.056357153 0.010532592 -0.027745029 -0.004123741 -0.03037096 0.05630324 0.019941887
0.010355212 0.03827109 -0.055706263 0.0434102 0.00493409 -0.00800999 -0.0154196285 -0.023288764
0.009005866 -0.01846985 -0.03814797 -0.052384377 0.012177308 -0.048726123 -0.01445428 -0.025361389
-0.012379106 0.03611818 -0.033134203 0.03828685 -0.06607542 0.053538367 0.059881207 0.017031578
-0.004307942 0.049443755 -0.03296103 -0.0008892699 0.0038717994 -0.033861328 -0.025275629 -0.01836752
0.007257649 0.05563851 0.030870466 0.031534873 -0.049832255 -0.037136104 -0.04388072 -0.044808432
0.056493048 -0.011871836 -0.044838853 0.036200367 0.004819709 -0.03842603 0.033493765 -0.06071219
0.04538397 0.044637166 0.048749033 -0.055111255 -0.04917408 -0.034495465 -0.047762513 -0.06467359
0.0011287367 0.035849363 0.017308487 0.04745035 -0.060914453 0.008115059 0.011304806 -0.054324344

clf_net.3.bias f4 [256]
00000000: 05cd 253d c513 593d ec07 eabb e200 243d
00000010: 36c3 5abc 26e6 f8ba 0acf 0b3d 3599 df3c
00000020: 080b 44bd 675b 1abd 1a50 333d 6d3e 3c3d
00000030: 133e 033d 8a93 65bd 7309 5b3d 045f 3ebb
00000040: 7342 233d 0412 493d 9e0e d83c 8b4f 453d
00000050: de30 24bd c158 45bd ebd6 6b3c 5fdc 093d
00000060: e6fa 1a3d 8ef9 c13c e81c 72bd 90f4 00bd
00000070: 3781 38bd df6a f33c 9129 ef3c 6d8a 6e3d
00000080: 7a59 643d e014 5abd 2ec2 d93c 349e eb3c
00000090: 055b 5ebd 9ed1 c83c baa1 abbc f5b0 ca3b
000000a0: 7215 0ebd 4639 01bd 262e 283b d1f8 ab3c
000000b0: 24ed 1ebc 9415 d0bc cbaf ed3a 89bf f4bc
000000c0: 8db1 333d 193e 2ebd 7957 1b3d b820 edbb
000000d0: 479e 5abc a4a2 e43c 7146 643d bdd8 473d
000000e0: deb6 22bd 0a16 0dbd 684a 5a3d 0442 e53c
000000f0: ea6f ee3c faba 693d 1265 a53b c2ac 103c
00000100: 08e4 78bd 0ddd fc3c 3571 f83c 9ead 20bd
00000110: 538d 883c 14f7 60bd 689f 603d e751 24bd
00000120: 2d2e 5e3c c005 623c 7061 263d 292a 3e3d
00000130: 4785 0d3a 5382 58bd df0e 08bd 934e 7e3d
00000140: 9d7f 173d 6715 29bd 7e79 4c3d 3333 6fbd
00000150: 5208 073d 96c3 023c b725 30bd 306e ef3c
00000160: 6438 49b9 6c16 91bc 7356 a33c d509 bb3c
00000170: 8261 37bd 6cf3 6abd 0ede b8bc 8277 873c
00000180: 4603 5bbd 3bd8 2f3d 479a 49bd db56 42bc
00000190: f4d4 1d3d 7755 a13c 35a2 4e3d d5e6 4e3d
000001a0: ac86 923c 8706 6a3d 06db f53c d9ea cfbb
000001b0: 6287 debb e284 08bd 1a05 ddbc 0f95 2b3d
000001c0: d08f 113d 2987 54bd 22ef 0c3d 2089 71bd
000001d0: fd63 773d f01f 4eb9 9279 ea3c 4242 4fbd
000001e0: b34e 54bc ba5b 093c afb7 7abd 0599 553d
000001f0: c784 153d 2cf5 8239 d467 1f3d d223 7dbd
00000200: 9225 54bc 92d0 4dbc ac51 c6bc 0ded 203d
00000210: bd90 4c3d fb38 3abd 8bf6 5ebb 2124 54bd
00000220: 4c5d 7dbd 4442 f2bc e5de 913c 3a73 cb3c
00000230: 1c00 c03c f61d 383d 6dbe 7bbd 4136 c63c
00000240: c4bf 7a3b d63c 553d 8a47 583d 4143 10bc
00000250: 1482 2b3d 1c7e b13c ece0 083d f35f a2bc
00000260: 079e bd3b 05a8 79bc a1dd 53bd 6518 1c3d
00000270: 4344 dfbc 0d4c 8bbc abb3 3c3c cccf 6cbd
00000280: 0600 6abd 19bb 003d 36b3 443d 8e21 6dbc
00000290: dc4f 39bd 238e 47bb 6a25 10bd 75f4 28bb
000002a0: e329 dc3c 7b36 45bd ad4b 823c a704 dfbc
000002b0: 5a12 d53c d7ae 3bbc 10bc a03c caf7 e6bc
000002c0: 9c65 33bd a1bf 00bd 94f3 dbbc b230 29bd
000002d0: b12a 933c 06ba acbb c5f9 3d3d f80e 453c
000002e0: 3d74 75bd d56c 003d 65ef 683d dd6a 173c
000002f0: 00f2 e73b d3fd eb3b d9a4 64bd 6dad c53b
00000300: 4a4a e8ba 14fa 4f3d 6b06 533b 77fc 59bd
00000310: 48a8 143b 138d 5c3d db84 fcbc 7e67 12bd
00000320: d747 033d 1fec ec3b e2a0 f7bb f611 273d
00000330: 1a53 e8bc 2672 443d 83fb ecbb 1d4f 06bd
00000340: 75c5 533d 0147 0cbd f740 8e3c 99d2 6c3d
00000350: e5a1 3cbd eb42 4dbc 4920 f13b 2fd9 68bd
00000360: e72e 7d3d 8ba0 6c3d ddcc 933b 0db9 f73c
00000370: 1a67 283d cba6 e3bc 8e81 793d f02a bf3c
00000380: 6caa 27bd 0977 f8b9 63b1 53bd ddd0 eeb8
00000390: e544 05bd ab43 40bc d86f 09bd 1966 483c
000003a0: 5219 9e3b 7476 93bb 0afa d73c 2c48 483d
000003b0: 72f9 d7bc 56fe 47bd bb11 79bd 7091 aa3c
000003c0: a9d5 693d cc88 afbb 66d4 71bc b064 15bd
000003d0: 5f36 4abd 677b b6bb 4735 503d 221f d33c
000003e0: 028c f039 f802 293d 1664 c93c 674b 0fbd
000003f0: dea5 64bd 18f5 a83b c0d9 2c3d 6702 7cbd
0.040478725 0.05299737 -0.0071420576 0.040039904 -0.013352206 -0.0018989488 0.034132995 0.027294734
-0.047862083 -0.037684824 0.043777563 0.04595797 0.03204162 -0.056048907 0.05347581 -0.0029048333
0.039858293 0.049089447 0.026374158 0.04817156 -0.040085666 -0.048180345 0.014394502 0.033657428
0.03783693 0.023678567 -0.0591096 -0.031483233 -0.045045104 0.029714046 0.029194625 0.05823748
0.055749394 -0.053242564 0.02658185 0.02876196 -0.05428602 0.024514016 -0.02095114 0.0061856457
-0.03468842 -0.03154876 0.0025662272 0.020992668 -0.009700093 -0.025400914 0.0018134055 -0.029876487
0.043870497 -0.04253969 0.037925217 -0.0072365664 -0.0133434 0.027909584 0.05573124 0.048790682
-0.039725177 -0.034444846 0.053293616 0.02798558 0.0291061 0.05706308 0.005047449 0.008830251
-0.060764343 0.030867124 0.030327419 -0.039228074 0.016668951 -0.054923132 0.05483952 -0.04011717
0.013560814 0.013795316 0.040620267 0.046426926 0.0005398583 -0.05285866 -0.033217307 0.062086653
0.036986936 -0.041280176 0.04992055 -0.058398437 0.03296692 0.007981202 -0.043004718 0.029227346
-0.00019189861 -0.017710887 0.019938683 0.022831837 -0.044770725 -0.05736105 -0.022566821 0.016536478
-0.05346992 0.042930823 -0.049219396 -0.011861528 0.038533166 0.019694073 0.05044766 0.050513107
0.017886482 0.05713513 0.030011665 -0.0063451347 -0.006791041 -0.033329852 -0.026979972 0.0418902
0.03553754 -0.05188671 0.034407742 -0.058968663 0.06039809 -0.00019657589 0.028622422 -0.050600298
-0.0129582165 0.008383686 -0.06121033 0.052147884 0.03650358 0.000249782 0.038917378 -0.06180174
-0.012948411 -0.012561934 -0.024208866 0.03928857 0.04994272 -0.045464497 -0.0034021463 -0.051792268
-0.061856553 -0.029572614 0.01780648 0.024835218 0.023437552 0.044950448 -0.0614609 0.024195792
0.0038261274 0.05205997 0.0528026 -0.008805097 0.0418721 0.021666579 0.033417627 -0.019821143
0.0057866606 -0.015237813 -0.051725034 0.038109202 -0.02725423 -0.017004037 0.011517446 -0.057815358
-0.05712893 0.03142843 0.04802247 -0.014473332 -0.045242175 -0.003044971 -0.03519193 -0.0025780473
0.026875442 -0.04814766 0.015905226 -0.027223898 0.026009727 -0.011455259 0.019620925 -0.028194327
-0.043798074 -0.03143275 -0.026849546 -0.041306205 0.017964693 -0.005271199 0.046380777 0.012027495
-0.059925307 0.03135379 0.05686893 0.009241787 0.007078409 0.007201889 -0.055821273 0.006032637
-0.0017722335 0.050775602 0.003219987 -0.053219285 0.0022683311 0.053845476 -0.03082507 -0.03574323
0.032050934 0.0072302963 -0.0075570205 0.040788613 -0.028359938 0.047960423 -0.007232131 -0.032790292
0.05170198 -0.034247402 0.017364962 0.05781803 -0.046052832 -0.0125281615 0.007358585 -0.056847747
0.061812308 0.057770293 0.0045105056 0.030239606 0.04111395 -0.027789494 0.06091457 0.023335904
-0.04093401 -0.00047390934 -0.05168284 -0.00011387628 -0.032536406 -0.011734883 -0.033553928 0.012231373
0.0048247958 -0.0045002047 0.026364345 0.048896953 -0.026364062 -0.048826538 -0.060807925 0.020821303
0.057088528 -0.0053568836 -0.014760112 -0.036472976 -0.04936826 -0.00556891 0.05083206 0.025771681
0.0004588068 0.041262597 0.024583858 -0.03498402 -0.055822246 0.0051561706 0.04219985 -0.06152573
