EE8591/Project/classification_models/Hyperbolas/DNN/deepnn/training_models/net_3800.pt (torch, 282047 bytes, 14 tensors)

clf_net.0.weight f4 [256, 2]
0	0x3f32fc78	0.69916487
1	0xbe9aa6e4	-0.30205452
2	0xbc5493da	-0.012974704
3	0x3f00b37c	0.5027387
4	0xbd6a9802	-0.057273872
5	0xbeb3d06a	-0.35119945
6	0xbd54a4ef	-0.051915105
7	0x3f19be14	0.6005566
8	0x3f114423	0.56744593
9	0x3f08e6d5	0.5347722
10	0xbf022825	-0.50842506
11	0x3e232685	0.15932663
12	0x3dd43654	0.10361925
13	0xbe57736f	-0.21040128
14	0x3e6f6d23	0.23381476
15	0x3e5021bc	0.20325369
16	0xbea044b3	-0.31302413
17	0x3eb592c5	0.3546354
18	0x3e2dea6a	0.16983953
19	0xbf05a922	-0.522112
20	0x3e7d5cd3	0.24742441
21	0xbdf482b8	-0.11938995
22	0xbdc48e10	-0.09597409
23	0x3e89127c	0.26771915
24	0xbf2e430f	-0.68071073
25	0xbf14ad84	-0.58077264
26	0x3e9f70d9	0.31140783
27	0xbe2edda7	-0.17076741
28	0x3f0375ca	0.51351607
29	0xbf306fa6	-0.6892036
30	0xbef268bc	-0.4734553
31	0x3ebf366f	0.37346217
32	0x3eae7e83	0.34080896
33	0x3c59d1d5	0.013294657
34	0xbf28e7a2	-0.65978444
35	0x3ebebbce	0.3725266
36	0xbe93a4a4	-0.28836548
37	0x3f15076b	0.58214444
38	0xbe5901f9	-0.21192159
39	0x3ea7e6c4	0.32793248
40	0x3d6bde0c	0.057584807
41	0x3e169cb3	0.14708214
42	0xba081c22	-0.00051921804
43	0x3e936c9d	0.28793803
44	0x3ecabd54	0.3959757
45	0x3ebdbaa3	0.37056455
46	0x3e111d43	0.14171319
47	0x3f1384c6	0.5762447
48	0xbe880e6e	-0.2657351
49	0x3e1826f5	0.14858611
50	0x3df8069f	0.12110638
51	0x3f2ee235	0.68313915
52	0xbf275f1e	-0.6537951
53	0x3d1f7edf	0.038939353
54	0xbe85d2c4	-0.26137364
55	0x3f0ee74d	0.55821687
56	0xbeb649b5	-0.3560311
57	0x3e6dbc5f	0.23216389
58	0xbe17b96e	-0.1481683
59	0xbeea51ce	-0.45765537
60	0xbec0a28a	-0.37624007
61	0x3f0bc54b	0.5459792
62	0x3e898ce6	0.2686531
63	0x3f059420	0.52179146
64	0x3f06f7fa	0.5272213
65	0x3d9cf90c	0.076646894
66	0xbdd0d0c2	-0.101960674
67	0xbf174b9d	-0.5909975
68	0x3d09784b	0.033561986
69	0x3f1dff23	0.6171743
70	0xbeae0ee5	-0.3399574
71	0xbec102bd	-0.37697402
72	0xbdf4eabd	-0.11958835
73	0x3f2f3c65	0.6845153
74	0xbe5fe468	-0.21864474
75	0x3d8ccb5d	0.06874726
76	0xbea65afb	-0.32491288
77	0xbf2bb07d	-0.67066175
78	0x3ec283ac	0.37991083
79	0xbf0b2297	-0.54349655
80	0xbf1c3b39	-0.61027867
81	0xbf12adfa	-0.5729672
82	0xbe59d9cd	-0.2127449
83	0x3f209087	0.6272053
84	0xbe927649	-0.2860587
85	0xbf18f9af	-0.59755987
86	0xbe3cd92e	-0.18442222
87	0xbf33183b	-0.6995885
88	0xbf243231	-0.64139086
89	0x3e05ab67	0.13053666
90	0xbec58be3	-0.38583288
91	0x3e1b7cbc	0.15184301
92	0x3f114302	0.5674287
93	0x3cbc89e4	0.02301497
94	0x3f063c03	0.5243532
95	0xbed8e6a2	-0.4236346
96	0xbed63e29	-0.418443
97	0x3e09fcf9	0.13475408
98	0x3e704d6b	0.23467033
99	0xbdd0b689	-0.10191066
100	0xbd08a748	-0.033362657
101	0xbdd94cee	-0.10610376
102	0x3eb86d1d	0.36020747
103	0xbf198d5a	-0.5998131
104	0xbea63ebe	-0.32469743
105	0xbee2f211	-0.44325307
106	0xbf1d73a1	-0.6150456
107	0x3f2bf1d7	0.67165893
108	0xbc39e4cd	-0.011346054
109	0x3d8a63f9	0.067573495
110	0x3eda6714	0.42656767
111	0xbe702af5	-0.23453887
112	0x3ea097e1	0.31365874
113	0xbe8df08d	-0.27722588
114	0xbee73967	-0.45160982
115	0xbef055c2	-0.46940428
116	0xbdf7eb1c	-0.121053904
117	0xbf25e6bb	-0.6480519
118	0x3e9b5ada	0.30342752
119	0x3ce11d8b	0.027479907
120	0xbeaeee31	-0.341661
121	0xbe538571	-0.20656373
122	0x3eb25c95	0.3483626
123	0xbdc7d339	-0.097570844
124	0xbc2c7243	-0.010525289
125	0x3edf80cb	0.4365295
126	0x3f17e524	0.59334016
127	0xbee00e56	-0.43760937
128	0x3f2daf2e	0.6784543
129	0xbef6e6d3	-0.4822298
130	0xbea153a7	-0.31509134
131	0xbede4856	-0.43414563
132	0xbf02de1b	-0.51120156
133	0x3e99eea2	0.30064875
134	0x3ebe2781	0.37139514
135	0x3eedf1de	0.46473593
136	0x3f356364	0.70854783
137	0x3eb1659a	0.34647828
138	0x3c35cc5c	0.011096086
139	0x3d069dea	0.032865442
140	0xbf269c67	-0.650824
141	0xbf32cb7c	-0.6984174
142	0xbee4f5a1	-0.4471865
143	0x3e1321ad	0.14368315
144	0xbe05ca25	-0.13065393
145	0x3dcbb34d	0.09946308
146	0xbe825a39	-0.2545946
147	0xbea6e470	-0.3259616
148	0x3f1f6ecd	0.62278444
149	0xbe81cd03	-0.25351724
150	0xbec87e2e	-0.39158767
151	0xbec72715	-0.38897005
152	0xbf0814fa	-0.5315701
153	0xbee3761b	-0.44426045
154	0x3df4327c	0.11923692
155	0xbe62bd1f	-0.22142456
156	0x3e11adde	0.14226481
157	0xbdf6c82e	-0.120499
158	0x3e85c3d8	0.2612598
159	0xbf088938	-0.5333438
160	0xbd6329c7	-0.055459764
161	0x3f0e855b	0.55672234
162	0xbdfcdb3f	-0.123465054
163	0x3e0b1921	0.13583805
164	0xbe9aeddd	-0.302596
165	0x3f335484	0.70050836
166	0xbc8683a8	-0.0164202
167	0xbece0e62	-0.40245348
168	0x3f0c44a7	0.54792255
169	0x3f15fc37	0.58587974
170	0x3ec9036d	0.39260426
171	0xbb747316	-0.0037300042
172	0xbebb9efd	-0.36644736
173	0x3df4c18a	0.11950977
174	0xbed58391	-0.4170194
175	0x3f118190	0.5683832
176	0xbe6b05f3	-0.22951488
177	0x3f35c272	0.70999825
178	0xbf1ec0ad	-0.6201275
179	0x3e8c93da	0.27456552
180	0x3ed29c31	0.4113479
181	0xbe8d74bb	-0.2762812
182	0xbcf7d85e	-0.03025454
183	0xbf0d0828	-0.5509057
184	0xbe057e41	-0.13036443
185	0xbd3cd93e	-0.046105616
186	0xbf0753fe	-0.52862537
187	0x3f30f3f0	0.6912222
188	0x3f0bac03	0.54559344
189	0x3f24e92b	0.64418286
190	0x3efb7ef4	0.49120295
191	0xbdfe046f	-0.124031894
192	0x3f134a32	0.5753509
193	0xbcdbeb66	-0.026845645
194	0x3d7b1c15	0.061306078
195	0x3f282ab0	0.65690136
196	0x3ed0ac9b	0.40756688
197	0xbcfeec8c	-0.031118654
198	0x3edc6e85	0.4305307
199	0xbf205b24	-0.6263907
200	0xbea4d00d	-0.3218998
201	0xbe88bcad	-0.26706448
202	0xbe8634ee	-0.26212257
203	0x3ea662bc	0.32497203
204	0x3f0abaab	0.5419108
205	0xbe66a6af	-0.22524522
206	0x3f33ccef	0.7023458
207	0xbf118071	-0.5683661
208	0xbedec995	-0.4351317
209	0xbe7918ea	-0.2432591
210	0x3ee62530	0.44950247
211	0x3f323b41	0.69621664
212	0x3d18e6f6	0.037329637
213	0xbdf371e5	-0.11886958
214	0xbee307c2	-0.44341856
215	0x3f18df1d	0.59715444
216	0x3f24a863	0.6431944
217	0x3f019edd	0.5063303
218	0x3e805959	0.25068167
219	0x3ed5ac15	0.4173285
220	0x3e8e7073	0.27820167
221	0xbef0ebbb	-0.47054848
222	0x3f24fd7e	0.644493
223	0x3e424c9c	0.18974537
224	0xbec32687	-0.38115332
225	0x3f2fa4f1	0.68611056
226	0x3e080062	0.13281396
227	0x3f1b75d7	0.60726684
228	0xbe869736	-0.2628724
229	0xbed98284	-0.42482388
230	0xbf06bc75	-0.5263131
231	0xbf03f62b	-0.515475
232	0x3eb653e8	0.3561089
233	0xbea8ece5	-0.32993236
234	0xbf33638d	-0.7007378
235	0xbf0f878a	-0.5606619
236	0xbdd11e89	-0.10210902
237	0xbe4a44c7	-0.19752799
238	0xbf2388a5	-0.6388038
239	0x3eb0f7d3	0.34564075
240	0xbef0a1ff	-0.46998593
241	0xbef899d3	-0.4855486
242	0xbd42c955	-0.047555286
243	0x3f2b0092	0.66797745
244	0x3f280bbb	0.656429
245	0xbf1934b4	-0.59846044
246	0x3e533bd8	0.20628297
247	0x3deed0df	0.11660933
248	0xbf198df4	-0.5998223
249	0xbd335999	-0.04378662
250	0xbe8e93fc	-0.27847278
251	0x3c9503b3	0.01819024
252	0xbd61fbb8	-0.0551717
253	0x3f1a2854	0.60217786
254	0x37f9edad	2.979379e-05
255	0xbf2f53cb	-0.6848723

clf_net.0.bias f4 [256]
0	0xbe968fc7	-0.29406568
1	0x3f12a2ca	0.57279646
2	0x3f042e37	0.5163302
3	0xbf01744b	-0.50568074
4	0xbf314a15	-0.69253665
5	0xbedac9b7	-0.4273202
6	0x3ec40e30	0.38292074
7	0x3e388ba2	0.18022016
8	0x3ed32656	0.41240185
9	0xbe8ae12e	-0.27124923
10	0x3e69c1c8	0.22827828
11	0x3ee03ebf	0.4379787
12	0x3ee87179	0.45399073
13	0x3edc1d1e	0.42990965
14	0x3ec3ac10	0.3821721
15	0x3d70faa2	0.058832772
16	0x3f161428	0.58624506
17	0xbe6d5a6a	-0.23179021
18	0xbe0b83ea	-0.1362454
19	0x3e746c59	0.23869456
20	0xbdd5baa5	-0.1043599
21	0xbee5dae5	-0.44893566
22	0x3f229772	0.6351234
23	0x3eb5c669	0.35502937
24	0xbe7d6984	-0.24747282
25	0x3ec33ad3	0.38130817
26	0x3f146f92	0.5798274
27	0xbeedce40	-0.4644642
28	0xbf2b12d1	-0.66825587
29	0x3dc885f3	0.09791174
30	0xbd9825f3	-0.07429113
31	0x3f0e1f12	0.5551616
32	0x3be54e41	0.006997854
33	0x3f0be5c3	0.54647464
34	0xbf111534	-0.5667298
35	0x3f1c92f6	0.61161745
36	0x39d384f1	0.00040344105
37	0xbe953be1	-0.29147246
38	0xbea3c23a	-0.3198412
39	0x3f0e82e3	0.5566847
40	0x3e0deb24	0.1385923
41	0xbf2c47e9	-0.67297226
42	0x3f050b72	0.5197059
43	0x3f1d9965	0.61562186
44	0x3f0a5553	0.54036444
45	0x3d9359c3	0.07194855
46	0xbe606c2a	-0.21916261
47	0xbdb75e4b	-0.08953532
48	0x3f21eddf	0.6325359
49	0xbf328095	-0.6972745
50	0x3f0e098a	0.55483305
51	0x3f2f3a9b	0.684488
52	0xbed1462e	-0.40873855
53	0xbee1e2d7	-0.44118378
54	0xbec1340d	-0.37735024
55	0x3e8718c9	0.26386097
56	0x3e810b24	0.25203812
57	0xbe99a2ae	-0.30006927
58	0x3f2e7ccd	0.6815918
59	0xbf19cb98	-0.60076284
60	0x3f33631b	0.700731
61	0x3f2759eb	0.6537158
62	0xbe564536	-0.2092484
63	0x3f059076	0.52173555
64	0x3cbd3833	0.023098087
65	0xbe55988d	-0.20858975
66	0xbe6fe4b8	-0.23427093
67	0xbe4ab984	-0.19797331
68	0x3ef29980	0.47382736
69	0xbce12339	-0.027482616
70	0xbeb134c8	-0.3461058
71	0xbf0da852	-0.5533496
72	0xbe44ddc0	-0.19225216
73	0xbf1d1ef3	-0.6137535
74	0x3eb387b7	0.3506448
75	0xbf2bb324	-0.6707022
76	0x3f14adf2	0.5807792
77	0x3f28b9bf	0.65908426
78	0x3e2ec9b4	0.17069131
79	0x3e86aeeb	0.26305327
80	0x3e402e56	0.18767676
81	0xbec2a693	-0.3801771
82	0x3e2c27ac	0.16812009
83	0xbf0c30e0	-0.5476208
84	0x3f1d754b	0.615071
85	0xbd12af02	-0.03581143
86	0xbf166b6c	-0.5875766
87	0x3ed7c6b9	0.421438
88	0x3e05c953	0.1306508
89	0x3f00e400	0.503479
90	0x3ef97026	0.48718375
91	0xbe64e791	-0.2235396
92	0xbe8a0969	-0.26960304
93	0xbf30ef74	-0.69115376
94	0xbed35b92	-0.412808
95	0xbd176477	-0.036961045
96	0x3ee4dcf5	0.44699827
97	0x3dfa6ee2	0.122281805
98	0xbd941aa8	-0.07231647
99	0xbe2fd38a	-0.1717054
100	0x3ecc6246	0.39918727
101	0x3f0e934f	0.55693525
102	0xbf2feee8	-0.68723917
103	0x3e81eb16	0.2537467
104	0x3e367538	0.17818153
105	0xbec016fd	-0.3751754
106	0xbefc8953	-0.4932352
107	0x3f192ce4	0.5983412
108	0xbee98bff	-0.4561462
109	0x39ddd44c	0.00042310578
110	0x3efeeabb	0.4978846
111	0xbe49b3fe	-0.19697568
112	0xbe8dc91b	-0.27692494
113	0x3f2b5891	0.66932017
114	0xbe879166	-0.26478118
115	0xbeef9fae	-0.46801513
116	0x3e38d570	0.1805017
117	0x3e4c13b5	0.19929393
118	0x3f1dae3b	0.6159398
119	0x3ed0da54	0.4079157
120	0xbf074cbd	-0.5285147
121	0x3d9989c1	0.074969776
122	0xbb0cf35d	-0.002150736
123	0xbd1204bd	-0.03564905
124	0x3e8f7cec	0.28024995
125	0x3f160de3	0.5861494
126	0x3efb8a53	0.4912897
127	0xbd6e2981	-0.05814505
128	0x3ea03a68	0.3129456
129	0xbe007f8a	-0.12548652
130	0x3ee04663	0.438037
131	0x3ef50989	0.47858837
132	0xbf13738a	-0.57598174
133	0xbe9dcac4	-0.3081876
134	0xbf2a3499	-0.6648651
135	0x3d97f3dd	0.0741956
136	0xbf1302d4	-0.5742619
137	0xbf30a126	-0.68995893
138	0xbe3c86e9	-0.18410839
139	0x3f06abf7	0.5260615
140	0xbe86120a	-0.26185638
141	0xbf1f458b	-0.6221549
142	0xbe4211ce	-0.18952104
143	0x3f1144bd	0.5674551
144	0xbe8b2ba1	-0.27181724
145	0x3e3deb0a	0.18546692
146	0x3f297eb5	0.66208965
147	0xbea82f4a	-0.3284858
148	0x3cf9edd2	0.03050891
149	0xbd913139	-0.070894666
150	0xbf2bfe5d	-0.67185
151	0xbd72692c	-0.05918233
152	0x3f16ce37	0.5890841
153	0xbecac4b1	-0.3960319
154	0x3d84289b	0.064530574
155	0xbd41c87d	-0.04731034
156	0x3e7cc29b	0.24683611
157	0x3eadf486	0.3397562
158	0xbef8d2b2	-0.48598248
159	0xbdc5db99	-0.096610256
160	0xbf0ade57	-0.54245514
161	0x3eff7454	0.4989344
162	0x3dd9eda6	0.10641031
163	0xbe65c40f	-0.22438072
164	0xbd2fdc77	-0.04293486
165	0x3e2a3e5e	0.16625354
166	0xbf0919ac	-0.535548
167	0x3e5316e8	0.20614207
168	0x3d4bb84e	0.049736314
169	0x3f34fd2b	0.70698804
170	0x3e9343bb	0.28762612
171	0x3e56b4e3	0.2096744
172	0xbec590e0	-0.38587093
173	0xbf29180a	-0.66052306
174	0xbe420640	-0.18947697
175	0x3e03eee5	0.128841
176	0xbf2a9014	-0.66626096
177	0x3e9a295f	0.3010969
178	0x3f009507	0.502274
179	0xbea73e3f	-0.32664678
180	0x3f1c5b63	0.61076945
181	0xbf0eab26	-0.557299
182	0x3f1e43fa	0.61822474
183	0xbe404f7b	-0.1878032
184	0xbf2ee02b	-0.68310803
185	0x3e5929c2	0.21207336
186	0xbeda762d	-0.42668286
187	0x3dadbc7f	0.084832184
188	0x3e454643	0.19265084
189	0x3e5ea2fe	0.21741864
190	0xbf1bf86c	-0.60925937
191	0x3eb1d6f9	0.34734324
192	0xbea49264	-0.32142937
193	0xbecb0c9a	-0.39658052
194	0xbeaa9ac3	-0.333212
195	0xbe1ffa21	-0.1562276
196	0x3eb60523	0.35550794
197	0x3d9ac907	0.07557874
198	0x3ea67588	0.32511544
199	0xbef0e6e3	-0.47051153
200	0x3da03e9c	0.07824442
201	0xbe57901f	-0.21051072
202	0x3cd3b0d9	0.025841163
203	0xbf1ecb0e	-0.62028587
204	0xbe1cb76b	-0.15304343
205	0x3d8bb8ad	0.068223335
206	0x3e9feae6	0.312339
207	0x3ec260fc	0.37964618
208	0xbedbd6d9	-0.42937353
209	0xbe8dd297	-0.2769973
210	0x3e2c7aa7	0.16843663
211	0x3ea6399c	0.32465827
212	0x3d795619	0.060873125
213	0x3ee0800c	0.43847692
214	0xbf1b20ad	-0.60596734
215	0xbecb0b9d	-0.39657298
216	0x3f092a1a	0.53579867
217	0xbe139480	-0.14412117
218	0xbdf511d5	-0.11966292
219	0xbf239a80	-0.63907623
220	0xbe846a84	-0.25862515
221	0x3e2c61fc	0.16834253
222	0xbf1799f8	-0.5921931
223	0xbd8f9417	-0.07010668
224	0x3ee1f696	0.44133443
225	0xbf33af9f	-0.7018985
226	0x3e5b83eb	0.21437041
227	0xbed1a04b	-0.40942606
228	0x3e461018	0.19342077
229	0xbedbc499	-0.4292343
230	0x3f2def7c	0.6794355
231	0xbdc63225	-0.09677533
232	0x3e953b2f	0.29146716
233	0xbeece356	-0.46267194
234	0xbf1ae8b5	-0.6051133
235	0xbf008a83	-0.5021135
236	0xbf1e60e4	-0.61866593
237	0xbe969049	-0.29406956
238	0x3e39b0a0	0.18133783
239	0x3f1ae423	0.6050436
240	0xbe641df1	-0.22277047
241	0x3dc0af8d	0.09408484
242	0x3f0d4795	0.5518735
243	0x3da0b60b	0.07847222
244	0xbec435f4	-0.38322413
245	0xbf17edf2	-0.5934745
246	0x3f2e986d	0.68201333
247	0x3d01b7cb	0.03166942
248	0xbe90b3af	-0.28262088
249	0x3f1465e5	0.5796798
250	0xbdb4117f	-0.087923996
251	0xbe1a8bb8	-0.15092361
252	0x3f15c243	0.58499545
253	0xbd8b5f78	-0.068053186
254	0x3eb9cfb5	0.3629128
255	0x3e3464bd	0.17616554

clf_net.1.weight f4 [256]
0	0x3f7c2d96	0.9850706
1	0x3f801e49	1.0009242
2	0x3f7d5e87	0.9897236
3	0x3f7d0e4d	0.98849946
4	0x3f80d568	1.0065126
5	0x3f7f3a4d	0.99698335
6	0x3f7bef47	0.98411983
7	0x3f7d81b3	0.9902603
8	0x3f7de198	0.99172354
9	0x3f7fd746	0.99937856
10	0x3f7f9acf	0.99845594
11	0x3f7ca9ca	0.9869658
12	0x3f7d86ae	0.9903363
13	0x3f80d7d6	1.0065868
14	0x3f7d19ca	0.98867476
15	0x3f7f9e1e	0.9985064
16	0x3f7ed178	0.99538374
17	0x3f7ee062	0.9956113
18	0x3f7efe00	0.99606323
19	0x3f7f132a	0.9963862
20	0x3f80635b	1.0030321
21	0x3f7f8cfe	0.9982451
22	0x3f802135	1.0010134
23	0x3f7f6a12	0.99771225
24	0x3f7e463a	0.9932591
25	0x3f7d7a39	0.9901462
26	0x3f7d87ce	0.99035347
27	0x3f7d8103	0.9902498
28	0x3f7eb265	0.9949096
29	0x3f8031cb	1.0015196
30	0x3f7da7c3	0.9908411
31	0x3f7f2255	0.9966176
32	0x3f7d70d9	0.99000317
33	0x3f7c751a	0.9861618
34	0x3f7dbe22	0.99118245
35	0x3f7daa9d	0.9908846
36	0x3f803aca	1.0017941
37	0x3f7c58b6	0.9857286
38	0x3f7fd065	0.9992736
39	0x3f7d5357	0.9895529
40	0x3f7e8d53	0.99434394
41	0x3f7e1c5d	0.9926203
42	0x3f8038a5	1.0017287
43	0x3f7fb006	0.99877965
44	0x3f800cd1	1.0003911
45	0x3f7f1e08	0.996552
46	0x3f80908a	1.004411
47	0x3f807f98	1.0038939
48	0x3f8078f1	1.0036908
49	0x3f8179c4	1.0115285
50	0x3f7eb5a8	0.99495935
51	0x3f7e98c3	0.99451846
52	0x3f7cb6ea	0.98716605
53	0x3f7cd1a9	0.98757416
54	0x3f7f04d6	0.99616754
55	0x3f80bdeb	1.0057958
56	0x3f7ccf9a	0.98754275
57	0x3f7ddad0	0.99162006
58	0x3f7db005	0.9909671
59	0x3f80d9f8	1.0066519
60	0x3f7de3d6	0.99175775
61	0x3f7d6b36	0.98991716
62	0x3f7cc00f	0.9873056
63	0x3f7c852f	0.9864072
64	0x3f7c8da0	0.986536
65	0x3f808c9f	1.0042914
66	0x3f7d57c2	0.9896203
67	0x3f815655	1.0104471
68	0x3f7fd6ca	0.9993712
69	0x3f7e5194	0.9934323
70	0x3f7d7de3	0.9902021
71	0x3f7f52cc	0.99735713
72	0x3f7ec971	0.99526125
73	0x3f7d8435	0.99029857
74	0x3f818058	1.0117292
75	0x3f80959e	1.004566
76	0x3f7ed704	0.9954684
77	0x3f7e94a0	0.99445534
78	0x3f7cb5fc	0.98715186
79	0x3f7c2549	0.9849439
80	0x3f7b91de	0.9826945
81	0x3f7ba1bd	0.9829367
82	0x3f7e3e53	0.9931385
83	0x3f7f8e95	0.9982694
84	0x3f7c53b0	0.98565197
85	0x3f7f9fb1	0.99853045
86	0x3f7e441a	0.99322665
87	0x3f7f54e1	0.9973889
88	0x3f7d9460	0.9905453
89	0x3f7fd0a3	0.9992773
90	0x3f80b2f7	1.0054616
91	0x3f7f709f	0.9978122
92	0x3f7fd5af	0.9993543
93	0x3f7df004	0.9919436
94	0x3f7d8ba7	0.9904122
95	0x3f7cc3d7	0.9873633
96	0x3f7e94d8	0.9944587
97	0x3f7e1301	0.9924775
98	0x3f7deabe	0.99186313
99	0x3f7bab84	0.9830859
100	0x3f7eae6b	0.9948489
101	0x3f7b8946	0.9825634
102	0x3f7c1291	0.9846583
103	0x3f7f3d42	0.99702847
104	0x3f800e72	1.0004408
105	0x3f7d4e3a	0.9894749
106	0x3f7e1a76	0.99259126
107	0x3f7f6be9	0.9977403
108	0x3f80204d	1.0009857
109	0x3f7f1bfe	0.9965209
110	0x3f7d656a	0.9898287
111	0x3f7e0362	0.9922391
112	0x3f7e916a	0.99440634
113	0x3f7fbaee	0.9989461
114	0x3f7e52d3	0.9934513
115	0x3f810c0b	1.00818
116	0x3f7eae3a	0.994846
117	0x3f7f5056	0.9973196
118	0x3f805217	1.0025052
119	0x3f7fa76a	0.9986483
120	0x3f7e652c	0.99373126
121	0x3f8026c3	1.0011829
122	0x3f7d9e78	0.9906993
123	0x3f7fb3e8	0.9988389
124	0x3f80d46f	1.006483
125	0x3f7f842a	0.9981104
126	0x3f7fdb26	0.9994377
127	0x3f7ef0fa	0.9958645
128	0x3f808c8e	1.0042894
129	0x3f7d78a5	0.99012214
130	0x3f7f0044	0.9960978
131	0x3f80691a	1.0032074
132	0x3f7e08f4	0.9923241
133	0x3f7f9883	0.9984209
134	0x3f7e213c	0.9926946
135	0x3f7f8cbf	0.99824136
136	0x3f7eeb22	0.99577534
137	0x3f80873f	1.0041274
138	0x3f8099d4	1.0046945
139	0x3f7e0a99	0.9923492
140	0x3f7a8ad0	0.9786806
141	0x3f7d2586	0.9888538
142	0x3f7b4085	0.98145324
143	0x3f7cb6fd	0.9871672
144	0x3f7e8661	0.99423796
145	0x3f800ffa	1.0004876
146	0x3f7ed98c	0.995507
147	0x3f7c4aa0	0.9855137
148	0x3f7f805b	0.9980523
149	0x3f7d1cff	0.9887237
150	0x3f7e0212	0.9922191
151	0x3f7db234	0.9910004
152	0x3f80718f	1.0034655
153	0x3f7d4599	0.9893432
154	0x3f7ee980	0.9957504
155	0x3f80f401	1.0074464
156	0x3f7c66e4	0.985945
157	0x3f7df12b	0.9919612
158	0x3f8002ab	1.0000814
159	0x3f7ce0ca	0.987805
160	0x3f7e8b43	0.99431247
161	0x3f7d723c	0.9900243
162	0x3f7f040f	0.9961557
163	0x3f7e47cf	0.9932832
164	0x3f804e18	1.0023832
165	0x3f7df2cb	0.991986
166	0x3f7e7c4f	0.9940843
167	0x3f7da3eb	0.99078244
168	0x3f7ecefc	0.99534583
169	0x3f7dc25f	0.9912471
170	0x3f7e2467	0.99274296
171	0x3f7f8316	0.99809396
172	0x3f80e028	1.0068407
173	0x3f7e0c7e	0.9923781
174	0x3f7e0368	0.9922395
175	0x3f7d43fa	0.9893185
176	0x3f7f491a	0.9972092
177	0x3f7f1262	0.99637425
178	0x3f7daa77	0.99088234
179	0x3f7e3523	0.9929983
180	0x3f7ebfa5	0.99511176
181	0x3f7e2fa7	0.9929146
182	0x3f7c9ed2	0.9867984
183	0x3f7f87c2	0.99816525
184	0x3f7e9f37	0.9946169
185	0x3f7ef846	0.99597585
186	0x3f802c7e	1.0013578
187	0x3f7ed1b3	0.99538726
188	0x3f7e5d6b	0.99361295
189	0x3f7ee300	0.99565125
190	0x3f80a94b	1.0051664
191	0x3f800f4b	1.0004667
192	0x3f7f3534	0.99690557
193	0x3f7e3cdd	0.9931162
194	0x3f7f2adf	0.9967479
195	0x3f7bb3ad	0.9832104
196	0x3f7de5d6	0.99178827
197	0x3f7f2d65	0.9967864
198	0x3f7e5986	0.9935535
199	0x3f7c701b	0.9860856
200	0x3f7e5a03	0.99356097
201	0x3f7eab83	0.99480456
202	0x3f7d092f	0.9884214
203	0x3f7d0e66	0.98850095
204	0x3f7ed37a	0.9954144
205	0x3f7db50c	0.9910438
206	0x3f7e599c	0.99355483
207	0x3f7ddf96	0.9916929
208	0x3f7dfae0	0.9921093
209	0x3f7eeae4	0.99577165
210	0x3f7e999f	0.9945316
211	0x3f7e282a	0.99280035
212	0x3f7f2b44	0.99675393
213	0x3f7e17cb	0.99255055
214	0x3f7c0fbe	0.9846152
215	0x3f7e6046	0.9936565
216	0x3f7cd234	0.98758245
217	0x3f8033ae	1.0015771
218	0x3f7fbd87	0.9989857
219	0x3f80633f	1.0030288
220	0x3f7ee602	0.99569714
221	0x3f7f5c6f	0.9975042
222	0x3f7b909f	0.9826755
223	0x3f7f2783	0.99669665
224	0x3f8007b4	1.0002351
225	0x3f7edc14	0.9955456
226	0x3f7c5001	0.98559576
227	0x3f81752d	1.0113884
228	0x3f7edbb7	0.9955401
229	0x3f7ef49d	0.99592
230	0x3f7f846c	0.99811435
231	0x3f7f7e87	0.9980244
232	0x3f7f0f66	0.9963287
233	0x3f7ed477	0.99542946
234	0x3f7fdd0b	0.9994666
235	0x3f81679a	1.0109742
236	0x3f7e500f	0.9934091
237	0x3f80f983	1.0076145
238	0x3f7c87ad	0.98644525
239	0x3f7ec4d7	0.99519104
240	0x3f7fb25b	0.99881524
241	0x3f7f9183	0.9983141
242	0x3f7dd77d	0.99156934
243	0x3f7b94ef	0.9827413
244	0x3f7f879f	0.99816316
245	0x3f80460e	1.0021379
246	0x3f7e5d80	0.9936142
247	0x3f7f254c	0.99666286
248	0x3f7fca8b	0.9991843
249	0x3f7d5dac	0.98971057
250	0x3f7d6a58	0.9899039
251	0x3f7e5637	0.99350303
252	0x3f7f990c	0.99842906
253	0x3f7cf717	0.9881453
254	0x3f7f9fce	0.9985322
255	0x3f804cc2	1.0023425

clf_net.1.bias f4 [256]
0	0x3e31dcff	0.1736946
1	0xbcb57e7e	-0.022155043
2	0xbd484cb0	-0.04890126
3	0x3d1d6c45	0.038433332
4	0xbd4a52de	-0.049395435
5	0x3e2372e1	0.15961792
6	0x3c9c9b34	0.019116975
7	0xbdd17026	-0.10226469
8	0xbc151d39	-0.0091012055
9	0xbd60dd49	-0.054898534
10	0x3e2fda3b	0.17173092
11	0x3a7dad84	0.000967704
12	0xbdc3a9db	-0.09553882
13	0xbe28c1b3	-0.1648014
14	0xbc9a690e	-0.018848922
15	0xbc251087	-0.010074741
16	0xbe1f4901	-0.15555193
17	0xbe11c65f	-0.14235829
18	0xbd50b348	-0.050952226
19	0x3d342ef0	0.043990076
20	0xbcd39559	-0.02582805
21	0xbaccac4c	-0.0015615313
22	0xbd8a4a65	-0.06752471
23	0xbcdeb346	-0.027185094
24	0x3e36e396	0.17860255
25	0xbd87db9a	-0.066336825
26	0x3e3ffb11	0.18748118
27	0x3c9a1da5	0.018812964
28	0x3e0ddf53	0.13854723
29	0x3cbf999c	0.023388676
30	0x3d23fe71	0.040037576
31	0xbc100743	-0.008790794
32	0x3dca6998	0.09883422
33	0x3d109929	0.035302315
34	0x3bf07ac2	0.0073388526
35	0x3c847469	0.01616879
36	0x3d218a85	0.039438743
37	0x3d823b5e	0.0635898
38	0x3d57f54b	0.052724164
39	0xbd207de7	-0.03918257
40	0xbd9012f3	-0.07034864
41	0xbc07c125	-0.008285795
42	0xbd76aee6	-0.06022539
43	0x3cedf4a2	0.029047314
44	0x3e252d88	0.1613065
45	0x3e270503	0.16310506
46	0xbdf7386a	-0.12071307
47	0xbe141348	-0.1446048
48	0xbe0e9b91	-0.13926531
49	0xbdc7bca5	-0.09752778
50	0x3b92984d	0.004473722
51	0xbd849937	-0.06474536
52	0xbdbba53d	-0.09162376
53	0x3bfb9636	0.0076778186
54	0x3d2a0209	0.041505847
55	0xbe4fdcce	-0.20299074
56	0xbd6df9c4	-0.058099523
57	0xbd4007b5	-0.04688235
58	0xbcac3311	-0.021020444
59	0x3e08fbcc	0.13377303
60	0x3dbff8fb	0.09373661
61	0x3e4057fc	0.18783563
62	0xbd576ef4	-0.052596048
63	0x3d4a2d41	0.049359564
64	0x3e048d1b	0.12944452
65	0xbce6fae8	-0.028195813
66	0x3d0e88e0	0.034798503
67	0xbd3ffa94	-0.04686983
68	0x3ddd9b88	0.10820681
69	0xbd63e890	-0.05564171
70	0xbcfc5490	-0.030802041
71	0x3e377e6e	0.17919323
72	0xbdb71048	-0.08938652
73	0xbda0e09e	-0.07855342
74	0xbe2f68f9	-0.17129888
75	0x3c5b1fe9	0.013374307
76	0xbdbf7735	-0.09348909
77	0x3d8ab9d0	0.06773722
78	0x3d7640d4	0.06012042
79	0xbcf3c0ef	-0.029755084
80	0xbd1f058c	-0.03882365
81	0xbc9b3173	-0.018944478
82	0xbd6f1cad	-0.058376957
83	0xbd29e85e	-0.04148137
84	0x3d26927e	0.04066705
85	0x3e29fedc	0.16601127
86	0x3cc79e53	0.024367487
87	0x3d23db85	0.040004272
88	0x3d0d36c3	0.034476053
89	0xbe0d23c5	-0.13783176
90	0xbe3783b1	-0.1792133
91	0x3c457f6c	0.0120543055
92	0x3dd671ba	0.1047091
93	0xbcdaeed2	-0.026725207
94	0x3c442942	0.011972727
95	0x3db7d3cb	0.08975943
96	0xbe1e4fce	-0.1546013
97	0xbd819a2f	-0.06328236
98	0x3e38543b	0.18000881
99	0xbd0a1904	-0.033715263
100	0x3d30037b	0.04297207
101	0xbcac06c7	-0.020999325
102	0x3e166e0d	0.14690419
103	0x3ca6ab7d	0.020345444
104	0xbdd313e4	-0.10306528
105	0xbcef0609	-0.029177682
106	0x3cc00310	0.02343896
107	0xbd018c12	-0.031627722
108	0x3dba90bd	0.09109638
109	0xbd22620f	-0.039644297
110	0x3d8562ae	0.06512962
111	0xbccd504d	-0.025062704
112	0xbcabbce0	-0.020964086
113	0xbd1f4c0a	-0.038890876
114	0xbd9a325d	-0.07529137
115	0xbd8c062f	-0.06837117
116	0x3d3447de	0.04401385
117	0xbdc5e103	-0.09662058
118	0x3d2c5753	0.042075466
119	0xbdd5bf09	-0.10436828
120	0x3d84b66f	0.06480109
121	0xbd2674f4	-0.04063888
122	0x3d36277d	0.044471253
123	0x3d71aabb	0.059000712
124	0x3e038695	0.12844308
125	0x3e07a337	0.13245855
126	0x3d74081e	0.059578054
127	0x3d4f0f20	0.050551534
128	0xbd87f09a	-0.06637688
129	0x3e51c3d3	0.20484857
130	0xba5288ba	-0.0008031238
131	0x3daf203b	0.08551069
132	0xbe228e50	-0.158746
133	0xbd7980d0	-0.06091386
134	0xbd063ebe	-0.03277468
135	0x3ceba40d	0.028764749
136	0x3c52e65c	0.012872305
137	0xbe12638e	-0.1429579
138	0xbe0f1f52	-0.13976792
139	0xbc4cd8f3	-0.012502897
140	0xbd2cf6b9	-0.04222748
141	0x3d5e5719	0.05428228
142	0x3d9770c1	0.07394553
143	0xbc99d186	-0.018776666
144	0xbd164ef4	-0.03669639
145	0xbd245836	-0.040123187
146	0x3b62ac8d	0.0034587712
147	0x3d66fe94	0.05639513
148	0xbce45250	-0.02787128
149	0x3e1ff008	0.15618908
150	0x3c85e5bb	0.016344896
151	0x3d8822cb	0.06647261
152	0xbd4a0ac0	-0.04932666
153	0xbcc50584	-0.024050482
154	0xbd8179a5	-0.0632203
155	0xbd8d384d	-0.06895504
156	0xbda3cd77	-0.07998174
157	0x3e2bf784	0.16793638
158	0xbd37d446	-0.044880174
159	0xbcc78bd7	-0.024358673
160	0x3d263e47	0.040586736
161	0x3e1be16b	0.15222709
162	0xbdef3be4	-0.11681345
163	0x3d7bf3b5	0.061511714
164	0x3c81e1d8	0.015854761
165	0xbd992e3b	-0.07479521
166	0x3e454e01	0.19268037
167	0x3debfcf6	0.11522858
168	0xbcb8d764	-0.022563644
169	0xbdc7a780	-0.09748745
170	0x3dcc8f37	0.099882536
171	0x3cada037	0.02119456
172	0xbd587051	-0.05284149
173	0xbd0419ee	-0.03225129
174	0xbb95064c	-0.00454787
175	0x3c7d4733	0.01545887
176	0x3d568c2d	0.052379776
177	0xbd7ad35f	-0.061236735
178	0x3bcdaedb	0.006276948
179	0x3d1dc1da	0.03851495
180	0x3d18ef80	0.03733778
181	0x3d680326	0.056643628
182	0xbce67285	-0.028130779
183	0xbd31fe93	-0.04345567
184	0x3e2e6592	0.17030933
185	0xbda43ed1	-0.08019794
186	0x3d2c51c6	0.042070173
187	0xbba8e516	-0.0051542623
188	0xbd7c42d0	-0.061587155
189	0x3c760f97	0.015018365
190	0xbdfffb83	-0.12499144
191	0xbdcaabb0	-0.09896028
192	0xbb1131b6	-0.0022154874
193	0x3d6321d2	0.055452175
194	0xbd643ca3	-0.05572189
195	0x3e14d54e	0.14534494
196	0x3e235042	0.15948585
197	0xbd8884b1	-0.06665934
198	0xbd4121a6	-0.04715123
199	0x3e1a53d9	0.15071048
200	0x3d86e7da	0.06587191
201	0xbd247daf	-0.040158924
202	0x3d2df9a5	0.042474408
203	0x3d95f594	0.07322231
204	0x3d2bc187	0.04193261
205	0x3e048187	0.12940036
206	0x3c8ff5a8	0.017573193
207	0x3d396156	0.045258842
208	0x3d260092	0.040527888
209	0xbe0dbbed	-0.13841219
210	0x3e438169	0.19092335
211	0xbc8287ef	-0.015933959
212	0xbd9d4abb	-0.07680269
213	0xbd8794b6	-0.06620161
214	0xbcba2f39	-0.022727596
215	0x3c1a70ff	0.009426354
216	0x3ced659f	0.02897912
217	0xbdf023a9	-0.11725552
218	0x3c90a62c	0.017657362
219	0xbd6828cc	-0.056679532
220	0xbc9d5e2b	-0.019209942
221	0xbde12d42	-0.1099496
222	0xbd4694ce	-0.048481755
223	0xbcf68779	-0.030093895
224	0xbdcd16d1	-0.100141175
225	0xbdf383df	-0.11890387
226	0x3c9d4bb3	0.019201135
227	0xbe1993e8	-0.14997828
228	0xbd0263d0	-0.03183347
229	0xbd694665	-0.0569519
230	0x3e061e05	0.13097389
231	0x3c83619d	0.016037757
232	0xbd77dd1d	-0.060513604
233	0xbd2a2833	-0.041542243
234	0xbd1646f8	-0.036688775
235	0xbe1e5de9	-0.15465511
236	0x3d8cc67c	0.068737954
237	0xbd6dfaf9	-0.058100674
238	0x3d975b5a	0.07390471
239	0x3e0e3da4	0.13890702
240	0x3c9081a2	0.017639939
241	0x3d3e07dd	0.046394218
242	0xbd377095	-0.0447851
243	0x3e20505f	0.15655659
244	0x3d06eac0	0.03293872
245	0xbd39c87a	-0.045357205
246	0x3e3ced7c	0.18449968
247	0x3c2a053f	0.010377227
248	0x3d8cc645	0.068737544
249	0x3e25af04	0.16180044
250	0xbc9c8a3a	-0.01910888
251	0xbd77af20	-0.060469747
252	0xbe23cd3f	-0.15996264
253	0xbdaf166c	-0.085491985
254	0x3af13be6	0.0018404692
255	0xbdffd794	-0.1249229

clf_net.1.running_mean f4 [256]
0	0xbdbb3171	-0.091402896
1	0x3f507e84	0.8144305
2	0x3ea0c9a7	0.3140385
3	0xbe711bb2	-0.23545721
4	0xbe123d82	-0.14281276
5	0xbf1ad4e2	-0.60481083
6	0x3ea97e37	0.33104107
7	0x3ecbe861	0.3982573
8	0x3edc3165	0.43006435
9	0xbee2f2ad	-0.44325772
10	0x3e9661d6	0.29371518
11	0x3f05a0ee	0.52198684
12	0xbe33ab8f	-0.17545913
13	0x3f008e76	0.5021738
14	0x3e99d6fb	0.3004683
15	0x3ba54d08	0.005044583
16	0x3f43b019	0.7644058
17	0xbec24415	-0.37942567
18	0x3bc6587f	0.00605303
19	0x3e968022	0.29394633
20	0xbb335b0e	-0.0027367505
21	0xbe9d4151	-0.30713895
22	0x3f823806	1.0173347
23	0x3f360424	0.7110007
24	0xbe9dcd84	-0.30820858
25	0x3f479a1c	0.7796953
26	0x3e8a1918	0.2697227
27	0xbea3f1d6	-0.32020444
28	0xbf3b95a5	-0.73275214
29	0xbe4f94f1	-0.2027166
30	0x3bc41614	0.005984077
31	0x3f72b796	0.9481138
32	0x3e9ed215	0.31019655
33	0x3e501b31	0.20322873
34	0xbe7ae308	-0.24500668
35	0x3e82372c	0.25432718
36	0x3e8e692a	0.2781461
37	0xbebbeb2a	-0.36702853
38	0xbf508a86	-0.8146137
39	0x3ef5a243	0.47975358
40	0xbee734ea	-0.45157558
41	0xbef0c630	-0.47026205
42	0x3da516bd	0.080609776
43	0x3e358040	0.17724705
44	0x3e903fbe	0.2817363
45	0xbd428af8	-0.047495812
46	0x3d9f51e6	0.07779293
47	0xbd0ed83f	-0.034874197
48	0x3efa5685	0.48894134
49	0xbf2127d5	-0.62951404
50	0x3ef8c908	0.48590875
51	0x3f11d485	0.56964904
52	0xbf4a87e8	-0.79113626
53	0xbed67cf4	-0.41892207
54	0xbeb31f08	-0.34984612
55	0x3eb9ab03	0.36263284
56	0x3e8bb03f	0.27282903
57	0xbf425b92	-0.75920975
58	0x3e99e6f0	0.30059004
59	0xbede7591	-0.4344907
60	0x3eda7e06	0.42674273
61	0x3f47ed30	0.78096294
62	0x3aa53eea	0.0012607251
63	0x3f1a8eca	0.6037413
64	0x3e019015	0.12652619
65	0xbf14e29e	-0.5815829
66	0xbeafa137	-0.34302685
67	0x3e5fbaf4	0.2184866
68	0x3f80327c	1.0015407
69	0xbbb9f4eb	-0.0056749485
70	0xbf826228	-1.0186205
71	0xbf352d00	-0.7077179
72	0xbe55de07	-0.20885478
73	0xbf672373	-0.90288466
74	0x3f09eda2	0.53878224
75	0xbf87aeb4	-1.060019
76	0x3dc015be	0.09379147
77	0x3f1c0142	0.6093942
78	0x3e3b49b6	0.18289837
79	0x3e065d1c	0.13121456
80	0x3ede7c04	0.4345399
81	0xbec0254f	-0.37528464
82	0x3eb947d5	0.36187616
83	0xbf413129	-0.7546564
84	0x3f9711fe	1.1802366
85	0x3e23cfa2	0.15997174
86	0xbf3680c1	-0.7129021
87	0x3efbf2c0	0.4920864
88	0x3ebb3da4	0.36570466
89	0x3ea79ada	0.3273533
90	0x3f0eba0d	0.5575264
91	0xbf02c9ce	-0.5108918
92	0xbeb76872	-0.35821873
93	0xbf1da583	-0.61580676
94	0x3e384996	0.17996821
95	0x3e18cf9b	0.14922945
96	0x3f3936a9	0.7234903
97	0x3ef48b01	0.47762302
98	0x3df08e76	0.11745922
99	0xbe87756d	-0.26456776
100	0x3dd7971e	0.1052687
101	0x3f15e01f	0.58545107
102	0xbf06a09d	-0.52588826
103	0x3ea7291a	0.32648546
104	0xbe24e264	-0.16101986
105	0x3e47a00c	0.19494647
106	0xbf0873d4	-0.5330174
107	0x3f2b8dfb	0.6701352
108	0x3df0f804	0.11766055
109	0x3eaa57a6	0.33269995
110	0x3ecf8c75	0.40536848
111	0x3e626796	0.22109827
112	0xbe050ca0	-0.12993097
113	0x3f849f31	1.0361081
114	0xbf1b5f59	-0.60692364
115	0xbf7cd036	-0.98755205
116	0x3e49834c	0.19678992
117	0xbedc513d	-0.4303073
118	0x3eef1a04	0.46699536
119	0x3e83ed98	0.25767207
120	0xbf80a2aa	-1.0049641
121	0x3ec2f876	0.38080186
122	0x3d05d514	0.03267391
123	0x3e00c54c	0.12575263
124	0xbd313f92	-0.043273516
125	0x3ee8a1c6	0.45435923
126	0x3f42bf99	0.76073605
127	0xbecb0282	-0.3965035
128	0x3ed6a86b	0.41925368
129	0xbe5ee231	-0.21765973
130	0x3f764294	0.9619534
131	0x3f776a21	0.96646315
132	0xbe86f6e3	-0.26360235
133	0xbe88f72b	-0.26751074
134	0xbf387d0d	-0.7206581
135	0x3d67eece	0.056624226
136	0xbf0e8e54	-0.55685925
137	0xbf76e152	-0.9643756
138	0xbe82f747	-0.25579283
139	0x3eac3eaa	0.3364156
140	0xbea8926f	-0.3292422
141	0xbf375d3b	-0.71626633
142	0xbe977df1	-0.29588273
143	0x3ec0cb1e	0.37654966
144	0xbe951b70	-0.29122496
145	0x3e4356d9	0.19076099
146	0x3f2536ee	0.6453694
147	0xbbf9993f	-0.0076171453
148	0xbdb8aff0	-0.090179324
149	0x3da284be	0.07935475
150	0xbee7261d	-0.45146266
151	0x3ecf47bf	0.40484425
152	0x3f7d3999	0.9891601
153	0xbdee7e4a	-0.116451815
154	0xbec88293	-0.3916212
155	0xbdfe09d0	-0.12404215
156	0x3d87547c	0.06607911
157	0x3ef2952f	0.47379443
158	0xbef3f4a6	-0.4764759
159	0x3e4ac3fd	0.19801326
160	0xbecffba4	-0.40621674
161	0x3e8c893a	0.27448446
162	0x3f023382	0.50859845
163	0xbf0280fb	-0.5097806
164	0xbec7f316	-0.39052647
165	0xbd700610	-0.05859953
166	0xbf1152a4	-0.56766725
167	0xbe032280	-0.1280613
168	0x3ed0e77b	0.40801606
169	0x3ece737c	0.40322483
170	0x3f5678dc	0.83778167
171	0x3e925434	0.28579867
172	0xbf0538cf	-0.5203981
173	0xbf4ab5ae	-0.7918347
174	0xbedc2d82	-0.4300347
175	0x3e11ff52	0.14257553
176	0xbeb5d9e1	-0.3551779
177	0x3e84566e	0.2584719
178	0xbd724537	-0.05914804
179	0xbc9ba2bb	-0.018998494
180	0x3f8d0f9d	1.102039
181	0xbf29cf07	-0.66331524
182	0x3f297c11	0.66204935
183	0x3d3c4358	0.04596266
184	0xbf0cfa2d	-0.5506924
185	0xbe65e21a	-0.22449532
186	0xbf4f2fbb	-0.80932206
187	0xbd6aeb00	-0.05735302
188	0x3eeac201	0.45851138
189	0x3f12b996	0.5731443
190	0xbf90527a	-1.127517
191	0xbdf6ae05	-0.1204491
192	0xbe925fbf	-0.28588673
193	0xbe5b1cf6	-0.21397766
194	0xbf52f85a	-0.82410204
195	0xbdd14542	-0.10218288
196	0x3d2982b5	0.041384418
197	0xbe8015cc	-0.2501663
198	0x3f16e078	0.5893626
199	0xbf280cac	-0.65644336
200	0x3e534b95	0.20634301
201	0xbc91d974	-0.017803885
202	0x3f1b46a5	0.6065467
203	0xbf18c660	-0.59677696
204	0xbf04190c	-0.5160072
205	0xbdeb20a2	-0.114808336
206	0xbd58412e	-0.052796535
207	0x3e844c77	0.25839588
208	0xbf3129f9	-0.6920467
209	0x3d327e3b	0.043577414
210	0x3e66dec9	0.22545923
211	0x3ecd8a22	0.4014445
212	0x3eac57bd	0.3366069
213	0x3f1e6e28	0.61886835
214	0xbf385a8a	-0.7201315
215	0xbf029aac	-0.5101726
216	0x3ec9008b	0.39258227
217	0xbd105970	-0.035241544
218	0xbed5bd72	-0.41746098
219	0xbec37a6f	-0.38179347
220	0xbd31cd6c	-0.043408796
221	0x3dbadad5	0.0912377
222	0xbec640a2	-0.38721186
223	0xbe3fe5c2	-0.1873999
224	0x3f7141c5	0.9424098
225	0xbfa3f950	-1.2810459
226	0x3eb005b9	0.34379366
227	0xbf275989	-0.65370995
228	0xbd70f325	-0.05882563
229	0xbf572134	-0.8403504
230	0x3f1994ef	0.5999288
231	0x3de55bc4	0.111991435
232	0x3e164447	0.14674483
233	0xbda0dfee	-0.07855211
234	0xbe862d2f	-0.26206347
235	0xbf389da9	-0.7211557
236	0xbf277ccf	-0.6542482
237	0xbebc9d26	-0.36838645
238	0x3f27e4f4	0.6558373
239	0x3f2f1f18	0.6840682
240	0x3db709c4	0.089374095
241	0xbe3df734	-0.18551332
242	0x3ea9def3	0.3317791
243	0x3e2cf6eb	0.16891067
244	0xbecc68b3	-0.3992363
245	0xbf6e827a	-0.9316784
246	0x3f5dc2cb	0.86625355
247	0x3eff3865	0.49847713
248	0xbf1543c4	-0.5830653
249	0x3f21a491	0.63141733
250	0xbd85d1e1	-0.06534172
251	0x3da1aab9	0.07893891
252	0x3f322608	0.6958928
253	0x3e8b8398	0.27248836
254	0x3df8d2d9	0.12149591
255	0xbdad5b12	-0.08464636

clf_net.1.running_var f4 [256]
0	0x3c0a5952	0.008444147
1	0x3bf64a4a	0.00751618
2	0x3b8dbfac	0.0043258276
3	0x3c279fe0	0.010230988
4	0x3cc086ca	0.023501772
5	0x3b94dc0c	0.004542833
6	0x3a888308	0.0010415027
7	0x3b70841b	0.0036699835
8	0x3b5483d0	0.00324272
9	0x3bdb9d34	0.0067020897
10	0x3a8bb4a0	0.0010658689
11	0x3ae48d16	0.0017437066
12	0x3cfa13c1	0.030526998
13	0x3ae29cfa	0.0017289214
14	0x3c3c3fb7	0.0114898
15	0x3b9e98f8	0.0048400126
16	0x3b3254a0	0.0027211085
17	0x3c001cd9	0.007819378
18	0x3c027935	0.007963468
19	0x3b2643bc	0.0025369963
20	0x3a7780a8	0.00094414735
21	0x3b24c0f3	0.002513942
22	0x3c3a1a35	0.011358787
23	0x3c4e46df	0.012590139
24	0x3aa62c4f	0.0012678
25	0x3c87e625	0.016589234
26	0x3c137e37	0.00900226
27	0x3bf10b7d	0.007356106
28	0x3b1e0109	0.0024109504
29	0x3c0c392a	0.008558551
30	0x3be87c12	0.0070948685
31	0x3c5b96bb	0.013402636
32	0x3bf30646	0.0074165193
33	0x3c4a9451	0.012364463
34	0x3c46b068	0.012127019
35	0x3c25bfb7	0.010116509
36	0x3c4cf435	0.012509395
37	0x3a5a56c7	0.0008328971
38	0x3cb01111	0.021492513
39	0x3be6c539	0.0070425537
40	0x3cddc703	0.027072435
41	0x3c1ddf79	0.0096358
42	0x3c8af8a1	0.016964259
43	0x3c9a8516	0.018862288
44	0x3bfac01a	0.007652295
45	0x3b28ba31	0.0025745744
46	0x3bf7a51e	0.0075575253
47	0x3bc694c4	0.0060602147
48	0x3b4853d0	0.0030567534
49	0x3a797fa9	0.0009517619
50	0x39eec536	0.0004554183
51	0x3c0a3d62	0.008437486
52	0x3c4389af	0.011934682
53	0x3c42452e	0.011857314
54	0x3900da58	0.0001228837
55	0x3b54cac2	0.0032469486
56	0x3b1b0ffe	0.0023660655
57	0x3c87bf30	0.016570657
58	0x3c76d6ea	0.015065888
59	0x3b166170	0.002294626
60	0x3bba13c6	0.0056786267
61	0x3b0d689e	0.002157725
62	0x3bba66f4	0.0056885425
63	0x3bec6151	0.0072137495
64	0x3c16bf26	0.009200847
65	0x3c3a6708	0.011377104
66	0x3b9bf16f	0.0047590057
67	0x3c64f5b5	0.013974597
68	0x3cac5e44	0.021041043
69	0x383919e6	4.4131557e-05
70	0x3d123237	0.03569242
71	0x3b65b223	0.0035048805
72	0x39bbcdab	0.00035820654
73	0x3bdd6d41	0.006757409
74	0x3bdb6cdc	0.0066963267
75	0x3c42103a	0.011844689
76	0x3c956e10	0.018240958
77	0x3a96de68	0.0011510374
78	0x39f44fb5	0.00046598693
79	0x3bdb2af6	0.006688471
80	0x3c0ebcf7	0.008712045
81	0x39fd59a7	0.00048322717
82	0x3c3f302c	0.0116692
83	0x3ba711a6	0.0050985394
84	0x3cce6396	0.02519397
85	0x3b6007db	0.003418437
86	0x3b19bc80	0.0023458302
87	0x3bff17f3	0.0077848374
88	0x3c4b91ab	0.012424867
89	0x3bd9ab5f	0.0066427435
90	0x3b563e20	0.0032690838
91	0x3c1e6a0c	0.009668838
92	0x3a1c31a1	0.0005958323
93	0x3c3ed099	0.011646413
94	0x3ce6084f	0.028080134
95	0x3b8eb99a	0.0043556215
96	0x3be71dc4	0.007053109
97	0x3c68c6d4	0.014207561
98	0x3b611a80	0.003434807
99	0x3c19051e	0.009339599
100	0x3bd99ded	0.0066411407
101	0x3b2bad5c	0.002619586
102	0x3ba612e7	0.0050681713
103	0x3c3265d6	0.010888537
104	0x3c0e5f37	0.008689693
105	0x3cddfc2c	0.027097784
106	0x39b624d5	0.00034741187
107	0x3c0d47d9	0.008623087
108	0x3cce88d2	0.025211725
109	0x3c18b91f	0.00932148
110	0x3baa3884	0.0051947255
111	0x3c5c88b0	0.013460323
112	0x3c3498ea	0.011022786
113	0x3c5f3722	0.0136239845
114	0x3c210972	0.009828912
115	0x3caca3bb	0.021074167
116	0x3b5279a5	0.0032115963
117	0x3cf8eed9	0.030387329
118	0x3afc5c53	0.0019253589
119	0x3bed6d6b	0.0072457097
120	0x3c920650	0.017825276
121	0x3c51e8ea	0.012811879
122	0x3c2f93bf	0.010716378
123	0x3b010707	0.0019688027
124	0x3c0fdb04	0.008780245
125	0x3ad51446	0.0016256652
126	0x3c27fcf0	0.010253176
127	0x3c69ac40	0.014262259
128	0x3a6cfdab	0.0009040485
129	0x3aebbb6a	0.0017984931
130	0x3cab7df6	0.020934086
131	0x3cb1d080	0.021705866
132	0x3c09d626	0.008412873
133	0x3c43d485	0.011952524
134	0x3b376ad3	0.0027987256
135	0x3c001d18	0.0078194365
136	0x3c1d1f7c	0.009590026
137	0x3c0c49d7	0.008562527
138	0x3b2989a6	0.0025869398
139	0x3c27ad96	0.010234257
140	0x3a393691	0.0007065321
141	0x3bcde68a	0.006283586
142	0x3bdeb200	0.0067961216
143	0x3b69cc73	0.003567484
144	0x3aac34fe	0.0013138351
145	0x3a08b604	0.0005215111
146	0x388f67fa	6.8381385e-05
147	0x3c0a28e2	0.008432599
148	0x3c23bb57	0.009993396
149	0x3b004320	0.001957126
150	0x3b88eec3	0.0041788532
151	0x3c9c663c	0.019091718
152	0x3c518e07	0.01279021
153	0x3c1ea08f	0.009681835
154	0x3c971a3f	0.018445132
155	0x3a851767	0.0010154069
156	0x3b8175e7	0.0039508226
157	0x3ba8b001	0.0051479344
158	0x3bcf465a	0.006325525
159	0x3bf2b82f	0.0074072103
160	0x3b8efc7b	0.004363594
161	0x3b958ba5	0.004563766
162	0x3c5577e4	0.013029072
163	0x3c51957a	0.012791986
164	0x3c3b9394	0.01144876
165	0x3c00b99a	0.007856751
166	0x3946943b	0.00018937972
167	0x3c1bffc1	0.009521426
168	0x3c40ec3f	0.011775075
169	0x3c0cc272	0.008591281
170	0x3cbce5ae	0.023058739
171	0x39ffdc46	0.00048801507
172	0x3abf7c10	0.0014609117
173	0x3b6da8ee	0.003626402
174	0x3bbab6ae	0.0056980466
175	0x3b950cb9	0.004548636
176	0x3c012b2a	0.007883826
177	0x3ab68f0a	0.0013928127
178	0x3cd64f93	0.02616099
179	0x3c32057f	0.010865568
180	0x3c9bd696	0.019023221
181	0x3c0c0ab1	0.008547471
182	0x3bcfd668	0.006342698
183	0x3bc860c2	0.00611505
184	0x3b8c017f	0.0042726393
185	0x3c810a9d	0.015752131
186	0x3c61af7e	0.013774751
187	0x3acc04cc	0.0015565394
188	0x3c006215	0.007835885
189	0x3c1fcbfb	0.009753223
190	0x3ca6208b	0.02027919
191	0x3c8828a2	0.016620938
192	0x3be1a072	0.0068855816
193	0x3c33aaa8	0.010965981
194	0x3cb56168	0.022141173
195	0x3a838c2f	0.0010036285
196	0x3c0b3e14	0.008498687
197	0x3c51301f	0.012767821
198	0x3bf99652	0.0076167965
199	0x3b7b5a40	0.0038353354
200	0x3bae4df3	0.005319351
201	0x3ba4b090	0.0050259307
202	0x3cdb449c	0.026766114
203	0x3a2232d8	0.0006187386
204	0x3c2f69cf	0.010706379
205	0x3b2fdd29	0.0026834703
206	0x3c3711ed	0.011173707
207	0x3a954289	0.0011387627
208	0x3c1f3b9a	0.0097188
209	0x3c08d406	0.008351332
210	0x3a41fca5	0.00074000127
211	0x3c1a93aa	0.00943462
212	0x3bc3a845	0.005970987
213	0x3c0f5401	0.008748055
214	0x3b3cf96a	0.0028835186
215	0x3ace6e79	0.0015749476
216	0x3b7e28ec	0.0038781716
217	0x3b9d93d7	0.0048088836
218	0x3c11429f	0.008865981
219	0x3bc1ee08	0.005918268
220	0x3b84748a	0.004042213
221	0x3ac64a68	0.0015128376
222	0x3c391f47	0.011298961
223	0x3b83a1e6	0.0040171025
224	0x3c9b5ea1	0.018966021
225	0x3cdec9c1	0.027195813
226	0x3be67e37	0.007034089
227	0x3ba5d28a	0.0050604986
228	0x3bfbfe7f	0.0076902504
229	0x3c7a3bd3	0.015273052
230	0x3a2ac08f	0.0006513679
231	0x3c3f6830	0.011682555
232	0x3b191868	0.0023360495
233	0x3c467b09	0.012114295
234	0x3c17e222	0.009270223
235	0x3b9524ad	0.0045514912
236	0x3afa1da8	0.0019082325
237	0x3b557e72	0.0032576588
238	0x3c8dff09	0.017333524
239	0x3b88a03a	0.004169491
240	0x3bffee33	0.007810378
241	0x3be9b14a	0.00713173
242	0x3c1a6ebd	0.009425816
243	0x3aa36356	0.0012465518
244	0x3bad2273	0.0052836477
245	0x3c216d23	0.00985268
246	0x3b643348	0.0034820605
247	0x3c90eb8d	0.017690444
248	0x3bf7cc43	0.0075621917
249	0x3a55490e	0.0008136191
250	0x3b6f24e7	0.0036490501
251	0x3bcfe9ba	0.006345001
252	0x3a9721cc	0.0011530458
253	0x3c132205	0.008980279
254	0x3bd1951d	0.0063959495
255	0x3bd6f4be	0.0065599373

clf_net.3.weight f4 [256, 256]
0	0xbbfef048	-0.0077801086
1	0xbd5e2592	-0.05423505
2	0x3cdc2b84	0.026876219
3	0xbd482e2f	-0.04887217
4	0xbc9ffa70	-0.019528598
5	0x3d4cf361	0.05003679
6	0x3d3e766c	0.046499655
7	0xbb2fa152	-0.0026799035
8	0x3caf491e	0.02139717
9	0xbd77e095	-0.060516912
10	0xbd76b82c	-0.060234234
11	0x3c1e93c5	0.009678786
12	0xbd6b04f4	-0.05737777
13	0x3d0eadd5	0.034833748
14	0xbd02679d	-0.031837095
15	0xbcf45e87	-0.02983023
16	0xbcd16871	-0.025562497
17	0xbd73cce4	-0.05952157
18	0x3d5f1508	0.054463416
19	0xbc18c020	-0.00932315
20	0x3d484e50	0.04890281
21	0xbc0a622a	-0.008446256
22	0xbd3a1c54	-0.045437172
23	0xbd3b7293	-0.045763563
24	0x3d1d0639	0.038336013
25	0x3cf6530e	0.0300689
26	0x3c06dc04	0.008231167
27	0x3d7f5286	0.06233456
28	0xbd160d15	-0.03663357
29	0xbcd49e4d	-0.02595439
30	0x3d45e23e	0.048311464
31	0x3c59c39d	0.013291267
32	0x3d4e22ae	0.050326042
33	0xbd170c7d	-0.036877144
34	0xbd1bb833	-0.038017463
35	0x3c90e1d9	0.017685818
36	0xbbd6cd05	-0.006555202
37	0xbd414203	-0.047182094
38	0x3cf90d48	0.03040184
39	0xbd0325ea	-0.03201858
40	0x3d27d2ea	0.040972628
41	0x3bc2b162	0.005941556
42	0x3c4bec17	0.012446425
43	0x3cf8485c	0.030307941
44	0x3cfc6ce6	0.030813646
45	0xbce9d4bd	-0.028543824
46	0xbd3fa720	-0.046790242
47	0x3d7c020c	0.06152539
48	0x3d26a76c	0.04068701
49	0x3c893ad9	0.016751694
50	0x3c02b189	0.007976898
51	0x3d3b3c77	0.04571196
52	0x3d58c61a	0.0529233
53	0xbd204e4f	-0.03913718
54	0xbd0e5d0e	-0.034756713
55	0xbccc3c75	-0.024931172
56	0xbd3a6886	-0.045509838
57	0x3c3ed068	0.011646368
58	0xbd189ad7	-0.03725704
59	0x3cdd8927	0.027042938
60	0x3c19c3b2	0.009385036
61	0xbd189d8f	-0.037259635
62	0xbd1b7045	-0.037948865
63	0x3d602279	0.054720376
64	0x3ca5edab	0.02025493
65	0xbd2f702d	-0.04283159
66	0xbbbf9b6e	-0.005847386
67	0xbd8006f9	-0.0625133
68	0x3cdf0dd3	0.027228272
69	0x3d66313d	0.0561993
70	0xbd35cef3	-0.044386815
71	0xba87e10e	-0.0010366754
72	0x3d4969c1	0.04917312
73	0xbd91b7e7	-0.07115155
74	0x3d9e7761	0.077376135
75	0xbd180073	-0.037109803
76	0xbd3184b1	-0.043339435
77	0xbcdfd3e7	-0.027322723
78	0xbd5c45d2	-0.053777523
79	0xbc916c4c	-0.017751835
80	0xbca12beb	-0.019674262
81	0xbd40da31	-0.047083084
82	0xbd41ff90	-0.047362864
83	0x3d7eff8b	0.062255424
84	0xbc07928a	-0.008274684
85	0xbd8715d4	-0.0659596
86	0x3d5b6d1c	0.05357085
87	0x3d791ee7	0.060820486
88	0x3cffeeb2	0.031241748
89	0x3d0e5a11	0.034753863
90	0x3d672816	0.056434713
91	0x3cc640cd	0.024200821
92	0xbc994452	-0.018709335
93	0x3b17eeee	0.0023183185
94	0xbd7e7f29	-0.062132988
95	0xbd1f73f6	-0.03892895
96	0x3d804019	0.06262226
97	0x3d07b4bd	0.03313135
98	0xbd7b1940	-0.061303377
99	0xbd597cfa	-0.053097703
100	0x3b3ea4f5	0.0029090021
101	0xbcf2b513	-0.029627359
102	0x3aca6ba9	0.0015443462
103	0xbd3dd989	-0.046350036
104	0xbd262f82	-0.04057265
105	0xbd653066	-0.05595436
106	0xbca9690b	-0.020679971
107	0x3c9163b5	0.01774774
108	0x3cb25416	0.02176861
109	0xbd5c7692	-0.053824015
110	0x3d20bb45	0.039241094
111	0xbc8cc241	-0.017182471
112	0x3d25a60d	0.04044156
113	0x3d7643da	0.060123302
114	0x3c230c1a	0.009951616
115	0x3cf39c3a	0.02973758
116	0xbd726566	-0.059178732
117	0x3ca2d916	0.019878905
118	0xbcca7c4e	-0.024717476
119	0x3d546c3d	0.051861037
120	0x3d27b33f	0.040942427
121	0x3d844837	0.064590864
122	0xbcc59e6d	-0.024123395
123	0x3d297846	0.041374467
124	0xbcc708da	-0.024296213
125	0x3cdd65e7	0.02702613
126	0xbc248690	-0.010041848
127	0xbb9bd0db	-0.004755122
128	0x3d21e204	0.039522186
129	0xbc4c04d3	-0.012452322
130	0xbd2d435c	-0.042300567
131	0x397821b7	0.00023663683
132	0x3d50d3c7	0.050983217
133	0x3d5e207e	0.054230206
134	0xbc2fb50c	-0.010724317
135	0x3b865599	0.0040995595
136	0x3d26eb1b	0.040751558
137	0xbd646f4f	-0.055770215
138	0xbc3cb0e8	-0.011516787
139	0xbd5a3857	-0.053276386
140	0xbc5aa91a	-0.013345981
141	0xbb80b85b	-0.003928227
142	0xbce0a062	-0.027420226
143	0xbd43cca2	-0.047802575
144	0xbbf752a8	-0.007547695
145	0xbc315149	-0.010822603
146	0x3cdfc3b3	0.027314996
147	0x3d51eb99	0.051250074
148	0xbd7dcbf0	-0.061962068
149	0x3ca73a76	0.020413619
150	0xbd122806	-0.0356827
151	0x3cdf86d1	0.027285965
152	0xbd30ad01	-0.04313374
153	0xbcd78038	-0.026306257
154	0xbd34589b	-0.044029813
155	0xbcb26868	-0.0217783
156	0x3ce38478	0.027773127
157	0xbc31b660	-0.010846704
158	0x3d2b063d	0.041753996
159	0xbd4d498b	-0.050118964
160	0xbd6889eb	-0.056772154
161	0xbd3c3b11	-0.045954768
162	0x3cd27c41	0.025694015
163	0x3cddb489	0.027063625
164	0x3b42e2fb	0.0029737342
165	0xbcfe9619	-0.031077432
166	0xbd50cae4	-0.05097474
167	0x3b9e9131	0.0048390855
168	0x3d5c4240	0.05377412
169	0x3d1bcc69	0.038036738
170	0xbc6c8808	-0.014436729
171	0x3cfc3e37	0.030791385
172	0xbcdd1d2f	-0.026991455
173	0xbd499692	-0.04921586
174	0x3d07f130	0.033189
175	0x3c352337	0.011055759
176	0xbb779c4b	-0.0037782367
177	0x3cdae48c	0.026720308
178	0xba1a746f	-0.0005891984
179	0x3d4642fe	0.048403732
180	0x3a22cafd	0.0006210057
181	0xba5e5898	-0.00084818294
182	0xbccf8f74	-0.025336958
183	0x380e103c	3.3870558e-05
184	0x3cb26bc1	0.021779897
185	0x3d531c2e	0.051540546
186	0x3c24b02a	0.010051766
187	0xbd002ba4	-0.03129162
188	0xbace2547	-0.0015727662
189	0xbd05dc26	-0.032680653
190	0x3d403499	0.04692516
191	0x3c51a262	0.012795063
192	0x3c471f49	0.012153455
193	0x3d1b1fd7	0.03787216
194	0xbd7162da	-0.058932163
195	0x3cf9dbaa	0.030500252
196	0x3c08fde2	0.008361312
197	0xbc3cd052	-0.011524277
198	0xbc58398e	-0.013197316
199	0xbc9604f2	-0.018312905
200	0x3c0b88f2	0.008516537
201	0xbc89c182	-0.016815905
202	0xbd246310	-0.040133536
203	0xbd601592	-0.05470807
204	0x3c2f93a2	0.010716351
205	0xbd419028	-0.04725662
206	0xbc8c9b73	-0.017163968
207	0xbcde5350	-0.027139336
208	0xbc474d4a	-0.012164423
209	0x3d402c39	0.046917174
210	0xbd4bce96	-0.049757563
211	0x3d2549be	0.04035353
212	0xbd816889	-0.063187666
213	0x3d65e90e	0.05613046
214	0x3d6d32d7	0.057909813
215	0x3c8448a3	0.016147917
216	0xbb8e09a9	-0.0043346477
217	0x3d8b1898	0.067918
218	0xbd09aeaf	-0.033613857
219	0x3ab3460d	0.0013677493
220	0x3b8e2f77	0.0043391543
221	0xbd2c4217	-0.042055216
222	0xbcbeae3c	-0.02327644
223	0xbc9efb09	-0.019406812
224	0x3c4163c2	0.011803569
225	0x3d481278	0.04884574
226	0x3d00ac0f	0.031414088
227	0x3c9efa2d	0.019406402
228	0xbd540964	-0.051766768
229	0xbd25dd77	-0.04049441
230	0xbd2490b1	-0.04017705
231	0xbd34b2f7	-0.044115987
232	0x3d5a776e	0.053336553
233	0xbc2f17fe	-0.0106868725
234	0xbd2f30f3	-0.04277129
235	0x3ccdbb58	0.025113747
236	0x3c39609f	0.01131454
237	0xbd2d9ecf	-0.04238778
238	0x3cf2be64	0.029631801
239	0xbd94b057	-0.07260197
240	0x3d36f159	0.04466376
241	0x3d3533bc	0.04423879
242	0x3d38101b	0.044937234
243	0xbd7e0a38	-0.062021464
244	0xbd305134	-0.04304619
245	0xbd1b9763	-0.03798617
246	0xbd6dbbe1	-0.058040503
247	0xbd85b8f2	-0.06529416
248	0x3a643619	0.0008705571
249	0x3cb6cd52	0.022314701
250	0x3c9ec6b0	0.019381851
251	0x3d4bb859	0.049736355
252	0xbd35f41a	-0.044422247
253	0x3c3c8170	0.01150547
254	0x3c20e743	0.009820762
255	0xbd82470c	-0.06361207
