EE8591/Project/classification_models/Hyperbolas/DNN/deepnn/training_models/net_4900.pt (torch, 282047 bytes, 14 tensors)

clf_net.0.weight f4 [256, 2]
00000000: 11bc 323f ba29 9bbe 752e 6ebc f35d 003f
00000010: 0896 6dbd 6477 b3be 5749 52bd 18eb 193f
00000020: 0e03 113f ac28 093f 647a 01bf 65df 253e
00000030: 5261 cf3d 60c0 59be b825 6f3e 8e65 503e
00000040: bf98 a1be ad40 b43e 5e5d 2c3e cc0d 06bf
00000050: 379f 7d3e 3813 f4bd 44c6 c2bd 0086 893e
00000060: cc50 2ebf 27a0 14bf 64ca 9f3e cf2a 2ebe
00000070: b95a 033f 7e8b 30bf a13e f3be 4062 be3e
00000080: 0369 af3e 7513 343c a750 29bf 40eb bd3e
00000090: 8c07 95be 3956 143f 71bd 57be 018d a83e
000000a0: 867e 683d 2e5c 173e 5b14 65ba 8217 943e
000000b0: 092a cb3e 154f bd3e 46a1 0f3e 00e5 133f
000000c0: c945 89be d2c1 153e 0eec fb3d da64 2e3f
000000d0: 78e1 26bf c06d 273d b7b9 84be ec74 0f3f
000000e0: 1598 b7be 6e28 6b3e 87b6 15be e257 ebbe
000000f0: 682e c0be 3aff 0b3f 779a 893e 3d8e 053f
00000100: c2a1 073f 6eaf 973d 0016 cdbd edc7 17bf
00000110: 663d 193d 6502 1d3f a2ab afbe 0967 bfbe
00000120: 1e4c f1bd e3b0 2f3f eeb8 5bbe 0641 953d
00000130: e778 a5be 5621 2cbf f22c c33e eace 0abf
00000140: dd1f 1dbf 81c7 11bf 2586 5abe 0166 203f
00000150: fd9a 93be 7967 18bf 440c 3ebe 94cc 32bf
00000160: 95d3 23bf 3a2c 073e 5a48 c4be 720a 1e3e
00000170: ae71 113f 0b63 b73c 6ca9 063f 3e0b d8be
00000180: c9c0 d5be 0703 0b3e 14b5 703e 6cf0 cfbd
00000190: d339 0bbd 4338 d7bd a5ab b73e 12ef 19bf
000001a0: e3de a6be 7851 e2be 850b 1dbf 505a 2c3f
000001b0: d61e 5fbc 65f9 863d 6628 dc3e f39d 6cbe
000001c0: f876 a03e 9e13 8ebe 7e99 e9be c6f0 edbe
000001d0: f357 f1bd c2b6 26bf 81d1 9c3e 386d ca3c
000001e0: 984e afbe b7d3 52be 00b4 b13e c38e cabd
000001f0: b063 3abc 5cf8 de3e 6990 183f 8cb6 debe
00000200: 4bc5 2d3f 09bc f6be c145 a1be 8055 debe
00000210: 196f 02bf 46cd 9a3e 2713 bd3e 0006 ef3e
00000220: 8f4b 353f f494 b13e fdc4 4c3c f288 fe3c
00000230: 503e 27bf ad29 32bf 9140 e3be a188 163e
00000240: d051 06be bac0 ca3d a7cf 83be c06d a5be
00000250: 8b27 1f3f 825d 82be 2f8b c9be da1a c6be
00000260: 4a62 08bf 4dda e2be 812f f73d 9c4e 61be
00000270: cbaf 133e a29e f2bd 1032 853e 0cd2 08bf
00000280: b7d2 65bd 935c 0e3f 159b f7bd 36b9 0d3e
00000290: 43fd 9bbe 24cd 323f a053 7fbc 179c cebe
000002a0: b950 0c3f 77f1 153f a183 c83e c125 b6bb
000002b0: 2c62 bbbe e6b8 f53d f3f5 d6be 74c8 103f
000002c0: 5877 6dbe ed27 353f 0c19 1fbf 13e6 8b3e
000002d0: 7b2b d43e b5e2 8bbe 612e f1bc 983d 0dbf
000002e0: 5dc7 05be b892 3bbd e483 07bf d8c4 303f
000002f0: fe0b 0c3f dd88 243f f323 fb3e 9f7d ffbd
00000300: 5fc0 123f c853 edbc f7d2 853d 5c1a 273f
00000310: 2d81 cf3e d91a 09bd a793 dc3e 3449 20bf
00000320: ab71 a3be b614 8abe 8854 86be 3144 a63e
00000330: 905d 0a3f d41e 68be 4f6b 343f 84e2 10bf
00000340: a92a dfbe 1353 78be dc02 e73e 7dcd 313f
00000350: bf76 253d 42e9 edbd 81c9 e2be 5aff 183f
00000360: bf72 243f 6ed5 013f f796 803e 3a73 d53e
00000370: 927e 8d3e cae0 f1be 3fe9 243f 7aa2 423e
00000380: 8470 c2be a2ff 2f3f 20c3 083e e946 1b3f
00000390: 3f6e 88be f3ab d7be a6fc 06bf 9fb5 03bf
000003a0: 42f0 b43e e552 aabe 0e38 34bf 11b2 0ebf
000003b0: 05f7 cbbd fed4 4cbe d9a0 23bf eec9 b03e
000003c0: d649 eebe 31ef fabe 5f63 51bd bb15 2a3f
000003d0: 1a51 283f e0ef 18bf 0866 513e 718e f23d
000003e0: 8331 1abf 0a32 29bd 49d8 8cbe a048 b23c
000003f0: 9a5b 77bd 4ecb 183f c456 843a a9df 2fbf
0.69818217 -0.30305272 -0.014537443 0.50143355 -0.05800441 -0.35052025 -0.051339474 0.6012435
0.56645286 0.53577685 -0.5057738 0.161985 0.10125984 -0.21264791 0.23354232 0.2035124
-0.3156185 0.35205594 0.16832492 -0.523648 0.24767767 -0.11917728 -0.095104724 0.26860046
-0.68092036 -0.58056873 0.312091 -0.17008518 0.51310307 -0.6896285 -0.4750872 0.37184334
0.34259805 0.010990967 -0.6613869 0.37093544 -0.2910732 0.57944065 -0.2106836 0.32920077
0.056761287 0.14781258 -0.000873869 0.28924185 0.39680508 0.36974397 0.14026365 0.577713
-0.26811054 0.14624718 0.12300883 0.6812264 -0.6518779 0.04087615 -0.2592294 0.56037784
-0.35858217 0.22964641 -0.1462041 -0.45965487 -0.37535405 0.5468632 0.2687566 0.52170163
0.529812 0.074065074 -0.10013962 -0.5928944 0.03741207 0.6133178 -0.34310633 -0.37383297
-0.11782096 0.6862928 -0.21457264 0.07287793 -0.32318804 -0.67238367 0.38120228 -0.54221976
-0.61376745 -0.56945044 -0.21340235 0.62655646 -0.28829184 -0.59532887 -0.18559366 -0.6984341
-0.63994724 0.13200465 -0.3833645 0.15433672 0.56814086 0.022386095 0.5260227 -0.42196077
-0.41748646 0.13575374 0.23506576 -0.10153279 -0.033990692 -0.10508778 0.35873142 -0.6013042
-0.32591924 -0.4420278 -0.613457 0.67325306 -0.013618192 0.06590537 0.42999572 -0.23107128
0.31340766 -0.27749342 -0.45624918 -0.46472758 -0.11784353 -0.65122616 0.3062859 0.024710283
-0.3423965 -0.20588575 0.34707642 -0.09890511 -0.011376306 0.43548858 0.5959535 -0.43498647
0.6787917 -0.48190334 -0.3149853 -0.43424606 -0.5095077 0.30234736 0.36928675 0.46684265
0.7081842 0.34683955 0.012498138 0.03107116 -0.65329456 -0.6959484 -0.44385198 0.14700557
-0.13117146 0.09900041 -0.25744364 -0.32310295 0.6216971 -0.25461966 -0.39364 -0.3869236
-0.5327498 -0.44307175 0.120696075 -0.22002643 0.14422528 -0.11846663 0.26014757 -0.53445506
-0.056109156 0.5561001 -0.120901264 0.13840184 -0.3046666 0.6984427 -0.015583903 -0.40353462
0.54810673 0.5857157 0.39162925 -0.0055587 -0.36598337 0.11998157 -0.4198452 0.5655587
-0.23190057 0.70764047 -0.62147593 0.2732397 0.41439423 -0.273214 -0.02944106 -0.5517211
-0.13064332 -0.04579422 -0.52935624 0.6905036 0.547058 0.64271337 0.49050865 -0.12475132
0.57324785 -0.028970614 0.06534379 0.65274596 0.4052824 -0.03347287 0.430814 -0.626117
-0.3192266 -0.26968926 -0.26236367 0.324739 0.54049015 -0.2266801 0.7047624 -0.56595635
-0.43587235 -0.2425044 0.4511937 0.69454175 0.04039645 -0.11616756 -0.4429436 0.59764636
0.6423759 0.5071629 0.25115177 0.41689473 0.27635628 -0.47241813 0.64418405 0.19007292
-0.37976468 0.6874944 0.13355684 0.60655075 -0.2664661 -0.42123374 -0.5272926 -0.51449007
0.35339552 -0.33266369 -0.7039803 -0.5574046 -0.099592246 -0.20003125 -0.6391731 0.3452906
-0.46540707 -0.49010614 -0.05112016 0.6643941 0.6574875 -0.5974102 0.20449078 0.11843575
-0.602318 -0.041307487 -0.27508762 0.021763146 -0.060390092 0.5968522 0.0010096659 -0.68700653

clf_net.0.bias f4 [256]
00000000: 4fd9 96be 5a7e 123f c649 043f 7ca6 01bf
00000010: 5e48 31bf 33d9 dabe c9f3 c33e 2c4d 393e
00000020: 8020 d33e c567 8abe 7175 6a3e e480 e03e
00000030: b67b e83e 39dd dc3e cdca c33e 66bb 703d
00000040: 833f 163f 0f8f 6cbe 816a 0bbe aa42 733e
00000050: 303b d6bd a6b2 e5be da1b 223f 9ac4 b53e
00000060: dbf3 7cbe 98d1 c23e 4f51 143f 2eb4 edbe
00000070: b205 2bbf 054c c83d 3a20 98bd abfb 0d3f
00000080: 7869 013c 82e2 0b3f da1a 11bf 7e91 1c3f
00000090: 79c5 2c3a 3ecb 95be 44cf a3be 0b67 0e3f
000000a0: f0e2 0d3e 5155 2cbf 9801 053f 3397 1d3f
000000b0: 0b54 0a3f 0652 933d 21df 60be b19c b7bd
000000c0: 9f49 223f d483 32bf 741c 0f3f 417f 2f3f
000000d0: 9c54 d1be 7dfc e1be 2fe5 c1be 6894 883e
000000e0: c645 813e 94c4 99be f481 2e3f 578c 19bf
000000f0: e680 333f bae0 273f 334f 56be 1573 053f
00000100: c70b b93c 3eef 55be f80c 70be edd9 4abe
00000110: 416d f23e d0c4 f8bc 535f b1be 2d6f 0dbf
00000120: 693a 45be 6b1e 1dbf a31d b43e 819c 2bbf
00000130: cba4 143f b031 293f bba3 2d3e c3bc 863e
00000140: 7604 403e 92a9 c2be 79a3 2b3e dee0 0bbf
00000150: 0a84 1d3f a1a9 0fbd 17ab 16bf 5c82 d73e
00000160: 605d 053e dac6 003f b254 f83e 299d 64be
00000170: 003e 89be c3ed 30bf 8b4f d3be 7c6b 18bd
00000180: 3d4b e53e bd3a fa3d c2ba 94bd 101c 30be
00000190: f84f cc3e bc67 0e3f 77e6 2fbf 77fb 813e
000001a0: 7339 363e d024 c0be 387c fdbe b40c 193f
000001b0: 4190 e9be 404c 9839 0f8e ff3e 45bc 49be
000001c0: 71ca 8dbe 427c 2b3f 546e 87be aaaf efbe
000001d0: 4309 393e 1611 4c3e 4850 1e3f 2e8a d03e
000001e0: 8455 07bf 67b3 983d 4e67 15bb 0357 10bd
000001f0: 2785 8f3e b97a 163f 6f02 fc3e 5746 71bd
00000200: 1b39 a03e 145c 00be 7261 e03e 8ff5 f43e
00000210: 8a8b 13bf b6e7 9dbe f981 29bf 92ee 973d
00000220: b303 13bf 5764 30bf c74e 3dbe e4af 063f
00000230: 1765 86be 9953 1fbf 191f 42be 2422 113f
00000240: 02e9 8bbe 58da 3f3e 2d8e 293f d42e a8be
00000250: c8dc fa3c 0bae 92bd ee31 2cbf 994e 73bd
00000260: 0bc1 163f b1aa cabe 2867 833d defc 3ebd
00000270: 0052 7c3e 5be8 ad3e 2300 f9be 6ef2 c6bd
00000280: faef 0abf 5511 003f 0ed9 d93d 18e3 65be
00000290: 9bcb 2ebd e22d 2a3e 9a3c 08bf 224e 533e
000002a0: 7929 4e3d 55fc 343f 7b10 933e 5c39 583e
000002b0: 2221 c4be 713a 29bf 80d2 41be 67cb 033e
000002c0: 025e 2abf 409f 993e 7d96 003f 113b a7be
000002d0: 0e84 1c3f 8197 0ebf 0c55 1e3f eb2e 40be
000002e0: 2cb3 2ebf 5740 593e d613 dbbe fb88 ae3d
000002f0: a88f 453e 63ea 5e3e 26aa 1bbf 66bf b13e
00000300: 5c86 a4be 99f0 cabe 23a9 aabe a034 20be
00000310: 3b74 b63e 191d 9a3d 447e a63e 3ab6 f1be
00000320: b62b a03d 35ac 57be 9fa3 cf3c d59f 1ebf
00000330: 8742 1dbe afa6 8b3d f0e9 9f3e a08c c33e
00000340: 2521 dcbe c9cc 8dbe 2edd 303e c432 a63e
00000350: 5714 7e3d 4ccb e03e 951f 1bbf 8f7d c9be
00000360: 54cc 083f f516 14be ef87 f4bd 6cda 23bf
00000370: 5b75 84be 0eb1 2b3e 1dc5 17bf 7df2 8fbd
00000380: 4bb2 e23e efd2 33bf 5ac0 5b3e f59c d1be
00000390: c70d 463e 69ca dbbe 8343 2d3f d439 c6bd
000003a0: 70a9 953e 8bf1 ecbe 9fef 1abf d367 00bf
000003b0: ca50 1ebf edb2 96be 9b70 3a3e aaae 1a3f
000003c0: bbf4 63be 742d c13d c666 0d3f 2168 a33d
000003d0: 9d41 c4be 2d32 18bf 62ad 2e3f 3dc5 023d
000003e0: 6e34 91be c55f 133f 9708 b4bd 3c72 1abe
000003f0: 05da 153f 7d72 8abd 6ee5 b93e d010 353e
-0.29462668 0.5722405 0.5167507 -0.5064466 -0.6925105 -0.42743835 0.3827193 0.18095845
0.41235733 -0.27032295 0.22896363 0.43848336 0.45406884 0.4313753 0.38240662 0.058772467
0.5869066 -0.23101448 -0.13614847 0.23755899 -0.10460508 -0.4486286 0.6332375 0.35501558
-0.24702398 0.38050532 0.5793657 -0.4642653 -0.66805565 0.097801246 -0.07428022 0.5546214
0.007898681 0.546425 -0.566816 0.61159503 0.0006590705 -0.29256624 -0.3199407 0.5562598
0.13856101 -0.6731768 0.51955557 0.61558837 0.5403449 0.07193379 -0.21960117 -0.089654334
0.63393587 -0.69732404 0.5590279 0.6855355 -0.40884864 -0.44137946 -0.37870166 0.26675725
0.25248545 -0.3003279 0.6816704 -0.59979767 0.7011856 0.6557728 -0.2092865 0.52128726
0.022588624 -0.20892045 -0.23442447 -0.19809695 0.4734898 -0.030367285 -0.3464304 -0.55247766
-0.19260563 -0.6137454 0.3517886 -0.6703568 0.58063954 0.6609144 0.1695699 0.2631589
0.18751702 -0.38019997 0.16761579 -0.54639995 0.615296 -0.03507388 -0.5885481 0.42091644
0.13023901 0.50303423 0.48502117 -0.22325577 -0.26805115 -0.69112796 -0.41271624 -0.03721188
0.44783965 0.12218235 -0.07262184 -0.17198205 0.3990476 0.55627036 -0.68711036 0.25387165
0.17795353 -0.37528086 -0.49508834 0.5978501 -0.4561787 0.0002904851 0.4991307 -0.19700725
-0.27693513 0.6698648 -0.2645136 -0.4681371 0.1806994 0.19928393 0.6184125 0.40730423
-0.5286486 0.07456093 -0.002279717 -0.03523923 0.28031275 0.5878101 0.49220607 -0.058904972
0.31293568 -0.12535125 0.43824345 0.47843596 -0.57634795 -0.30840844 -0.6621395 0.074185506
-0.5742752 -0.68903106 -0.18487082 0.5261214 -0.26249 -0.62236935 -0.18957175 0.5669272
-0.27326208 0.18735635 0.6623257 -0.32848227 0.030622855 -0.07162102 -0.67263687 -0.05940113
0.5888831 -0.39583352 0.0641616 -0.04662787 0.24640656 0.33966336 -0.48632917 -0.097142085
-0.54272425 0.50026447 0.10637103 -0.2244991 -0.042674642 0.16619065 -0.5321747 0.20635274
0.05033252 0.7069753 0.2872351 0.21115631 -0.38306528 -0.661048 -0.18927956 0.1287056
-0.66549695 0.3000431 0.50229627 -0.32662252 0.61139 -0.55699927 0.6184852 -0.18767898
-0.68242145 0.2121595 -0.4278857 0.08522221 0.19293082 0.21769099 -0.608065 0.34716338
-0.32133758 -0.39636686 -0.33332166 -0.15645075 0.35635552 0.07525081 0.32518208 -0.4720934
0.07820837 -0.21061786 0.025346575 -0.61962634 -0.1535741 0.06818902 0.31233168 0.38193226
-0.42994037 -0.276953 0.17271873 0.32460606 0.062031116 0.43905103 -0.60595065 -0.39353606
0.5343678 -0.14461882 -0.1193999 -0.6400516 -0.25870785 0.1676676 -0.59285146 -0.07028673
0.44276652 -0.70243734 0.21460095 -0.4094006 0.19341193 -0.42927864 0.6768114 -0.096789986
0.29230833 -0.46278033 -0.6052188 -0.50158423 -0.61842024 -0.29433385 0.18207018 0.60422766
-0.22261326 0.094324976 0.55234945 0.079788454 -0.3833131 -0.5945156 0.6823331 0.031926382
-0.28360313 0.5756801 -0.08790701 -0.1508264 0.58535796 -0.06760118 0.36307853 0.17682195

clf_net.1.weight f4 [256]
00000000: 5338 7c3f c109 803f af4e 7d3f 38fe 7c3f
00000010: 28af 803f 7d0c 7f3f bd30 7b3f 125f 7d3f
00000020: 443d 7d3f dcca 7f3f 4d64 7f3f aa79 7c3f
00000030: dd7a 7d3f aee5 803f 6eba 7c3f e379 7f3f
00000040: 14a1 7e3f 73c9 7e3f 3b46 7e3f 94d4 7e3f
00000050: 734e 803f 7e8e 7f3f c916 803f fa1d 7f3f
00000060: 3958 7e3f dda9 7d3f b111 7d3f 3340 7d3f
00000070: 1d7f 7e3f a1eb 7f3f 8533 7d3f cc1b 7f3f
00000080: c280 7c3f 3c33 7c3f 22e9 7d3f 4839 7d3f
00000090: 663d 803f 1968 7b3f d658 7f3f 25ab 7c3f
000000a0: 8cdd 7e3f 645a 7d3f 762d 803f 532b 7f3f
000000b0: 881c 803f bc0e 7f3f d9a4 803f 1956 803f
000000c0: 7979 803f da74 813f 2f75 7e3f 7b81 7e3f
000000d0: 4503 7c3f 32d3 7c3f 039b 7e3f 74d2 803f
000000e0: a9e7 7c3f a002 7d3f f89f 7c3f 2db1 803f
000000f0: 14ec 7d3f 292e 7d3f 7a01 7c3f 72f8 7c3f
00000100: 0217 7c3f 9a39 803f cd76 7d3f 0484 813f
00000110: 4ead 7f3f 395e 7e3f 772e 7d3f 2a4b 7f3f
00000120: bfb6 7e3f 09b1 7d3f 1194 813f bdb0 803f
00000130: 2e8e 7e3f 12c9 7e3f 9761 7c3f 317d 7b3f
00000140: 5e77 7a3f 1155 7b3f d5fe 7d3f 7884 7f3f
00000150: 8045 7c3f fd76 7f3f 591c 7e3f 7f41 7f3f
00000160: 2e1e 7d3f 06f2 7f3f 3698 803f c5aa 7e3f
00000170: fe2e 7f3f 352e 7d3f 84a1 7d3f 7bf1 7b3f
00000180: 3ea6 7e3f 5adb 7d3f 0588 7d3f 0993 7b3f
00000190: c02a 7e3f 8906 7b3f a00c 7c3f b2de 7f3f
000001a0: 91df 7f3f dc09 7d3f a9fc 7d3f 72e4 7e3f
000001b0: 1717 803f 9297 7f3f 65b5 7c3f f039 7e3f
000001c0: 9f24 7e3f d849 7f3f 77d9 7e3f f49f 803f
000001d0: 55b5 7e3f 3328 7f3f 0a27 803f 72c5 7f3f
000001e0: 6800 7e3f 1079 7f3f ac14 7d3f 8611 7f3f
000001f0: 7362 803f aab1 7f3f 1693 7f3f 7dca 7e3f
00000200: 18a0 803f 4e90 7d3f 910e 7e3f 8f44 803f
00000210: 114e 7e3f 1709 7f3f 5548 7e3f 809d 7e3f
00000220: 4309 7f3f b261 803f 7b95 803f 4a4c 7d3f
00000230: 71bf 793f ca2e 7d3f 0fa8 7a3f 2eed 7b3f
00000240: 5731 7e3f f264 7f3f c402 7e3f b251 7c3f
00000250: 8e5d 7f3f f4eb 7c3f 7f04 7e3f 97e2 7d3f
00000260: bb68 803f 0f4d 7d3f f79e 7e3f b9d5 803f
00000270: 676d 7c3f a8de 7d3f e563 7f3f 30fa 7c3f
00000280: 6d7f 7e3f 1d50 7d3f f30f 7f3f 3658 7e3f
00000290: 8619 803f 3c1e 7e3f 1687 7e3f c20e 7d3f
000002a0: 0900 7f3f 7583 7d3f 4928 7e3f 0431 7e3f
000002b0: dbb7 803f 2529 7e3f 3ef9 7d3f 4201 7c3f
000002c0: 31a8 7f3f 64c6 7e3f 0cbd 7d3f 12e0 7d3f
000002d0: 3ae7 7e3f 6ea6 7d3f 44f0 7b3f 62cf 7e3f
000002e0: 57c9 7e3f b2eb 7e3f 5f4e 803f 45f0 7e3f
000002f0: c866 7e3f 0065 7e3f 0e89 803f ee10 803f
00000300: a60e 7f3f 53dc 7d3f d0fc 7e3f 2c64 7b3f
00000310: 925d 7d3f 20fc 7e3f deab 7e3f 047c 7c3f
00000320: eeba 7d3f 0e34 7e3f 7739 7d3f 612a 7d3f
00000330: e140 7e3f 6f77 7d3f 0ab1 7d3f 6178 7d3f
00000340: 05cd 7d3f 7c9e 7e3f 37ef 7e3f fddd 7d3f
00000350: 4248 7f3f 078e 7d3f 2c8c 7b3f 6a35 7e3f
00000360: 1840 7d3f d221 803f c449 7f3f 2c61 803f
00000370: aa6e 7e3f 1f6d 7f3f 5bad 7b3f 6637 7f3f
00000380: 6772 7f3f 2daa 7e3f 92a3 7c3f c95c 813f
00000390: 8ee6 7e3f 89ea 7d3f 2bf4 7e3f a197 7e3f
000003a0: 0f8f 7e3f d446 7e3f afd4 7e3f 5767 813f
000003b0: 295a 7e3f b81a 813f cee5 7b3f 08f3 7e3f
000003c0: 4a0b 803f 10d1 7f3f 5826 7d3f 7ca1 7b3f
000003d0: 9895 7e3f 5642 803f 011d 7e3f 21d7 7e3f
000003e0: c08d 7f3f 3a8a 7d3f c829 7d3f 7a07 7e3f
000003f0: e875 7f3f e8df 7c3f a5f6 7e3f 834c 803f
0.98523444 1.0002977 0.98948187 0.9882541 1.0053453 0.9962843 0.98121244 0.9897319
0.9892161 0.99918914 0.9976242 0.98623145 0.990156 1.0070093 0.9872197 0.9979536
0.99464536 0.9952614 0.99325913 0.9954312 1.0023941 0.998268 1.0006953 0.99655116
0.9935337 0.99087316 0.9885512 0.98926085 0.9941271 0.99968916 0.9890674 0.9965179
0.9863397 0.9851568 0.9918386 0.9891553 1.0018737 0.98205715 0.9974493 0.98698646
0.99556804 0.9896605 1.0013874 0.9967548 1.0008707 0.9963186 1.0050308 1.0026275
1.003707 1.0113785 0.9939756 0.9941632 0.9844249 0.9875976 0.9945528 1.0064225
0.98790985 0.9883213 0.9868159 1.005407 0.9918835 0.9889856 0.98439753 0.988166
0.9847261 1.0017579 0.990094 1.0118413 0.99873817 0.9936252 0.98899025 0.99724066
0.994976 0.9909826 1.0123311 1.0053936 0.994357 0.9952556 0.9858641 0.982379
0.9783839 0.98176676 0.9921697 0.99811506 0.9854355 0.99790937 0.99262005 0.99709314
0.98874176 0.99978673 1.0046451 0.99479324 0.9968108 0.9889863 0.9907458 0.98415345
0.99472415 0.9916283 0.99035674 0.9827123 0.9928398 0.98056847 0.98456764 0.9994918
0.9995051 0.9884317 0.99213654 0.9956733 1.0007046 0.9984065 0.98714286 0.99307156
0.9927463 0.9972205 0.99550575 1.0048814 0.9949544 0.99670714 1.0011914 0.9991065
0.9921937 0.997941 0.9885967 0.99636114 1.0030044 0.9988047 0.9983381 0.9952772
1.0048857 0.99048316 0.99240977 1.0020922 0.9933787 0.99623245 0.9932912 0.99459076
0.9962351 1.0029814 1.0045618 0.9894453 0.9755774 0.9889952 0.9791269 0.9840878
0.99294037 0.99763405 0.9922297 0.9856216 0.9975213 0.98797536 0.9922561 0.99173874
1.0031961 0.9894571 0.9946131 1.0065223 0.98604435 0.9916787 0.997618 0.98819256
0.99413186 0.9895037 0.9963371 0.9935335 1.0007789 0.99264884 0.99424875 0.98850644
0.9960943 0.9902871 0.9928022 0.9929354 1.0056108 0.9928153 0.9920844 0.9843942
0.99866015 0.9952147 0.9911659 0.9917003 0.99571574 0.99082077 0.9841349 0.9953519
0.9952597 0.9957839 1.0023917 0.9958537 0.9937558 0.99372864 1.0041826 1.0005167
0.99631727 0.99164313 0.9960451 0.98199725 0.989709 0.9960346 0.99481 0.9862673
0.9911336 0.9929818 0.9891581 0.9889279 0.9931775 0.99010366 0.99098265 0.9901181
0.9914096 0.9946058 0.9958376 0.9916685 0.9971963 0.9904484 0.9826076 0.99300253
0.98925924 1.0010321 0.9972193 1.0029655 0.9938761 0.9977588 0.98311394 0.99693906
0.9978394 0.9947842 0.9868709 1.0106441 0.9957055 0.99186 0.9959132 0.9945012
0.9943704 0.99326825 0.9954328 1.0109662 0.99356323 1.0086279 0.9839753 0.99589586
1.0003445 0.9992838 0.9888663 0.9829328 0.9944701 1.0020244 0.99263006 0.9954701
0.9982567 0.9903904 0.9889188 0.9923016 0.99789286 0.98779154 0.995951 1.002335

clf_net.1.bias f4 [256]
00000000: 5f8c 3a3e b4b6 d8bc 0008 57bd 454f 283d
00000010: 8034 5bbd 99a0 2e3e 8630 913c ec5d dabd
00000020: 3443 5bbc 45c3 79bd ba6c 3b3e 4e4e e83a
00000030: e9e2 cabd 7154 34be ad13 babc b6e8 86bc
00000040: c911 26be a5fb 1cbe bbef 69bd 1e93 4b3d
00000050: 9170 f0bc 3322 f13a 36d6 93bd 348d febc
00000060: 2002 3f3e 3eda 8dbd a1a4 453e ce69 993c
00000070: 254a 133e 90c6 cf3c bbb2 313d c212 46bc
00000080: ed0f d33d 7bbd 1b3d ae37 783b cc52 683c
00000090: 3b09 2a3d 9f72 8e3d 22d5 523d 69bb 3fbd
000000a0: 769b 96bd f47e 03bc 8d4e 84bd 422e ff3c
000000b0: b26e 2c3e 29c4 313e 3e3a 01be b0a9 1abe
000000c0: 5df1 1abe d007 e0bd 6992 123b a9e6 8ebd
000000d0: 61af c6bd e8d8 073c 47e6 333d 4f08 57be
000000e0: 4eda 7bbd 7f02 5bbd 5f5e cfbc 48e8 0d3e
000000f0: 90f7 c43d ac51 4a3e e8b2 66bd ede7 603d
00000100: 1447 0c3e 1637 0abd 12a4 2d3d e136 4bbd
00000110: b3d5 e13d a803 6fbd 4fa4 0dbd be40 423e
00000120: 5d3b cabd 32f8 a6bd d34d 3bbe 502c 3e3c
00000130: 7df9 c9bd 17d5 943d bf69 7c3d f8dc 0abd
00000140: 0b08 3cbd 509d 9dbc 60ae 81bd 1dab 41bd
00000150: c39f 2f3d 7b9a 303e 7201 d53c be98 2d3d
00000160: 97e9 1c3d cef8 1bbe c2b9 3ebe 1fa3 123c
00000170: d615 d83d 4126 07bd d016 163c 7522 c73d
00000180: 3276 25be fcfb 89bd 74b9 3e3e 9eb5 0ebd
00000190: 5273 2e3d 30cc dfbc 0aa4 203e b46f be3c
000001a0: d4f2 dbbd 295a 0bbd 00ff c13c 6238 14bd
000001b0: c8bd be3d dbaf 32bd 1343 8b3d 6452 ebbc
000001c0: 95c4 d2bc a2eb 30bd 1950 a0bd bfc0 96bd
000001d0: c257 363d 8670 cfbd 2f30 303d 0fbf ecbd
000001e0: fdd4 863d 1bc5 28bd 45c3 363d 30e3 753d
000001f0: b808 063e 1ba5 0d3e 1ef8 813d 35c3 5c3d
00000200: 839d 8dbd 14c1 5c3e 923b 9ebb bd5a b53d
00000210: 3853 29be 93be 88bd 3c8a 17bd 9d14 e43c
00000220: d486 473c 6954 1dbe 2c46 19be 4bed 4fbc
00000230: b958 40bd 36ed 6d3d ac6e 993d 51ad 93bc
00000240: 5dca 2abd 450d 3abd cb6e c43a b85b 763d
00000250: d879 04bd e725 263e f1a8 983c 44ad 8f3d
00000260: f6d8 5abd 5b35 cbbc 7a5e 8bbd c199 9dbd
00000270: 8791 afbd 8f90 353e 6668 48bd 3dd7 d4bc
00000280: 8b05 383d 42d3 213e 52fc f8bd 4182 863d
00000290: bf19 7f3c 2799 aebd 9910 503e 9651 f63d
000002a0: 519a c3bc 23de d3bd b1a0 d23d af30 943c
000002b0: 9110 6bbd 00e0 14bd cbbf afbb 54fa 8c3c
000002c0: 9001 643d 8df7 86bd 93a2 b23b 4acf 1f3d
000002d0: b921 1d3d e4a1 6a3d 716e 08bd c792 45bd
000002e0: d0eb 393e d40a aebd bd15 353d 8811 04bc
000002f0: 1938 87bd 51de 593c 0434 05be d441 d3bd
00000300: 36b7 debb 7be7 703d a32d 79bd 6630 203e
00000310: 196e 283e a6f2 91bd bce6 48bd 40af 213e
00000320: e201 8e3d d003 36bd 37ae 373d 72c2 a63d
00000330: 73d5 283d 25f9 063e e31e 643c 4944 383d
00000340: 49c1 263d 6b43 13be ce97 4c3e 8765 85bc
00000350: b286 a3bd d559 92bd 6fca dbbc bf98 2c3c
00000360: 8af9 013d 13f3 01be 5484 663c 3847 7cbd
00000370: bbab d9bc 2953 fbbd 34c2 50bd c361 12bd
00000380: 768a d6bd eca6 febd 4af1 a83c 0bae 20be
00000390: c57e 15bd 3a3a 80bd 245a 0a3e 6cbf 773c
000003a0: 172e 86bd 44b9 35bd 1eac 30bd 48ed 26be
000003b0: 48d5 983d 27dd 89bd c248 9c3d 7ef7 183e
000003c0: 7503 873c 2efc 4b3d b6a0 3dbd ac56 2c3e
000003d0: fb36 103d 66d5 44bd 684a 453e 34d4 043c
000003e0: 0157 903d c8f1 2f3e ab01 b2bc f33c 84bd
000003f0: c39f 2bbe 6d88 b4bd 195e f239 86db 08be
0.1821761 -0.026454307 -0.052497864 0.041091222 -0.053516865 0.1705345 0.017723333 -0.106624454
-0.013382722 -0.06097724 0.18303195 0.0017723532 -0.09906561 -0.17610337 -0.02271446 -0.016468387
-0.16217722 -0.1533037 -0.05711339 0.04970085 -0.02935055 0.0018397033 -0.07218592 -0.03107319
0.18653154 -0.06926392 0.19301082 0.01872721 0.14383753 0.025363237 0.04338334 -0.012089433
0.10305772 0.0380225 0.0037874985 0.014179897 0.04151271 0.06955456 0.05147279 -0.046809588
-0.073538706 -0.008025873 -0.06460295 0.031149987 0.16839102 0.17359985 -0.12619874 -0.15103793
-0.15131135 -0.1093899 0.00223651 -0.06977589 -0.097014196 0.008291461 0.04392078 -0.20999263
-0.06148749 -0.053469177 -0.025313554 0.1385814 0.09617531 0.19757718 -0.056322962 0.05490868
0.13698989 -0.03374394 0.042392798 -0.049612883 0.11027088 -0.058353096 -0.034580525 0.1897001
-0.09874604 -0.08152808 -0.18291406 0.011607245 -0.09862039 0.07267206 0.061624285 -0.03390214
-0.045906108 -0.019240052 -0.063320875 -0.047282327 0.04287697 0.1724643 0.026001666 0.042381994
0.038308706 -0.1523163 -0.18625548 0.008950024 0.1055104 -0.032995466 0.009160712 0.09723369
-0.16158369 -0.06737515 0.18625432 -0.034841172 0.042590447 -0.027319044 0.15687576 0.023246624
-0.10739675 -0.03402153 0.023681164 -0.036186583 0.09313542 -0.04362474 0.06799903 -0.02872581
-0.025728503 -0.043193467 -0.078277774 -0.07360982 0.044517286 -0.10128884 0.0430147 -0.11559879
0.06583593 -0.0412036 0.044619817 0.060031116 0.13089263 0.13832514 0.06346153 0.0538971
-0.069148086 0.21558028 -0.0048288787 0.088551976 -0.16535652 -0.06676974 -0.036997065 0.02784186
0.012178142 -0.15364231 -0.14968175 -0.012690852 -0.046959613 0.05808755 0.07491812 -0.01802698
-0.041696895 -0.04542281 0.0014986632 0.060146064 -0.03234276 0.16225396 0.018635245 0.0701547
-0.053429566 -0.024805715 -0.06805129 -0.07695342 -0.08572679 0.17730926 -0.048927687 -0.02598154
0.04492716 0.15803245 -0.12157501 0.06567813 0.015570103 -0.08525305 0.20318832 0.1202728
-0.023877295 -0.103451036 0.10284556 0.01808962 -0.057388846 -0.036346436 -0.0053634397 0.01720921
0.055665553 -0.06590185 0.0054515093 0.039016046 0.03836224 0.057283297 -0.03330845 -0.04823568
0.18156362 -0.08498159 0.044210184 -0.00806082 -0.06602497 0.013297633 -0.13008124 -0.1031529
-0.006796743 0.058814507 -0.06083454 0.15643463 0.16448249 -0.0712636 -0.04904817 0.15789509
0.06933953 -0.04443723 0.04484388 0.08142556 0.041219186 0.13180979 0.01392338 0.044986997
0.040711675 -0.14381187 0.19979784 -0.016283764 -0.079846755 -0.0714604 -0.026829926 0.010534464
0.03173212 -0.12690382 0.014069635 -0.061591357 -0.026571145 -0.12271721 -0.050966457 -0.035737764
-0.10475628 -0.124341816 0.020622868 -0.15691392 -0.03649785 -0.06261106 0.13510948 0.015121322
-0.0655176 -0.044366136 -0.043132894 -0.16301453 0.07462555 -0.067316346 0.07631065 0.14938161
0.01648114 0.049801044 -0.046295844 0.16829938 0.035208683 -0.048055075 0.19266665 0.008107234
0.07047845 0.17182076 -0.021729311 -0.06456938 -0.16760163 -0.08815084 0.00046227945 -0.13364992

clf_net.1.running_mean f4 [256]
00000000: 868f bebd cb1d 503f 72d8 a03e bd7d 70be
00000010: 06b5 11be 3419 1abf 9930 a83e e864 cc3e
00000020: 7df0 da3e 7c9e e3be 9ce2 963e 5a02 063f
00000030: f427 34be 3e1c 013f 7c66 993e 0c04 6b3b
00000040: 97cc 433f 99c7 c2be 884c 813b 44b5 963e
00000050: 719b 3ebb d1a3 9cbe 7909 823f 721f 363f
00000060: 4291 9ebe 7388 473f fef1 8a3e f595 a2be
00000070: ad28 3cbf 8a10 50be 90bf ee3b 59b0 723f
00000080: 365e 9f3e fc93 4f3e 1973 7abe 5903 823e
00000090: 6dcc 8f3e 7ca3 babe 68b5 50bf cac3 f53e
000000a0: 357e e7be 15f8 f0be 5eab a33d ffe2 343e
000000b0: cb1c 913e 5f4b 37bd afb7 9e3d eb98 09bd
000000c0: ba5f fb3e 3812 21bf afda fa3e 7498 113f
000000d0: 0ea6 4abf e194 d5be 60b3 b4be afe0 bc3e
000000e0: f8c3 8b3e f989 42bf 5db2 993e 1de4 ddbe
000000f0: 859c da3e 7c16 483f 7292 da39 752a 1b3f
00000100: 66fe 003e 9712 15bf 27ce aebe 7902 603e
00000110: 4e34 803f 53f2 0ebc 5782 82bf f607 34bf
00000120: b3ac 56be 7537 67bf 71f0 093f e0ab 87bf
00000130: 71f9 be3d 66de 1c3f 8802 3c3e 7ae3 043e
00000140: c661 de3e 49c4 bebe ac2d b83e 2cfd 40bf
00000150: 9d2a 973f 732e 233e f0a3 36bf e089 fa3e
00000160: a824 ba3e 5b9c a63e faf7 0e3f 36d1 02bf
00000170: fb80 b6be c7b4 1dbf 34f9 383e 2490 173e
00000180: 3bdb 383f 82ba f43e 453d eb3d ef98 87be
00000190: 3ce2 d63d 26b6 153f baf2 06bf 5f4b a83e
000001a0: 9152 25be 1f24 483e 493d 08bf 7ca5 2b3f
000001b0: dce1 f13d af79 aa3e e01a cf3e e2a3 623e
000001c0: 311a 03be 88c1 843f 8367 1bbf 72f4 7cbf
000001d0: b7b7 463e 209b dcbe a54a f03e 8a45 833e
000001e0: b0b0 80bf 664a c13e 72fd 073d d353 013e
000001f0: 3893 31bd 578d eb3e 68d0 413f d8ef cbbe
00000200: 46c2 d63e 47ae 5dbe 6b6d 763f 6b82 773f
00000210: 1f30 87be b16c 88be 0278 36bf b8fe 5a3d
00000220: 4fb4 0ebf df5e 76bf 4356 84be e049 aa3e
00000230: eee8 a7be c9b4 37bf 1652 96be 5457 c03e
00000240: 6ccc 95be 6fef 433e d6e3 253f b4ae eebb
00000250: 1867 b8bd 9889 a13d 2475 e7be 5d76 cf3e
00000260: 5445 7d3f 1a79 ebbd 06fa c8be 7925 fdbd
00000270: 9f98 853d daab f23e 62a6 f2be dd83 4a3e
00000280: b294 cebe 9539 8f3e 0b3f 023f ce32 02bf
00000290: e907 c8be 64da 6abd fa2f 10bf 85f5 02be
000002a0: 5d6f d13e f457 ce3e b97a 563f f5bf 923e
000002b0: 368b 04bf 5f72 4abf 7534 dcbe 42e7 0f3e
000002c0: c25c b5be 21f7 833e 3496 74bd 29f5 97bc
000002d0: 7133 8d3f 2a51 2abf 8383 293f 6112 3e3d
000002e0: c291 0cbf 9e47 66be db9e 4fbf 58d1 69bd
000002f0: 6417 eb3e eedb 123f 3032 90bf d9da f7bd
00000300: 9329 93be f3ea 5abe 5821 53bf dbe9 cdbd
00000310: 13c1 2c3d c277 80be 11ff 163f 50b2 27bf
00000320: da4b 503e 5220 93bc a948 1b3f 484b 18bf
00000330: c24c 04bf 0553 ebbd a6f3 58bd 2e73 853e
00000340: 193c 31bf 6153 333d 8f2a 6b3e c7b1 cd3e
00000350: b809 ad3e c36c 1e3f bd20 38bf 8033 02bf
00000360: f494 c73e 8190 0fbd ecd1 d5be 30d2 c3be
00000370: 707a 31bd 0673 b53d d416 c6be 932f 42be
00000380: 67ba 713f 591b a4bf 7889 b23e f549 27bf
00000390: 2fcc 72bd 7c45 57bf 2b58 193f 74de ea3d
000003a0: d0eb 163e 835c a0bd 0b23 86be b0de 37bf
000003b0: 2567 27bf b5ca bdbe ef30 283f d70e 2f3f
000003c0: ccf8 b73d bc13 3ebe b0b6 a73e 515e 2e3e
000003d0: 982b cdbe e5e4 6ebf 8384 5d3f 359a ff3e
000003e0: 789b 15bf 5eb3 203f dbbd 86bd dc6b a23d
000003f0: f3ba 313f 02ed 8b3e 88b7 f83d 46bd aabd
-0.09304719 0.8129546 0.31415135 -0.23485465 -0.14229211 -0.60194707 0.32849577 0.39920735
0.42761603 -0.4445685 0.29469764 0.5234734 -0.17593366 0.5043372 0.29961002 0.0035860566
0.76484054 -0.38042906 0.003945891 0.2943517 -0.002908435 -0.30593732 1.0159141 0.7114173
-0.30970198 0.7794258 0.2713775 -0.31755033 -0.73499566 -0.20318809 0.0072860196 0.94800335
0.31126565 0.20271295 -0.24457969 0.2539318 0.28085652 -0.36452854 -0.81526804 0.48000938
-0.45213476 -0.47064272 0.0799167 0.17664717 0.2834228 -0.044749614 0.077498786 -0.0335931
0.4909647 -0.62918425 0.48994967 0.5687325 -0.7915963 -0.41715148 -0.35293102 0.3689017
0.2729795 -0.7599178 0.30018893 -0.433381 0.4269754 0.7815931 0.0004168931 0.6061166
0.12597045 -0.5823149 -0.34141657 0.21875943 1.0015962 -0.008724767 -1.0196027 -0.7032465
-0.20964317 -0.90318996 0.5388251 -1.0599327 0.09324921 0.61276853 0.1836034 0.129774
0.4343397 -0.3725913 0.35972345 -0.7538631 1.180988 0.15935688 -0.713439 0.48933315
0.36356091 0.32541165 0.5584713 -0.5110048 -0.3564528 -0.6160397 0.18063813 0.14801079
0.7220952 0.47798544 0.114862956 -0.26483867 0.104923695 0.5848106 -0.5271412 0.32870004
-0.16144778 0.19545029 -0.53218514 0.67049384 0.118106574 0.33295962 0.40450191 0.22132829
-0.1280296 1.0371561 -0.6070482 -0.98810494 0.19406019 -0.430871 0.4693195 0.25638992
-1.0053921 0.37752074 0.03320069 0.12629633 -0.04335329 0.4600627 0.7570863 -0.39831424
0.41945094 -0.21648513 0.9626071 0.9668338 -0.264039 -0.26645425 -0.7127687 0.053465575
-0.5574388 -0.9623851 -0.25847062 0.33259487 -0.327949 -0.7176023 -0.29359502 0.37566626
-0.29257524 0.19134305 0.64800775 -0.00728401 -0.090040386 0.07887572 -0.4520656 0.40519992
0.9893391 -0.11497708 -0.39253253 -0.12360663 0.06523251 0.47396737 -0.47392565 0.19776864
-0.4034782 0.2797362 0.50877446 -0.5085877 -0.39068535 -0.05733718 -0.56323206 -0.12788971
0.40905276 0.40301478 0.8378101 0.28662077 -0.5177492 -0.79080766 -0.43008772 0.14053062
-0.3542233 0.25774482 -0.059713557 -0.018549519 1.1031324 -0.66530097 0.66216296 0.046404246
-0.5490991 -0.22488257 -0.8110177 -0.05708441 0.45916283 0.57366836 -1.1265316 -0.12102289
-0.28742656 -0.21378689 -0.82472754 -0.1005437 0.042176317 -0.25091368 0.5898295 -0.6550646
0.20341435 -0.017959747 0.60657746 -0.5948987 -0.51679623 -0.11490444 -0.052966736 0.26064438
-0.69232327 0.04378069 0.22965454 0.40174696 0.33796477 0.6188471 -0.71924955 -0.5085983
0.3898083 -0.03504992 -0.4176172 -0.38246298 -0.043329656 0.088598296 -0.3868929 -0.1896346
0.9442505 -1.2820846 0.34870505 -0.65347224 -0.059276756 -0.840904 0.5990016 0.11468211
0.14738393 -0.07830145 -0.2619861 -0.7182417 -0.6539176 -0.37068716 0.65699667 0.6838202
0.08983001 -0.18562216 0.32756567 0.17028166 -0.40072322 -0.93318015 0.8653032 0.49922338
-0.5844035 0.6277369 -0.06579181 0.07930729 0.69425887 0.2732926 0.12144381 -0.08336882

clf_net.1.running_var f4 [256]
00000000: dba4 093c 1149 f43b 4eed 8c3b 864d 283c
00000010: 7f6d be3c c802 923b 0288 8c3a b0c5 6d3b
00000020: 97c3 543b 326d de3b b5d3 8b3a 7935 e73a
00000030: 2d2d f73c e16a e33a b403 3e3c 398a 9f3b
00000040: db9c 303b cab0 003c 4401 023c 9ea9 283b
00000050: ca59 763a 3e08 263b e4f0 373c fb91 4d3c
00000060: 08eb a73a ade9 863c 7f56 103c 8779 f43b
00000070: e45c 1f3b 65bf 0b3c 13ee ea3b 71c2 593c
00000080: 779c f03b 5937 4a3c d0b9 443c aea2 233c
00000090: 1dc6 4e3c ab22 513a 30e9 ae3c 90ea e73b
000000a0: 190a db3c f612 1e3c 209a 893c 697e 993c
000000b0: 79c2 f63b 37c0 253b a7ea f43b b2c1 c73b
000000c0: 8c95 463b 9c8d 793a 8bfe ea39 9ae6 0b3c
000000d0: 4376 413c 9239 443c fc29 ef38 d414 573b
000000e0: d924 1c3b cef8 853c 92a9 763c cb7e 153b
000000f0: 1cc4 b73b aa31 0b3b 09b1 b83b 1ee3 ed3b
00000100: 556b 173c f29c 383c f7b2 9b3b 8bfa 623c
00000110: 4324 aa3c cbfd 3038 6880 103d 4b3a 603b
00000120: 7efe bc39 e59f da3b c7eb d93b 40bd 3f3c
00000130: 2ca0 933c a9b2 953a 3976 f539 748e dd3b
00000140: 0c5a 0e3c eed9 013a cfd5 3e3c af26 a73b
00000150: 5728 cc3c fc2f 5b3b 478c 183b 8e77 ff3b
00000160: 5da6 4a3c 3337 da3b 79fe 573b 572b 1e3c
00000170: ce26 1a3a ab18 403c 647c e33c 9df6 8c3b
00000180: 26f2 e13b bc7e 663c 5dd8 5a3b c20b 1a3c
00000190: b753 d73b 4de6 2c3b 4ec6 a43b 7375 333c
000001a0: 9e8f 0c3c 6bb0 db3c e14f ad39 df92 0e3c
000001b0: 6221 cc3c 394a 173c 59a3 ac3b afa0 593c
000001c0: 0f95 363c 2fe0 5d3c 9000 1f3c 73a5 aa3c
000001d0: 29b1 543b 28d5 f53c dbd6 fb3a 0eea ed3b
000001e0: fabe 903c 87cd 4e3c ecb8 303c eedf fe3a
000001f0: ae71 0e3c 5f55 ca3a defe 233c c56b 6a3c
00000200: 1933 6a3a 6bb8 e93a a36a a93c def0 b03c
00000210: e2b4 083c ed0b 453c 661d 343b c9b3 013c
00000220: 092d 1e3c 94b1 0a3c 6fc9 2a3b c898 2a3c
00000230: 827a 323a 94f5 cf3b b4e8 de3b 85b1 683b
00000240: 115a ad3a 6141 0a3a a0e7 7d38 7bb2 083c
00000250: ffb7 243c 0112 003b 1468 873b 5308 9b3c
00000260: 5d94 4f3c 7c8c 1e3c 2eaf 953c 52c3 843a
00000270: d0ad 813b 00d9 a83b f718 d03b 6b03 f13b
00000280: dbec 913b 13db 8f3b 02f0 523c ff39 503c
00000290: 7a42 3a3c 980c ff3b fb02 4239 97df 1a3c
000002a0: 2770 3f3c 8780 0c3c 13a7 ba3c b2db 003a
000002b0: 6242 bc3a d9a2 6b3b 66f6 ba3b 426f 963b
000002c0: 9695 ff3b b35b b73a 0666 d43c 94f7 313c
000002d0: 4929 9a3c bedc 0d3c 6243 d13b e54d c63b
000002e0: b136 8c3b c3d1 7e3c cfbc 5f3c 10db c93a
000002f0: c2e0 fe3b 480a 1e3c 6200 a43c ba6d 863c
00000300: c290 e23b 5a5a 343c c28e b43c 3cee 843a
00000310: c30f 0a3c 5171 513c fab4 f73b 2bcb 743b
00000320: 8e87 ac3b c920 a43b f225 d93c 994a 233a
00000330: 9f68 2e3c 579a 2d3b 47b1 343c fa18 943a
00000340: 7598 1e3c 0a2c 073c b98e 413a b5cf 1b3c
00000350: ee84 c13b 225f 0f3c 7d13 3c3b 3234 d43a
00000360: f734 803b 891e 9e3b 7160 113c 2d29 c03b
00000370: 2f4a 843b 3135 c83a 694e 3a3c e2a8 853b
00000380: a362 993c 8491 dc3c a6d3 eb3b 53a3 a43b
00000390: f20d fa3b b912 793c 4a79 243a e0c5 413c
000003a0: 7e41 183b add5 443c 52b6 153c d7a3 913b
000003b0: 54dc fb3a 72fb 563b c05d 8c3c ff4e 893b
000003c0: 0495 fd3b c371 e73b b2b5 1d3c 41b4 a23a
000003d0: 52e1 ae3b c041 1f3c 8f18 603b 9168 8f3c
000003e0: 2899 f63b 1389 553a 7ca6 703b b8b9 ce3b
000003f0: 480a 923a 8153 113c b99c d23b 45dc d33b
0.008401121 0.0074549993 0.00430075 0.010272389 0.023245571 0.004455898 0.0010721686 0.003628116
0.0032465213 0.0067879194 0.0010667952 0.0017639837 0.030172909 0.0017350578 0.011597563 0.0048687723
0.0026948962 0.00785465 0.007934872 0.0025735865 0.0009397535 0.0025334503 0.011226866 0.0125470115
0.0012811134 0.016468847 0.008809685 0.0074607763 0.0024316842 0.008529519 0.007169494 0.013290987
0.007342871 0.0123422975 0.012007192 0.009987516 0.012620476 0.0007977883 0.021351427 0.0070775226
0.026738213 0.009648075 0.016797125 0.018737035 0.007530507 0.002529157 0.007474262 0.0060960883
0.003030154 0.00095196976 0.00044821607 0.008538866 0.011807981 0.011976616 0.00011404228 0.003281881
0.0023825674 0.01635399 0.015055077 0.002281117 0.005608095 0.002123932 0.0056363386 0.0072597405
0.009241899 0.011267887 0.004751559 0.013853679 0.020769244 4.2198033e-05 0.035278708 0.0034214433
0.00036047766 0.006671893 0.0066504213 0.011702836 0.018020712 0.0011421043 0.00046818124 0.0067613665
0.008688461 0.00049534335 0.011647656 0.005101047 0.02492158 0.003344535 0.0023276971 0.0077962345
0.012368766 0.0066594123 0.0032958074 0.009653888 0.0005880416 0.011724631 0.027769275 0.0043018595
0.0068953214 0.014068302 0.0033393123 0.009402217 0.006571259 0.0026382387 0.0050285226 0.010953295
0.008579163 0.026817521 0.00033056646 0.008702009 0.024918262 0.009234005 0.005268496 0.013282939
0.011143937 0.013542219 0.009704724 0.020830845 0.0032454228 0.030008867 0.0019213812 0.0072605675
0.01766919 0.012622244 0.010786276 0.0019445398 0.008694096 0.001543682 0.010009496 0.014307921
0.0008934006 0.001783145 0.020680731 0.02159923 0.008343907 0.012026769 0.0027483343 0.007916399
0.009654292 0.0084651895 0.0026060005 0.010412402 0.0006808416 0.006346414 0.0068026427 0.00355062
0.0013225694 0.00052740244 6.0535618e-05 0.008343334 0.010053634 0.0019541981 0.00413228 0.018924868
0.01266965 0.009677049 0.018272009 0.0010129011 0.0039574876 0.0051528215 0.0063506323 0.007355144
0.004453284 0.0043901294 0.012874605 0.01270914 0.011368388 0.0077834837 0.00018502392 0.009452722
0.011684454 0.008575565 0.022784745 0.00049155497 0.0014363045 0.003595522 0.0057056425 0.0045908997
0.0077998145 0.001398912 0.025927555 0.01086225 0.018818514 0.008658586 0.0063862065 0.006051766
0.0042789807 0.015552941 0.013655855 0.0015400369 0.007778258 0.009646006 0.020019714 0.016409744
0.006914229 0.01100787 0.022040728 0.00101418 0.008426609 0.012783364 0.007559416 0.0037352543
0.005265183 0.005008791 0.026507352 0.00062290725 0.010645061 0.0026489699 0.011028594 0.0011298948
0.009679903 0.008250246 0.0007383633 0.00950997 0.005905739 0.008750709 0.002869814 0.0016189872
0.003912564 0.0048254174 0.008873091 0.0058642835 0.0040371637 0.0015274641 0.0113712335 0.0040789703
0.018723791 0.026924856 0.0071968613 0.0050243526 0.007631057 0.015202218 0.0006274177 0.011826962
0.0023232396 0.012013835 0.009137707 0.00444458 0.0019215443 0.0032803682 0.017134547 0.0041903253
0.0077387113 0.007063122 0.009625839 0.0012413339 0.005336919 0.009720266 0.0034194326 0.017505916
0.007525582 0.0008145731 0.0036720326 0.0063087605 0.001114198 0.008870007 0.006427374 0.006465467

clf_net.3.weight f4 [256, 256]
00000000: d9db 28bc 3aa7 61bd 8316 df3c 541d 4cbd
00000010: b75a a6bc 7c66 513d 8d36 403d d793 5abb
00000020: 662a b03c 3c59 77bd e358 80bd f6b7 143c
00000030: a74f 6bbd d78c 223d 729f 03bd 4a7a f1bc
00000040: 6723 cfbc 5bd5 79bd ceb8 5e3d d404 1dbc
00000050: d891 443d af30 19bc 5929 3dbd 582c 3fbd
00000060: 2f78 233d 498a ef3c f535 133c 0aa9 7d3d
00000070: f02c 11bd 7b8f d0bc def3 443d d5c5 4a3c
00000080: 62dd 493d 3da4 14bd 5893 1fbd 2e7e 933c
00000090: 9ece f4bb ae9a 3fbd 515f fd3c 0eac 04bd
000000a0: 8ff7 273d a390 af3b f9a6 4f3c 77a0 fc3c
000000b0: 6198 013d 4c2e dfbc 2b94 3fbd 9c4d 823d
000000c0: 0215 203d a047 9a3c e4e2 093c ebe2 393d
000000d0: 7a00 593d f2e4 1fbd cfd2 11bd 8477 9cbc
000000e0: ec18 37bd 4a0a 413c 8acc 16bd 1fa2 d33c
000000f0: 45bf 1f3c d781 21bd 1aaa 1ebd e9aa 603d
00000100: 91e1 9d3c 5259 2ebd 774a b1bb feb0 81bd
00000110: e1ae d63c c838 633d 35ff 34bd 7b9d 5a39
00000120: b025 493d 838a 91bd f5f4 a53d e8db 16bd
00000130: 40d1 31bd efd8 d9bc 3613 5cbd aff9 8fbc
00000140: 9580 a7bc 08fe 3fbd 4ee9 42bd 5e3f 803d
00000150: c222 17bc 110a 8abd e342 5b3d 244a 783d
00000160: c5e9 f93c b203 073d 2d94 773d bda8 ca3c
00000170: 26a8 96bc 924e 1f3b 1818 81bd 65ae 24bd
00000180: 1471 813d 8666 043d eada 80bd dfb2 5abd
00000190: 7997 523b d2e9 f1bc c750 3eba 8d42 3cbd
000001a0: 7527 27bd a3b2 68bd ae7a a4bc 266b 923c
000001b0: 83f3 a93c a5ed 5fbd 1e5b 233d 0da7 91bc
000001c0: 2939 253d c3a2 723d c653 253c bc1c f43c
000001d0: bffc 72bd 2710 a23c b55f c6bc 0bc1 4f3d
000001e0: 565f 293d c1ad 823d 8df3 c5bc dcae 253d
000001f0: 833b c4bc 60bd e13c 0b05 35bc 4fb2 86bb
00000200: e2b7 1e3d 002a 30bc f5af 30bd e6fd 65ba
00000210: 0826 523d 4931 613d f854 32bc f17f 833b
00000220: 5e38 273d ec3f 6abd 8de5 4ebc d0f0 58bd
00000230: 6241 55bc f4b0 5dbb 13b8 d9bc 930e 42bd
00000240: 0530 efbb 499b 2dbc 8b62 e43c edcb 4d3d
00000250: 51eb 7dbd 1903 9c3c ab09 16bd 02af d63c
00000260: 77f6 33bd 3a9b debc c471 33bd dffb b9bc
00000270: b25a e53c 9844 58bc 42c4 2b3d d7e4 50bd
00000280: c283 6bbd 11ed 39bd 83b5 d03c 025e e33c
00000290: c276 623b bc56 03bd ffe7 4abd 9713 a93b
000002a0: 607b 583d f966 1c3d b471 7dbc ab4b f43c
000002b0: abc3 dbbc d978 48bd c1d6 093d 9029 333c
000002c0: 8799 97bb e5db d73c 883d 60b9 781f 423d
000002d0: 983d a8b9 f0f3 9fb9 b466 cebc 45c7 55ba
000002e0: ba37 9e3c 4290 533d 8747 2d3c c0d5 febc
000002f0: b638 1cbb 7578 09bd 80bc 3e3d f208 4f3c
00000300: e637 483c 52d1 183d ff43 70bd 58c1 e93c
00000310: 3f7e 113c 152f 38bc 7f0a 66bc 5ec1 8fbc
00000320: 13b9 013c ae3f 90bc 144e 28bd a785 60bd
00000330: 96ae 363c c64c 40bd d4aa 8dbc 2a89 dbbc
00000340: fb26 3dbc 16d2 3f3d efb1 56bd 2584 253d
00000350: 26ed 82bd 93a1 643d d47a 6e3d 7f89 883c
00000360: 8858 79bb 8843 923d 6489 07bd 303c 083a
00000370: 1d3f 613b 9fd0 31bd f8ab c1bc 5e02 9dbc
00000380: 3ce3 383c 76dd 473d bba2 fe3c e138 963c
00000390: d96b 52bd fed1 24bd 8f25 22bd 1b04 37bd
000003a0: 10be 5b3d 03a8 3cbc e855 31bd d1e3 c23c
000003b0: 6a7f 403c 31e8 2ebd 1495 ea3c b141 97bd
000003c0: 1931 333d 7755 373d 18d3 383d 7449 83bd
000003d0: 7c8f 30bd 3284 1abd 84eb 74bd cf9a 87bd
000003e0: 0673 b73a d1b9 a43c 4fc5 9f3c 4673 483d
000003f0: 570b 33bd eb07 313c dd48 293c 1994 84bd
-0.010306322 -0.05509112 0.027232414 -0.049832657 -0.020306928 0.051123127 0.046927024 -0.003335228
0.021504592 -0.060387835 -0.06266954 0.009077063 -0.05744901 0.039685097 -0.03213448 -0.029477257
-0.025285436 -0.060994487 0.054375462 -0.009583671 0.04799065 -0.009349986 -0.04618201 -0.04667315
0.039909538 0.029240744 0.008985032 0.061928786 -0.035443246 -0.025459042 0.048084132 0.012376268
0.049283393 -0.036289442 -0.038958877 0.018004503 -0.0074709198 -0.046778373 0.03092924 -0.032390647
0.041007575 0.005357818 0.012674087 0.030838234 0.03163946 -0.027243756 -0.046772163 0.06362459
0.039082535 0.018832982 0.008415911 0.04538242 0.05297897 -0.0390367 -0.035601433 -0.019099958
-0.0447015 0.011782238 -0.036816157 0.025834141 0.009750192 -0.039430466 -0.03873644 0.054850493
0.019272598 -0.04256565 -0.005410488 -0.06332587 0.026206436 0.055474073 -0.044188697 0.00020848766
0.049108207 -0.07106497 0.081033625 -0.036830813 -0.043412447 -0.0265927 -0.05372926 -0.017575113
-0.020447055 -0.046873122 -0.047585778 0.06262086 -0.0092245955 -0.06740201 0.053530585 0.06061758
0.030506978 0.03296251 0.060444046 0.024738664 -0.018390726 0.0024308306 -0.06303424 -0.040205378
0.06320396 0.032324336 -0.062917545 -0.05339324 0.0032133742 -0.02953044 -0.00072599616 -0.045961905
-0.040809114 -0.056810986 -0.02007803 0.017873358 0.020745998 -0.054669995 0.039881818 -0.017779851
0.040337715 0.059237253 0.010090774 0.029798858 -0.05932307 0.019783093 -0.024215559 0.05072121
0.041350685 0.06380797 -0.024163986 0.040449962 -0.023954159 0.027556121 -0.011048566 -0.0041106115
0.038749583 -0.010752201 -0.043136556 -0.00087734906 0.0513058 0.054978643 -0.010884516 0.0040130545
0.04082524 -0.057189867 -0.012627971 -0.05296403 -0.013016077 -0.0033827396 -0.026577031 -0.04737718
-0.0072994255 -0.010596105 0.02787902 0.050243307 -0.061991993 0.019044446 -0.036630314 0.026206497
-0.04393622 -0.027173627 -0.043809667 -0.02270311 0.027997348 -0.013199948 0.041935213 -0.05099949
-0.0574987 -0.0453921 0.025477177 0.027754787 0.0034555648 -0.03206514 -0.049537655 0.005159806
0.052852035 0.03818414 -0.0154690035 0.029821238 -0.0268267 -0.048943374 0.03365207 0.010935202
-0.004626456 0.026349971 -0.00021385227 0.047393292 -0.00032089348 -0.0003050859 -0.025195457 -0.00081549986
0.019313682 0.051651247 0.0105761355 -0.031107783 -0.0023837513 -0.033562142 0.046566486 0.01263641
0.0122203585 0.037309 -0.058658596 0.028534576 0.008880197 -0.011241694 -0.014040588 -0.01754826
0.00791766 -0.01760849 -0.041090086 -0.05481496 0.011150023 -0.046948217 -0.017293371 -0.026798803
-0.011544938 0.046831213 -0.052415784 0.040409226 -0.06392889 0.05581815 0.058222607 0.016667126
-0.0038047154 0.07141787 -0.03309001 0.0005196957 0.0034369894 -0.043411847 -0.023641571 -0.019166168
0.011284646 0.048795186 0.031083455 0.018337669 -0.051372383 -0.040239327 -0.0395866 -0.04468165
0.053648055 -0.0115146665 -0.043294817 0.023790272 0.011749128 -0.042701904 0.02863554 -0.073855765
0.043747995 0.04475924 0.04512319 -0.064104944 -0.043105587 -0.037723728 -0.059794918 -0.06621324
0.0013996072 0.020108135 0.019503264 0.04893806 -0.043711986 0.01080511 0.010332313 -0.0647356

clf_net.3.bias f4 [256]
00000000: e645 263d 809d 593d af34 eabb 8005 253d
00000010: 7394 5bbc 5d34 feba 1075 0c3d 9e7b df3c
00000020: 2abe 43bd 08ea 1abd df4d 333d 739f 3c3d
00000030: a706 043d b2d5 6dbd 8000 5b3d fdd0 3cbb
00000040: 318c 233d ded3 473d b050 d83c 01ad 443d
00000050: bed1 23bd 382f 45bd c5db 6d3c c4ae 0a3d
00000060: 7442 1b3d 9952 c23c f8d2 71bd 9f10 01bd
00000070: 9c35 39bd 9aa4 f33c b87d ef3c 7496 6e3d
00000080: 9fee 643d f9dd 59bd 102a d93c a1a1 eb3c
00000090: 163d 5ebd c109 ca3c fb4a abbc 77d0 c83b
000000a0: debd 0dbd f234 01bd c133 2e3b 4029 ac3c
000000b0: 2b31 1fbc 1b90 d0bc 45ed fa3a 8049 f5bc
000000c0: 2373 343d afe6 2dbd 0e3d 1b3d 4583 eabb
000000d0: a0ad 4dbc 5d36 e53c 0d1f 653d 452e 483d
000000e0: c8c6 21bd def0 0cbd 74b7 5a3d 397b e63c
000000f0: 750f ee3c eb31 6a3d e77c a63b 1945 123c
00000100: e1ed 78bd 2221 fd3c e365 f93c 00db 21bd
00000110: 107b 893c c5c9 61bd d677 603d 2dc4 24bd
00000120: 33ba 5e3c ef84 683c b8ce 263d a310 3e3d
00000130: c4da 083a 9914 57bd 511d 08bd 3cae 7e3d
00000140: 6626 183d d2c6 28bd 775c 4c3d a664 6fbd
00000150: d00d 083d a926 043c 1599 34bd 14e0 ed3c
00000160: d88b 1eb9 61cb 90bc 43b4 a33c 3126 bc3c
00000170: d568 37bd cabd 6abd b01f b8bc 0613 8b3c
00000180: 67ed 5abd 683b 303d 49df 48bd 534f 42bc
00000190: 2574 1d3d 1af2 a13c 42bc 4e3d 39ba 4e3d
000001a0: 2d2c 933c d308 6a3d 5b36 f63c f449 cfbb
000001b0: 48ef ddbb b5bf 08bd ec66 ddbc d80a 2c3d
000001c0: daaa 113d 749d 54bd 3144 0d3d 5330 75bd
000001d0: 66ba 773d a57a ffb8 7eb5 ea3c 5530 4fbd
000001e0: b505 55bc 2a6d 0a3c 9a58 77bd 155f 563d
000001f0: ce7b 153d 79cd 8439 53a9 1d3d 6a7e 7bbd
00000200: dbe8 53bc fa04 4ebc 305e c9bc b4bb 203d
00000210: aa4a 4c3d 543d 3bbd c18f 60bb dbb7 54bd
00000220: 358d 76bd c846 f2bc ae2b 923c 85af cb3c
00000230: e7d0 c03c e122 383d b1de 7cbd b35c c63c
00000240: cc98 783b 6e7b 553d 5f7d 583d a674 0ebc
00000250: 1635 2b3d 6215 b13c c4cf 093d fe5d a2bc
00000260: 329d bb3b 3250 77bc 4fa4 53bd b9ac 1b3d
00000270: 1487 ddbc 28fe 8abc e988 3c3c 65a0 6cbd
00000280: d7e1 6ebd 944d 013d cec0 443d 5c3c 6bbc
00000290: 47dc 38bd 474e 48bb 9466 10bd 1951 22bb
000002a0: 9c54 dc3c 55f9 44bd 64f6 813c a660 e1bc
000002b0: f4c5 d53c 37a5 3abc 00c7 a03c 66db e6bc
000002c0: e152 32bd 62a8 febc f18f dabc 3110 29bd
000002d0: 7c41 933c 384b 87bb b4ec 3e3d df17 453c
000002e0: 4559 75bd 34a7 003d 5491 683d fe13 173c
000002f0: d4bb e83b ca9f e43b b802 64bd 9b24 c53b
00000300: c840 e0ba 9756 503d 38a0 573b 9efd 58bd
00000310: 8c43 ec3a cfe5 5c3d 1892 fcbc e9d1 11bd
00000320: fa82 043d 09ed ea3b c18a f5bb 801a 273d
00000330: 68ee e7bc 84dc 443d 956f ecbb d78f 06bd
00000340: ef0e 543d 70ec 0cbd 22fc 8e3c 0f02 6f3d
00000350: 4afb 3bbd c641 4dbc ffa9 fa3b abc6 67bd
00000360: 8f82 7e3d 9505 6d3d 1007 8c3b 71b5 f83c
00000370: a9a0 273d 70e5 e3bc 86d9 793d c966 bf3c
00000380: 797f 27bd 8c36 dcb9 4290 50bd 3727 26b9
00000390: 22dd 08bd ccd5 3ebc f608 09bd 793c 493c
000003a0: 28ee 9b3b d77f 8fbb c8d0 d73c cd3a 483d
000003b0: bf8c d8bc 53ed 46bd 2855 59bd f98e aa3c
000003c0: c753 693d 5212 b0bb ba17 6ebc 595d 15bd
000003d0: af5a 47bd c115 b8bb 566e 503d 2ddf d43c
000003e0: cd09 ce39 5594 293d 37dd c93c c775 0cbd
000003f0: 4e97 5fbd 643f a83b ec0c 2d3d 7cf5 7bbd
0.040594004 0.05312872 -0.0071473937 0.04028845 -0.013402092 -0.0019394268 0.034291327 0.027280625
-0.047788776 -0.037820846 0.043775436 0.0460505 0.032232907 -0.058065124 0.053467274 -0.002881109
0.03992862 0.048786037 0.026405662 0.048016552 -0.039994948 -0.048140734 0.014517729 0.033858076
0.03790517 0.023721026 -0.059039086 -0.03150999 -0.04521714 0.029741574 0.029234752 0.058248952
0.05589163 -0.053190205 0.026509315 0.028763594 -0.054257475 0.024662854 -0.020909777 0.0061283666
-0.0346049 -0.031544633 0.002658114 0.021015763 -0.009716312 -0.02545934 0.0019144198 -0.029942274
0.044055115 -0.042456325 0.037900023 -0.007156762 -0.012553602 0.027980024 0.055937815 0.04887225
-0.039496213 -0.034409396 0.05339761 0.028134929 0.029060105 0.05717651 0.0050808075 0.008927607
-0.060773734 0.030899588 0.030444091 -0.039515495 0.016782314 -0.055124063 0.054801784 -0.04022615
0.013594198 0.01419185 0.040724486 0.046402585 0.0005220587 -0.052509878 -0.033231083 0.06217788
0.037145995 -0.041205235 0.04989287 -0.058445595 0.033216298 0.008065858 -0.044091303 0.029037513
-0.0001512015 -0.017675104 0.019983416 0.02296743 -0.04477771 -0.057309903 -0.022476047 0.016976845
-0.05344906 0.043025404 -0.049041066 -0.011859733 0.038440842 0.019768763 0.050472505 0.050470565
0.0179654 0.05713732 0.030055216 -0.0063259546 -0.0067729093 -0.03338595 -0.027026616 0.04200253
0.035563327 -0.05190797 0.03448886 -0.05986054 0.060480498 -0.00012182192 0.028650995 -0.050583202
-0.013001849 0.008448878 -0.06038723 0.05233677 0.036495022 0.0002533009 0.03849156 -0.061399855
-0.012933935 -0.012574429 -0.024581045 0.039241508 0.049875893 -0.045712784 -0.0034265372 -0.05193315
-0.06019326 -0.029574767 0.017843094 0.024863968 0.023537112 0.044955138 -0.061735813 0.024214124
0.003793287 0.052119665 0.05285394 -0.008694803 0.041798674 0.021616641 0.033645406 -0.01982021
0.0057255263 -0.015094804 -0.05167037 0.038006518 -0.02704195 -0.016966894 0.011507251 -0.05777015
-0.058320846 0.031568125 0.048035435 -0.0143576525 -0.045131948 -0.0030564235 -0.035254076 -0.0024767576
0.026895814 -0.048089344 0.015864559 -0.027511906 0.026095368 -0.011391929 0.01962614 -0.02818079
-0.04353607 -0.03108615 -0.026679965 -0.041275207 0.017975561 -0.00412884 0.046612456 0.012029617
-0.059899587 0.031409457 0.05677922 0.009221075 0.007102469 0.006977056 -0.055666655 0.0060163266
-0.001710915 0.05086383 0.0032901894 -0.052976243 0.0018025502 0.0539301 -0.030831382 -0.035600577
0.03235147 0.00716937 -0.0074933474 0.040796757 -0.028311923 0.048061863 -0.00721545 -0.03285202
0.051772054 -0.034405172 0.01745421 0.058351573 -0.045893945 -0.012527889 0.0076496596 -0.05658595
0.06213623 0.05786665 0.004273303 0.030359956 0.0409247 -0.027819365 0.060998462 0.023364441
-0.04089305 -0.0004200231 -0.050918825 -0.00015845602 -0.033414014 -0.011647653 -0.03345581 0.012282484
0.004758615 -0.0043792534 0.026344672 0.0488842 -0.0264343 -0.048566174 -0.053059727 0.020820128
0.056964662 -0.0053732777 -0.014532024 -0.036465976 -0.048670467 -0.0056178276 0.050886475 0.025985325
0.00039298684 0.041401226 0.024641616 -0.03429201 -0.054587655 0.00513451 0.04224865 -0.06151341
