EE8591/Project/classification_models/Hyperbolas/DNN/deepnn/training_models/net_4500.pt (torch, 282047 bytes, 14 tensors)

clf_net.0.weight f4 [256, 2]
000000 9c b0 32 3f 9c 40 9b be 1e 28 6c bc 47 64 00 3f
       0.69800735 -0.3032273 -0.014413862 0.5015301
000010 5a 60 6c bd df 9e b3 be b8 da 51 bd f2 f1 19 3f
       -0.057709076 -0.35082147 -0.051233977 0.60134804
000020 6f 33 11 3f 7c f8 08 3f 44 a0 01 bf 7e 4a 25 3e
       0.56719106 0.5350416 -0.5063517 0.16141698
000030 1a cb cf 3d bc 8b 59 be 0d 31 6f 3e 10 5b 50 3e
       0.101461604 -0.2124471 0.23358555 0.20347238
000040 fe a9 a1 be 69 2f b4 3e b3 11 2d 3e 22 e1 05 bf
       -0.31575006 0.3519242 0.16901283 -0.5229665
000050 3b 9b 7d 3e 0b 1b f4 bd f8 c2 c2 bd c7 86 89 3e
       0.24766247 -0.119192205 -0.095098436 0.2686064
000060 2a 32 2e bf fb be 14 bf 33 86 9f 3e 38 b3 2e be
       -0.68045294 -0.58103913 0.31157073 -0.17060554
000070 3a 7b 03 3f e8 6a 30 bf d0 ea f2 be 0c b6 be 3e
       0.51359904 -0.68913126 -0.47444773 0.37248266
000080 23 4a af 3e 34 72 38 3c 22 19 29 bf 0c 5b be 3e
       0.3423625 0.011257697 -0.66053975 0.37178838
000090 ce 39 95 be ca 3c 14 3f 87 a1 57 be 02 9b a8 3e
       -0.29145664 0.57905257 -0.21057712 0.32930762
0000a0 3d 10 69 3d df 36 17 3e e2 4c d6 b9 70 02 94 3e
       0.05690025 0.14767025 -0.00040874543 0.2890811
0000b0 12 f5 ca 3e d9 83 bd 3e 7c 0c 0f 3e 5b 0a 14 3f
       0.396401 0.37014654 0.13969606 0.578283
0000c0 57 51 89 be 09 aa 15 3e 48 ca fb 3d 0b 69 2e 3f
       -0.2681987 0.14615645 0.122944415 0.6812903
0000d0 fe 1f 27 bf 7c be 23 3d 19 8d 84 be 11 8b 0f 3f
       -0.6528319 0.039976582 -0.258889 0.56071573
0000e0 6e 8c b7 be e0 3f 6b 3e 7d 39 16 be aa 15 eb be
       -0.35849327 0.22973585 -0.14670368 -0.45914966
0000f0 d9 ab bf be 36 40 0c 3f 30 0e 8a 3e a5 54 05 3f
       -0.37435797 0.5478548 0.2696395 0.5208228
000100 29 b5 07 3f 2c 0e 97 3d 6a 9d ce bd 62 96 17 bf
       0.53010803 0.0737575 -0.10088618 -0.5921384
000110 5f 49 19 3d 97 01 1d 3f 7e 5b af be 46 b8 bf be
       0.037423488 0.6133055 -0.3424949 -0.37445277
000120 8b 70 f2 bd d8 8c 2f 3f d9 82 5b be e7 b3 95 3d
       -0.11837872 0.68574286 -0.21436633 0.07309704
000130 31 c2 a5 be 29 fd 2b bf 11 dd c2 3e d9 f6 0a bf
       -0.3237472 -0.67183167 0.38059285 -0.5428291
000140 a3 17 1d bf d5 cf 11 bf 75 f2 59 be 89 8a 20 3f
       -0.6136419 -0.5695775 -0.21283896 0.6271139
000150 ca 86 93 be b1 71 18 bf 24 da 3d be 0e d9 32 bf
       -0.28813773 -0.5954848 -0.18540245 -0.6986245
000160 ad f1 23 bf 37 b5 06 3e bc 6d c4 be 0f c1 1d 3e
       -0.6404064 0.13155065 -0.3836497 0.15405677
000170 45 5c 11 3f ec 2b ba 3c 56 94 06 3f 85 35 d8 be
       0.5678142 0.022726022 0.5257009 -0.42228332
000180 5e 6f d5 be e9 a4 0b 3e bf 4f 70 3e 94 b9 d0 bd
       -0.4168653 0.13637127 0.2346792 -0.10191646
000190 a4 22 0f bd 55 60 d5 bd 5e d2 b7 3e 8f db 19 bf
       -0.034945145 -0.104187645 0.35902685 -0.60100645
0001a0 1d 86 a6 be c8 aa e2 be f9 46 1d bf 45 1f 2c 3f
       -0.32524195 -0.4427092 -0.6143642 0.67235214
0001b0 de 19 5b bc 86 5a 87 3d f6 ca db 3e ad 5b 6d be
       -0.013372866 0.06609063 0.42928284 -0.23179503
0001c0 c9 88 a0 3e d1 01 8e be 0d 51 e9 be 16 3a ee be
       0.3135436 -0.2773576 -0.4556965 -0.4652869
0001d0 be 6d f1 bd ca b3 26 bf 1b b9 9c 3e 48 16 cc 3c
       -0.1178851 -0.65118086 0.30609974 0.024912968
0001e0 bf e2 af be 66 a9 51 be 33 c5 b1 3e 3c 4a ca bd
       -0.3435268 -0.20474777 0.34720764 -0.0987744
0001f0 42 fc 48 bc 36 80 de 3e c5 46 18 3f 3f 4b df be
       -0.012267174 0.43457192 0.59482986 -0.43612096
000200 5f bf 2d 3f bc c7 f6 be 70 61 a1 be 78 3a de be
       0.67870134 -0.4819926 -0.3151965 -0.43403983
000210 2f 4b 02 bf cf 14 9b 3e 54 18 bd 3e d8 00 ef 3e
       -0.5089597 0.30289313 0.36932623 0.4668033
000220 06 47 35 3f 07 9e b1 3e 15 54 48 3c 60 c8 00 3d
       0.708115 0.34690878 0.012227078 0.031441092
000230 2d 4b 27 bf c1 1c 32 bf 3b 6d e3 be e5 31 16 3e
       -0.65349084 -0.69575125 -0.44419274 0.14667471
000240 f5 88 05 be aa 57 cc 3d d7 e7 83 be 1b 56 a5 be
       -0.13040526 0.09977658 -0.25762817 -0.32292256
000250 8c 15 1f 3f 29 81 82 be 92 1c c9 be 05 8a c6 be
       0.6214225 -0.25489166 -0.3927961 -0.38777176
000260 32 67 08 bf 65 d0 e2 be bf 69 f7 3d bc 32 61 be
       -0.53282464 -0.44299617 0.12080716 -0.2199201
000270 12 3f 13 3e 2c 8d f3 bd cc 6f 85 3e 25 b3 08 bf
       0.14379528 -0.11892161 0.26061857 -0.5339835
000280 c3 a7 68 bd 63 2f 0e 3f 72 07 f7 bd a7 02 0e 3e
       -0.056800615 0.55541056 -0.12061967 0.138682
000290 5a 08 9c be 88 c7 32 3f fb ea 82 bc 0f 60 ce be
       -0.30475122 0.6983571 -0.015981188 -0.40307662
0002a0 9a 3a 0c 3f 9a 07 16 3f 11 a3 c8 3e e4 c0 af bb
       0.5477692 0.5860535 0.3918691 -0.0053635705
0002b0 b0 92 bb be 56 f6 f4 3d 7a 07 d7 be a8 bf 10 3f
       -0.3663535 0.11961047 -0.41997892 0.56542444
0002c0 60 2f 6d be ee 39 35 3f 1e fe 1e bf 2b 1c 8c 3e
       -0.23162603 0.7079152 -0.621065 0.2736524
0002d0 da a1 d3 3e ff 6d 8c be 67 ac ef bc be 4b 0d bf
       0.4133442 -0.2742767 -0.029257013 -0.551937
0002e0 26 97 04 be 01 ff 3f bd c3 8e 07 bf ea b9 30 3f
       -0.12948284 -0.04687405 -0.5295221 0.6903368
0002f0 19 1b 0c 3f ac 79 24 3f 73 03 fb 3e 1a ff ff bd
       0.5472885 0.64248157 0.4902607 -0.12499829
000300 7e da 12 3f 39 2c ea bc 30 cc 85 3d 6c 1b 27 3f
       0.5736464 -0.02858554 0.06533086 0.6527622
000310 4f a4 cf 3e 4d 06 08 bd de 7b dc 3e 22 55 20 bf
       0.40555045 -0.033209134 0.43063253 -0.626299
000320 6c 7a a3 be 00 0c 8a be 82 6b 86 be 77 2c a6 3e
       -0.31929338 -0.2696228 -0.26253897 0.324558
000330 a3 63 0a 3f b9 06 68 be f9 23 34 3f 1b 2a 11 bf
       0.54058284 -0.22658814 0.7036739 -0.5670487
000340 b9 23 df be 4a 61 78 be b2 94 e7 3e 85 84 31 3f
       -0.43581942 -0.24255863 0.45230633 0.69342834
000350 72 97 25 3d c8 d2 ed bd 6f 0d e3 be 08 dd 18 3f
       0.040427633 -0.11612469 -0.44346187 0.59712267
000360 d6 5d 24 3f 54 ea 01 3f 3b 6e 80 3e 66 9c d5 3e
       0.6420568 0.5074818 0.250841 0.41720885
000370 33 9b 8d 3e 01 c4 f1 be 49 04 25 3f 88 36 42 3e
       0.2765747 -0.47219852 0.64459664 0.18966115
000380 4d 8b c2 be 4c f2 2f 3f 64 00 09 3e 7f 37 1b 3f
       -0.37996903 0.6872909 0.13379055 0.60631555
000390 cb 25 88 be dd f5 d7 be cd 1e 07 bf 12 93 03 bf
       -0.26591334 -0.42179766 -0.52781373 -0.51396286
0003a0 70 18 b5 3e 09 2b aa be ac 2b 34 bf 85 be 0e bf
       0.35370207 -0.33235958 -0.7037914 -0.5575946
0003b0 05 f9 cc bd e1 58 4c be 65 7b 23 bf 1a 15 b1 3e
       -0.10008434 -0.1995578 -0.6386016 0.34586412
0003c0 a2 8d ee be 32 ac fa be 5b 9f 4f bd bf 32 2a 3f
       -0.46592432 -0.489595 -0.050689083 0.6648368
0003d0 17 50 28 3f d3 f0 18 bf 68 ef 50 3e 49 75 f3 3d
       0.6574721 -0.5974247 0.20403826 0.11887605
0003e0 33 03 1a bf 0c 15 2c bd 43 ee 8c be 12 9b b0 3c
       -0.6016113 -0.04201226 -0.2752553 0.021558318
0003f0 bd ab 77 bd cc c5 18 3f 2f 37 87 3a 3c cf 2f bf
       -0.060466517 0.59676814 0.0010316129 -0.6867559

clf_net.0.bias f4 [256]
000000 33 d2 96 be b0 7f 12 3f db 4b 04 3f 27 a5 01 bf
       -0.29457244 0.57226086 0.51678246 -0.5064263
000010 14 46 31 bf be f4 da be f4 f0 c3 3e 4e 55 39 3e
       -0.69247556 -0.42764848 0.3826977 0.18098947
000020 0f 2d d3 3e 3e 74 8a be a1 9c 6a 3e d4 70 e0 3e
       0.41245314 -0.2704181 0.22911312 0.4383608
000030 42 7f e8 3e 99 91 dc 3e 41 cd c3 3e 69 b6 70 3d
       0.4540959 0.43079832 0.38242534 0.05876771
000040 44 48 16 3f 64 7e 6c be f0 70 0b be 2d 64 73 3e
       0.5870402 -0.23095089 -0.13617301 0.23768683
000050 d7 3d d6 bd 63 c0 e5 be 11 23 22 3f c4 be b5 3e
       -0.10461014 -0.44873342 0.6333476 0.35497105
000060 0f 13 7d be f6 ea c2 3e 55 53 14 3f df af ed be
       -0.24714302 0.38069886 0.57939655 -0.46423241
000070 a0 14 2b bf 0e 7b c8 3d 59 24 98 bd 08 00 0e 3f
       -0.66828346 0.09789096 -0.07428808 0.554688
000080 f9 4b 02 3c c1 e3 0b 3f e5 1a 11 bf 00 91 1c 3f
       0.007952684 0.546444 -0.5668166 0.6115875
000090 dd a8 30 3a ea b4 95 be 97 ca a3 be 25 6a 0e 3f
       0.000673903 -0.2923959 -0.319905 0.55630714
0000a0 34 dc 0d 3e 20 4f 2c bf de 02 05 3f f4 94 1d 3f
       0.13853532 -0.67308235 0.519575 0.6155541
0000b0 c3 51 0a 3f da 6b 93 3d ec 94 60 be ba 82 b7 bd
       0.5403101 0.071983054 -0.21931809 -0.08960481
0000c0 57 33 22 3f 77 51 32 bf f6 cd 0e 3f d6 7e 2f 3f
       0.6335959 -0.69655555 0.5578302 0.6855291
0000d0 ad 49 d1 be 71 f9 e1 be 9a da c1 be 83 ba 88 3e
       -0.40876523 -0.4413562 -0.37862092 0.26704797
0000e0 96 3b 81 3e cf c3 99 be 65 83 2e 3f 4d 9e 19 bf
       0.25240773 -0.30032203 0.6816924 -0.6000717
0000f0 89 84 33 3f 0c b3 27 3f 83 4e 56 be 0e 6c 05 3f
       0.7012411 0.6550758 -0.20928387 0.52118003
000100 1e c9 b8 3c 27 e8 55 be e6 08 70 be bd ca 4a be
       0.022556838 -0.2088934 -0.23440894 -0.19803901
000110 dd 6b f2 3e 5f 8c f9 bc 86 5e b1 be 3c 61 0d bf
       0.47347918 -0.030462442 -0.34642428 -0.5522649
000120 af 75 45 be 2e 17 1d bf d5 3f b4 3e 04 ab 2b bf
       -0.19283174 -0.61363494 0.3520495 -0.67057824
000130 bb a4 14 3f 0c 16 29 3f c4 81 2d 3e ab b9 86 3e
       0.5806386 0.66049266 0.16944033 0.26313528
000140 12 08 40 3e 09 99 c2 be 3a aa 2b 3e 5d e2 0b bf
       0.18753079 -0.38007382 0.16764155 -0.5464228
000150 7b 82 1d 3f c5 0d 0f bd 07 aa 16 bf ce 84 d7 3e
       0.6152722 -0.03492524 -0.5885319 0.4209351
000160 77 5f 05 3e 83 c4 00 3f 90 c0 f8 3e 27 a5 64 be
       0.13024698 0.50299853 0.48584414 -0.22328626
000170 30 1c 89 be 4a eb 30 bf 02 51 d3 be b2 3f 18 bd
       -0.26779318 -0.6910902 -0.41272742 -0.03717012
000180 55 2d e5 3e 44 3e fa 3d 05 de 94 bd 11 1d 30 be
       0.44761148 0.122189075 -0.07268909 -0.17198588
000190 5f 59 cc 3e d1 5e 0e 3f c0 ec 2f bf bf 00 82 3e
       0.39911935 0.5561343 -0.68720627 0.25391194
0001a0 44 3c 36 3e 2f 22 c0 be 06 c0 fd be c8 1e 19 3f
       0.17796427 -0.3752608 -0.49560565 0.59812593
0001b0 75 8c e9 be b0 28 6e 39 cc 86 ff 3e 98 cf 49 be
       -0.45614973 0.00022712606 0.4990753 -0.19708097
0001c0 a5 c8 8d be 4b 75 2b 3f 95 75 87 be f1 b2 ef be
       -0.27692142 0.6697585 -0.26456895 -0.4681621
0001d0 41 15 39 3e 57 13 4c 3e 8e 3a 1e 3f ad 86 d0 3e
       0.18074514 0.19929253 0.618081 0.4072775
0001e0 ac 59 07 bf 9e c8 98 3d 2c b9 15 bb 79 e6 10 bd
       -0.52871203 0.0746014 -0.0022845967 -0.035376046
0001f0 94 85 8f 3e f9 6b 16 3f ae f6 fb 3e 34 53 71 bd
       0.280316 0.58758503 0.4921164 -0.05891724
000200 e5 04 a0 3e 25 be 00 be 42 5a e0 3e 9c 01 f5 3e
       0.31253734 -0.12572534 0.4381886 0.4785279
000210 f4 86 13 bf 09 ef 9d be c7 74 29 bf 08 f0 97 3d
       -0.576278 -0.30846432 -0.66193813 0.07418829
000220 3f 04 13 bf 71 5f 30 bf a4 6f 3d be 59 b1 06 3f
       -0.57428354 -0.6889563 -0.18499619 0.5261436
000230 1d 61 86 be 41 55 1f bf 21 13 42 be b7 2f 11 3f
       -0.26245967 -0.6223946 -0.1895261 0.5671343
000240 89 e9 8b be 4e 8d 3f 3e e3 6c 29 3f 58 2e a8 be
       -0.2732661 0.18706247 0.6618177 -0.32847857
000250 ae fa fa 3c a8 6f 92 bd 09 26 2c bf 8c 47 73 bd
       0.030637112 -0.07150203 -0.6724554 -0.059394404
000260 13 c6 16 3f f0 ad ca be a5 85 83 3d b9 35 3e bd
       0.5889599 -0.3958583 0.06421975 -0.046437953
000270 45 62 7c 3e c4 fd ad 3e bc f6 f8 be c7 fb c6 bd
       0.24646862 0.3398267 -0.48625743 -0.097159915
000280 df eb 0a bf b3 02 00 3f 76 cf d9 3d d0 ef 65 be
       -0.5426616 0.5000412 0.10635273 -0.22454762
000290 aa e2 2e bd 15 2f 2a 3e c5 7e 08 bf 86 4e 53 3e
       -0.042696632 0.16619523 -0.53318435 0.20635423
0002a0 cc 1a 4e 3d bc 04 35 3f 2c 2e 93 3e 0b a8 57 3e
       0.050318524 0.7071035 0.28746164 0.21060197
0002b0 36 36 c4 be 81 4a 29 bf 51 f9 41 be 6e c8 03 3e
       -0.3832261 -0.6612931 -0.18942763 0.12869427
0002c0 51 5e 2a bf b0 94 99 3e fb 96 00 3f a9 3f a7 be
       -0.66550165 0.29996252 0.5023038 -0.32665756
0002d0 6e 80 1c 3f 77 9e 0e bf 97 4d 1e 3f be 36 40 be
       0.6113347 -0.5571055 0.6183714 -0.18770882
0002e0 98 ac 2e bf de 4c 59 3e 2a 02 db be c3 4b ae 3d
       -0.6823211 0.21220729 -0.4277509 0.08510544
0002f0 38 86 45 3e 3f e1 5e 3e ff af 1b bf ce be b1 3e
       0.19289482 0.21765612 -0.60815424 0.34715885
000300 bd 80 a4 be e5 f3 ca be 11 a4 aa be f3 64 20 be
       -0.3212947 -0.39639202 -0.33328298 -0.15663509
000310 ae 71 b6 3e e7 2b 9a 3d 87 8c a6 3e 62 8b f1 be
       0.35633606 0.07527905 0.3252909 -0.47176653
000320 e2 59 a0 3d 28 a4 57 be 7d d1 cf 3c e5 a8 1e bf
       0.07829644 -0.21058714 0.025368446 -0.6197646
000330 fb 21 1d be c6 74 8b 3d a9 e6 9f 3e 33 8d c3 3e
       -0.15344994 0.06809382 0.31230667 0.38193664
000340 85 11 dc be 05 d2 8d be 08 9b 30 3e 2a 3a a6 3e
       -0.42982116 -0.27699295 0.1724664 0.3246625
000350 11 b2 7d 3d 40 b6 e0 3e b5 19 1b bf 33 b4 c9 be
       0.061937395 0.43889046 -0.605861 -0.39395294
000360 8a d8 08 3f b1 f7 13 be c9 7f f4 bd 06 df 23 bf
       0.5345541 -0.14449956 -0.119384356 -0.6401218
000370 e7 77 84 be b6 93 2b 3e a9 c7 17 bf 9e 29 90 bd
       -0.25872728 0.16755566 -0.5928903 -0.07039188
000380 04 9f e2 3e dd d1 33 bf e6 b5 5b 3e 6c 71 d1 be
       0.44261944 -0.702421 0.21456107 -0.40906847
000390 50 0c 46 3e 06 cc db be aa 46 2d 3f 1e 3a c6 bd
       0.19340634 -0.42929095 0.6768595 -0.09679054
0003a0 30 95 95 3e a9 f1 ec be 75 ef 1a bf 43 86 00 bf
       0.29215384 -0.46278122 -0.6052163 -0.5020487
0003b0 23 5f 1e bf 75 af 96 be 07 66 3a 3e 85 b2 1a 3f
       -0.6186392 -0.29430738 0.18202983 0.6042865
0003c0 3d 05 64 be 23 4f c1 3d 6b 65 0d 3f db 8a a3 3d
       -0.22267623 0.09438922 0.55232877 0.07985469
0003d0 bc 46 c4 be e4 25 18 bf b8 d1 2e 3f 3b ff 02 3d
       -0.38335216 -0.59432817 0.68288755 0.031981688
0003e0 65 47 91 be 80 ad 13 3f 98 33 b4 bd 64 7d 1a be
       -0.28374782 0.57686615 -0.08798903 -0.15086895
0003f0 b9 eb 15 3f 14 7f 8a bd d4 e5 b9 3e 5c 0e 35 3e
       0.5856281 -0.067625195 0.36308157 0.17681259

clf_net.1.weight f4 [256]
000000 cb 50 7c 3f c9 fd 7f 3f 02 37 7d 3f 3e 10 7d 3f
       0.9856078 0.9999662 0.9891206 0.9885291
000010 d0 b7 80 3f 04 2d 7f 3f 8b 1b 7b 3f e6 58 7d 3f
       1.0056095 0.99678063 0.980889 0.98963773
000020 1f 70 7d 3f dc e7 7f 3f c0 7c 7f 3f 3d 79 7c 3f
       0.9899921 0.99963164 0.9979973 0.98622495
000030 fc 61 7d 3f 5e da 80 3f 36 f3 7c 3f ff a7 7f 3f
       0.9897764 1.006664 0.9880861 0.99865717
000040 ac 97 7e 3f 9f b0 7e 3f 27 33 7e 3f e1 e3 7e 3f
       0.9945018 0.9948825 0.992968 0.99566466
000050 4b 47 80 3f de 8e 7f 3f b7 0d 80 3f ac 20 7f 3f
       1.0021757 0.99827373 1.0004185 0.9965923
000060 0f 57 7e 3f 3b 91 7d 3f 27 38 7d 3f d5 4e 7d 3f
       0.9935159 0.9904973 0.98913807 0.98948413
000070 66 9e 7e 3f ac f7 7f 3f 00 4d 7d 3f 1e 0c 7f 3f
       0.99460447 0.9998729 0.9894562 0.99627864
000080 fb 8b 7c 3f 43 3e 7c 3f 23 fd 7d 3f d6 6d 7d 3f
       0.98651093 0.98532504 0.9921438 0.9899572
000090 1f 45 80 3f 73 ba 7b 3f 65 8c 7f 3f b6 ad 7c 3f
       1.0021094 0.98331374 0.998236 0.9870256
0000a0 4a c5 7e 3f 30 61 7d 3f 63 2e 80 3f ac 38 7f 3f
       0.9951979 0.9897642 1.0014156 0.9969585
0000b0 73 2a 80 3f 5d 23 7f 3f ed a7 80 3f 2e 4f 80 3f
       1.0012954 0.99663335 1.0051247 1.0024164
0000c0 b1 69 80 3f ca 63 81 3f 2f 95 7e 3f 48 75 7e 3f
       1.0032254 1.0108578 0.99446386 0.99397707
0000d0 88 0c 7c 3f 9a 23 7d 3f 34 9f 7e 3f cf c9 80 3f
       0.9845662 0.9888245 0.99461675 1.0061587
0000e0 3f dd 7c 3f e2 f3 7c 3f 2d 90 7c 3f 6a be 80 3f
       0.98775095 0.98809636 0.98657495 1.005811
0000f0 c2 ef 7d 3f 36 53 7d 3f 59 0d 7c 3f 3c 15 7d 3f
       0.99193966 0.98955095 0.98457867 0.98860526
000100 19 2f 7c 3f c9 48 80 3f b6 89 7d 3f ee 7f 81 3f
       0.98509365 1.0022212 0.99038255 1.0117166
000110 19 c7 7f 3f 5c 57 7e 3f 89 30 7d 3f 26 72 7f 3f
       0.99913174 0.9935205 0.98902184 0.9978355
000120 ad cc 7e 3f 24 d1 7d 3f d5 83 81 3f 49 a7 80 3f
       0.9953106 0.9914725 1.0118357 1.0051051
000130 8f 85 7e 3f 27 e9 7e 3f 37 89 7c 3f 38 81 7b 3f
       0.99422544 0.9957451 0.98646873 0.9824405
000140 9f 50 7a 3f 6e 6f 7b 3f 32 eb 7d 3f 05 4a 7f 3f
       0.9777927 0.98216903 0.99187005 0.9972232
000150 cd 58 7c 3f 43 96 7f 3f fb 00 7e 3f 48 67 7f 3f
       0.98573 0.99838656 0.99220246 0.9976697
000160 59 24 7d 3f bb e3 7f 3f 3f 95 80 3f 5a f0 7e 3f
       0.9888359 0.99956864 1.0045546 0.995855
000170 c3 41 7f 3f 87 44 7d 3f 57 ab 7d 3f c0 22 7c 3f
       0.9970972 0.9893269 0.9908957 0.98490524
000180 b7 96 7e 3f eb dd 7d 3f b0 90 7d 3f 25 83 7b 3f
       0.9944872 0.99166745 0.990489 0.98246986
000190 90 30 7e 3f 37 ce 7a 3f d0 2e 7c 3f fa 1e 80 3f
       0.9929285 0.9797091 0.9850893 1.0009453
0001a0 4b d9 7f 3f 1c f6 7c 3f fd ff 7d 3f f1 e0 7e 3f
       0.9994094 0.98813033 0.9921873 0.99561983
0001b0 48 21 80 3f 03 bf 7f 3f 1e b3 7c 3f 30 3c 7e 3f
       1.0010157 0.99900836 0.9871081 0.9931059
0001c0 1f 3f 7e 3f 2d 4f 7f 3f 01 f8 7e 3f 7d 9a 80 3f
       0.99315065 0.9973019 0.99597174 1.0047146
0001d0 6c dd 7e 3f 99 17 7f 3f a3 2a 80 3f 0b c2 7f 3f
       0.9955661 0.9964538 1.0013012 0.9990546
0001e0 6c 10 7e 3f 4a 6a 7f 3f 1a 1a 7d 3f 62 22 7f 3f
       0.9924381 0.9977156 0.9886795 0.9966184
0001f0 13 70 80 3f ab b4 7f 3f 9c a8 7f 3f 42 d1 7e 3f
       1.0034202 0.9988505 0.9986665 0.9953805
000200 fc 9b 80 3f 87 94 7d 3f 56 18 7e 3f e3 51 80 3f
       1.0047603 0.9905476 0.99255884 1.002499
000210 8f 3b 7e 3f bf 25 7f 3f 4c 59 7e 3f bf 90 7e 3f
       0.9930963 0.9966697 0.99355006 0.99439615
000220 da 37 7f 3f 47 5a 80 3f c6 96 80 3f f2 10 7d 3f
       0.996946 1.002755 1.0046012 0.9885398
000230 6d c7 79 3f de 4e 7d 3f 11 9b 7a 3f 9d f2 7b 3f
       0.97569925 0.98948467 0.9789286 0.98417073
000240 8e 3e 7e 3f 68 66 7f 3f af f6 7d 3f b2 5c 7c 3f
       0.993142 0.99765635 0.99204534 0.9857894
000250 08 87 7f 3f e0 0a 7d 3f c2 1d 7e 3f 4c fb 7d 3f
       0.99815416 0.9884472 0.99264157 0.99211574
000260 40 64 80 3f cc 5f 7d 3f ac 82 7e 3f 9b d0 80 3f
       1.0030594 0.989743 0.9941814 1.0063661
000270 4e 48 7c 3f 51 ea 7d 3f 4a b2 7f 3f 8f 0a 7d 3f
       0.9854783 0.99185663 0.9988142 0.98844236
000280 c3 99 7e 3f 18 6b 7d 3f 03 0c 7f 3f 39 51 7e 3f
       0.9945337 0.9899154 0.99627703 0.99342686
000290 62 24 80 3f 90 02 7e 3f 69 8d 7e 3f 15 47 7d 3f
       1.0011103 0.9922266 0.99434525 0.9893659
0002a0 42 ee 7e 3f 78 70 7d 3f 83 2f 7e 3f 1b 40 7e 3f
       0.995823 0.9899974 0.9929125 0.9931657
0002b0 8c a7 80 3f 5c 1d 7e 3f ad 16 7e 3f df e8 7b 3f
       1.0051131 0.9926355 0.9925335 0.9840221
0002c0 88 b7 7f 3f 72 ad 7e 3f 01 ef 7d 3f bd f4 7d 3f
       0.9988942 0.99483407 0.99192816 0.99201566
0002d0 cf f2 7e 3f 22 d8 7d 3f 39 fc 7b 3f 9f bf 7e 3f
       0.99589247 0.9915792 0.98431736 0.9951114
0002e0 b7 fd 7e 3f 46 bf 7e 3f c6 57 80 3f 85 e5 7e 3f
       0.9960589 0.9951061 1.0026786 0.9956897
0002f0 d8 4e 7e 3f e8 6c 7e 3f 9f 7a 80 3f 9d 00 80 3f
       0.99339056 0.9938493 1.0037421 1.0000187
000300 21 0b 7f 3f 58 e3 7d 3f 1f 00 7f 3f f3 6c 7b 3f
       0.99626356 0.99175024 0.9960956 0.9821312
000310 ec 7b 7d 3f b3 ea 7e 3f 42 db 7e 3f 73 9b 7c 3f
       0.99017215 0.9957687 0.9955331 0.98674697
000320 3a df 7d 3f ae 2d 7e 3f bb 52 7d 3f a4 2e 7d 3f
       0.9916874 0.9928845 0.9895436 0.9889929
000330 28 37 7e 3f e7 88 7d 3f 94 aa 7d 3f c0 87 7d 3f
       0.9930291 0.9903702 0.99088407 0.99035263
000340 f6 d2 7d 3f cd 95 7e 3f 41 27 7f 3f 0e bb 7d 3f
       0.99150026 0.9944733 0.9966927 0.9911355
000350 a8 33 7f 3f d2 88 7d 3f b5 76 7b 3f 88 44 7e 3f
       0.99688196 0.99036896 0.9822801 0.9932332
000360 4c 45 7d 3f f7 22 80 3f 49 4b 7f 3f 75 60 80 3f
       0.98933864 1.001067 0.9972425 1.0029436
000370 a8 4f 7e 3f bb 58 7f 3f 30 a2 7b 3f c9 75 7f 3f
       0.99340296 0.99744767 0.98294353 0.997891
000380 1e 60 7f 3f 52 93 7e 3f 30 b1 7c 3f 97 4e 81 3f
       0.9975604 0.9944354 0.98707867 1.0102109
000390 ce ba 7e 3f 16 fa 7d 3f d7 19 7f 3f e1 e4 7e 3f
       0.9950379 0.99209726 0.99648803 0.9956799
0003a0 a9 ab 7e 3f 06 28 7e 3f 33 ef 7e 3f f4 5a 81 3f
       0.9948068 0.9927982 0.9958374 1.0105882
0003b0 fd 72 7e 3f e4 20 81 3f 97 04 7c 3f 74 0c 7f 3f
       0.9939421 1.0088162 0.98444504 0.99628377
0003c0 de 09 80 3f 65 db 7f 3f e5 07 7d 3f 8d a3 7b 3f
       1.0003011 0.99944144 0.9884017 0.98296434
0003d0 f1 df 7e 3f 21 44 80 3f db 28 7e 3f 32 d4 7e 3f
       0.9956046 1.0020791 0.9928109 0.99542534
0003e0 5e 91 7f 3f 71 99 7d 3f b5 0e 7d 3f 39 f8 7d 3f
       0.9983119 0.9906226 0.98850566 0.9920688
0003f0 e6 5c 7f 3f 40 d3 7c 3f 6f 2c 7f 3f 05 41 80 3f
       0.99751127 0.9875984 0.99677175 1.0019842

clf_net.1.bias f4 [256]
000000 a9 c6 39 3e 83 11 d6 bc 38 f1 56 bd 7c 6f 28 3d
       0.18142189 -0.026131397 -0.052476138 0.041121945
000010 43 3e 5b bd 2f 56 2d 3e 6e 15 8e 3c a9 be d9 bd
       -0.053526174 0.16927408 0.017344203 -0.10632069
000020 f7 5b 56 bc 96 47 76 bd cb 6c 3a 3e 72 da f1 3a
       -0.01308345 -0.060126863 0.18205564 0.0018451943
000030 af 7f ca bd 4e 88 33 be db 66 b4 bc a3 af 7f bc
       -0.09887635 -0.17532465 -0.022021702 -0.01560584
000040 9d 2a 25 be a9 b8 1c be 51 3f 68 bd 32 d7 4b 3d
       -0.16129537 -0.15304817 -0.05670101 0.049765773
000050 ba 4c ee bc 9e 3b b4 3a 80 41 93 bd 4d c5 fc bc
       -0.02908932 0.0013750677 -0.071902275 -0.0308558
000060 e7 de 3d 3e 3b 9b 8d bd 51 e7 44 3e 90 2e 9a 3c
       0.18542062 -0.069143735 0.19228865 0.01882103
000070 cc 96 12 3e a9 0b cc 3c 1c 05 35 3d a9 f8 43 bc
       0.14315337 0.024907904 0.044194326 -0.011961141
000080 8e e1 d0 3d 1d 8e 1a 3d 92 03 9d 3b 5a 3c 70 3c
       0.10199271 0.037733186 0.0047916854 0.014662826
000090 46 73 29 3d 4a cc 8c 3d b7 39 56 3d 25 fa 40 bd
       0.0413697 0.068749025 0.052301135 -0.047113556
0000a0 6b 83 96 bd 6d 1b 02 bc cd 9a 83 bd 44 29 fb 3c
       -0.07349285 -0.007941109 -0.0642601 0.030659325
0000b0 da c0 2b 3e 4c a3 30 3e ad 20 00 be 26 57 1a be
       0.16772786 0.17249793 -0.12512465 -0.15072307
0000c0 69 58 19 be e4 a4 dd bd 31 2a 4f 3b c9 82 8e bd
       -0.14975132 -0.10822466 0.0031610841 -0.06958539
0000d0 f0 28 c6 bd ec b3 12 3c 09 7b 33 3d 1f 50 56 be
       -0.09675777 0.0089540295 0.043818507 -0.20929001
0000e0 42 22 7c bd f8 32 5b bd 81 4d d3 bc 77 52 0d 3e
       -0.06155611 -0.053515404 -0.025793793 0.13800989
0000f0 95 2c c4 3d 31 15 49 3e bd 58 66 bd 4b 69 61 3d
       0.09578816 0.1963699 -0.05623697 0.055032056
000100 62 46 0c 3e 6a 55 07 bd 60 53 2a 3d da b0 49 bd
       0.13698724 -0.03304044 0.04158342 -0.049240924
000110 df d3 e1 3d 3e ee 6d bd 17 c9 0b bd fa 15 41 3e
       0.11026739 -0.058088534 -0.03412732 0.1885604
000120 ee 36 c9 bd c7 3b a5 bd ff 10 3a be 1e 5a 3b 3c
       -0.0982493 -0.08068042 -0.18170546 0.01143506
000130 08 81 c9 bd d8 30 94 3d c6 b9 7b 3d 96 e2 0a bd
       -0.09839064 0.07235879 0.061456464 -0.033907495
000140 a4 cd 3c bd 1c b5 98 bc c3 66 81 bd 1f 86 41 bd
       -0.04609455 -0.018641047 -0.06318428 -0.04724705
000150 6e c1 2f 3d 92 b3 2f 3e ea b0 cd 3c 04 24 2e 3d
       0.04290908 0.17158344 0.025108773 0.042514816
000160 80 45 1b 3d 9a 9f 1a be 0a 8e 3e be 1d c2 21 3c
       0.037908077 -0.15099946 -0.18608871 0.00987294
000170 3e 50 d8 3d 53 26 06 bd 33 46 1b 3c f6 af c4 3d
       0.1056218 -0.032751393 0.009477186 0.096038744
000180 1c 5e 24 be 8e e0 88 bd 43 b6 3d 3e f6 cc 0f bd
       -0.16051525 -0.066834554 0.18526559 -0.035107575
000190 02 d8 2c 3d db d8 e0 bc b1 86 1f 3e f6 3c c6 3c
       0.04219819 -0.027447155 0.15578724 0.02419899
0001a0 08 da da bd ee 58 0a bd a2 59 be 3c e8 1e 16 bd
       -0.106861174 -0.033776216 0.0232361 -0.03665057
0001b0 e4 34 bf 3d 16 53 2c bd 56 75 8c 3d 27 49 e7 bc
       0.0933626 -0.042071424 0.068583176 -0.028233124
0001c0 de 83 d1 bc be 2d 2f bd 78 26 9e bd 16 e3 96 bd
       -0.025575574 -0.042768233 -0.07722181 -0.07367532
0001d0 83 a3 39 3d b9 05 cf bd 05 0c 2f 3d 8c ea ea bd
       0.045321953 -0.101085134 0.042736072 -0.114705175
0001e0 ac c4 86 3d d8 5e 2a bd c5 5e 35 3d c9 3f 75 3d
       0.06580481 -0.041594356 0.044279832 0.059875283
0001f0 be 51 05 3e aa c9 0c 3e 3f 8d 81 3d 73 ae 5a 3d
       0.13019463 0.13748804 0.06325769 0.053389024
000200 09 4b 8d bd a6 ef 5b 3e 2b ab 93 bb a6 26 b5 3d
       -0.068990774 0.21478137 -0.004506489 0.08845262
000210 a4 4b 28 be 52 1c 88 bd 46 8b 17 bd 0d c6 e4 3c
       -0.16435105 -0.06646027 -0.036998056 0.02792647
000220 de 58 52 3c 89 0b 1c be 71 f3 18 be b6 d9 5d bc
       0.01283857 -0.15238775 -0.14936616 -0.013540676
000230 01 c7 3f bd b1 ee 6f 3d 60 92 98 3d 79 11 9b bc
       -0.046820644 0.058577243 0.07449794 -0.01892923
000240 22 f9 27 bd 6c f0 39 bd 80 7b a4 3a b2 e3 75 3d
       -0.041009076 -0.0453953 0.0012549013 0.0600316
000250 68 e2 01 bd b1 19 25 3e ac 64 96 3c 13 31 91 3d
       -0.03171006 0.16123082 0.018358551 0.07089438
000260 12 bd 58 bd ea df cc bc 1c 13 8b bd 2f 24 9c bd
       -0.052914687 -0.025009114 -0.06790754 -0.07624089
000270 a1 9e ae bd 8a 6b 35 3e 19 31 45 bd 0b 25 d2 bc
       -0.0852635 0.17716804 -0.048142526 -0.02565243
000280 5c ad 36 3d a1 09 21 3e 2b 6f f7 bd c4 db 84 3d
       0.044598922 0.1572633 -0.120817505 0.064872295
000290 67 3d 80 3c 90 71 ab bd 3b f3 4e 3e 10 4c f5 3d
       0.015654279 -0.0837127 0.20209973 0.119773984
0002a0 7a 3e c3 bc 2b af d2 bd b7 70 d1 3d 98 63 92 3c
       -0.023833502 -0.10287317 0.10226577 0.017869756
0002b0 98 a0 6b bd cc a3 13 bd 70 33 9b bb 34 ff 88 3c
       -0.0575262 -0.03604488 -0.0047363564 0.016723253
0002c0 fa 3c 64 3d df 0b 87 bd b3 47 d8 3b 6c e4 20 3d
       0.055722214 -0.06594061 0.006600344 0.03928034
0002d0 91 72 1f 3d 94 d4 6d 3d eb de 06 bd 5e d7 44 bd
       0.03892762 0.05806406 -0.032927435 -0.048056953
0002e0 57 36 39 3e b9 c3 ad bd 36 06 35 3d 96 44 01 bc
       0.18087135 -0.08484597 0.044195376 -0.007889887
0002f0 9a 8d 86 bd 37 a0 5f 3c 26 da 04 be a9 31 d3 bd
       -0.06569977 0.013649038 -0.12973842 -0.10312206
000300 91 7d d2 bb 21 52 70 3d 11 60 76 bd 3b bc 1f 3e
       -0.00642366 0.058672074 -0.06015021 0.15599148
000310 7c 92 27 3e b8 2f 91 bd c2 5e 45 bd f8 a3 20 3e
       0.16364473 -0.0708918 -0.04818607 0.15687549
000320 06 dd 8d 3d 72 74 35 bd fa e2 37 3d 43 b2 a5 3d
       0.069269225 -0.044300504 0.044894196 0.08090641
000330 85 4c 27 3d 6f 7f 06 3e f5 ce 63 3c 5e 85 38 3d
       0.04084446 0.1313455 0.013904323 0.045049064
000340 e0 12 27 3d 28 99 12 be fe 03 4c 3e 5a ba 83 bc
       0.040789485 -0.14316237 0.19923398 -0.01608007
000350 7f 23 a3 bd 9d 6b 91 bd d3 2f db bc 23 a1 27 3c
       -0.07965755 -0.07100604 -0.026756203 0.010231289
000360 48 be 01 3d 78 41 01 be b7 da 67 3c 23 5e 79 bd
       0.031675607 -0.1262263 0.014151267 -0.06088079
000370 4d 01 d6 bc 6e 1b f9 bd 89 9f 50 bd dd 4d 0e bd
       -0.026123667 -0.12163435 -0.050933395 -0.034742225
000380 74 8e d6 bd 8f c9 fd bd 94 81 a9 3c 27 ec 1f be
       -0.104763895 -0.1239196 0.02069167 -0.15617429
000390 1f ec 14 bd ef f9 7d bd 1f 85 09 3e 80 40 7d 3c
       -0.036357995 -0.062005933 0.13429688 0.0154572725
0003a0 ee cf 84 bd 6d 8f 35 bd c6 29 2f bd cf c5 25 be
       -0.06484972 -0.044326235 -0.042764448 -0.16188739
0003b0 c0 4d 99 3d 1e 80 88 bd 7b 12 9c 3d 9f ac 18 3e
       0.07485533 -0.066650614 0.07620712 0.149096
0003c0 a6 db 8a 3c 98 d1 4a 3d ca 89 3e bd 9a b8 2a 3e
       0.01695044 0.04951629 -0.046518125 0.16671982
0003d0 35 19 14 3d 93 ee 43 bd cf 26 44 3e 08 a5 0d 3c
       0.03615685 -0.047834944 0.1915543 0.008645304
0003e0 6b a1 8f 3d e9 92 2f 3e 69 15 b1 bc 8d e5 83 bd
       0.0701321 0.17145886 -0.021616654 -0.06440268
0003f0 ef a0 2a be 5a 46 b4 bd ca 27 86 3a c1 b2 07 be
       -0.16662954 -0.08802481 0.0010235247 -0.13251783

clf_net.1.running_mean f4 [256]
000000 08 88 be bd c5 1f 50 3f 18 e4 a0 3e ae 79 70 be
       -0.0930329 0.81298476 0.31424022 -0.23483917
000010 e1 b2 11 be db 52 1a bf bf 52 a8 3e d9 67 cc 3e
       -0.14228393 -0.6028268 0.3287563 0.3992298
000020 93 e0 da 3e 41 48 e3 be bd fb 96 3e a8 f6 05 3f
       0.42749462 -0.44391063 0.29488936 0.5232949
000030 86 18 34 be d9 d7 00 3f b4 bb 99 3e 17 09 85 3b
       -0.1758748 0.5032936 0.3002602 0.0040599215
000040 76 d9 43 3f 56 68 c2 be fd ac 5d 3b 19 ca 96 3e
       0.76503694 -0.37970227 0.0033825033 0.29451063
000050 1a 45 40 bb 4d ac 9c be 1d 0c 82 3f 84 16 36 3f
       -0.0029338063 -0.30600205 1.0159947 0.71128106
000060 f5 ad 9e be c0 8d 47 3f 8b 72 8a 3e ed 76 a2 be
       -0.30992094 0.7795067 0.27040514 -0.31731358
000070 01 36 3c bf bc e8 4f be 37 9e 05 3c 14 b1 72 3f
       -0.73519903 -0.20303625 0.008155397 0.9480145
000080 86 6a 9f 3e cf b1 4f 3e c5 8f 7a be 4e 06 82 3e
       0.31135958 0.20282672 -0.24468906 0.25395435
000090 8c 6f 8f 3e da 78 ba be e2 ad 50 bf 34 84 f5 3e
       0.2801479 -0.36420327 -0.81515324 0.47952425
0000a0 f7 7c e7 be 4a b5 f0 be 44 dd a3 3d cd f5 34 3e
       -0.45212528 -0.47013313 0.080011874 0.1767189
0000b0 66 d3 90 3e 69 6e 38 bd a4 6c 9f 3d fe 2e 0a bd
       0.28286284 -0.04502717 0.077843934 -0.03373622
0000c0 66 76 fb 3e 6f f9 20 bf 3b 3f fa 3e 3e b2 11 3f
       0.49113768 -0.62880605 0.48876366 0.569126
0000d0 7e 9d 4a bf cc 25 d6 be c8 8b b4 be 97 b5 bc 3e
       -0.79146564 -0.41825712 -0.35262895 0.36857292
0000e0 7d d7 8b 3e 85 87 42 bf 1d c3 99 3e 57 03 de be
       0.27312842 -0.75988036 0.30031672 -0.43361923
0000f0 5b 9f da 3e 72 f3 47 3f a3 37 1a ba c9 e3 1a 3f
       0.42699704 0.78105843 -0.00058829243 0.6050382
000100 e1 04 01 3e 13 0e 15 bf bb 8a ae be d1 05 60 3e
       0.12599517 -0.582246 -0.34090218 0.21877219
000110 73 34 80 3f 0b 8f 0f bc 6d 80 82 bf e5 12 34 bf
       1.0016006 -0.008762131 -1.0195442 -0.7034133
000120 df 33 56 be 74 2e 67 bf 83 f5 09 3f 43 b2 87 bf
       -0.20918225 -0.90305257 0.53890246 -1.0601276
000130 d4 03 bf 3d 58 d2 1c 3f c7 6f 3b 3e ad 6f 05 3e
       0.09326902 0.6125846 0.18304358 0.13030882
000140 64 fb dd 3e 36 92 be be fb 11 b8 3e b5 f8 40 bf
       0.43355858 -0.37220925 0.35951218 -0.75379497
000150 e7 27 97 3f 76 98 23 3e 41 c0 36 bf 34 64 fa 3e
       1.1809052 0.15976128 -0.71387106 0.48904574
000160 42 3a ba 3e 02 b4 a6 3e b3 ef 0e 3f d6 cd 02 bf
       0.36372572 0.3255921 0.558345 -0.5109533
000170 ba 5b b6 be cd c9 1d bf db e7 38 3e 73 73 17 3e
       -0.35616857 -0.6163605 0.18057196 0.14790134
000180 c7 ec 38 3f 0a ad f4 3e 9f c3 eb 3d 8f 9c 87 be
       0.72236294 0.47788268 0.11511921 -0.26486632
000190 52 0e d7 3d ce 9c 15 3f 03 ec 06 bf 1b d8 a7 3e
       0.10500778 0.5844239 -0.52703875 0.32782063
0001a0 6e 50 25 be 81 17 48 3e 6a 5c 08 bf a7 8b 2b 3f
       -0.16143963 0.19540216 -0.5326601 0.6700997
0001b0 a0 e3 f1 3d 81 6b aa 3e 17 47 cf 3e 1e 9b 62 3e
       0.11810994 0.33285144 0.40483925 0.22129485
0001c0 da 77 03 be ea ba 84 3f ca 67 1b bf 41 f4 7c bf
       -0.12838688 1.0369542 -0.60705245 -0.988102
0001d0 b1 2f 47 3e bf 96 dc be 1c 22 f0 3e dd 74 83 3e
       0.19451787 -0.4308376 0.46901023 0.25675097
0001e0 30 b2 80 bf e9 72 c1 3e 90 c2 08 3d 13 2e 01 3e
       -1.0054379 0.37782982 0.033388674 0.12615232
0001f0 b8 c4 31 bd a0 53 eb 3e 48 bd 41 3f f7 c6 cb be
       -0.043400496 0.45962238 0.75679445 -0.39800236
000200 f2 8a d6 3e 96 e2 5d be 08 69 76 3f f0 82 77 3f
       0.41902882 -0.21668467 0.96254015 0.9668417
000210 79 1a 87 be 92 5c 88 be bb b0 36 bf 83 db 5c 3d
       -0.26387385 -0.26633126 -0.7136342 0.05392028
000220 43 ad 0e bf e4 4c 76 bf e2 13 84 be d6 69 aa 3e
       -0.55733126 -0.96211076 -0.2579642 0.3328387
000230 9f b3 a7 be df b6 37 bf de 5f 96 be 45 79 c0 3e
       -0.32754228 -0.71763414 -0.29370016 0.3759252
000240 60 b5 95 be 6c be 43 3e 80 a9 25 3f 52 a0 ef bb
       -0.2923994 0.19115609 0.6471176 -0.007312813
000250 4b 8d b6 bd 9b f6 a1 3d 9e 62 e7 be 95 6b cf 3e
       -0.08913668 0.079083644 -0.45192426 0.40511766
000260 ab 47 7d 3f 6c af eb bd 60 e7 c8 be 84 b7 fc bd
       0.9893748 -0.115080684 -0.39239025 -0.1233969
000270 7a e9 85 3d a6 ba f2 3e a7 dd f2 be fa 71 4a 3e
       0.06538673 0.47408026 -0.47434732 0.19770041
000280 b7 ce ce be e6 60 8e 3e 9e 42 02 3f e2 4d 02 bf
       -0.40392086 0.27808303 0.508829 -0.5090009
000290 22 00 c8 be 59 da 69 bd 85 7f 10 bf 5d 14 03 be
       -0.390626 -0.057093 -0.5644458 -0.12800737
0002a0 10 64 d1 3e dc 70 ce 3e 47 89 56 3f 99 75 92 3e
       0.40896654 0.4032048 0.8380322 0.28605345
0002b0 5c 94 04 bf e3 64 4a bf 9f 44 dc be bf 2c 10 3e
       -0.5178888 -0.7906019 -0.43021104 0.1407957
0002c0 15 57 b5 be a8 14 84 3e 58 49 74 bd 88 11 99 bc
       -0.35418 0.2579701 -0.05964026 -0.018685117
0002d0 2f 30 8d 3f 02 1c 2a bf 6b 76 29 3f 99 9f 3d 3d
       1.103033 -0.66448987 0.66196316 0.046294782
0002e0 34 86 0c bf 42 2c 66 be bb 90 4f bf 7a 44 6a bd
       -0.5489228 -0.2247782 -0.81080216 -0.05719421
0002f0 d8 08 eb 3e 80 d8 12 3f 58 35 90 bf c5 da f7 bd
       0.45905185 0.573616 -1.1266279 -0.12102274
000300 36 3d 93 be 01 92 5b be 3b 18 53 bf e3 70 ce bd
       -0.28757638 -0.21442415 -0.8245885 -0.10080125
000310 2a 41 2c 3d eb 64 80 be bf 01 17 3f 1c b5 27 bf
       0.042054333 -0.25076994 0.5898704 -0.65510726
000320 20 d8 4f 3e a8 e3 94 bc dd 47 1b 3f a8 4e 18 bf
       0.20297289 -0.018174961 0.6065653 -0.5949502
000330 69 41 04 bf d7 8a eb bd c1 54 59 bd 63 75 85 3e
       -0.5166231 -0.11501091 -0.053059343 0.2606612
000340 49 53 31 bf b1 5c 33 3d 47 e8 6a 3e 18 b5 cd 3e
       -0.6926771 0.04378957 0.2294017 0.40177226
000350 8a fc ac 3e 14 5b 1e 3f 92 00 38 bf fd 46 02 bf
       0.33786422 0.61857724 -0.7187587 -0.5088957
000360 2f 6f c7 3e 00 b0 10 bd f2 c5 d5 be 78 e1 c3 be
       0.38952014 -0.035324097 -0.41752583 -0.38257957
000370 8c b6 31 bd 82 27 b6 3d ff 5c c6 be ff 7e 41 be
       -0.04338698 0.08894254 -0.38742825 -0.18896101
000380 70 b1 71 3f b5 18 a4 bf 5d 4b b2 3e 8f 38 27 bf
       0.94411373 -1.282004 0.34823123 -0.65320677
000390 1e 67 72 bd 39 41 57 bf e1 27 19 3f 39 ff e8 3d
       -0.05918037 -0.84083897 0.59826475 0.11376805
0003a0 04 c6 16 3e f2 71 a0 bd 47 1d 86 be e9 e6 37 bf
       0.14723974 -0.07834233 -0.26194212 -0.71836716
0003b0 3d 75 27 bf ff a1 bd be 6d 2c 28 3f 72 16 2f 3f
       -0.65413266 -0.37037656 0.6569279 0.68393624
0003c0 21 cd b7 3d b0 f5 3d be 03 ac a7 3e c7 c3 2e 3e
       0.08974672 -0.18550754 0.32748422 0.1706687
0003d0 a8 0e cd be 10 d5 6e bf ed b7 5d 3f 23 9a ff 3e
       -0.40050244 -0.9329386 0.86608773 0.49922284
0003e0 65 a2 15 bf 5a f4 20 3f 43 c2 87 bd 5f 2e a2 3d
       -0.5845092 0.6287285 -0.06628849 0.07919001
0003f0 7d d1 31 3f 75 e6 8b 3e 53 f3 f8 3d 69 90 aa bd
       0.6946028 0.27324262 0.121557854 -0.08328325

clf_net.1.running_var f4 [256]
000000 b3 2a 09 3c 6b 3a f7 3b 98 e1 8e 3b fa 37 2a 3c
       0.008371997 0.0075448058 0.004360389 0.010389322
000010 c3 03 c1 3c f7 41 92 3b fc d7 8c 3a 56 06 71 3b
       0.023561364 0.00446343 0.0010745521 0.0036777458
000020 12 3c 54 3b 40 63 df 3b 4e 4d 8b 3a 9f d4 e8 3a
       0.0032384438 0.0068172514 0.0010627897 0.0017763561
000030 31 95 fa 3c c3 ef e1 3a 31 d3 3d 3c 50 c2 9e 3b
       0.030588718 0.0017237592 0.0115859965 0.004844941
000040 5c b4 31 3b 91 dc ff 3b f4 59 02 3c 6b 0b 29 3b
       0.002711556 0.007808276 0.007956017 0.002579416
000050 67 9f 79 3a be ed 27 3b 3a 85 3a 3c 12 84 50 3c
       0.0009522349 0.0025623883 0.011384303 0.0127268005
000060 fb 38 a7 3a 03 b3 88 3c 32 a8 11 3c e0 02 f6 3b
       0.001275807 0.016686922 0.008890199 0.007507667
000070 f4 8a 1e 3b 75 8e 0d 3c bc d7 eb 3b b7 a5 5c 3c
       0.002419171 0.008639921 0.0071973484 0.013467244
000080 eb b7 f2 3b e6 9c 4c 3c 38 24 47 3c 99 01 26 3c
       0.0074071786 0.012488579 0.012154631 0.010132217
000090 46 4d 50 3c a2 68 50 3a b3 4d b1 3c b7 80 e8 3b
       0.012713736 0.0007950162 0.021643495 0.007095422
0000a0 d6 12 de 3c 2b 8e 1f 3c d1 90 8b 3c 94 9f 9b 3c
       0.027108591 0.009738485 0.017036827 0.018996991
0000b0 d0 9c f7 3b 1b 8f 25 3b 8e 77 f6 3b 13 d1 c6 3b
       0.0075565353 0.00252623 0.0075215762 0.006067404
0000c0 5d bb 45 3b 62 08 78 3a ae d0 ec 39 4b 21 0c 3c
       0.0030171492 0.00094616984 0.00045168906 0.00855286
0000d0 c5 52 44 3c 30 87 43 3c b7 59 f3 38 fc ae 55 3b
       0.011982624 0.011934087 0.000116038536 0.003260552
0000e0 f3 77 1b 3b c5 e0 87 3c e6 e3 79 3c 5d 90 16 3b
       0.0023722618 0.01658667 0.015252089 0.002297423
0000f0 2a 15 ba 3b 1b 4f 0b 3b f3 b0 b9 3b 83 93 ec 3b
       0.0056787925 0.0021256867 0.005666846 0.007219733
000100 de a7 16 3c 99 33 3b 3c 40 c7 9a 3b 2e 31 66 3c
       0.009195296 0.011425876 0.0047234595 0.014049811
000110 d0 35 ac 3c 29 92 35 38 fc 83 12 3d e7 57 60 3b
       0.021021754 4.3289885e-05 0.0357704 0.0034232081
000120 1d e3 bb 39 3f ae dd 3b 54 27 d9 3b e6 7e 42 3c
       0.00035836632 0.0067651565 0.0066270027 0.011871075
000130 0e a1 95 3c fc ee 95 3a ac 6f f4 39 3e 26 de 3b
       0.018265273 0.0011439021 0.0004662251 0.006779461
000140 70 60 0f 3c 13 d8 01 3a 3e d1 3f 3c d7 ec a8 3b
       0.00875102 0.0004953157 0.011707602 0.0051551866
000150 26 0d cf 3c 37 d0 5c 3b 13 c3 18 3b ba 5a ff 3b
       0.025274824 0.0033693442 0.0023309633 0.007792798
000160 8a 5d 4c 3c 0c 51 d9 3b 8c 92 56 3b 0a 2f 20 3c
       0.012473473 0.006631976 0.0032741157 0.00977684
000170 fd 74 1b 3a 8b f3 3f 3c 36 ad e6 3c 15 da 8c 3b
       0.00059302134 0.01171578 0.028158765 0.0042984583
000180 98 91 e3 3b c1 69 69 3c 09 3c 5c 3b ce 3f 1a 3c
       0.0069448464 0.014246405 0.003360512 0.009414626
000190 0f 41 da 3b ca 9b 2c 3b c8 60 a4 3b c4 9d 32 3c
       0.0066605876 0.0026337975 0.00501642 0.010901872
0001a0 dc 53 0e 3c 2d aa de 3c e2 65 ae 39 4b 64 0e 3c
       0.008686986 0.027180756 0.00033263775 0.008690904
0001b0 ba e6 ce 3c f0 7e 19 3c 7a e5 ac 3b 14 f3 5b 3c
       0.025256503 0.009368643 0.005276379 0.013424654
0001c0 0a 11 37 3c d5 c3 60 3c 9b 5c 21 3c 34 f9 ac 3c
       0.011173496 0.013718565 0.009848739 0.021114923
0001d0 0d cf 53 3b 37 29 f9 3c b8 17 ff 3a 92 a2 ec 3b
       0.0032319457 0.03041516 0.0019462025 0.0072215283
0001e0 6a bd 92 3c 4c 6c 51 3c 99 02 30 3c 8d 0d 01 3b
       0.017912585 0.012782168 0.010742807 0.0019691915
0001f0 85 5d 0f 3c 8a a2 cb 3a 2a ad 25 3c 76 f3 6c 3c
       0.008750324 0.0015536111 0.010112086 0.0144623425
000200 01 83 6d 3a 35 bc e8 3a 91 aa ab 3c fd 4a b3 3c
       0.00090603536 0.0017756285 0.020955356 0.021886343
000210 d7 88 09 3c c3 3c 44 3c 2b 49 35 3b 60 57 01 3c
       0.008394442 0.011977377 0.002766202 0.007894367
000220 c1 d6 1d 3c 0b bf 0a 3c db ae 29 3b f1 96 2b 3c
       0.009633721 0.0084684 0.0025891575 0.010472999
000230 59 29 33 3a 6f 7e d0 3b 45 ce dd 3b b6 54 6c 3b
       0.00068344694 0.0063627283 0.006768974 0.0036061234
000240 cb 9e ac 3a 71 b9 09 3a 46 ca 81 38 81 81 0a 3c
       0.0013169883 0.0005253768 6.188876e-05 0.008453728
000250 a7 ba 24 3c ae c7 00 3b fd 15 89 3b cf 50 9d 3c
       0.010054267 0.0019650268 0.0041835294 0.019203572
000260 e6 77 52 3c 9d 8d 20 3c d4 d7 97 3c 50 6d 84 3a
       0.012845969 0.009799388 0.018535532 0.0010103378
000270 22 32 83 3b c9 16 a8 3b f7 80 cf 3b e8 8f f4 3b
       0.004003779 0.0051296693 0.0063325125 0.007463444
000280 c7 9e 92 3b 84 08 92 3b 8f ba 54 3c 5b b6 52 3c
       0.004474494 0.0044565815 0.012983932 0.01286086
000290 e8 01 3d 3c 1f 5f fe 3b b4 22 42 39 8a c2 1b 3c
       0.011536099 0.007762804 0.0001851421 0.009506831
0002a0 66 0e 42 3c a5 77 0e 3c 1a 1b bd 3c 2d ab 02 3a
       0.011844253 0.008695518 0.023084212 0.00049846136
0002b0 3e cf be 3a c6 d9 6c 3b 16 1d bd 3b 05 dd 95 3b
       0.0014557613 0.0036140545 0.0057712896 0.0045734667
0002c0 b4 cd 00 3c 14 57 b7 3a 86 56 d7 3c a7 2c 34 3c
       0.007861543 0.0013987743 0.026286375 0.010996974
0002d0 b8 65 9c 3c 7f cf 0d 3c ba 10 d1 3b bf 9c c8 3b
       0.019091472 0.008655428 0.006380168 0.006122201
0002e0 6e b3 8b 3b 2f 4b 81 3c fc ad 62 3c 45 a2 cc 3a
       0.004263333 0.01578292 0.013835426 0.0015612325
0002f0 34 26 01 3c 2a 34 20 3c 15 fc a5 3c 4b 30 88 3c
       0.0078826435 0.009778062 0.020261804 0.01662459
000300 86 2b e2 3b 4d 01 35 3c 48 1a b7 3c 41 42 84 3a
       0.006902161 0.011047673 0.022351399 0.0010090546
000310 19 da 0a 3c bf f8 53 3c ad 1d fb 3b 50 b9 75 3b
       0.00847485 0.012937724 0.0076634497 0.0037494488
000320 84 0c ad 3b 6c c3 a5 3b cb 0f dc 3c 51 7f 22 3a
       0.005281033 0.0050586965 0.026863 0.0006198781
000330 6c ea 30 3c 21 f4 2e 3b 43 28 36 3c 9e 35 96 3a
       0.010798078 0.0026695805 0.011117998 0.0011460071
000340 f6 c1 20 3c 8f 3e 08 3c 3d d7 40 3a 44 dd 1b 3c
       0.009811869 0.008315696 0.0007356292 0.009513203
000350 87 3f c4 3b b7 48 10 3c 2a 01 3d 3b 82 36 d6 3a
       0.0059890184 0.008806399 0.0028839805 0.0016343149
000360 dd cf 81 3b 3f 38 9d 3b 94 16 13 3c 22 c3 c2 3b
       0.003961547 0.004797965 0.008977551 0.005943672
000370 56 17 86 3b f3 ed c6 3a e5 40 3b 3c 0a eb 85 3b
       0.0040921373 0.0015177116 0.011429046 0.0040868567
000380 3d 4a 9b 3c 4c b0 df 3c 05 8b ec 3b 71 ba a5 3b
       0.018956298 0.027305745 0.007218721 0.005057626
000390 a6 27 fd 3b 21 7d 7c 3c 6b 05 27 3a d6 7e 42 3c
       0.0077256737 0.015410692 0.0006371352 0.01187106
0003a0 57 27 1a 3b 9f 86 47 3c 65 21 17 3c 28 e8 91 3b
       0.0023521984 0.012178092 0.0092242705 0.004452724
0003b0 26 fa fb 3a 7d c8 55 3b e1 4b 8e 3c 95 9d 88 3b
       0.001922433 0.003262072 0.017370166 0.004169176
0003c0 5d 77 00 3c 50 6b ea 3b 04 2f 1f 3c 67 e5 a2 3a
       0.007840958 0.007153906 0.009715799 0.0012427986
0003d0 c2 6e ae 3b a9 a6 21 3c 7b 0e 61 3b 4e 7c 91 3c
       0.005323262 0.009866395 0.0034340906 0.017759468
0003e0 e5 fe f9 3b 27 5a 54 3a e5 03 70 3b f4 57 d1 3b
       0.0076292627 0.0008100592 0.0036623415 0.0063886587
0003f0 a6 af 92 3a 6a 5f 13 3c 91 b0 d5 3b f7 8e d4 3b
       0.0011191263 0.008994916 0.0065212925 0.0064867693

clf_net.3.weight f4 [256, 256]
000000 ce 62 30 bc 30 d3 61 bd f0 1d e0 3c b9 35 4c bd
       -0.010765744 -0.055133045 0.027358025 -0.04985592
000010 a3 70 a7 bc 74 98 51 3d a1 4c 3f 3d d4 30 65 bb
       -0.020439452 0.05117078 0.04670394 -0.003497173
000020 99 79 ae 3c e6 7f 77 bd e3 6d 81 bd ab aa 13 3c
       0.021298217 -0.060424708 -0.06319787 0.009012858
000030 e6 5e 6a bd d8 46 1b 3d 3e f1 05 bd 04 92 f2 bc
       -0.05721941 0.03790936 -0.03270077 -0.029610641
000040 5d 1e d3 bc ff 14 79 bd c0 20 5e 3d 1f 3d 1f bc
       -0.025771314 -0.06081104 0.05423045 -0.009719162
000050 64 4f 44 3d 72 c1 19 bc c8 bc 3d bd f8 5f 3f bd
       0.047927275 -0.0093845 -0.046322614 -0.046722382
000060 99 1f 23 3d 9e 18 ef 3c 20 14 15 3c 98 49 7d 3d
       0.039825056 0.029186543 0.009099036 0.061837763
000070 39 a0 11 bd 46 89 cf bc 32 58 44 3d 23 92 49 3c
       -0.03555319 -0.025334012 0.047935672 0.012302908
000080 65 16 49 3d ef 3c 14 bd 13 b7 1f bd 6b e2 94 3c
       0.049093623 -0.036190923 -0.038992953 0.01817437
000090 59 91 f5 bb 61 19 3f bd 3e 6d fe 3c 26 bd 06 bd
       -0.0074941334 -0.046655063 0.03105795 -0.03289523
0000a0 11 d7 28 3d 6a 74 ad 3b a1 6e 52 3c 37 95 fd 3c
       0.04122073 0.0052934187 0.012843759 0.03095494
0000b0 1c f6 01 3d 1e 23 df bc 4e 58 41 bd 7e 57 7f 3d
       0.03172885 -0.027238425 -0.047203355 0.0623393
0000c0 49 9f 21 3d cb fb 8f 3c 4a 1c 0c 3c 48 6f 38 3d
       0.039458547 0.017576119 0.0085516665 0.045028
0000d0 75 d5 59 3d 05 ae 20 bd b7 f2 11 bd 44 61 ac bc
       0.053182084 -0.039228458 -0.03563186 -0.021042474
0000e0 d8 7f 3b bd d2 4a 44 3c d9 4f 16 bd 65 23 d2 3c
       -0.04577622 0.011980729 -0.036697242 0.025651643
0000f0 91 73 22 3c 91 bd 22 bd c5 e0 1e bd 66 c2 5c 3d
       0.0099152485 -0.039731566 -0.038788576 0.05389633
000100 4b da 96 3c a2 a2 2d bd 4c 05 b1 bb 59 ea 81 bd
       0.018414637 -0.042391427 -0.0054022428 -0.063435264
000110 cc a3 d5 3c d6 d3 62 3d 42 39 34 bd dc 67 77 39
       0.026079081 0.055377804 -0.043999918 0.00023594446
000120 64 ca 48 3d dd 21 91 bd 7c e8 a2 3d fd 21 16 bd
       0.04902114 -0.07086537 0.07954499 -0.036653508
000130 5f df 30 bd c4 8a dc bc a1 e9 5f bd 87 c1 91 bc
       -0.043181773 -0.026921637 -0.054666165 -0.017792476
000140 41 eb a7 bc c1 d9 40 bd 80 69 43 bd cc 73 80 3d
       -0.02049792 -0.047082666 -0.047708035 0.062720865
000150 38 b4 18 bc e3 6c 8a bd 2a f5 5b 3d c4 a6 77 3d
       -0.009320311 -0.0675905 0.053700604 0.060461774
000160 d3 92 f9 3c 2f 4e 08 3d 05 81 70 3d 99 52 cb 3c
       0.030465519 0.033277687 0.058716793 0.02481966
000170 ab 35 95 bc a7 cd 11 3b e3 4b 81 bd 83 6e 26 bd
       -0.018214067 0.0022247822 -0.06313302 -0.040632736
000180 8e 3e 80 3d 7c 2e 04 3d 36 46 81 bd 14 b5 5c bd
       0.06261931 0.032270893 -0.0631222 -0.053883627
000190 89 fa 5d 3b 5c a0 f3 bc 41 48 9e ba bb 68 40 bd
       0.0033871254 -0.029739551 -0.0012075977 -0.04697488
0001a0 84 14 26 bd 02 14 69 bd e5 3e a5 bc ee bd 90 3c
       -0.04054691 -0.056903847 -0.020171592 0.01766869
0001b0 7f 1d a9 3c 34 4c 60 bd dc d1 21 3d 72 91 93 bc
       0.020643948 -0.054760173 0.039506778 -0.01801369
0001c0 f9 9d 24 3d e2 6d 72 3d 92 62 28 3c e8 d3 f5 3c
       0.040189717 0.059186824 0.010277407 0.030008271
0001d0 45 cc 76 bd de fc a3 3c 3b 47 c5 bc 1a 81 50 3d
       -0.0602534 0.020018037 -0.024081817 0.05090437
0001e0 39 03 2a 3d 62 94 82 3d f0 bc cd bc c5 20 25 3d
       0.04150698 0.06375958 -0.025114506 0.040314455
0001f0 63 c5 c2 bc a5 f5 e2 3c d2 4b 35 bc 31 fd 84 bb
       -0.023775762 0.027705023 -0.01106544 -0.004058503
000200 e2 37 1e 3d fd ff 30 bc b1 40 31 bd 67 87 6f ba
       0.038627513 -0.01080322 -0.043274585 -0.0009137303
000210 76 1c 50 3d 22 d4 5c 3d c9 49 3a bc 3f 30 54 3b
       0.050808392 0.053913243 -0.011370131 0.003237739
000220 ca 6c 26 3d ef 97 68 bd 68 57 4d bc df 73 59 bd
       0.040631093 -0.05678552 -0.012533046 -0.05308902
000230 6a 8e 54 bc 3f f6 78 bb be 44 da bc bb 84 41 bd
       -0.012973407 -0.003798857 -0.026644107 -0.047245722
000240 72 58 f5 bb 02 b2 3d bc 83 4c e3 3c 03 7e 4d 3d
       -0.00748735 -0.011578085 0.027746445 0.050169002
000250 72 87 7f bd 27 81 9a 3c 6f 52 16 bd 9f 4d d6 3c
       -0.06238503 0.018860413 -0.03669971 0.02616006
000260 87 6e 34 bd d6 f1 de bc d6 bf 32 bd f6 d6 b7 bc
       -0.04405072 -0.027214926 -0.04363998 -0.022441369
000270 97 47 e6 3c cd ab 61 bc 1a ce 27 3d 65 3a 51 bd
       0.028110309 -0.013773871 0.04096804 -0.05108108
000280 04 ae 6b bd bb 55 39 bd 36 d3 cd 3c 17 4f e3 3c
       -0.057539 -0.045247775 0.025125127 0.027747674
000290 cd d8 6a 3b 64 2c 02 bd c1 ff 4a bd 3f 0b af 3b
       0.003583479 -0.031780615 -0.049560312 0.005341917
0002a0 29 3b 58 3d 32 1a 1d 3d b8 27 7f bc 09 c0 f3 3c
       0.052790795 0.03835506 -0.0155734345 0.029754655
0002b0 79 31 da bc 3e 9d 48 bd 74 58 0a 3d b8 04 24 3c
       -0.026634919 -0.048978083 0.03377576 0.010010891
0002c0 4b 16 9f bb 42 79 d4 3c 77 92 72 b8 bb 04 42 3d
       -0.0048549525 0.025936726 -5.7833702e-05 0.047367793
0002d0 f6 0c db b9 3b 7c 40 ba e2 26 d0 bc 2e 61 62 ba
       -0.00041780592 -0.00073427305 -0.025409166 -0.0008635697
0002e0 0c f5 99 3c 91 5b 54 3d 94 45 2f 3c 41 41 fd bc
       0.018793605 0.051845137 0.010697741 -0.030914905
0002f0 09 b3 1f bb c6 f4 09 bd 33 e6 3f 3d b6 15 53 3c
       -0.0024368188 -0.0336807 0.046850394 0.012883594
000300 0a f2 44 3c 10 88 18 3d 37 9e 6f bd cc 6d e4 3c
       0.012020597 0.037239134 -0.058500495 0.027884386
000310 4d f7 13 3c 7d 6e 36 bc 99 d5 66 bc 4f f1 8e bc
       0.009031129 -0.011134741 -0.014089012 -0.01744905
000320 4a 9e 00 3c f7 a5 90 bc 3a ae 28 bd 9d 3a 64 bd
       0.007850239 -0.017657263 -0.04118178 -0.05571996
000330 9a 24 39 3c 16 92 3f bd ab 98 8b bc 6e 27 da bc
       0.01130023 -0.046770178 -0.017040571 -0.02663013
000340 90 ae 3c bc 1e 3f 3e 3d 8c a1 58 bd 78 bc 24 3d
       -0.011516228 0.046446912 -0.052888438 0.0402188
000350 75 33 83 bd b4 2d 64 3d c6 44 6e 3d 26 22 89 3c
       -0.06406299 0.05570765 0.058171056 0.016739916
000360 ba 90 7b bb 79 12 8f 3d 06 11 07 bd a2 04 e8 39
       -0.0038385824 0.06985945 -0.03297522 0.0004425394
000370 75 76 5c 3b da c8 30 bd 8d 7b c2 bc 64 0d 9e bc
       0.0033639942 -0.043160297 -0.023740554 -0.019293495
000380 7c 54 35 3c 26 c1 48 3d d5 c8 fd 3c c3 75 99 3c
       0.011067506 0.049012326 0.030979553 0.018732911
000390 6c 09 52 bd 25 27 24 bd cf 9c 21 bd f1 48 37 bd
       -0.051278517 -0.040076394 -0.039456185 -0.044747297
0003a0 84 3c 5c 3d 9c 4d 3e bc 13 6e 32 bd ab 4e c6 3c
       0.05376865 -0.011615183 -0.043562006 0.024207434
0003b0 a0 25 37 3c 4c bf 2e bd 68 bf e9 3c d7 f1 98 bd
       0.011178404 -0.042662904 0.028533652 -0.07468002
0003c0 c2 cd 32 3d 66 d8 37 3d 55 d4 38 3d 10 12 84 bd
       0.043653257 0.044884108 0.04512437 -0.06448758
0003d0 a2 c1 33 bd a5 d3 19 bd 14 d8 75 bd c7 ca 87 bd
       -0.043885835 -0.037555356 -0.06002052 -0.066304736
0003e0 ca f4 c8 3a f5 c8 9f 3c 08 09 9e 3c 9f 3a 48 3d
       0.0015331742 0.019505003 0.019291416 0.04888403
0003f0 74 9d 35 bd d6 8c 2e 3c 9c e1 2a 3c 53 c8 83 bd
       -0.044339612 0.010653695 0.010429766 -0.06434693
