EE8591/Project/classification_models/Hyperbolas/DNN/deepnn/training_models/net_600.pt (torch, 282047 bytes, 14 tensors)

clf_net.0.weight f4 [256, 2]
000000 80 eb 32 3f e1 c0 9a be c5 fb 47 bc 0d 96 00 3f
       0.69890594 -0.3022528 -0.012206023 0.5022896
000010 28 59 5d bd 92 b2 b5 be 4c b8 43 bd da b4 1a 3f
       -0.054040104 -0.354878 -0.04778318 0.6043221
000020 13 48 11 3f 06 e0 08 3f 35 27 04 bf 58 19 1b 3e
       0.567506 0.5346683 -0.51622325 0.15146387
000030 61 e4 e0 3d 82 36 51 be 87 5c 6d 3e 26 4b 52 3e
       0.1098106 -0.2043095 0.23179828 0.2053648
000040 ca 06 9f be 1a c7 b6 3e 49 e9 34 3e ba e8 03 bf
       -0.31059867 0.35698777 0.17667116 -0.5152699
000050 59 14 7f 3e ca de f0 bd 20 2e d5 bd 4e 07 85 3e
       0.24910106 -0.11761244 -0.10409188 0.25982136
000060 e9 8b 28 bf 7e 77 1a bf fa 89 9a 3e 9d ba 38 be
       -0.65838486 -0.6033858 0.30183393 -0.18039937
000070 7a ea 03 3f d0 f8 2f bf 2f e7 ee be 2e c1 c2 3e
       0.5152966 -0.6873903 -0.46660754 0.3803801
000080 32 53 a3 3e ae 89 20 3d 40 85 25 bf 9a 88 c5 3e
       0.3189941 0.0391938 -0.6465645 0.3858078
000090 21 12 92 be 4f cd 15 3f 0f 98 60 be ac 27 a4 3e
       -0.28529456 0.585164 -0.21933006 0.32061517
0000a0 b2 87 48 3d 4d 87 20 3e 21 df 01 3c bc 0c 90 3e
       0.048957534 0.15676613 0.007926733 0.28134716
0000b0 a9 0b cd 3e 78 68 bb 3e 3c f2 16 3e 57 1d 12 3f
       0.40047958 0.3660314 0.14740843 0.5707602
0000c0 c5 15 84 be 3b 2a 20 3e 5b a7 01 3e 46 9a 2d 3f
       -0.2579786 0.1564111 0.12661497 0.6781353
0000d0 40 f2 2a bf cb 82 cf 3c a5 72 85 be 73 13 0f 3f
       -0.66775894 0.025330922 -0.2606403 0.5588905
0000e0 3c 46 b3 be 15 b5 73 3e 97 2e 04 be 6d 8c f4 be
       -0.35014522 0.23799546 -0.12908398 -0.47763386
0000f0 b1 59 c7 be 6c 6b 08 3f ad 09 93 3e 99 ed 00 3f
       -0.38935617 0.5328891 0.2871832 0.50362545
000100 73 9c 06 3f 30 93 9f 3d f5 c5 ad bd 62 f8 1b bf
       0.5258247 0.07791746 -0.08485023 -0.6092588
000110 15 35 26 3d e8 17 1c 3f 37 72 b2 be dd ad bc be
       0.040577967 0.6097398 -0.34852764 -0.36851397
000120 f5 96 fb bd b6 5d 2e 3f dc 2f 60 be 77 18 8c 3d
       -0.12284652 0.6811174 -0.21893257 0.06840604
000130 38 f6 a1 be 2a de 2d bf 44 8b c6 3e 22 21 09 bf
       -0.31633162 -0.6791712 0.38778126 -0.5356618
000140 c5 c5 1a bf c6 24 14 bf 83 74 59 be 12 a7 20 3f
       -0.6045802 -0.5786861 -0.21235852 0.6275493
000150 79 ee 8e be ea cb 1a bf ff 4b 3f be d7 78 32 bf
       -0.27916315 -0.604674 -0.18681334 -0.69715637
000160 92 d9 26 bf 67 23 f6 3d 13 4d cb be b6 fd 0f 3e
       -0.65175736 0.12018471 -0.3970724 0.14061627
000170 9e 78 0e 3f 6c 48 0e 3d 9b fb 01 3f 1e 98 e1 be
       0.556528 0.034737036 0.50774544 -0.4406137
000180 54 65 d6 be 2c 8c 09 3e 91 87 79 3e 6c cc be bd
       -0.41874182 0.13432378 0.2436812 -0.09316334
000190 d0 1e 9a bc e3 67 ff bd ad 10 b3 3e b4 3d 1c bf
       -0.01881352 -0.12470987 0.3497366 -0.6103165
0001a0 6e df 9a be 28 c8 ee be 38 3f 1f bf c7 23 2a 3f
       -0.30248588 -0.46637082 -0.6220584 0.6646084
0001b0 06 72 2a bc 74 c3 88 3d fb 7a d4 3e f7 10 7c be
       -0.010403162 0.06677905 0.41500077 -0.24615847
0001c0 80 e9 9f 3e 7e 96 8e be 15 98 e6 be 2d f6 f0 be
       0.31232834 -0.2784919 -0.45037904 -0.47062817
0001d0 62 0a fe bd d5 20 25 bf 68 36 9b 3e 02 9d df 3c
       -0.12404324 -0.6450322 0.30314946 0.027296547
0001e0 4e a3 b2 be df 1a 4c be 44 cd af 3e 8a 3d d2 bd
       -0.34890217 -0.19932126 0.34336293 -0.10265644
0001f0 24 04 80 bc 4e d1 dd 3e 84 7b 16 3f 00 df e2 be
       -0.015626974 0.4332375 0.5878222 -0.4431076
000200 93 84 2b 3f 87 3f fb be c5 81 a6 be 20 16 d9 be
       0.6699917 -0.49071905 -0.3252088 -0.42399693
000210 e0 21 02 bf e4 65 9b 3e 23 81 c0 3e f6 9a eb 3e
       -0.5083294 0.30351174 0.37598523 0.46016663
000220 e0 ab 2e 3f 8b 1b bf 3e 13 37 a6 3b 6f 26 4c 3d
       0.6823101 0.373257 0.0050724833 0.04984134
000230 ad 1a 28 bf 46 4d 31 bf ea 42 eb be 43 c3 06 3e
       -0.65665704 -0.69258535 -0.4594949 0.13160424
000240 76 34 ed bd 12 60 eb 3d 70 e5 80 be 89 62 a8 be
       -0.11582272 0.11492933 -0.25175047 -0.32887676
000250 3a 13 1f 3f 71 7b 82 be 12 12 c5 be 88 92 ca be
       0.6213871 -0.25484803 -0.3849035 -0.3956492
000260 a4 68 03 bf b0 f2 ec be 32 c1 f2 3d 05 69 63 be
       -0.51331544 -0.46278906 0.11853255 -0.2220803
000270 88 7d 05 3e 56 0c 08 be 00 cc 85 3e 35 82 08 bf
       0.13036168 -0.13285956 0.26132202 -0.5332368
000280 9d 2f 63 bd a3 7f 0e 3f 08 c1 01 be 13 ea 07 3e
       -0.05546533 0.5566351 -0.12671292 0.13272886
000290 ae 25 9a be 09 b6 33 3f 14 3a c3 bc 9a 6a ca be
       -0.30106872 0.7019964 -0.023831405 -0.39534456
0002a0 77 b9 0b 3f 14 84 16 3f c4 b8 c4 3e c7 be 53 3b
       0.5457987 0.58795285 0.38422215 0.0032309757
0002b0 92 82 bb be a0 6c f5 3d aa a8 dc be 43 f1 0d 3f
       -0.36623055 0.11983609 -0.4309743 0.5544626
0002c0 d8 10 76 be 71 08 33 3f b9 81 20 bf d6 04 89 3e
       -0.24029863 0.69934756 -0.6269794 0.26761502
0002d0 52 e9 cb 3e 54 34 94 be ff 59 0d bd 36 d9 0b bf
       0.39826447 -0.28946173 -0.034509655 -0.5462831
0002e0 ba ff 0a be ed cc 25 bd e2 25 06 bf 8e 1f 32 3f
       -0.13574114 -0.040478636 -0.52401555 0.695794
0002f0 20 b3 09 3f 45 e3 26 3f 80 75 02 3f 5b 29 db bd
       0.5378895 0.65190536 0.5096054 -0.10701247
000300 cf 36 17 3f cb e1 72 bc a1 c7 5d 3d d2 18 2a 3f
       0.59068006 -0.014824341 0.05414546 0.6644412
000310 08 a5 c9 3e db 1e 46 bd d8 9c e1 3e 8a cc 1d bf
       0.3938372 -0.04836927 0.44064975 -0.61640227
000320 d2 3e aa be a0 3b 83 be 2f 05 83 be 71 92 a9 3e
       -0.33251053 -0.25631428 -0.25589892 0.33119538
000330 3a f8 0b 3f 74 c1 61 be 98 7b 34 3f e8 cf 10 bf
       0.5467564 -0.22046453 0.7050109 -0.5656724
000340 15 37 d3 be 7d 9d 88 be 96 a4 ee 3e f2 0a 2e 3f
       -0.41252962 -0.26682654 0.46609944 0.6798545
000350 01 fa 47 3d 5b ff dd bd 74 c0 e0 be ea 01 1a 3f
       0.048822407 -0.10839721 -0.4389683 0.6015917
000360 79 38 23 3f 6d 0d 03 3f 3f 22 7b 3e d6 75 d8 3e
       0.63758045 0.5119236 0.24524783 0.42277402
000370 ba 0a 8a 3e 71 55 f5 be 67 10 23 3f b6 2f 4a 3e
       0.2696131 -0.4791675 0.63696903 0.19744763
000380 50 ca c4 be 9e d1 2e 3f 90 09 07 3e a2 ac 1b 3f
       -0.38435602 0.682886 0.13187242 0.6081029
000390 2a 82 90 be 1e 0c d0 be 77 75 03 bf 95 57 07 bf
       -0.28224307 -0.40634245 -0.5135111 -0.52868015
0003a0 a1 e0 b5 3e 6b 55 a9 be a3 d7 2f bf b0 1e 13 bf
       0.3552294 -0.3307298 -0.6868841 -0.574687
0003b0 11 14 dc bd 66 b0 44 be ac b0 21 bf 6d ab b4 3e
       -0.10746015 -0.19207916 -0.63160205 0.35287037
0003c0 da 52 f2 be 82 e5 f6 be a2 d6 73 bd 46 34 28 3f
       -0.47328836 -0.48221976 -0.05953086 0.6570476
0003d0 d1 6e 26 3f d9 d0 1a bf 8e bb 58 3e c9 d4 e3 3d
       0.6501284 -0.60474926 0.21165296 0.1112457
0003e0 34 11 19 bf 72 8e 3b bd f0 41 94 be fa 3a fd 3b
       -0.59791875 -0.045790143 -0.28956556 0.007727978
0003f0 10 01 57 bd 64 c0 1a 3f 96 fd 3d 3c af a8 2c bf
       -0.052491248 0.60449815 0.011596104 -0.6744489

clf_net.0.bias f4 [256]
000000 c3 f1 95 be a6 a8 12 3f c1 2c 04 3f 07 4f 01 bf
       -0.29286012 0.5728859 0.5163079 -0.5051121
000010 64 5b 31 bf 70 2c dc be 33 56 c6 3e 74 95 3d 3e
       -0.69280076 -0.43002653 0.3873764 0.18514043
000020 42 36 d2 3e 83 a6 8a be c7 36 67 3e 59 c0 de 3e
       0.4105702 -0.27080163 0.2257949 0.43506125
000030 5c bc e8 3e 37 af e3 3e 5d f7 c3 3e 8e 4f 71 3d
       0.45456207 0.44469616 0.3827466 0.05891376
000040 89 86 17 3f 94 4a 6b be 3e c2 0b be 3c 2a 76 3e
       0.5918966 -0.22977668 -0.13648316 0.24039549
000050 ba 31 d5 bd 80 87 e5 be 3d 9b 21 3f 59 7f b5 3e
       -0.10409875 -0.4482994 0.631275 0.3544872
000060 e4 42 84 be 4c ab c2 3e f6 c4 13 3f 20 e9 ed be
       -0.25832283 0.38021314 0.57722414 -0.46466923
000070 07 09 2b bf 8c 0c c8 3d f0 03 98 bd 29 b8 0d 3f
       -0.6681065 0.09768018 -0.07422626 0.5535913
000080 35 30 d5 3b e9 eb 0b 3f f8 35 11 bf 20 14 1d 3f
       0.006505991 0.54656845 -0.56722975 0.61358833
000090 56 96 97 ba eb 3c 99 be a2 e2 a2 be cd 8b 0e 3f
       -0.0011565189 -0.2992929 -0.31813532 0.5568207
0000a0 bb 32 0e 3e f7 8a 2c bf d0 1f 05 3f 19 a7 1d 3f
       0.1388654 -0.67399544 0.5200167 0.61583096
0000b0 5d 51 0a 3f cd b8 89 3d 80 59 61 be b3 34 b3 bd
       0.540304 0.06724701 -0.22006798 -0.08750286
0000c0 78 97 20 3f 04 29 34 bf 98 44 0e 3f f4 a6 2e 3f
       0.6273112 -0.70375085 0.55573416 0.682235
0000d0 09 ea d0 be 01 2c e2 be 9f 2e c2 be 62 33 89 3e
       -0.40803555 -0.44174197 -0.37926194 0.26797014
0000e0 ad e8 81 3e 68 88 99 be 92 a9 2e 3f 1e be 18 bf
       0.2537283 -0.29986882 0.68227494 -0.59665096
0000f0 3d e9 32 3f d0 c5 25 3f 24 94 55 be a1 20 05 3f
       0.69887143 0.6475496 -0.20857292 0.5200291
000100 5f 1b c1 3c 30 a4 56 be ad 6c 70 be c6 54 4b be
       0.023572622 -0.2096107 -0.23478957 -0.19856557
000110 1b 35 f2 3e f6 9a f2 bc 28 d7 b0 be b2 29 0e bf
       0.4730614 -0.029614907 -0.3453915 -0.5553237
000120 9d 5e 44 be 68 21 1c bf dd 5a b7 3e c5 0e 2c bf
       -0.19176717 -0.60988474 0.3581151 -0.67210037
000130 94 ac 14 3f 05 f3 26 3f d6 80 2c 3e 32 48 87 3e
       0.58075833 0.6521457 0.16846022 0.26422268
000140 5b 83 41 3e df dc c0 be c5 cf 2d 3e 91 00 0d bf
       0.18897764 -0.3766851 0.16973789 -0.5507899
000150 18 6a 1d 3f 0d 6e 20 bd 34 57 15 bf d0 6e d7 3e
       0.6149001 -0.039167453 -0.58336186 0.4207673
000160 ca 9e 05 3e 6a fa 00 3f 2a cf fa 3e b8 55 62 be
       0.13048854 0.503821 0.4898618 -0.22103012
000170 5e 9b 88 be 4e e5 30 bf 24 3f d3 be 64 f1 18 bd
       -0.26681036 -0.6909989 -0.4125911 -0.037339583
000180 1b 26 ea 3e c9 d8 f6 3d e6 9e 95 bd f3 d5 2e be
       0.45732197 0.12053067 -0.07305698 -0.17073803
000190 be d5 cb 3e fd 74 0e 3f 25 6c 30 bf 4e 07 82 3e
       0.3981151 0.5564726 -0.68915015 0.25396198
0001a0 13 9d 35 3e 3d 0a c0 be d7 f3 fd be c4 dc 19 3f
       0.177357 -0.3750781 -0.49600098 0.60102487
0001b0 b7 f0 e9 be d5 20 e0 3a 0f 81 fd 3e 67 32 49 be
       -0.45691463 0.0017099628 0.49512526 -0.19648133
0001c0 b7 8e 8d be 52 00 2b 3f d6 a2 88 be d3 e2 ef be
       -0.27647945 0.66797364 -0.26686734 -0.4685274
0001d0 16 97 39 3e db 4d 4c 3e e1 49 1d 3f a0 4e d1 3e
       0.18124041 0.19951575 0.61440855 0.408803
0001e0 a6 49 07 bf f9 5b 9c 3d 80 80 11 bb 0b 45 15 bd
       -0.52846754 0.0763473 -0.0022201836 -0.036442798
0001f0 fc b9 8e 3e a1 ce 15 3f e9 9b f9 3e fd ab 74 bd
       0.2787627 0.58518416 0.48751763 -0.059734333
000200 36 ce a2 3e b2 32 02 be 9c d5 e0 3e 5e e8 f3 3e
       0.3179795 -0.12714651 0.4391297 0.4763822
000210 ba 64 13 bf 88 70 9d be 01 57 29 bf a2 2f 98 3d
       -0.5757557 -0.30749917 -0.6614838 0.0743096
000220 bc a1 12 bf 6b 79 31 bf e5 33 3e be e4 d1 06 3f
       -0.5727804 -0.69325894 -0.18574484 0.5266402
000230 50 83 81 be 82 30 20 bf 69 e0 42 be 5a ef 10 3f
       -0.25295496 -0.6257402 -0.19030918 0.5661522
000240 9f 9b 8b be 0d dd 40 3e af 65 2a 3f 70 40 a8 be
       -0.27267167 0.18834324 0.66561407 -0.32861662
000250 dd ef f5 3c d3 b7 91 bd e4 9e 2b bf c7 66 78 bd
       0.030021602 -0.0711514 -0.6703932 -0.06064489
000260 d7 65 17 3f d8 ed ca be de 17 85 3d 49 29 3d bd
       0.5913977 -0.39634585 0.06498693 -0.04618195
000270 37 8b 7c 3e 78 78 ac 3e 18 75 f8 be 0b 6b c5 bd
       0.24662481 0.3368566 -0.48526835 -0.096395575
000280 c8 8a 0a bf 65 2a ff 3e 57 5d d9 3d 31 74 66 be
       -0.54118013 0.49837032 0.10613506 -0.22505261
000290 83 9c 31 bd 7b aa 2a 3e c2 0e 09 bf 73 2e 51 3e
       -0.04336215 0.16666596 -0.53538144 0.20427875
0002a0 79 c4 46 3d ab 94 34 3f 6d a3 93 3e e7 13 54 3e
       0.048527215 0.7053935 0.2883562 0.20710717
0002b0 f0 09 c5 be 35 c3 2a bf 7a fd 42 be 54 e6 03 3e
       -0.38484144 -0.6670411 -0.19042006 0.12880832
0002c0 df 6a 2a bf 46 42 9c 3e f4 96 00 3f f6 4c a7 be
       -0.6656932 0.30519313 0.50230336 -0.32675904
0002d0 69 e4 1b 3f 2a c6 0e bf 28 81 1d 3f ca 6c 40 be
       0.608954 -0.55771124 0.615252 -0.187915
0002e0 fe b0 2f bf 0f 42 5b 3e 85 42 db be c9 44 b0 3d
       -0.68629444 0.21411918 -0.42824188 0.0860687
0002f0 93 05 46 3e 13 8a 5f 3e 05 e1 1c bf cb f5 b1 3e
       0.19338064 0.21830015 -0.6128085 0.34757838
000300 f3 61 a4 be ab 58 cb be 86 98 ab be ca 7b 22 be
       -0.3210598 -0.39716086 -0.33514804 -0.15867534
000310 4c 42 b5 3e c1 05 9d 3d 85 09 a5 3e 38 a2 f0 be
       0.35402143 0.07667113 0.32233825 -0.46998763
000320 79 12 9c 3d 3d 54 56 be ee 3e d1 3c f5 07 1f bf
       0.07620711 -0.20930572 0.025542703 -0.62121516
000330 58 35 1e be 19 04 85 3d ea cd 9f 3e 3a 36 c1 3e
       -0.15450037 0.06494922 0.31211787 0.37736684
000340 8e 22 dc be fe 35 8d be 46 04 2f 3e cf a7 a6 3e
       -0.42995113 -0.27580255 0.17091474 0.32549903
000350 01 50 7e 3d 28 20 e1 3e 7a c2 19 bf 2a 6a c8 be
       0.062088016 0.43969846 -0.6006237 -0.39143497
000360 f1 c0 08 3f 8b 19 13 be 53 57 f6 bd b3 72 23 bf
       0.53419405 -0.14365213 -0.120283745 -0.6384689
000370 69 8b 84 be 57 b3 2d 3e 2d cd 17 bf d8 e1 90 bd
       -0.25887612 0.16962944 -0.5929745 -0.07074326
000380 8d bc e1 3e 4b 75 34 bf b2 93 5a 3e a6 84 cf be
       0.44089165 -0.70491475 0.21345404 -0.4053089
000390 2c 92 46 3e fc d9 da be c8 a8 2c 3f 5a 48 c7 bd
       0.19391698 -0.42744434 0.6744504 -0.09730597
0003a0 14 37 96 3e 98 bd ec be cd d3 1a bf 6c 8f 03 bf
       0.29338896 -0.462384 -0.6047943 -0.5139072
0003b0 17 41 20 bf b9 c9 95 be 8b ef 37 3e aa 2f 1b 3f
       -0.6259932 -0.29255465 0.17962472 0.60619605
0003c0 08 af 63 be 4d 22 c4 3d 79 c6 0d 3f 83 c6 98 3d
       -0.22234738 0.09576855 0.5538097 0.07459738
0003d0 c6 65 c5 be 9e 5a 17 bf cc 74 2d 3f a5 83 fd 3c
       -0.3855421 -0.59122646 0.6775634 0.030946562
0003e0 43 8c 91 be f0 2c 13 3f d9 33 b2 bd c9 e4 1a be
       -0.28427324 0.57490444 -0.087012954 -0.15126337
0003f0 59 ff 18 3f 66 e2 8a bd a2 1f ba 3e df ef 35 3e
       0.5976463 -0.06781463 0.3635226 0.17767285

clf_net.1.weight f4 [256]
000000 30 8f 7e 3f 17 6a 80 3f b2 5c 7f 3f ab 5a 7e 3f
       0.99437237 1.0032376 0.99750817 0.993571
000010 1c 9a 80 3f 2c 96 80 3f 0b 03 7e 3f ff 43 7e 3f
       1.004703 1.0045829 0.99223393 0.99322504
000020 08 22 80 3f 40 6b 7f 3f 16 b5 80 3f 06 9b 7e 3f
       1.0010386 0.99773026 1.0055263 0.99455297
000030 f8 db 7e 3f 82 a1 80 3f 5e 5b 7e 3f 37 b8 80 3f
       0.99554396 1.0049288 0.99358165 1.0056218
000040 42 0b 80 3f a5 98 7d 3f d2 29 80 3f b6 4b 7f 3f
       1.0003436 0.9906104 1.0012763 0.997249
000050 c7 4d 80 3f 5c c1 7f 3f 8c 6c 80 3f 7c 93 7f 3f
       1.0023736 0.9990442 1.0033126 0.9983442
000060 ff 76 80 3f 96 4a 7e 3f 5e 4b 80 3f a1 8d 7f 3f
       1.0036315 0.9933256 1.0023 0.99825484
000070 bc 7a 80 3f 6f 40 80 3f 00 e0 7e 3f 38 f7 7f 3f
       1.0037456 1.0019664 0.99560547 0.999866
000080 ca 5e 7f 3f e8 52 7d 3f 72 c4 7f 3f e6 65 7f 3f
       0.9975401 0.9895463 0.99909127 0.9976486
000090 8a 90 80 3f 6c 09 7e 3f a4 df 7f 3f 44 b6 7e 3f
       1.004411 0.99233127 0.99950624 0.99496865
0000a0 ae f7 7f 3f 0d 2b 80 3f 20 67 80 3f 83 06 80 3f
       0.99987304 1.0013138 1.0031471 1.0001987
0000b0 2d 2d 81 3f d9 1f 81 3f 5a 48 81 3f c3 8c 80 3f
       1.0091912 1.0087844 1.0100205 1.0042957
0000c0 bc 54 80 3f c7 6f 81 3f 37 cf 7f 3f 95 ae 7f 3f
       1.0025859 1.0112237 0.9992556 0.99875766
0000d0 85 12 7d 3f b7 f1 7e 3f d8 ed 7f 3f 7f 4d 80 3f
       0.98856384 0.9958758 0.99972296 1.002365
0000e0 a6 bc 7e 3f ca 9e 7f 3f 6f d2 7e 3f 3b e8 80 3f
       0.99506605 0.9985167 0.99539846 1.0070871
0000f0 64 b1 7e 3f 55 45 7f 3f a3 22 7e 3f 25 a3 7e 3f
       0.99489427 0.9971517 0.992716 0.9946769
000100 8d 1c 7e 3f 0f 9e 80 3f 49 0e 80 3f 55 51 81 3f
       0.99262315 1.0048236 1.000436 1.0102946
000110 4a 75 7f 3f dd 4f 7f 3f 9d 1d 7f 3f 20 15 81 3f
       0.99788344 0.99731237 0.9965456 1.0084572
000120 1e 54 7f 3f c0 1d 7f 3f 4d d2 80 3f 5d 8b 80 3f
       0.9973773 0.9965477 1.0064179 1.004253
000130 92 40 7f 3f 93 b0 7e 3f 17 db 7e 3f 5e 1a 7d 3f
       0.997079 0.9948818 0.99553055 0.9886836
000140 55 52 7d 3f ad 0e 7e 3f c3 b5 7f 3f d2 52 80 3f
       0.98953754 0.99241143 0.9988672 1.0025275
000150 fc 35 7e 3f 6e 0b 80 3f c9 b7 7f 3f 44 02 80 3f
       0.99301124 1.0003488 0.9988981 1.0000691
000160 21 0e 7f 3f c0 03 80 3f 29 bd 80 3f d9 7b 7f 3f
       0.99630934 1.0001144 1.0057727 0.9979835
000170 b4 03 81 3f 13 52 7e 3f 2d e2 7e 3f b0 c2 7e 3f
       1.0079255 0.99343985 0.99563867 0.9951582
000180 5a e9 7f 3f 7f 58 7f 3f 53 0e 80 3f a0 72 7e 3f
       0.9996544 0.9974441 1.0004371 0.99393654
000190 cd e1 7e 3f 34 17 7e 3f c5 95 7f 3f 1c 93 80 3f
       0.99563295 0.99254155 0.99837905 1.0044894
0001a0 85 56 80 3f b0 d1 7e 3f 62 4a 7f 3f 89 0b 80 3f
       1.0026404 0.9953871 0.99722874 1.000352
0001b0 10 1a 80 3f b4 7d 7f 3f 74 71 7e 3f d1 68 7f 3f
       1.0007954 0.9980118 0.99391866 0.9976931
0001c0 b2 e7 7f 3f a6 ee 7f 3f ef 0f 80 3f 84 15 81 3f
       0.99962914 0.99973524 1.0004863 1.0084691
0001d0 59 a1 7e 3f b6 1e 80 3f 48 a8 80 3f 09 01 7f 3f
       0.99464947 1.0009372 1.0051355 0.99610955
0001e0 ed ae 7e 3f 4f 5b 80 3f 69 c8 7f 3f 68 ab 80 3f
       0.99485666 1.0027865 0.99915177 1.0052309
0001f0 c7 e1 81 3f 44 5f 81 3f 83 80 7f 3f 5d 07 7f 3f
       1.0147027 1.0107198 0.9980547 0.9962061
000200 f5 92 80 3f 08 24 7f 3f 14 63 7f 3f b9 47 80 3f
       1.0044848 0.99664354 0.99760556 1.0021888
000210 31 5d 7f 3f 17 51 7f 3f b3 1b 7f 3f 1c e2 7f 3f
       0.99751574 0.9973311 0.9965164 0.9995439
000220 4f da 7f 3f d6 9f 80 3f 79 42 80 3f 3b 3e 80 3f
       0.9994249 1.0048778 1.0020286 1.0018991
000230 24 a1 7d 3f d6 17 7e 3f 9d 42 7d 3f 5d 31 7e 3f
       0.99074006 0.9925512 0.9892977 0.9929407
000240 b4 0d 80 3f 3a 5f 80 3f 4c d5 7e 3f 62 6a 7e 3f
       1.0004182 1.0029061 0.99544215 0.9938108
000250 4a 05 80 3f 3c 79 7e 3f 29 a4 7f 3f b0 5d 7e 3f
       1.0001614 0.9940374 0.99859864 0.99361706
000260 b2 87 80 3f e6 dd 7e 3f 16 29 80 3f 85 0e 81 3f
       1.0041411 0.9955734 1.0012538 1.0082556
000270 9e a8 7d 3f 25 6f 80 3f fa 13 7f 3f 9e c8 7e 3f
       0.99085414 1.0033919 0.99639857 0.9952487
000280 a7 67 7e 3f df de 7f 3f 1e 17 80 3f 49 2d 80 3f
       0.9937691 0.9994945 1.0007055 1.001382
000290 ea 5d 80 3f 5b 8d 7e 3f 1c 30 80 3f 74 2b 80 3f
       1.002866 0.9943444 1.0014682 1.0013261
0002a0 4e 9c 7f 3f 22 f1 7e 3f 49 0b 80 3f 90 0a 80 3f
       0.9984788 0.9958669 1.0003444 1.0003223
0002b0 d0 b4 80 3f fd 7e 7e 3f 0f 42 7e 3f ed fd 7f 3f
       1.005518 0.9941252 0.9931955 0.99996835
0002c0 77 68 80 3f 5e 97 7f 3f e3 26 7f 3f c5 b2 7f 3f
       1.003188 0.99840343 0.9966871 0.99882156
0002d0 59 ce 7f 3f 37 54 7f 3f a7 e6 7d 3f 58 57 80 3f
       0.99924237 0.99737877 0.9918007 1.0026655
0002e0 2e 23 80 3f b3 1b 80 3f 69 01 80 3f 99 6a 80 3f
       1.0010736 1.0008453 1.000043 1.0032531
0002f0 84 1b 80 3f 3a 09 80 3f a5 2a 81 3f 85 55 80 3f
       1.0008397 1.0002816 1.0091139 1.0026098
000300 ca 50 7f 3f b9 9e 7f 3f 3a cc 7f 3f 22 9f 7d 3f
       0.9973265 0.99851567 0.99921 0.9907094
000310 a8 c5 7f 3f a9 2b 7f 3f bf 7a 7f 3f 0b 95 7e 3f
       0.99910975 0.99675995 0.9979667 0.9944617
000320 a2 74 7e 3f 2e 8c 7f 3f f1 fc 7e 3f 3c b2 7f 3f
       0.9939672 0.9982327 0.9960471 0.9988134
000330 6e 2a 7f 3f e8 52 7f 3f a9 a2 80 3f 24 47 80 3f
       0.9967412 0.9973588 1.004964 1.002171
000340 e5 34 7f 3f 06 ec 7f 3f ec 14 80 3f 36 71 7f 3f
       0.99690086 0.9996952 1.0006385 0.9978212
000350 e0 bc 7f 3f 59 68 7f 3f 0a 5c 7e 3f 60 f2 7e 3f
       0.99897575 0.99768597 0.9935919 0.99588585
000360 1f f8 7e 3f f2 f3 7f 3f 99 59 80 3f 82 92 80 3f
       0.9959735 0.99981606 1.0027343 1.0044711
000370 3c ae 7f 3f d6 52 80 3f 87 d1 7e 3f 58 43 80 3f
       0.99875236 1.002528 0.99538463 1.0020552
000380 10 99 80 3f c4 1d 80 3f c2 52 7f 3f b9 6d 80 3f
       1.0046711 1.0009084 0.99735653 1.0033485
000390 02 e7 7f 3f 35 05 80 3f 8b d1 80 3f cb 6a 7f 3f
       0.99961865 1.0001589 1.0063947 0.9977233
0003a0 31 5d 7f 3f a9 89 7f 3f 63 67 80 3f 4a b0 80 3f
       0.99751574 0.9981943 1.0031551 1.0053799
0003b0 fd 72 7f 3f d8 03 81 3f 81 d4 7e 3f 9f c0 80 3f
       0.99784833 1.0079298 0.99543005 1.0058783
0003c0 51 20 80 3f f3 0a 80 3f ad df 7f 3f 89 c0 7f 3f
       1.0009862 1.0003341 0.9995068 0.9990316
0003d0 35 4a 80 3f 65 0b 80 3f c7 32 80 3f 6c 59 7f 3f
       1.0022646 1.0003477 1.0015496 0.9974582
0003e0 fe f2 7f 3f 59 2c 80 3f 13 97 7f 3f b3 1d 7f 3f
       0.9998015 1.0013534 0.99839896 0.9965469
0003f0 77 00 80 3f 79 02 7e 3f d5 f3 7f 3f 3b 1e 80 3f
       1.0000142 0.9922252 0.99981433 1.0009226

clf_net.1.bias f4 [256]
000000 b5 bf 98 3d a4 b0 28 bb c4 3c ad bc 16 2a 2c 3c
       0.0745844 -0.0025740052 -0.02114714 0.010508081
000010 18 a6 c1 bc 08 cd 84 3d 4b b5 36 3c e4 04 53 bd
       -0.02363877 0.06484419 0.011151622 -0.051518336
000020 04 b0 6e 3c 24 f5 a6 bc 48 70 9b 3d ea 3b e7 bb
       0.014568333 -0.020380564 0.07589775 -0.007056703
000030 27 56 30 bd ef b4 5e bd 67 8a 40 3a 72 7f 91 3c
       -0.04305091 -0.05437177 0.00073448423 0.017760966
000040 4c 0e 7c bd e9 41 72 bd a0 c0 3b bc 0e 38 3c 3b
       -0.061537072 -0.059144888 -0.0114595 0.0028719935
000050 58 19 97 bb da ab 62 bc 46 63 0c bd 1e 58 8d bc
       -0.0046111755 -0.013834918 -0.034274362 -0.017253932
000060 74 04 80 3d 47 a4 f2 bc 50 4d c9 3d 45 72 06 3b
       0.06250849 -0.02961935 0.09829199 0.0020514887
000070 2c d7 61 3d ca 1b c9 b8 32 82 ab ba 2c 28 d2 b7
       0.055136845 -9.589603e-05 -0.0013085066 -2.5052657e-05
000080 f4 b1 1e 3d a2 48 ac 3c 42 bb eb 3a e0 88 33 3b
       0.038743928 0.021030728 0.0017984884 0.0027394816
000090 f2 80 6f 3c e0 25 9a 3c 38 a4 b2 3c 31 6a d1 b9
       0.014618145 0.018816888 0.021806821 -0.00039942705
0000a0 21 47 01 bd cb f0 86 bb 79 14 b7 bc 56 82 57 3c
       -0.031561974 -0.00411806 -0.02234863 0.013153633
0000b0 f0 a9 95 3d 71 ab 95 3d f7 d5 58 bd 0c 34 99 bd
       0.07307804 0.073080905 -0.052938428 -0.0748063
0000c0 62 2c 20 bd 34 60 c7 b7 1f 29 04 3b cc ae c5 bc
       -0.039104827 -2.3767447e-05 0.0020166112 -0.024131201
0000d0 de fd 39 bd 44 90 61 3c a3 b3 a6 3c 54 96 ad bd
       -0.045408122 0.013767306 0.02034933 -0.084759384
0000e0 1f c2 43 bc 81 8e 8e bc 6b b2 23 bc a3 7d 3f 3d
       -0.011948138 -0.017401936 -0.009991269 0.046750676
0000f0 24 93 8a 3d e8 2c a2 3d 04 06 f8 bc 1f 25 f2 3c
       0.06766346 0.079187214 -0.030276306 0.029558716
000100 ac 4a 9d 3d e0 cf 93 bc 58 d7 3d 3c ca c6 db bc
       0.07680258 -0.018043458 0.0115869865 -0.026828188
000110 49 f7 69 3d a6 55 e8 bc 31 2b 37 bc a9 b8 a6 3d
       0.057120595 -0.028361153 -0.011179731 0.0814069
000120 6e 48 29 bd 4f e9 23 bd 26 e1 5c bd e0 2d 2d 3c
       -0.04132884 -0.040017422 -0.053925656 0.0105700195
000130 42 bd 2a bd 21 7c ce 3c e7 4b 2a 3d 72 e9 9a bc
       -0.041684397 0.025205674 0.041576292 -0.018910144
000140 90 9e 64 bc 1d de 02 bc 27 d1 87 bc 35 b0 b1 ba
       -0.01395382 -0.007987526 -0.016579224 -0.0013556542
000150 43 c4 62 3c cc 73 a2 3d 80 70 20 3c 6f 84 1a 3b
       0.013840738 0.07932243 0.009792447 0.0023577472
000160 d5 79 5b 3c 1a 81 d2 bb 39 0c 8f bd 05 e2 fa 3b
       0.013395746 -0.0064240815 -0.06984753 0.007656338
000170 c0 a0 62 3d df dc f4 38 0c 50 a4 3c b6 c1 1a 3d
       0.055329084 0.00011675967 0.0200577 0.037782393
000180 54 b5 60 bd 03 d0 ed bc 14 aa 90 3d dc 5a 8f bb
       -0.054860428 -0.029029852 0.0706369 -0.004374845
000190 a6 b9 fc 3c 6d 84 f1 3b 3e 4b 41 3d 31 f8 c9 3c
       0.030850243 0.0073705227 0.047190897 0.02465448
0001a0 11 42 31 bd 43 92 68 bc 0c 63 62 3c 7b 51 30 bb
       -0.043275896 -0.014195028 0.01381756 -0.0026904035
0001b0 a1 92 36 3d 32 b9 cd bc 62 57 7d 3c f3 6d 07 bb
       0.04457343 -0.025112722 0.015462728 -0.00206649
0001c0 97 06 34 bc e7 48 3c bc 63 16 26 bd 93 6a 86 bc
       -0.010987899 -0.011491991 -0.040548693 -0.01640824
0001d0 a5 f1 50 3d 28 f8 40 bd 52 a6 ef 3c b6 18 b5 bc
       0.0510117 -0.04711166 0.029254112 -0.02210651
0001e0 93 bf 1a 3d 5d 58 97 bc 71 ea 1b 3d 0d f4 df 3c
       0.037780356 -0.018474752 0.038065378 0.027338052
0001f0 03 95 8e 3d 33 66 85 3d f7 b9 e3 3c d4 43 93 3c
       0.069620155 0.065136336 0.027798636 0.017976679
000200 63 dc 20 bd 8c 7d b8 3d 11 91 a9 bb 5e 2f 2d 3d
       -0.039272677 0.09008321 -0.005174764 0.0422815
000210 71 c9 89 bd c6 0d 05 bc 90 74 9d bb 86 fc 11 3d
       -0.06727875 -0.00812096 -0.004805155 0.035641216
000220 12 3a be 3c 07 73 0f bd 73 55 82 bd fe af bf bb
       0.02322105 -0.035021808 -0.063639544 -0.0058498373
000230 68 fa 03 bc ef 9f 22 3c e7 52 11 3d 0a 82 97 bb
       -0.008055307 0.009925826 0.035479452 -0.004623656
000240 37 f7 63 bb d8 c2 6a bc 99 d6 dd bb 9c 37 0c 3d
       -0.0034784803 -0.014328681 -0.006769967 0.03423272
000250 f7 e3 1e bc 70 62 67 3d 32 bd 14 3c e9 f3 ea 3c
       -0.009697906 0.05649036 0.009078311 0.028680759
000260 05 c8 b4 bc e0 9d 8a bc 68 0f ac bc 8f 84 5f 3b
       -0.022068033 -0.016920984 -0.02100344 0.003410611
000270 cf 6a 13 bd 42 dc 95 3d 57 8a 25 bc 4f f0 3d bc
       -0.035990532 0.073174015 -0.010103784 -0.011592939
000280 4f 87 43 3c 0b a5 96 3d c4 f1 42 bd 99 41 ec 3c
       0.011934116 0.07355698 -0.047593847 0.028839873
000290 61 3b 0d 3b 2a f4 1b 3a 7b 3c a2 3d 1d 37 4d 3d
       0.0021550285 0.0005949164 0.07921692 0.05010139
0002a0 4f f1 c0 bb 97 c6 48 bd 90 36 79 3d 01 1a 28 3c
       -0.005888141 -0.049017515 0.06084305 0.010260106
0002b0 b5 ce cf bc 9a 09 a5 bb 7a 6a 1a bc ae b7 48 3c
       -0.02536712 -0.005036545 -0.0094248 0.012250824
0002c0 aa a6 7e 3c 10 87 ad bc a6 d7 e5 3b c6 77 8a 3c
       0.0155426655 -0.021182567 0.0070142327 0.016902816
0002d0 ed 56 f5 3c 0b 8d 92 3c f2 ca 0d 3c d4 e5 7a bc
       0.029948676 0.01788952 0.008654343 -0.015313584
0002e0 e3 b1 a1 3d 52 23 10 bd c9 44 8d 3c f9 a7 18 3c
       0.07895257 -0.035189934 0.017244713 0.009317392
0002f0 3b 5b 02 bd 37 8e fb 3c d7 ee 7e bd b3 92 0a bd
       -0.031825285 0.030707462 -0.062239494 -0.03383131
000300 01 4d 8d 3c 1a ef ce 3c 80 e6 df bc 04 0a 84 3d
       0.017248632 0.025260497 -0.02733159 0.06447223
000310 0f 1e a3 3d ec fe eb bc bd 3e bf bc 13 60 75 3d
       0.079647176 -0.02880808 -0.023345346 0.059906077
000320 22 99 9f 3c 81 76 70 bc 86 91 c3 3c 60 66 10 3d
       0.0194822 -0.014676691 0.023873102 0.035253882
000330 e7 ce e9 3c ab 45 97 3d c1 df ee 3c d5 ff 1c 3d
       0.028541042 0.07386335 0.029159429 0.038329918
000340 a2 e2 98 3c b6 43 68 bd 6f 8d a9 3d bc 2f 97 bb
       0.018662754 -0.0567052 0.082789294 -0.0046138447
000350 82 eb 2f bd a0 94 c6 bc f1 45 22 bc 8e 41 e2 3b
       -0.042949207 -0.024240792 -0.009904371 0.0069047874
000360 ab f9 3f 3c 0f b4 21 bd c0 48 f1 3b 5d 56 e2 bc
       0.01171724 -0.039478358 0.007363409 -0.027629072
000370 83 fd 42 3c 0b 1b 74 bc f8 c0 38 bc 83 4e 40 bc
       0.011901262 -0.014899026 -0.011276476 -0.011737469
000380 44 13 17 bd e6 06 6f bd bc d2 7f 3c 92 0f 82 bd
       -0.036883608 -0.05835619 0.015614208 -0.06350626
000390 86 12 d2 bb 44 f8 c5 bc c0 a9 7d 3d 59 7c cf bb
       -0.0064108996 -0.024166234 0.061929464 -0.006331962
0003a0 4a fa e2 bc 7c 5d 14 bc 96 57 9c bb ab 8a 02 bd
       -0.027707238 -0.009055492 -0.0047711832 -0.031870525
0003b0 5b 92 8e 3c 82 92 62 3c 6c 32 27 3d 3b 95 6f 3d
       0.017403772 0.0138288755 0.04081957 0.058491927
0003c0 4f fa bf 3b 81 da b4 3c a4 b3 c6 bc fe 85 61 3d
       0.0058586965 0.022076847 -0.024255581 0.055059426
0003d0 90 80 c2 3c 08 e1 f9 bc 53 0d 8c 3d 8c 8a 2b 3c
       0.023742944 -0.030502811 0.06838479 0.010470044
0003e0 91 d4 45 3d 2f 66 74 3d c4 b0 16 3c 6c 69 b6 bc
       0.048298422 0.059667762 0.009197418 -0.022267066
0003f0 c3 38 80 bd e4 39 44 bd ad 2f f3 bb b9 db cd bc
       -0.062608264 -0.04790677 -0.007421455 -0.025129186

clf_net.1.running_mean f4 [256]
000000 58 0a ba bd 51 ba 50 3f 16 99 a0 3e 2d eb 6b be
       -0.09084004 0.81534296 0.31366795 -0.23038931
000010 cd 70 12 be 55 67 1d bf f8 d3 ae 3e a0 69 ce 3e
       -0.14300843 -0.614858 0.34146094 0.4031496
000020 19 b0 dc 3e 67 84 df be 2f f1 95 3e 86 d8 02 3f
       0.43103102 -0.43655702 0.2928557 0.5111164
000030 37 14 33 be 3f d0 01 3f 8e a8 9a 3e 11 cb 4d 3c
       -0.1748818 0.50708383 0.30206722 0.012560622
000040 7d 91 45 3f 01 67 ba be 74 f9 19 3c 82 bf 93 3e
       0.7717512 -0.3640671 0.009397853 0.28857046
000050 04 9f f5 ba 78 41 9c be c0 be 81 3f 03 fd 35 3f
       -0.0018739407 -0.305187 1.0136337 0.7108919
000060 92 28 9f be d2 75 47 3f 76 e5 81 3e 9d 74 a3 be
       -0.3108564 0.77914155 0.25370377 -0.31924906
000070 36 09 3a bf 5f 4a 50 be 3b 22 d6 bb 8f 77 72 3f
       -0.72670305 -0.2034087 -0.0065348423 0.9471368
000080 a2 71 9e 3e 00 8b 4f 3e 11 3b 7b be 4a 1c 83 3e
       0.3094607 0.20267868 -0.24534251 0.2560752
000090 ef 01 8c 3e c1 4a c0 be 90 24 50 bf 9d 63 f9 3e
       0.27345225 -0.37557033 -0.8130579 0.4870881
0000a0 68 0f e7 be f4 00 f1 be 43 31 a5 3d f4 6b 35 3e
       -0.45128942 -0.4707104 0.080660366 0.17716962
0000b0 c4 25 8b 3e d0 51 81 bd 73 9b 9d 3d 41 13 4e bd
       0.2717725 -0.063144326 0.07695665 -0.05031133
0000c0 e0 59 f7 3e d7 79 20 bf 6e 03 f8 3e c7 62 0e 3f
       0.48310757 -0.6268591 0.48440117 0.5561947
0000d0 79 73 4a bf 45 09 da be de d9 b3 be 23 bb b5 3e
       -0.7908245 -0.42585197 -0.35127157 0.35494336
0000e0 94 dd 8b 3e 8b 4e 42 bf c7 16 9a 3e fc 93 dc be
       0.27317488 -0.759011 0.30095503 -0.43081653
0000f0 c4 98 d9 3e b8 fd 44 3f 0b a4 14 bb 3b c5 18 3f
       0.42499363 0.76949644 -0.0022680785 0.5967595
000100 c9 49 f1 3d e4 35 15 bf 5c 4f ae be 2f 58 5f 3e
       0.117816515 -0.58285356 -0.3404492 0.21810983
000110 c1 17 80 3f 21 f0 1a bb 08 52 82 bf 11 a6 38 bf
       1.0007249 -0.0023641663 -1.0181284 -0.721284
000120 a5 d7 45 be 19 26 66 bf 08 68 0b 3f 97 d8 87 bf
       -0.19320543 -0.8990188 0.54455614 -1.0612973
000130 4a 0e c0 3d 89 29 1a 3f 67 46 2c 3e 43 40 07 3e
       0.093777254 0.6021963 0.16823731 0.13208108
000140 42 68 df 3e 87 e8 bf be 5f 18 bb 3e 66 24 42 bf
       0.4363423 -0.37482092 0.3654203 -0.7583679
000150 72 0c 97 3f 36 71 1f 3e c3 47 35 bf 7f b4 f4 3e
       1.1800673 0.1557053 -0.70812625 0.47793958
000160 28 e4 b5 3e 1f 58 a4 3e 20 03 0c 3f 2f 2a 02 bf
       0.35525632 0.3209848 0.5469227 -0.5084562
000170 ba c3 b5 be 05 4a 1c bf 5d 99 38 3e d1 13 2a 3e
       -0.3550089 -0.61050445 0.18027253 0.16609122
000180 31 48 3f 3f 6a df f3 3e 4a b5 ce 3d a9 01 82 be
       0.7471953 0.4763139 0.10093172 -0.25391892
000190 23 59 d5 3d c6 6d 17 3f b8 ee 05 bf 50 64 a8 3e
       0.10417392 0.59151876 -0.5231738 0.32889032
0001a0 d2 f7 25 be 3b 29 48 3e 1c 5b 06 bf f0 6a 2d 3f
       -0.16207817 0.19546978 -0.5248277 0.677413
0001b0 d7 57 ef 3d aa 0c ab 3e a6 99 c9 3e 2e d3 62 3e
       0.11686676 0.334081 0.39375037 0.22150871
0001c0 11 4f 07 be 44 79 84 3f e8 1b 1c bf 04 fa 7c bf
       -0.13213755 1.0349507 -0.6098008 -0.98818994
0001d0 51 2f 49 3e 50 3c dc be c9 3c ee 3e c9 02 88 3e
       0.19646956 -0.43014765 0.4653075 0.26564625
0001e0 97 a2 80 bf 11 fe bd 3e b7 3b d3 3c a1 cf ff 3d
       -1.0049618 0.371079 0.02578531 0.12490774
0001f0 84 de 36 bd 02 0d e3 3e 02 77 42 3f f9 46 c6 be
       -0.0446458 0.44345862 0.7596284 -0.38726023
000200 4d 78 d9 3e ec dd 60 be 30 8d 76 3f bd 09 77 3f
       0.42474595 -0.21959656 0.96309185 0.96499234
000210 62 71 86 be c8 be 88 be 56 ec 35 bf 9f f7 75 3d
       -0.2625838 -0.26708055 -0.71063745 0.060050603
000220 95 c3 0c bf 7e f1 77 bf 8a 85 77 be c6 79 a6 3e
       -0.54985934 -0.9685286 -0.24172035 0.3251478
000230 9c 6b ac be 67 1c 39 bf df d9 97 be 11 0c c0 3e
       -0.3367585 -0.72308964 -0.2965841 0.37509206
000240 20 56 96 be 47 d0 48 3e c8 e7 26 3f 79 8e f4 bb
       -0.29362583 0.19610702 0.6519742 -0.007463273
000250 f2 a2 b4 bd c2 2a a0 3d 12 64 e6 be 70 ae ce 3e
       -0.08820142 0.078206554 -0.44998223 0.4036746
000260 31 d4 7d 3f a6 ae ee bd 41 69 c8 be 24 4d eb bd
       0.99151903 -0.11654405 -0.39142802 -0.11489323
000270 1e 08 85 3d d1 3e f5 3e 0a 75 f9 be f9 46 4b 3e
       0.06495689 0.47899488 -0.48722106 0.19851293
000280 ac 32 d7 be 41 39 85 3e cd 15 02 3f e6 01 03 bf
       -0.42030847 0.26020244 0.50814515 -0.5117477
000290 7f 63 c8 be bb 34 35 bd 97 00 13 bf ec cb 04 be
       -0.3913841 -0.04423974 -0.57422775 -0.12968415
0002a0 fc 73 d0 3e 64 90 cd 3e a4 a6 56 3f b9 43 91 3e
       0.4071349 0.40149224 0.83848023 0.2837198
0002b0 94 0d 05 bf bc eb 4c bf 60 54 dd be 3d fd 14 3e
       -0.51973844 -0.800472 -0.43228436 0.14549728
0002c0 70 b8 b3 be cf d3 83 3e 91 32 73 bd ab c5 98 bc
       -0.35101652 0.25747535 -0.059374396 -0.018648943
0002d0 61 d7 8c 3f 58 d5 2b bf 9c 2e 2a 3f a7 60 3f 3d
       1.1003228 -0.6712241 0.6647737 0.046723034
0002e0 c3 57 0e bf ea e4 63 be d4 d4 4f bf 0e 28 68 bd
       -0.55602664 -0.22255293 -0.81184125 -0.056678824
0002f0 06 9c eb 3e 33 04 13 3f 82 bb 90 bf 70 1a f6 bd
       0.46017474 0.5742828 -1.1307223 -0.12016761
000300 90 5b 90 be 05 19 5d be 00 98 53 bf f1 33 d7 bd
       -0.28194857 -0.21591575 -0.8265381 -0.10507954
000310 3b 23 25 3d fd 3a 7f be f7 3b 16 3f 21 f3 28 bf
       0.0403168 -0.24924846 0.5868525 -0.65995985
000320 78 b6 4d 3e f1 be a6 bc 08 50 1b 3f 74 5b 1c bf
       0.20089138 -0.02035472 0.60668993 -0.61077046
000330 21 7d 04 bf 57 a6 f1 bd 7c 40 5a bd 16 d7 82 3e
       -0.5175343 -0.11799305 -0.053284153 0.25554723
000340 d9 27 31 bf 29 8b 37 3d 6e 90 60 3e 08 ef cf 3e
       -0.6920143 0.044810448 0.21930096 0.40612054
000350 6d fc ac 3e 0e 93 20 3f 06 64 36 bf 08 40 01 bf
       0.33786336 0.6272439 -0.71246374 -0.5048833
000360 b2 aa cc 3e 16 bc 30 bd 32 8c d6 be e0 1d c3 be
       0.3997398 -0.043148123 -0.41903836 -0.3810873
000370 61 6d 32 bd c8 52 cc 3d a4 31 ca be fb 7f 3b be
       -0.043561343 0.09976727 -0.39490998 -0.1831054
000380 45 26 71 3f 54 5e a4 bf 62 df a7 3e 0d 59 26 bf
       0.9419902 -1.2841287 0.32787615 -0.6497963
000390 c5 20 70 bd 69 c2 56 bf 90 b9 15 3f db 97 d6 3d
       -0.058625 -0.83890396 0.5848627 0.10478183
0003a0 24 08 17 3e 8d fa 9f bd c3 eb 85 be 13 e3 3c bf
       0.14749199 -0.07811461 -0.26156434 -0.7378399
0003b0 2f 00 2c bf de f8 b5 be 89 7e 27 3f 72 db 2c 3f
       -0.6718778 -0.35541433 0.6542745 0.67522347
0003c0 e9 09 b8 3d c9 30 3d be be 73 a8 3e f5 ab 30 3e
       0.08986265 -0.18475641 0.32900804 0.17253096
0003d0 c0 e0 d1 be 94 fe 6d bf 89 63 5a 3f 8b de fe 3e
       -0.40991783 -0.9296658 0.8530813 0.49779162
0003e0 f3 cb 15 bf 32 7d 20 3f 5a 6b 5b bd 2f 05 a4 3d
       -0.58514327 0.6269103 -0.053569175 0.08008801
0003f0 4e b5 39 3f cf ad 8b 3e d7 aa f7 3d 3c c4 b3 bd
       0.72542274 0.27281043 0.12093132 -0.08777663

clf_net.1.running_var f4 [256]
000000 cb b5 09 3c 91 15 f8 3b d4 30 90 3b 47 03 2c 3c
       0.008405159 0.0075709303 0.004400352 0.010498828
000010 9e 30 c1 3c 29 e2 99 3b 4e f8 80 3a b8 cc 71 3b
       0.023582753 0.00469615 0.0009839626 0.0036895704
000020 d9 4f 56 3b 0f 01 d6 3b 6b de 8c 3a f1 9b d5 3a
       0.0032701402 0.006530888 0.0010747438 0.0016297085
000030 f6 88 fc 3c 23 04 da 3a e7 36 3c 3c 73 58 9e 3b
       0.030827027 0.0016633313 0.011487699 0.0048323213
000040 b5 ce 2c 3b 1c f3 f9 3b 71 bd 04 3c f1 c4 20 3b
       0.0026368324 0.007627858 0.008101807 0.0024531449
000050 de e7 82 3a 0e 84 22 3b 2b 57 3a 3c de e8 4d 3c
       0.0009987315 0.002479795 0.0113733215 0.012567727
000060 49 39 a0 3a d2 e7 87 3c 6c d6 1c 3c ce 1d f3 3b
       0.0012224104 0.016590033 0.0095726065 0.0074193245
000070 7b ee 1b 3b aa f0 11 3c 9e e0 e0 3b 7b fa 58 3c
       0.0023793268 0.008907476 0.006862714 0.013243313
000080 22 70 f2 3b d8 1e 52 3c 26 31 45 3c 6b 86 25 3c
       0.007398621 0.012824737 0.012035644 0.0101028485
000090 5e 57 4b 3c 97 b0 5b 3a c6 44 b2 3c 98 b4 e2 3b
       0.012410967 0.0008380501 0.02176131 0.006918501
0000a0 28 ff de 3c 4e f0 1e 3c 37 b7 8c 3c 28 13 9b 3c
       0.027221277 0.009700848 0.017177207 0.018930033
0000b0 18 a5 02 3c c8 cc 32 3b 57 16 f4 3b 98 3b c7 3b
       0.007973932 0.0027282704 0.007448952 0.006080102
0000c0 4b 50 48 3b 72 55 86 3a c0 39 0e 3a 62 ac 0f 3c
       0.0030565436 0.0010248853 0.00054254755 0.008769127
0000d0 b2 ad 48 3c 2a e6 40 3c 44 e4 fc 38 67 82 4d 3b
       0.012248443 0.011773625 0.00012058814 0.0031358243
0000e0 67 21 1b 3b fe 5b 88 3c 1b 44 77 3c d6 da 15 3b
       0.0023671032 0.016645428 0.015091921 0.0022866032
0000f0 ce 59 ba 3b 9f b3 07 3b f7 ca b6 3b 2d 6b eb 3b
       0.005686975 0.0020706428 0.0055783945 0.007184407
000100 ad b3 15 3c da ba 39 3c b3 8f 9a 3b a1 4b 65 3c
       0.009137076 0.011336053 0.0047168373 0.013995082
000110 58 ae ac 3c ed 2a ae 38 f2 7a 12 3d dc a9 74 3b
       0.021079227 8.304962e-05 0.03576178 0.003733269
000120 79 99 c1 39 01 1f df 3b ef 88 d9 3b f1 83 43 3c
       0.00036926175 0.006809116 0.006638638 0.011933313
000130 1b eb 96 3c 12 0d 98 3a f6 03 fe 39 58 4b dc 3b
       0.018422654 0.0011600575 0.00048449606 0.006722849
000140 c7 d3 0f 3c 7f 36 f9 39 21 3a 41 3c 0d fb a4 3b
       0.008778519 0.00047533584 0.011793644 0.0050348104
000150 cc 58 cf 3c b6 5d 5a 3b ca d5 18 3b 7e 58 f7 3b
       0.025310896 0.0033320016 0.0023320788 0.007548391
000160 96 0b 45 3c 0a 6e dd 3b 6c 73 52 3b 45 e0 1d 3c
       0.012026688 0.0067575024 0.0032112254 0.00963599
000170 00 5d 1d 3a 5e 1a 41 3c 06 cc e7 3c 12 e0 9c 3b
       0.0006002933 0.011786072 0.028295528 0.0047874535
000180 d3 9b f8 3b 9d 4c 6d 3c 0f 50 48 3b ce b8 15 3c
       0.007586935 0.014483598 0.0030565297 0.009138299
000190 d9 23 d9 3b f2 58 30 3b 62 6e a8 3b bc 31 32 3c
       0.006626588 0.0026908484 0.005140112 0.010876115
0001a0 2d 69 0f 3c ca f2 dc 3c 6f 30 92 39 b8 30 0f 3c
       0.008753103 0.02697124 0.00027883376 0.008739643
0001b0 1b 6b cf 3c 13 66 1a 3c a6 17 b1 3b 7d 03 5c 3c
       0.025319627 0.00942375 0.0054044304 0.013428566
0001c0 9d cc 33 3c c6 d5 60 3c 74 39 1f 3c 8c 52 ae 3c
       0.010974077 0.013722843 0.009718288 0.021279596
0001d0 3a a4 52 3b 8d 91 fa 3c 5e fe f9 3a e5 6e e9 3b
       0.0032141344 0.030586982 0.0019073 0.0071238154
0001e0 75 5d 92 3c 42 78 49 3c 71 33 30 3c 22 47 01 3b
       0.01786683 0.012296738 0.010754452 0.0019726236
0001f0 c1 51 0f 3c 0c 9f ee 3a 2d 09 2b 3c 13 d0 60 3c
       0.008747519 0.0018205359 0.010439199 0.013721484
000200 68 c1 6c 3a a7 17 eb 3a ad b5 ab 3c 0e 54 af 3c
       0.00090315053 0.0017936126 0.020960653 0.021402385
000210 60 2f 07 3c 19 bf 43 3c d8 22 32 3b d4 1d ff 3b
       0.008251041 0.011947417 0.0027181413 0.007785538
000220 c8 70 1e 3c b1 a0 0c 3c 74 86 24 3b 34 f4 2f 3c
       0.009670444 0.008583234 0.0025104554 0.010739375
000230 48 46 76 3a f7 c9 d0 3b cc 29 de 3b a8 87 68 3b
       0.0009394628 0.0063717323 0.006779885 0.0035481248
000240 cb e9 ab 3a a7 b6 07 3a 87 bd 72 38 fd 95 09 3c
       0.001311594 0.00051770586 5.7873807e-05 0.008397576
000250 0f 16 23 3c 43 38 f5 3a 5a b2 8a 3b e2 ac 9c 3c
       0.00995399 0.0018708784 0.004232687 0.019125406
000260 6a 0f 52 3c db 48 1e 3c 05 31 98 3c 2d f4 77 3a
       0.012821058 0.009660925 0.018578062 0.0009458687
000270 a0 21 7e 3b f4 16 ac 3b 7e 3e d2 3b 47 d1 f1 3b
       0.0038777366 0.0052517597 0.006416141 0.007379684
000280 43 3a 83 3b 7d 8c a1 3b e7 9b 53 3c 54 c0 53 3c
       0.004004748 0.0049300776 0.012915588 0.012924273
000290 48 2b 41 3c 39 dc f4 3b 2c d3 63 39 13 ba 1a 3c
       0.011790104 0.0074725416 0.00021727075 0.009443778
0002a0 f5 9c 40 3c 65 c4 0b 3c 1d 9a bd 3c 50 a3 f2 39
       0.0117561715 0.008530711 0.023144776 0.00046279514
0002b0 e3 7e c7 3a 72 7f 72 3b e1 bb b4 3b b3 89 94 3b
       0.001522031 0.0037002233 0.005515561 0.0045330166
0002c0 a5 3f 07 3c f1 f5 bd 3a 95 8f d6 3c 82 60 30 3c
       0.00825492 0.0014492852 0.026191512 0.010765197
0002d0 d2 96 9c 3c 11 a7 0f 3c 71 03 d3 3b 3c 6d d0 3b
       0.019114885 0.008767859 0.006439619 0.006360678
0002e0 2e 71 8a 3b e3 b9 82 3c 4b 9a 69 3c c5 7d cb 3a
       0.004224918 0.015957778 0.014257978 0.0015525153
0002f0 d5 f1 04 3c 4e cf 1f 3c 97 61 a6 3c 3c fa 88 3c
       0.008114298 0.009754015 0.020310206 0.016720884
000300 47 91 e3 3b f8 87 33 3c 14 85 b3 3c c5 c3 82 3a
       0.0069448086 0.01095771 0.021914043 0.0009976557
000310 12 c8 09 3c ed 0c 52 3c 41 f3 fd 3b ae d1 80 3b
       0.008409517 0.012820465 0.0077499454 0.0039312458
000320 7e 17 ac 3b 99 75 a1 3b 62 b4 da 3c 6c 60 22 3a
       0.005251824 0.004927349 0.026697341 0.00061941775
000330 e4 9e 30 3c d4 43 31 3b 16 bb 37 3c b3 a0 94 3a
       0.01078007 0.0027048485 0.011214038 0.0011339396
000340 34 77 1f 3c 55 5e 08 3c 4e f0 34 3a a7 53 1c 3c
       0.00973301 0.008323272 0.0006902263 0.009541429
000350 29 5f c4 3b b3 26 14 3c 91 d4 3a 3b 79 94 ca 3a
       0.0059927893 0.00904243 0.0028508047 0.0015455625
000360 33 36 70 3b 4d ae 9a 3b 56 e1 19 3c 05 b9 c1 3b
       0.00366534 0.0047204853 0.009392103 0.0059119486
000370 84 aa 84 3b 74 91 be 3a bf 71 35 3c 62 6e 80 3b
       0.0040486474 0.0014539198 0.011074482 0.0039194087
000380 87 a6 9b 3c 68 67 e0 3c ed 50 da 3b c2 b3 a1 3b
       0.019000305 0.027393058 0.006662479 0.004934759
000390 66 fc fe 3b d0 f5 7a 3c e3 57 48 3a 2f c5 3b 3c
       0.007781553 0.015317395 0.00076424907 0.011460586
0003a0 b8 56 13 3b 1a 25 48 3c 33 69 19 3c 5c 26 9a 3b
       0.0022482108 0.012215877 0.00936346 0.00470428
0003b0 9f 9f 04 3b 1c 93 51 3b a6 15 8e 3c 06 dc 86 3b
       0.0020236743 0.0031978553 0.017344307 0.0041155843
0003c0 7a a9 00 3c 9b 0f f6 3b d8 68 1e 3c 5a 5e ae 3a
       0.007852906 0.0075091845 0.009668551 0.0013303265
0003d0 7f 37 b0 3b 66 91 25 3c b6 64 56 3b 63 71 92 3c
       0.0053777094 0.0101054665 0.0032713837 0.017876333
0003e0 95 20 ff 3b 79 e0 54 3a b3 0b 77 3b fe 94 d7 3b
       0.0077858665 0.0008120607 0.0037696182 0.0065790405
0003f0 88 57 b6 3a 27 65 13 3c 7a a1 ce 3b 29 ef db 3b
       0.0013911584 0.008996285 0.0063058706 0.0067118597

clf_net.3.weight f4 [256, 256]
000000 04 4a 4f 3b fa 10 61 bd 43 4b ee 3c 59 cd 46 bd
       0.003162981 -0.05494783 0.029088622 -0.04853568
000010 b5 e8 ad bc c1 6b 35 3d 9d 42 37 3d 6c 13 d7 bb
       -0.021229127 0.044292215 0.04474126 -0.0065635946
000020 eb cd 9e 3c 3b 26 69 bd 34 47 47 bd 60 99 14 3c
       0.019385299 -0.056921225 -0.04865189 0.009069771
000030 ee af 54 bd 7a c7 26 3c 73 bf 0d bd 00 ef ee bc
       -0.051925592 0.010179395 -0.03460641 -0.029166698
000040 85 fa 1c bd 04 c8 48 bd d6 ac 55 3d b2 9c 22 bc
       -0.03832485 -0.049018875 0.052166782 -0.009925054
000050 c7 73 43 3d 39 2f 18 bc 2a cb 43 bd f2 fa 40 bd
       0.047717836 -0.0092886025 -0.047801174 -0.04711432
000060 56 62 06 3d 93 c5 e4 3c 8b c0 3a 3b 3a 96 7c 3d
       0.032808624 0.027926242 0.0028496112 0.061666705
000070 74 82 26 bd b2 91 ce bc 57 71 41 3d 28 40 4f 3c
       -0.040651754 -0.025215957 0.04722723 0.012649573
000080 68 f8 5b 3d b1 44 17 bd a7 96 1c bd 89 ab a1 3c
       0.053703696 -0.036930744 -0.03822961 0.019735115
000090 e3 4a bd bb 95 ab 45 bd 25 b9 fa 3c 77 b8 09 bd
       -0.0057767495 -0.048259337 0.030605862 -0.033623185
0000a0 87 d1 39 3d 65 f1 ad 3b 17 e0 77 3c 4d b7 fb 3c
       0.045365836 0.0053083175 0.015129111 0.030727053
0000b0 eb cc ce 3c 5a ce 0e bd 04 5b 6a bd c8 96 2e 3d
       0.025244197 -0.03486476 -0.057215706 0.042624265
0000c0 ed d5 4b 3d 14 14 28 3b c5 42 10 3c f7 ed 42 3d
       0.049764562 0.0025646733 0.008804982 0.047590222
0000d0 0c 8f 6b 3d e7 0c 28 bd 96 8a 0b bd 5d c8 69 bd
       0.057509467 -0.04102793 -0.034067713 -0.057075847
0000e0 fc 3c 5e bd af 4b 79 3c 5d 28 12 bd 11 f9 05 3d
       -0.054257378 0.015215798 -0.035683025 0.03270823
0000f0 9b 46 17 3c 50 75 e6 bc 1f e7 22 bd 5e 02 68 3d
       0.009233142 -0.02813211 -0.039771196 0.056642883
000100 db c7 f1 3c 20 a0 24 bd 2a dd 8e bb b3 a2 83 bd
       0.029514244 -0.04019177 -0.004359861 -0.06427517
000110 a9 d0 01 3d f3 0c 5c 3d 47 2c 29 bd 40 03 04 bc
       0.031693134 0.053723287 -0.04130199 -0.0080574155
000120 46 35 55 3d de 26 89 bd b8 d6 55 3d 84 63 10 bd
       0.05205276 -0.066968665 0.052206725 -0.035251155
000130 a1 80 1b bd 0d 14 fe bc c2 dd 60 bd dc a7 85 bc
       -0.037964467 -0.03101542 -0.054898985 -0.016315393
000140 10 40 ab bc 43 a3 48 bd fc 31 4b bd a2 45 83 3d
       -0.02090457 -0.048983824 -0.049608216 0.06409766
000150 91 bf f3 bb 5f 30 6c bd 82 29 5e 3d 91 85 74 3d
       -0.007438608 -0.057663318 0.054238804 0.05969769
000160 ce b7 01 3d 82 61 31 3d 21 cf ff 3c 0d 6a cb 3c
       0.03166943 0.04330588 0.031226696 0.024830842
000170 1e a8 9a bc b7 e7 8b b8 ea ce 7c bd 99 1a 1d bd
       -0.018878993 -6.671197e-05 -0.061720766 -0.038355444
000180 56 45 44 3d 17 86 fe 3c ee 0b 58 bd ad a9 5f bd
       0.047917686 0.031069798 -0.052745752 -0.054605175
000190 1b 40 8f 3b 49 17 02 bd 0e 34 0a 3c 47 f6 41 bd
       0.0043716556 -0.031760488 0.008435262 -0.04735401
0001a0 b7 f4 0b bd a7 7f 69 bd 5b 59 ae bc b0 6c 7b 3c
       -0.034168925 -0.057006504 -0.021282842 0.015345737
0001b0 62 e8 ca 3c f8 da 62 bd 25 8a 10 3d 0f 2a 9a bc
       0.024769012 -0.055384606 0.035287995 -0.018818883
0001c0 a4 e1 1d 3d 07 61 70 3d 0f a0 5f 3c aa 97 0a 3d
       0.038545266 0.058686282 0.013649001 0.033836044
0001d0 b3 5d 79 bd ec c1 d0 3c b4 7a c6 bc 8a b2 73 3d
       -0.060880374 0.025483094 -0.024228431 0.05949644
0001e0 41 d0 2a 3d ff 4c 81 3d 65 81 d8 bc 1b 59 32 3d
       0.041702513 0.06313514 -0.026428888 0.04354201
0001f0 a7 ea d4 bc bc a2 c7 3c 43 52 13 bc 3a c3 a0 bb
       -0.025990797 0.02436959 -0.008991781 -0.0049060853
000200 fc c4 17 3d 03 a5 ab bc f6 b7 2e bd 94 fc cc 3a
       0.037053093 -0.020952707 -0.042655908 0.0015639239
000210 38 4f 18 3d 24 c8 3a 3d da e7 3f bc 66 35 bc ba
       0.037184924 0.045601025 -0.011712993 -0.0014359176
000220 5f 46 1f 3d 8e ad 3f bd 1f b9 1d bb 09 ea 54 bd
       0.03888547 -0.046796374 -0.002406664 -0.051981006
000230 e3 4a 31 bc e8 4d 01 bc b4 eb ea bc e6 45 3d bd
       -0.010821077 -0.007892109 -0.028676845 -0.04620924
000240 ff 87 d7 bb df 1a 96 bc 00 8f ec 3c ba 89 57 3d
       -0.0065774913 -0.01832336 0.028876781 0.05262158
000250 55 30 7f bd 5d 58 e1 3c 8a 2a 13 bd 7c f1 e7 3c
       -0.062301952 0.027507955 -0.03592924 0.02831339
000260 7d 42 37 bd bf 27 e1 bc 5a 91 29 bd 3e 72 8b bc
       -0.044741143 -0.027484773 -0.041398384 -0.017022248
000270 78 59 01 3d 54 70 85 3a 13 1f 0e 3d 00 01 52 bd
       0.031579465 0.0010180571 0.034697603 -0.051270485
000280 af 01 67 bd 0d f2 48 bd d2 ca 8e 3c 04 08 d8 3c
       -0.05639809 -0.049058963 0.017430697 0.02637101
000290 af b9 76 3b 01 4f d8 bc a6 ad 70 bd ae 2b 7d 3b
       0.0037647297 -0.02640486 -0.058759354 0.0038630771
0002a0 ea de 57 3d 58 fa 2a 3d 9d bf 2d bc 3d 9c fc 3c
       0.05270282 0.041742653 -0.010604766 0.030836219
0002b0 19 31 c3 bc 1e 4b 3f bd 9d d1 0c 3d 80 b3 d9 3b
       -0.023827123 -0.046702497 0.03437959 0.0066437125
0002c0 9e a5 40 bb aa a2 e6 3c 11 57 6e 3a 39 03 48 3d
       -0.002939559 0.028153736 0.00090919534 0.0488312
0002d0 f2 38 04 3b fb cb a6 bb 4a df e2 bc a7 d4 bb ba
       0.0020175544 -0.0050902343 -0.027694363 -0.0014330343
0002e0 c9 41 09 3d 1e 80 62 3d fd f0 28 3c 29 af ea bc
       0.033510003 0.055297963 0.010311362 -0.028647976
0002f0 d4 14 6c bb 42 6e 01 bd 78 77 5f 3d 27 db 97 3c
       -0.0036023157 -0.03159929 0.054557294 0.018537117
000300 dd 21 29 3c 77 1e 1d 3d 8d 27 67 bd 56 e7 27 3d
       0.010323015 0.03835913 -0.056434203 0.040992104
000310 31 19 aa 3b e6 18 09 bc 2f 44 75 bc 8b 66 bc bc
       0.0051909913 -0.008367753 -0.0149698695 -0.022998115
000320 56 a3 15 3c 95 5b 94 bc 3b 6b 1f bd b0 b5 59 bd
       0.009133181 -0.018110076 -0.038920622 -0.053151786
000330 e7 16 3f 3c 74 43 47 bd 1b de 74 bc 29 61 d4 bc
       0.011663175 -0.048648313 -0.014945532 -0.025925236
000340 ac db 47 bc 4a 8c 15 3d 35 6b 13 bd 7a d9 1c 3d
       -0.01219837 0.036510743 -0.035990912 0.03829334
000350 89 13 87 bd cc 99 5c 3d b1 e0 75 3d 66 13 8b 3c
       -0.06595523 0.05385761 0.060028736 0.016977023
000360 5a 28 83 bb e7 8e 4e 3d 3b ca 07 bd 97 73 15 ba
       -0.004002613 0.05042925 -0.033151846 -0.0005701123
000370 3e 84 71 3b 87 0c 0d bd d8 f6 cc bc 30 ec 92 bc
       0.0036852504 -0.034435775 -0.025020048 -0.017934889
000380 a6 3f e9 3b 44 07 5e 3d 0e 5f fd 3c d0 c3 f4 3c
       0.007118183 0.054206148 0.030929115 0.029878527
000390 2c 8c 4c bd 65 f0 1a bd fe 25 33 bd d8 87 36 bd
       -0.049938366 -0.037826914 -0.043737404 -0.044563144
0003a0 91 62 65 3d dc de 44 bc 39 8a 3b bd b4 35 10 3d
       0.056002203 -0.012016024 -0.045786116 0.035207465
0003b0 00 94 b4 3b 07 bb 1d bd 16 78 03 3d b4 f7 80 bd
       0.005510807 -0.03850844 0.032096945 -0.062972456
0003c0 ae 03 38 3d 92 fe 35 3d 6e 4e 47 3d b4 9b 68 bd
       0.044925384 0.04443223 0.04865878 -0.056789115
0003d0 81 3d 48 bd 6c fd 10 bd 22 bd 4b bd 8e 40 85 bd
       -0.04888678 -0.035397932 -0.049740918 -0.065064535
0003e0 40 ca 73 3a 33 b2 09 3d ea 5d 8d 3c 95 1f 44 3d
       0.0009299852 0.03361721 0.017256696 0.04788168
0003f0 85 65 76 bd 22 80 07 3c af 96 34 3c 64 60 62 bd
       -0.06015541 0.008270295 0.011022254 -0.055267707
