EE8591/Project/classification_models/Syn_high/DNN/deepnn/training_models/net_100.pt (torch, 300479 bytes, 14 tensors)

clf_net.0.weight f4 [256, 20]
0	0xbe26ec1d	-0.16301008
1	0xbe3f90e7	-0.1870762
2	0x3be413b3	0.006960356
3	0x3dd81ccb	0.10552367
4	0xbd6de079	-0.058075402
5	0xbd1d4399	-0.038394544
6	0x3e35ef48	0.1776706
7	0x3c7dc83c	0.015489634
8	0x3e17398a	0.14768043
9	0x3d4f5d9f	0.050626393
10	0x3d82172e	0.063520774
11	0x3d9a3a5e	0.07530664
12	0x3e3d4957	0.18485008
13	0xbe696ca2	-0.22795346
14	0xbbb5d832	-0.005549454
15	0x3bffddbe	0.007808416
16	0x3d74cc6b	0.05976526
17	0xbd6e68c1	-0.05820537
18	0xbd86a36a	-0.065741375
19	0x3db78e1f	0.08962654
20	0x3cb56aa1	0.022145571
21	0xbe1f7a54	-0.15574008
22	0x3dccbbcd	0.09996758
23	0x3e01fbeb	0.12693755
24	0xbdbf23a0	-0.09332967
25	0xbe2005b3	-0.15627174
26	0x3e5ff5ca	0.21871105
27	0xbc47191a	-0.012151981
28	0x3e5eb925	0.21750315
29	0x3e53ee00	0.20696259
30	0x3e4c044f	0.19923519
31	0xbe5981a1	-0.21240856
32	0x3e54c238	0.20777214
33	0x3e0818fb	0.1329078
34	0x3e1d7006	0.15374765
35	0xbdb10c57	-0.08644932
36	0x3e010d70	0.12602782
37	0xbd1e7b9e	-0.03869211
38	0xbd0fd06b	-0.035110872
39	0x3e379279	0.17926969
40	0xbe422d74	-0.18962651
41	0x3dd456a4	0.10368088
42	0xbde98a1f	-0.11403298
43	0xbcdc60b0	-0.026901573
44	0xbe2dbf7d	-0.16967578
45	0x3dcab4b4	0.09897748
46	0xbd0b1a9d	-0.033960927
47	0xbe1fd03e	-0.15606782
48	0x3d6dbc3e	0.05804085
49	0xbdd63cbf	-0.10460805
50	0x3b867c36	0.0041041626
51	0xbd8a119c	-0.0674164
52	0xbdbbfda5	-0.09179238
53	0xbd952f1e	-0.072843775
54	0x3db8680b	0.090042196
55	0xbcc72b81	-0.024312736
56	0xbdb8453c	-0.089975804
57	0xbe5ecf18	-0.21758687
58	0xbe29778c	-0.1654951
59	0xbd06ea2a	-0.03293816
60	0x3dfbd4df	0.12296461
61	0x3db01d9b	0.08599397
62	0x3de9ccc9	0.11416013
63	0x3d2cab49	0.042155538
64	0x3e689c5f	0.22715901
65	0xbd5b7e5a	-0.053587295
66	0xbe0b7fd7	-0.13622986
67	0x3d9eb549	0.07749421
68	0x3dfca478	0.123360574
69	0xbd5659cc	-0.05233173
70	0x3d95c110	0.073122144
71	0xbe6300ad	-0.22168227
72	0x3ca8b804	0.020595558
73	0xbd72896e	-0.059213094
74	0x3d97f903	0.07420542
75	0x3dbcc90f	0.092180364
76	0xbc578c92	-0.013156073
77	0x3c05322c	0.008129638
78	0xbcf8c101	-0.030365469
79	0x3d56b34e	0.052417092
80	0xbdfe72a4	-0.1242421
81	0x3e5648ae	0.20926163
82	0xbdae17b9	-0.085006185
83	0x3d1b1efb	0.037871342
84	0xbdc7baa5	-0.097523965
85	0xbe0f6f0a	-0.14007202
86	0xbccae94f	-0.024769453
87	0x3d90763a	0.070538
88	0xbe4f652b	-0.20253436
89	0x3e04d113	0.1297038
90	0xbdb97417	-0.090553455
91	0xbdba4fc9	-0.09097249
92	0x3e26b852	0.1628125
93	0x3d9c770f	0.07639896
94	0x3e004f82	0.1253033
95	0xbd34b562	-0.044118293
96	0xbe12e110	-0.14343667
97	0xbe074885	-0.13211258
98	0x3dd9dcf8	0.106378496
99	0xbe071cea	-0.13194624
100	0xbe454694	-0.19265205
101	0xbdd44dcb	-0.103664
102	0xbe02c1b2	-0.12769201
103	0x3e2fef62	0.17181161
104	0x3e320b3d	0.173871
105	0x3c7d0e6b	0.015445332
106	0xbd220d67	-0.039563563
107	0xbe330de4	-0.17485768
108	0xba748252	-0.00093272806
109	0xbd4fae68	-0.050703436
110	0x3bb2be8a	0.005454843
111	0x3d9024c1	0.0703826
112	0x3df468e9	0.119340725
113	0xbe5e18d0	-0.21689153
114	0xbe40db4a	-0.18833652
115	0xbb6f3e70	-0.0036505722
116	0xbe42efc4	-0.19036776
117	0x3d97c26e	0.074101314
118	0x3ce27ad0	0.027646452
119	0xbe3260d7	-0.17419754
120	0xbe5c5a64	-0.21518856
121	0x3e2e30c9	0.17010798
122	0xbc2289fa	-0.0099205915
123	0x3d8bff1e	0.06835769
124	0xbe0d627a	-0.13807097
125	0x3a11864d	0.00055513234
126	0x3cd001a9	0.025391417
127	0x3dcc94d6	0.09989326
128	0x3e5069ab	0.20352809
129	0x3d3948c1	0.0452354
130	0x3e61aa41	0.22037603
131	0x3d41dde6	0.04733076
132	0x3e22ead9	0.159099
133	0x3d8a788c	0.06761274
134	0xbe251075	-0.16119559
135	0x3cd2bc00	0.025724411
136	0x3d8f1f0e	0.06988345
137	0xbd6bcf9d	-0.057571042
138	0x3e2445c2	0.16042235
139	0xbdbc91f1	-0.092075236
140	0x3e557132	0.20843962
141	0x3ca1a9ef	0.019734351
142	0x3e3e2166	0.18567428
143	0x3d6d8134	0.057984546
144	0x3e197d13	0.14989118
145	0x3d987528	0.07444221
146	0xbdab34b5	-0.083596624
147	0xbe1b1ddb	-0.15148108
148	0xbbd390cc	-0.00645647
149	0x3ca49118	0.020088717
150	0x3d9f68cf	0.077836625
151	0x3e3698a3	0.17831664
152	0xbcead9c3	-0.02866829
153	0x3e4e2ccf	0.2013428
154	0xbe19dada	-0.15024891
155	0xbe475bb3	-0.19468574
156	0xbda3e4d3	-0.08002629
157	0x3e60528a	0.21906486
158	0x3d7e5a30	0.06209773
159	0x3ded53c9	0.115882464
160	0x3d42ff88	0.047606975
161	0x3d5e5178	0.054276913
162	0x3d9b9455	0.075966515
163	0x3e33d2a8	0.17560828
164	0x3c35301a	0.011058832
165	0x3e335639	0.1751336
166	0xbe4a6a73	-0.1976717
167	0x3e36dd33	0.17857818
168	0x3d9ac8f9	0.07557864
169	0xbdf43199	-0.119235225
170	0xbe25024f	-0.16114162
171	0xbe3383d7	-0.17530762
172	0x3e0e874a	0.13918796
173	0x3dce229c	0.10065195
174	0xbe0b8fd2	-0.13629082
175	0xbd10f3ab	-0.03538863
176	0x3e3ac46a	0.18238989
177	0x3e0d7ae8	0.13816416
178	0x3de9548f	0.113930814
179	0x3df8aeac	0.12142691
180	0x3df804c1	0.12110282
181	0x3e0492de	0.1294665
182	0x3d7e6368	0.06210652
183	0xbbd24703	-0.0064171567
184	0x3e398c36	0.18119892
185	0x3e51694d	0.20450325
186	0x3e0fcb6c	0.14042443
187	0xbd75d8cb	-0.060021203
188	0xbe4297b7	-0.19003187
189	0xbdccb1b3	-0.09994831
190	0xbccadb09	-0.024762647
191	0xbd2b6aac	-0.041849777
192	0x3de3031d	0.11084578
193	0x3e38329a	0.17988053
194	0xbe658a11	-0.2241595
195	0xbe245fcc	-0.16052169
196	0x3e242bba	0.16032305
197	0x3db8113a	0.08987661
198	0xbe31be7e	-0.17357823
199	0xbe53a80a	-0.2066957
200	0x3e0a8288	0.13526356
201	0xbbac1d5e	-0.0052525243
202	0xbe572c56	-0.21013007
203	0xbdf09a40	-0.11748171
204	0xbcd4bc76	-0.025968771
205	0x3dca5c51	0.09880889
206	0xbdb3bf39	-0.08776707
207	0xbd0c9338	-0.034320086
208	0x3e0f2960	0.13980627
209	0xbe05c53f	-0.13063525
210	0x3d6db504	0.058033958
211	0xbde421f5	-0.11139289
212	0xbc99e8d3	-0.018787777
213	0x3cec7d1c	0.02886825
214	0xbdbf5085	-0.0934153
215	0xbe37c26b	-0.17945258
216	0xbe008920	-0.12552309
217	0xbe2dd363	-0.16975169
218	0x3d2bb6c4	0.041922346
219	0xbdc20cf5	-0.094751276
220	0x3d22318c	0.039598033
221	0x3e16e35d	0.1473517
222	0xbd56c44e	-0.052433304
223	0x3d361a97	0.04445895
224	0x3c8ed233	0.017434215
225	0x3dbde86c	0.092728466
226	0x3dce103a	0.10061689
227	0x3d1246d6	0.035712086
228	0xbd818a15	-0.06325165
229	0xbe2acd65	-0.16679914
230	0xbd976944	-0.07393125
231	0x3df0f11b	0.11764737
232	0x3e12bbf4	0.14329511
233	0x3d471475	0.048603494
234	0xbe3a7d51	-0.18211867
235	0xbd7497ba	-0.05971501
236	0xbe047cc5	-0.12938221
237	0xbe330dc1	-0.17485715
238	0x3e52cbb4	0.20585519
239	0xbd164379	-0.03668544
240	0xbe07d8cc	-0.13266295
241	0x3e4e59b6	0.2015141
242	0xbda17526	-0.078836724
243	0xbe66932a	-0.22517076
244	0x3e100846	0.14065656
245	0xbe1d8409	-0.15382399
246	0x3d432d2b	0.047650497
247	0x3d850780	0.06495571
248	0x3e1dfb8c	0.15427989
249	0x3e1f5a41	0.15561773
250	0x3d8a358c	0.067484945
251	0x3df47bbe	0.119376644
252	0x3e20be21	0.15697528
253	0xbd8c91e3	-0.06863763
254	0x3e543478	0.2072314
255	0xbe0ae001	-0.13562013

clf_net.0.bias f4 [256]
0	0xbd829c9a	-0.06377526
1	0xbda053b5	-0.07828466
2	0x3e15cec4	0.14629656
3	0xbda68586	-0.08130936
4	0x3c8766db	0.016528537
5	0xbe43f324	-0.1913572
6	0x3e0444d6	0.12916884
7	0x3bfbb121	0.0076810275
8	0x3e5e9e09	0.21739973
9	0xbc85977c	-0.016307585
10	0xbcff8cf7	-0.031195147
11	0x3e4d0d7f	0.2002468
12	0xbdd0ed66	-0.1020153
13	0x3e2d9d62	0.16954568
14	0x3e4ea46f	0.20179914
15	0x3a9c52a8	0.0011926489
16	0xbdf84861	-0.1212318
17	0xbddca45d	-0.10773537
18	0x3e29dbc7	0.16587745
19	0x3e59895c	0.21243805
20	0x3be90ade	0.007111891
21	0xbdeb1add	-0.11479733
22	0x3e474b6f	0.1946237
23	0xbe20fdf9	-0.15721883
24	0x3d60c616	0.05487641
25	0xbe12a64d	-0.14321251
26	0x3e4c2241	0.19934942
27	0x3e19515e	0.14972445
28	0xbb9d24db	-0.0047956533
29	0xbe279e1b	-0.16368906
30	0x3e3ac811	0.18240382
31	0x3e468a2c	0.19388646
32	0xbd801468	-0.06253892
33	0xbceadad8	-0.028668806
34	0x3e596c31	0.21232678
35	0xbe111bc8	-0.14170754
36	0xbdac5881	-0.08415318
37	0x3dacb191	0.084323056
38	0x3e1fb59e	0.15596625
39	0x3e04f0dc	0.12982506
40	0xbd01ee3f	-0.03172135
41	0x3e1d6317	0.15369831
42	0xbdcf862d	-0.10133014
43	0xbe406966	-0.18790206
44	0x3da90688	0.08253199
45	0xbbff0d58	-0.007783573
46	0xbdf86824	-0.12129238
47	0x3dc6b83e	0.0970311
48	0xbd668b40	-0.056285143
49	0x3e231a29	0.15927948
50	0xbd926015	-0.071472324
51	0x3e2920ed	0.16516466
52	0xbda63657	-0.08115833
53	0xbd6535b6	-0.055959426
54	0xbe418719	-0.18899192
55	0x3e4d3172	0.20038393
56	0x3e067b7e	0.13133046
57	0x3d9bbdf4	0.0760459
58	0x3ceab163	0.028649038
59	0xbe20317b	-0.15643875
60	0x3e25a969	0.16177906
61	0xbe070af1	-0.13187768
62	0xbb29656a	-0.00258478
63	0x3dc0ea71	0.09419716
64	0xbe3baecc	-0.18328398
65	0x3d619d56	0.055081688
66	0xbe2879ff	-0.16452788
67	0x3c9340b0	0.017975181
68	0x3e03d395	0.12873681
69	0xbcd9d336	-0.026589971
70	0xbc5cb5a3	-0.01347104
71	0xbe2bb9ba	-0.16770068
72	0xbe023906	-0.12717065
73	0xbdf1c93e	-0.11805962
74	0xbdefa6d2	-0.1170174
75	0xbde1c79f	-0.11024403
76	0xbdbd969b	-0.09257241
77	0xbe288caa	-0.16459909
78	0xbd32a179	-0.043611024
79	0xbe5cb402	-0.21553043
80	0xbe2ee094	-0.17077857
81	0x3e381fa2	0.17980817
82	0x3e062f76	0.13104042
83	0xbda6f130	-0.081514716
84	0xbd831f8a	-0.064025
85	0x3e07f242	0.13276008
86	0xbd9124be	-0.07087086
87	0x3e3ecc11	0.18632533
88	0xbd9b71d6	-0.07590072
89	0x3da7b613	0.08189025
90	0x3e2494e5	0.16072424
91	0x3d5096be	0.05092501
92	0x3d6d40cb	0.05792312
93	0xbe258b42	-0.16166404
94	0x3d507e10	0.050901473
95	0xbdf595be	-0.11991452
96	0xbdd00ecd	-0.10159073
97	0x3e27af08	0.16375363
98	0xbe29bcc3	-0.16575913
99	0x3dc6cfba	0.097075894
100	0xbdea35dd	-0.11436055
101	0x3d117e0e	0.035520606
102	0x3e2f9b15	0.17149003
103	0x3d905972	0.0704831
104	0xbd98fa95	-0.0746967
105	0xbd90dd31	-0.07073439
106	0x3e11f583	0.14253812
107	0xbdb1142d	-0.08646426
108	0x3deb54df	0.11490797
109	0x3df323ba	0.11872049
110	0xbe0ed5d3	-0.13948755
111	0xbd8c1a13	-0.06840911
112	0xbcaf74bf	-0.021417974
113	0xbe1fbd18	-0.15599477
114	0xbe1b4a28	-0.15165007
115	0xbe0c02ce	-0.13672945
116	0xbdab629c	-0.083684176
117	0x3e4fcb9d	0.20292516
118	0x3cda1666	0.026622009
119	0xbe20361e	-0.15645644
120	0xbe2637f5	-0.16232283
121	0x3d511da5	0.05105366
122	0xbce0f19f	-0.027458964
123	0xbe22a20d	-0.1588213
124	0x3d800bce	0.062522516
125	0xbd089d47	-0.033353116
126	0x3e06283d	0.13101287
127	0xbbc8ba1f	-0.006125703
128	0xbe288389	-0.16456427
129	0x3d805c7c	0.0626764
130	0x3e292258	0.16517007
131	0x3e3b8ea8	0.18316138
132	0x3dba0707	0.090833716
133	0xbe1a54c3	-0.15071397
134	0x3cf9d761	0.030498208
135	0x3d691764	0.056907073
136	0xbcad161b	-0.021128705
137	0x3df5b7c2	0.1199794
138	0x3dcb13bd	0.09915874
139	0x3e2fa16f	0.17151426
140	0x3c9a5b0f	0.018842248
141	0xbdd1d433	-0.10245552
142	0xbe5732fc	-0.21015543
143	0x3e473e3f	0.19457339
144	0xbdd94732	-0.106092826
145	0x3e44cbca	0.19218364
146	0xbdef0912	-0.11671652
147	0x3ddcd16f	0.10782134
148	0xbe40ef9b	-0.18841402
149	0xbcc359bd	-0.023846501
150	0xbd3722c9	-0.044710908
151	0x3debde0b	0.11516961
152	0xbd26d9af	-0.040734943
153	0xbdb38494	-0.08765522
154	0xbe152b55	-0.14567311
155	0xbe5bdda9	-0.21471275
156	0x3c2ae6b3	0.01043098
157	0x3e6443f5	0.22291549
158	0xbd85c22b	-0.06531175
159	0xbe082b36	-0.13297734
160	0x3be1a95a	0.0068866434
161	0x3e607fb9	0.21923722
162	0x3e322e19	0.17400397
163	0x3d976ea0	0.07394147
164	0xbe0dab71	-0.13834931
165	0xbe08c6c8	-0.13357079
166	0x3e5ad5c2	0.21370605
167	0xbe1dd6ef	-0.15414022
168	0x3d0e1898	0.034691423
169	0xbdfbb5c6	-0.1229053
170	0xbe30a029	-0.17248596
171	0xbe0d6a84	-0.13810164
172	0x3d36b790	0.044608653
173	0xbe239d8d	-0.1597807
174	0xbda9f0ce	-0.08297883
175	0x3da57f02	0.080808654
176	0x3e2e4a31	0.1702049
177	0xbe3381d2	-0.17529991
178	0x3e1558fc	0.14584726
179	0xbdd39cb0	-0.1033262
180	0xbe3371cc	-0.17523879
181	0xbd0ec384	-0.034854427
182	0xbdf93268	-0.12167817
183	0xbe071843	-0.13192849
184	0xbc47264e	-0.012155129
185	0xbd114591	-0.035466734
186	0x3e1765e7	0.14784966
187	0x3e24120d	0.16022511
188	0xbe2203f7	-0.15821825
189	0x3e2f217b	0.17102616
190	0xbd330105	-0.043702144
191	0xbce820ae	-0.028335895
192	0xbdc3f92d	-0.09569011
193	0x3b82f73c	0.003996758
194	0xbe2333f6	-0.1593779
195	0xbe3837e9	-0.17990078
196	0xbd2925b0	-0.041295707
197	0x3dfb174d	0.12260304
198	0xbdb3c434	-0.08777657
199	0xbe2d62c7	-0.16932212
200	0x3e2cb2fb	0.1686515
201	0xbe29bce8	-0.16575968
202	0xbce4e70b	-0.027942201
203	0x3e253453	0.16133241
204	0x3e282579	0.16420545
205	0x3e4cc96e	0.19998714
206	0x3d1d6c82	0.03843356
207	0xbda4acf6	-0.08040802
208	0xbd3a608f	-0.04550224
209	0xbd83dd17	-0.06438654
210	0xbbbed676	-0.0058239056
211	0xbe1e501b	-0.15460245
212	0xbdd5baee	-0.10436045
213	0xbd6e76ed	-0.058218885
214	0xbe4b76a1	-0.19869472
215	0x3e40bc54	0.18821841
216	0x3e25a1c4	0.1617499
217	0x3e173442	0.14766029
218	0xbe2fb3b6	-0.17158398
219	0xbe22f75a	-0.1591467
220	0xbd9abcf9	-0.07555575
221	0x3e59bae9	0.21262707
222	0x3e0c7432	0.137162
223	0x3d1291ac	0.035783455
224	0x3d87542f	0.066078536
225	0xbe063b19	-0.13108481
226	0xbd6dbaa8	-0.058039337
227	0x3e5e6ab5	0.21720393
228	0x3d8930b3	0.06698742
229	0x3de2bdc7	0.110713534
230	0x3d80a253	0.06280961
231	0x3d80138c	0.06253728
232	0x3d49609c	0.0491644
233	0xbb8422a9	-0.004032452
234	0x3e3642f7	0.17798983
235	0xbe5e5ab1	-0.21714284
236	0x3d7c2971	0.06156296
237	0xbe5cce50	-0.21563077
238	0xbdc299b3	-0.09501972
239	0x3dec4243	0.11536076
240	0x3e53cfa9	0.20684685
241	0xbe405609	-0.1878282
242	0x3e45d4d8	0.19319475
243	0xbe1dd68b	-0.15413873
244	0x3c283c01	0.010268212
245	0x3e6229ad	0.2208621
246	0xbe5070cf	-0.20355533
247	0x3dad1ebe	0.08453129
248	0xbe610ae8	-0.21976817
249	0x3d8dd130	0.06924665
250	0xbc441343	-0.011967483
251	0xbe05583e	-0.13021943
252	0x3d9b6231	0.07587088
253	0xbdc41c13	-0.09575667
254	0x3db49b33	0.088186644
255	0x3d6eef52	0.058333702

clf_net.1.weight f4 [256]
0	0x3f7f03c1	0.99615103
1	0x3f7ffe52	0.99997437
2	0x3f8099b7	1.004691
3	0x3f7e5dd5	0.99361926
4	0x3f7e4929	0.99330384
5	0x3f805f07	1.0029
6	0x3f80a7e1	1.0051233
7	0x3f7f8745	0.9981578
8	0x3f807db4	1.0038362
9	0x3f7f1bfd	0.9965208
10	0x3f80829d	1.003986
11	0x3f802e20	1.0014076
12	0x3f7f09ef	0.9962453
13	0x3f7e8508	0.9942174
14	0x3f8052ba	1.0025246
15	0x3f8043f6	1.002074
16	0x3f7e7dd0	0.99410725
17	0x3f80b4ee	1.0055215
18	0x3f80813b	1.0039438
19	0x3f7f645c	0.9976251
20	0x3f80910f	1.0044268
21	0x3f7f1fda	0.99657977
22	0x3f7e5d27	0.9936089
23	0x3f7dfd49	0.9921461
24	0x3f804fbb	1.0024332
25	0x3f804cd6	1.0023448
26	0x3f808f1e	1.0043676
27	0x3f7e6b44	0.99382424
28	0x3f7fe6a9	0.99961334
29	0x3f7e5b2c	0.9935787
30	0x3f8053b2	1.0025542
31	0x3f804776	1.0021808
32	0x3f80ea66	1.0071533
33	0x3f7fe3d1	0.99956995
34	0x3f809d76	1.0048053
35	0x3f7def58	0.99193335
36	0x3f80649f	1.0030707
37	0x3f80b1e8	1.0054293
38	0x3f8063b2	1.0030425
39	0x3f7e8e4f	0.99435896
40	0x3f811a5e	1.0086172
41	0x3f7ef506	0.99592626
42	0x3f80be9b	1.0058168
43	0x3f7e578e	0.9935235
44	0x3f7f9e3f	0.9985084
45	0x3f7fc14f	0.9990434
46	0x3f7e7d17	0.9940962
47	0x3f806b8b	1.003282
48	0x3f80d74b	1.0065702
49	0x3f80b8a7	1.0056351
50	0x3f80b629	1.0055591
51	0x3f7f00ea	0.9961077
52	0x3f800ec0	1.0004501
53	0x3f808bdd	1.0042683
54	0x3f801a6b	1.0008062
55	0x3f80cdbf	1.0062789
56	0x3f816602	1.0109255
57	0x3f809dd1	1.0048162
58	0x3f7e966f	0.99448293
59	0x3f80cda2	1.0062754
60	0x3f7e8da5	0.9943488
61	0x3f7fe1b1	0.9995375
62	0x3f7f6c2d	0.9977444
63	0x3f80661f	1.0031165
64	0x3f7fb8f7	0.9989161
65	0x3f7fdba5	0.99944526
66	0x3f80788d	1.0036789
67	0x3f7f14e3	0.99641246
68	0x3f7edc66	0.9955505
69	0x3f7ed759	0.99547344
70	0x3f7e9fcf	0.994626
71	0x3f805e1f	1.0028723
72	0x3f7fafc6	0.99877584
73	0x3f7f7341	0.9978524
74	0x3f80690b	1.0032057
75	0x3f7efe00	0.99606323
76	0x3f7fc42c	0.9990871
77	0x3f7e0e55	0.9924062
78	0x3f7e6834	0.9937775
79	0x3f7ee85b	0.99573296
80	0x3f7f0f51	0.99632746
81	0x3f80571b	1.0026582
82	0x3f80a9de	1.0051839
83	0x3f8014c9	1.0006343
84	0x3f7db0da	0.9909798
85	0x3f7f08da	0.9962288
86	0x3f80a53f	1.0050429
87	0x3f7e4085	0.993172
88	0x3f7e4929	0.99330384
89	0x3f80b5c2	1.0055468
90	0x3f7ef3c3	0.995907
91	0x3f809b36	1.0047367
92	0x3f805aae	1.0027673
93	0x3f809ca9	1.0047809
94	0x3f7fb24c	0.99881434
95	0x3f7e26a3	0.99277705
96	0x3f7ec694	0.99521756
97	0x3f80bd2b	1.005773
98	0x3f8030c8	1.0014887
99	0x3f808009	1.0039073
100	0x3f7e6b68	0.9938264
101	0x3f8026b5	1.0011812
102	0x3f800960	1.0002861
103	0x3f7f5c6c	0.997504
104	0x3f80c27f	1.0059355
105	0x3f7f0b55	0.99626666
106	0x3f7ee8bf	0.9957389
107	0x3f7f5f02	0.99754345
108	0x3f803b33	1.0018066
109	0x3f7eab69	0.994803
110	0x3f7e87bc	0.99425864
111	0x3f80a058	1.0048933
112	0x3f8062e4	1.0030179
113	0x3f7fc647	0.9991192
114	0x3f802d7e	1.0013883
115	0x3f7e87db	0.9942605
116	0x3f7efea5	0.99607307
117	0x3f80f289	1.0074016
118	0x3f80479b	1.0021852
119	0x3f7edeb7	0.99558586
120	0x3f7f0000	0.99609375
121	0x3f7f2eea	0.9968096
122	0x3f7e7aa1	0.99405867
123	0x3f80884a	1.0041592
124	0x3f806fe3	1.0034145
125	0x3f7eef81	0.99584204
126	0x3f809cb7	1.0047826
127	0x3f80da37	1.0066594
128	0x3f7e8a14	0.9942944
129	0x3f80580e	1.0026872
130	0x3f80efed	1.007322
131	0x3f7e708f	0.993905
132	0x3f7e54c3	0.99348086
133	0x3f7e57d0	0.9935274
134	0x3f80e258	1.0069075
135	0x3f800a2d	1.0003105
136	0x3f7f1475	0.9964059
137	0x3f7e44c7	0.99323696
138	0x3f7de4f5	0.99177486
139	0x3f7f1264	0.99637437
140	0x3f7f96d5	0.99839526
141	0x3f808fee	1.0043924
142	0x3f7ffb13	0.99992484
143	0x3f7e7eac	0.99412036
144	0x3f7ee5bf	0.99569315
145	0x3f7e99fa	0.994537
146	0x3f803cec	1.0018592
147	0x3f7e7c23	0.9940817
148	0x3f80d2ec	1.0064368
149	0x3f80c357	1.0059613
150	0x3f80500b	1.0024427
151	0x3f809631	1.0045835
152	0x3f7e9c24	0.99457
153	0x3f80dce2	1.0067408
154	0x3f7f02a3	0.996134
155	0x3f7e7150	0.9939165
156	0x3f80a951	1.0051671
157	0x3f80adf4	1.0053086
158	0x3f80ac72	1.0052626
159	0x3f7f520a	0.99734557
160	0x3f7e8fdb	0.99438256
161	0x3f7f25b8	0.9966693
162	0x3f7ec99c	0.9952638
163	0x3f7ea86f	0.9947576
164	0x3f813061	1.0092889
165	0x3f7e5207	0.99343914
166	0x3f812315	1.0088831
167	0x3f80a71e	1.0051
168	0x3f7ecaa1	0.9952794
169	0x3f805b28	1.0027819
170	0x3f80ef66	1.0073059
171	0x3f8031ff	1.0015258
172	0x3f7ef918	0.99598837
173	0x3f80a374	1.0049882
174	0x3f7ed122	0.9953786
175	0x3f7df740	0.992054
176	0x3f7fb3a7	0.998835
177	0x3f7f4fc3	0.9973108
178	0x3f7eaa45	0.9947856
179	0x3f80df1a	1.0068085
180	0x3f80d0d9	1.0063735
181	0x3f7f8d1a	0.9982468
182	0x3f7f02cc	0.9961364
183	0x3f7de995	0.9918454
184	0x3f7e8094	0.99414945
185	0x3f7edcaa	0.99555457
186	0x3f7e003b	0.992191
187	0x3f7e6b63	0.9938261
188	0x3f7f03b8	0.9961505
189	0x3f7f4436	0.99713457
190	0x3f7efee8	0.99607706
191	0x3f7e3614	0.99301267
192	0x3f7e84d7	0.9942145
193	0x3f7f2d9d	0.99678975
194	0x3f7e6a76	0.99381196
195	0x3f807684	1.0036168
196	0x3f7e4117	0.9931807
197	0x3f80c090	1.0058765
198	0x3f8050c1	1.0024644
199	0x3f7f52c0	0.9973564
200	0x3f808a65	1.0042235
201	0x3f80fc45	1.0076987
202	0x3f7eb8f6	0.9950098
203	0x3f80a0ca	1.0049069
204	0x3f805da1	1.0028573
205	0x3f7e1d5b	0.9926354
206	0x3f7fb5cd	0.9988678
207	0x3f7f6ce6	0.9977554
208	0x3f7ebcfd	0.99507123
209	0x3f7e7063	0.9939024
210	0x3f7e9fb9	0.9946247
211	0x3f7e8018	0.99414206
212	0x3f80c831	1.0061094
213	0x3f7f30ed	0.9968403
214	0x3f80757e	1.0035856
215	0x3f80a44d	1.0050141
216	0x3f802cab	1.0013632
217	0x3f80bca6	1.0057571
218	0x3f7ebfa5	0.99511176
219	0x3f804cfa	1.0023491
220	0x3f7dec7e	0.99188983
221	0x3f7e4e4b	0.99338216
222	0x3f80eb8c	1.0071883
223	0x3f7ec1a6	0.99514234
224	0x3f7ff25d	0.9997919
225	0x3f80da8b	1.0066694
226	0x3f7e75f2	0.9939872
227	0x3f80e641	1.0070268
228	0x3f80e744	1.0070577
229	0x3f80fa7d	1.0076443
230	0x3f7f4bbb	0.9972493
231	0x3f80942e	1.0045221
232	0x3f8064cb	1.003076
233	0x3f7eec40	0.9957924
234	0x3f7ed689	0.99546105
235	0x3f80bad4	1.0057015
236	0x3f7efedf	0.9960765
237	0x3f80723d	1.0034863
238	0x3f807863	1.0036739
239	0x3f7e9244	0.99441934
240	0x3f7ef4d4	0.9959233
241	0x3f7ddda3	0.99166316
242	0x3f812404	1.0089116
243	0x3f80ca97	1.0061826
244	0x3f803354	1.0015664
245	0x3f7eaa16	0.9947828
246	0x3f801203	1.0005497
247	0x3f807626	1.0036056
248	0x3f7e619c	0.9936769
249	0x3f7efd09	0.9960485
250	0x3f80c378	1.0059652
251	0x3f808897	1.0041684
252	0x3f80595e	1.0027273
253	0x3f7e88ae	0.99427307
254	0x3f7eefa0	0.9958439
255	0x3f8087ec	1.004148

clf_net.1.bias f4 [256]
0	0xbb7d3c04	-0.0038640508
1	0xbb807391	-0.0039200266
2	0x3a301177	0.00067164697
3	0xbbfc8649	-0.0077064377
4	0xbba15d4a	-0.004924451
5	0x3bcd679d	0.006268455
6	0x3b27bd25	0.0025594917
7	0x3ba88358	0.0051426105
8	0xbac4ec0e	-0.0015023963
9	0xbb9c190a	-0.004763727
10	0x3b9963c8	0.0046810843
11	0x3bbe2986	0.00580329
12	0xbb7ac636	-0.0038265116
13	0x3bdb204a	0.0066871988
14	0xbb9dbb65	-0.004813599
15	0x3b213d63	0.002460324
16	0xbb976af1	-0.0046209027
17	0x3bd139e8	0.006385077
18	0x3bc3ac58	0.0059714727
19	0xba2dd37e	-0.0006630941
20	0xba805609	-0.0009791265
21	0xbb7538dc	-0.0037417924
22	0xba969670	-0.0011488926
23	0xbbfdc6fb	-0.0077446676
24	0xbbced1e0	-0.00631164
25	0x3b9778ea	0.0046225684
26	0x3ba93543	0.00516382
27	0xba953fb1	-0.0011386779
28	0xbb841c4e	-0.0040316945
29	0xb964074e	-0.00021746496
30	0x3bad63e3	0.0052914484
31	0xbb944b89	-0.004525606
32	0x3bb83c21	0.0056224023
33	0xbb3d2cc1	-0.0028865787
34	0x3bb4b0b9	0.005514231
35	0x3b8d16c9	0.0043056947
36	0x3c06db7d	0.008231041
37	0x3b49e004	0.003080369
38	0x3b64b083	0.0034895248
39	0xbba3f8d9	-0.00500403
40	0x3ac0b9e0	0.0014703833
41	0xb9db5887	-0.00041836893
42	0x3bbad30e	0.005701429
43	0xb9951ec6	-0.00028442423
44	0xbb855a5c	-0.0040696096
45	0x3be808bd	0.00708112
46	0xbb9e5d7c	-0.0048329215
47	0xbbbd7d16	-0.0057827337
48	0x3be13ab5	0.0068734535
49	0xba3096d9	-0.0006736345
50	0x3bafffb0	0.0053710565
51	0xbbd5d1e7	-0.0065252664
52	0xba68f7bc	-0.0008887013
53	0x3bc3722a	0.005964537
54	0xbaa1adbb	-0.0012335101
55	0x3babc0ff	0.005241513
56	0xbb86c1c5	-0.0041124546
57	0x3bc5cb52	0.0060362006
58	0x3ba720c4	0.0051003415
59	0x3bc1cedd	0.0059145526
60	0xbb99fcbd	-0.004699318
61	0xbc15be28	-0.009139575
62	0xbadd993a	-0.0016906627
63	0x3b5382f0	0.003227409
64	0xbb0f4e95	-0.0021866907
65	0x3b9f9755	0.004870335
66	0x3bd093eb	0.0063652894
67	0xbb8bb35f	-0.004263326
68	0xbb02e2dd	-0.0019971647
69	0xbb85b3bd	-0.0040802644
70	0xbb8caafb	-0.0042928434
71	0x3bb92c7a	0.005651054
72	0x3a670fb2	0.00088142895
73	0xbb83fe7b	-0.004028139
74	0x3b149129	0.002266953
75	0xbb40e6fe	-0.0029434557
76	0x3b259025	0.0025262919
77	0xba8b383f	-0.0010621621
78	0xbc1546ba	-0.009111101
79	0xbb93dc75	-0.0045123645
80	0xbbc4bc9c	-0.0060039293
81	0x3b45d62f	0.0030187478
82	0x3bba8bfe	0.005692958
83	0x3ae8ddd1	0.0017766302
84	0xbc0c3c5e	-0.0085593145
85	0xbbc002a4	-0.00585969
86	0x3b396466	0.0028288602
87	0xbbd5db60	-0.0065263957
88	0xbbb9d704	-0.005671384
89	0x3bdac2be	0.006676047
90	0xbb1a50c4	-0.0023546675
91	0x3bba0345	0.0056766593
92	0x3bb8874e	0.005631364
93	0xbb83e6df	-0.0040253247
94	0xbbecffb2	-0.0072326297
95	0xbbbe9eff	-0.0058172937
96	0x3be97f95	0.0071258047
97	0x3be9bfe6	0.007133472
98	0xbb6a79a8	-0.003577808
99	0x3b9e9896	0.004839967
100	0xbb6cd8b8	-0.0036139917
101	0xbbc5d6c6	-0.006037566
102	0x3bbb4955	0.005715529
103	0xbbf1c2d1	-0.0073779603
104	0x3bcc6401	0.0062375073
105	0xbc017a1c	-0.007902648
106	0xbb3eabdb	-0.0029094133
107	0xbb41e974	-0.0029588612
108	0x3b920ef8	0.004457351
109	0xbb95afea	-0.0045680897
110	0xbb148bab	-0.0022666256
111	0xbb808a0e	-0.0039227074
112	0xbb7ae269	-0.0038281924
113	0xb9e40ad9	-0.0004349563
114	0x3b56e90a	0.003279271
115	0xbba0d9c2	-0.0049087713
116	0xbbbd9789	-0.0057858867
117	0xbbfa323a	-0.007635382
118	0x3b161ecb	0.0022906538
119	0xbc02d76a	-0.007985929
120	0xba7472f9	-0.00093249936
121	0xbb824df6	-0.003976579
122	0x3ba81284	0.0051291604
123	0x3b93782a	0.0045004087
124	0x3bce9d75	0.0063053914
125	0xbb8d4cd1	-0.0043121357
126	0xbb73650a	-0.0037139081
127	0x3bbd5aef	0.0057786624
128	0xbbc9ca75	-0.006158168
129	0x3b25e514	0.0025313543
130	0x3be9b0df	0.0071316804
131	0xbbd2f559	-0.006437939
132	0xbc0d8e68	-0.008639909
133	0xbbf8d9a4	-0.007594304
134	0xbb35fa77	-0.0027767697
135	0xbb0973bf	-0.002097353
136	0x3c05f460	0.008175939
137	0xbbd7ac5b	-0.0065818257
138	0xbbcc53c5	-0.006235572
139	0xbb833af6	-0.0040048314
140	0x3aaf4ae1	0.0013373756
141	0x3b5bcfd3	0.003354062
142	0x3bb58791	0.0055398424
143	0xbbb0e1d1	-0.005398013
144	0xbb8eb01d	-0.0043544904
145	0xbb5afaaa	-0.0033413568
146	0x3b58b3fa	0.0033066259
147	0xbae1b830	-0.001722103
148	0x3b3963cf	0.002828825
149	0x3976104b	0.00023466458
150	0x3a96808b	0.0011482401
151	0x3b7174c9	0.003684329
152	0xbb9345c4	-0.0044944007
153	0x3c04e960	0.008112282
154	0xbb98bdfd	-0.0046613202
155	0xbbf75ce0	-0.0075489134
156	0x3b43c8c3	0.0029874302
157	0x3b9b5c83	0.004741253
158	0x3bd9160a	0.0066249417
159	0xbbb85f5b	-0.0056266016
160	0xbba57ba2	-0.0050501386
161	0x3b8480bc	0.0040436666
162	0xbb825e3a	-0.003978518
163	0xb880ee96	-6.147956e-05
164	0x3c0d772c	0.00863437
165	0xb9f87203	-0.0004738719
166	0x3bdb4b01	0.006692291
167	0xbbbf2022	-0.005832688
168	0xbb8cdba2	-0.004298643
169	0x3b59d468	0.0033238176
170	0x3bb8039b	0.005615664
171	0xbbd4ea85	-0.0064976835
172	0xbb812dd5	-0.003942231
173	0x3bb98021	0.005661026
174	0xbb9e297a	-0.0048267217
175	0xbb181f34	-0.0023211958
176	0x3b63683f	0.0034699587
177	0xbb582a5c	-0.0032984233
178	0xbb56628b	-0.0032712545
179	0x3c0e5634	0.008687545
180	0x3c00fb36	0.007872393
181	0x39214225	0.00015378797
182	0xbb73e51c	-0.0037215417
183	0xbba07540	-0.00489679
184	0xbb7ace36	-0.0038269884
185	0x3ba52863	0.005040215
186	0xbbe69214	-0.007036457
187	0xbbd83e22	-0.0065992037
188	0x3b86d7fd	0.0041151033
189	0xbafcf618	-0.0019299416
190	0xbb7ce944	-0.0038591186
191	0xbbd094f4	-0.006365413
192	0xbb4c3a45	-0.003116266
193	0xbb5d73b3	-0.0033790886
194	0xbb7c39fd	-0.0038486712
195	0x3bc67fec	0.00605773
196	0xbbca9b12	-0.0061830366
197	0x3bc161c9	0.0059015495
198	0x3a986961	0.0011628085
199	0xbb56ef93	-0.0032796606
200	0x3b5d87b3	0.0033802807
201	0x3bf8f093	0.007597038
202	0xba0a417f	-0.0005274042
203	0x3bd97f43	0.006637485
204	0x3b6093c2	0.0034267758
205	0xbb89131b	-0.0041831858
206	0x3bc19799	0.0059079644
207	0xbc096fc1	-0.008388461
208	0xbbbb5f63	-0.005718158
209	0xbbc5d7c2	-0.006037683
210	0xbbda1387	-0.00665516
211	0xbb2aea07	-0.0026079433
212	0x3bf98a0a	0.0076153325
213	0x3973ade6	0.00023239068
214	0x3bbe7761	0.005812571
215	0x3bdaf05e	0.006681486
216	0xbb9f2e08	-0.0048577823
217	0xbc1852d6	-0.009297093
218	0xbbad339d	-0.005285694
219	0x3b7fd301	0.003903568
220	0x3b66a981	0.0035196247
221	0xbb91a15f	-0.0044442858
222	0x3c0665c8	0.0082029775
223	0xbb10ee37	-0.0022114643
224	0xbad97623	-0.0016590994
225	0x3bb451e3	0.0055029257
226	0xbbc5a6cf	-0.006031848
227	0x3c012f26	0.007884776
228	0xb991964f	-0.00027768544
229	0x3bbd0134	0.0057679657
230	0xbb76b683	-0.0037645407
231	0xba8fa14a	-0.0010958102
232	0x3b937aa0	0.004500702
233	0xbb862cb5	-0.004094685
234	0xbb62b28d	-0.0034591288
235	0x3bc211c9	0.0059225303
236	0xbb869903	-0.004107596
237	0x3bbe46e2	0.0058067897
238	0xbb8e1af3	-0.0043367087
239	0xbbb2d336	-0.005457307
240	0x3bb83604	0.0056216735
241	0xbbbadafe	-0.0057023754
242	0x3ae24132	0.0017261861
243	0x3b38555f	0.0028127057
244	0xbc01ec48	-0.007929869
245	0xbb990ab3	-0.004670465
246	0x3bb04e15	0.005380402
247	0x3bbdaec3	0.0057886555
248	0xbbedb121	-0.0072537814
249	0xbb1dd7f7	-0.0024085024
250	0x3ba8af77	0.00514787
251	0x3bc9aa01	0.0061542992
252	0xbbc86165	-0.006115126
253	0xbb9e82d6	-0.004837374
254	0xbb745fc3	-0.0037288524
255	0x3b5bb5e9	0.0033525175

clf_net.1.running_mean f4 [256]
0	0xbaf1e25d	-0.0018454302
1	0x3ee1f7c7	0.44134352
2	0xbeebaa1c	-0.4602822
3	0x3e3fb79c	0.18722385
4	0xbe386b2a	-0.1800963
5	0xbf1990f9	-0.59986836
6	0x3efa4827	0.48883173
7	0x3ee52d9f	0.4476137
8	0x3f1cea7b	0.6129529
9	0x3dcfc6b9	0.10145325
10	0xbef11886	-0.47089022
11	0x3e797c8c	0.24363917
12	0x3e8e99da	0.27851754
13	0x3d7ee12a	0.062226452
14	0x3e3fbd95	0.18724664
15	0x3e7945ee	0.24343082
16	0x3e9f082f	0.3106093
17	0xbebf19a3	-0.37324247
18	0x3ec7a568	0.38993382
19	0x3e3c765c	0.18404526
20	0xbf000100	-0.50001526
21	0x3f5ba50f	0.85798734
22	0x3f07ffe3	0.5312483
23	0xbe5a3768	-0.21310198
24	0xbdfb56d0	-0.122724175
25	0xbddcd865	-0.107834615
26	0xbe6232a4	-0.2208963
27	0x3d2607f9	0.040534947
28	0xbea62886	-0.32452792
29	0xbdceb444	-0.10092977
30	0xbedcf759	-0.4315746
31	0x3ee34cd0	0.4439454
32	0x3ed5015b	0.41602597
33	0x3e083743	0.1330233
34	0x3f47468c	0.7784202
35	0xbcaae5a8	-0.020861462
36	0xbe4306bc	-0.19045538
37	0x3e83ec67	0.25766298
38	0x3ecd3a88	0.40083718
39	0xbebe62f6	-0.37184876
40	0xbc41a0c3	-0.011818114
41	0x3ef6b6db	0.48186383
42	0xbec2b606	-0.38029498
43	0xbda9d7c4	-0.08293107
44	0x3f2b5951	0.6693316
45	0xbde5b66f	-0.11216437
46	0xbe876665	-0.26445308
47	0x3e164c13	0.14677458
48	0xbe1ce0c5	-0.15320118
49	0x3ee2b170	0.44276
50	0x3c653332	0.013989257
51	0x3e5bea68	0.21476138
52	0xbe46712c	-0.19379109
53	0x3efc2db8	0.4925363
54	0xbefa713a	-0.4891451
55	0x3e8aae5d	0.27086154
56	0x3d6a2e37	0.05717298
57	0x3e8352fc	0.2564925
58	0xbe15d52d	-0.14632101
59	0x3e9a8138	0.3017671
60	0x3e4879ce	0.19577715
61	0x3d153c33	0.036434364
62	0xbe91ff92	-0.28515297
63	0x3da2c0be	0.07946919
64	0x3d98d27f	0.07462024
65	0x3eca434a	0.39504462
66	0x3b5d2429	0.0033743477
67	0x3e65bb47	0.22434722
68	0x3db3df6c	0.08782849
69	0xbeceac91	-0.40366033
70	0x3e801e6b	0.25023207
71	0x3deb8d47	0.11501556
72	0xbec4d016	-0.38440007
73	0xbe75b214	-0.23993713
74	0xbf4b9a3b	-0.7953221
75	0x3dc7fa86	0.097645804
76	0x3e8d4b0b	0.27596316
77	0x3d700ffd	0.058608998
78	0xbeb08382	-0.34475332
79	0xbf2891d5	-0.6584752
80	0x3ea2c43a	0.31790334
81	0xbeab4f53	-0.33458957
82	0xbe243b54	-0.16038257
83	0xbe9c2028	-0.30493283
84	0xbec690a3	-0.38782224
85	0xbed5a7d8	-0.41729617
86	0xbe1922cb	-0.14954679
87	0x3df63584	0.12021926
88	0xbe8937f2	-0.26800495
89	0xbdf562c9	-0.119817324
90	0x3d513806	0.05107882
91	0x3da601f1	0.08105839
92	0xbe403ea2	-0.18773893
93	0xbeb7f3fa	-0.35928327
94	0xbd1ab87c	-0.037773594
95	0xbe8aa3c6	-0.27078074
96	0xbe60848d	-0.21925564
97	0xbd5aad18	-0.05338773
98	0xbe790b80	-0.24320793
99	0xbdb48566	-0.08814506
100	0x3cc0fbcd	0.023557568
101	0x3ea9061b	0.3301247
102	0x3e740cd6	0.23833022
103	0x3d09d491	0.033649985
104	0xbdde66af	-0.10859429
105	0xbe34c28d	-0.1765234
106	0x3e238563	0.15968852
107	0xbec29221	-0.38002113
108	0xbd4bad5c	-0.049725875
109	0x3ef0e3d6	0.47048825
110	0x3e397141	0.18109609
111	0x3ed00fb0	0.4063697
112	0x3e89236a	0.2678483
113	0xbed39ad8	-0.41329074
114	0x3d1af327	0.037829544
115	0xbdd631db	-0.10458728
116	0x3dca5aa9	0.09880573
117	0x3f12c848	0.57336855
118	0x3e83e6d8	0.25762057
119	0x3e263727	0.16231976
120	0xbda64e93	-0.081204556
121	0xbe204464	-0.15651089
122	0xbd3853ef	-0.04500192
123	0xbf4c8881	-0.7989579
124	0x3f1d460e	0.6143502
125	0x3e807e37	0.25096294
126	0xbe3febe2	-0.18742326
127	0x3e2d729b	0.1693825
128	0xbd11135a	-0.035418846
129	0x3c05ee7d	0.008174536
130	0x3e52e49d	0.20595022
131	0x3ebe8ba1	0.37215903
132	0x3e3e618e	0.18591902
133	0xbd204895	-0.03913172
134	0xbe77d427	-0.24202023
135	0x3e382e0e	0.17986318
136	0x3e9d07ed	0.3067011
137	0x3e9a4b4a	0.30135566
138	0x3cfce582	0.030871157
139	0xbe8d6438	-0.27615523
140	0xbc61ec64	-0.01378927
141	0xbe856e59	-0.2606075
142	0x3eb5b69d	0.35490885
143	0x3e6da477	0.2320727
144	0xbd5ef432	-0.0544321
145	0x3e83e4ef	0.257606
146	0xbea69d6d	-0.3254198
147	0x3e96b43d	0.29434386
148	0xbf0d0a9d	-0.5509432
149	0xbe0d9908	-0.13827908
150	0xbf15ba9a	-0.58487856
151	0xbe969172	-0.2940784
152	0xbed61581	-0.4181328
153	0x3ea2e7f9	0.31817606
154	0xbeb5b479	-0.35489252
155	0x3cf98d09	0.030462759
156	0xbd8aa114	-0.067690045
157	0x3f292719	0.66075283
158	0x3e86d78d	0.26336327
159	0xbe89f7df	-0.26946923
160	0xbe1a966a	-0.15096441
161	0x3e4eb762	0.20187142
162	0x3f320223	0.6953451
163	0xbe8a6899	-0.27032927
164	0x3cc9d35a	0.024636913
165	0x3e9d15a2	0.30680567
166	0x3f37dfe2	0.71825993
167	0x3e93e565	0.28885952
168	0xbd33a951	-0.043862645
169	0x3e76a739	0.24087228
170	0xbf10d65d	-0.5657709
171	0xbed66c92	-0.41879708
172	0xbf0fa872	-0.561164
173	0x3d240267	0.040041354
174	0xbe76a4b3	-0.24086265
175	0x3e145508	0.14485562
176	0x3e94daeb	0.2907327
177	0xbf034ae4	-0.5128615
178	0xbe3ae1cf	-0.18250202
179	0xbe43257c	-0.19057268
180	0xbea240dc	-0.3169011
181	0x3e757166	0.2396904
182	0x3ed288cd	0.41119996
183	0xbe917762	-0.28411394
184	0x3f245f91	0.6420832
185	0xbcce1eb2	-0.025161121
186	0x3e708e23	0.23491721
187	0x3ebce6c6	0.36894816
188	0x3f49bcb4	0.78803563
189	0xbdf7a3d4	-0.120917946
190	0xbee73065	-0.4515411
191	0xbdc44c34	-0.09584847
192	0xbde42768	-0.11140329
193	0x3ea217da	0.31658822
194	0xbe83aa8f	-0.25716063
195	0x3e3ddc9b	0.18541186
196	0x3d98877b	0.07447716
197	0x3e8fc6ac	0.28081262
198	0xbe4b49b6	-0.19852337
199	0xbf0271df	-0.50955003
200	0x3e466272	0.19373491
201	0xbefcb80b	-0.49359164
202	0x3d3bb88e	0.045830302
203	0x3f43d0a7	0.76490253
204	0x3d91ef13	0.07125678
205	0x3d988bee	0.074485645
206	0xbed7ea98	-0.42171168
207	0xbdefbc42	-0.11705829
208	0xbd59a819	-0.053138826
209	0x3c9d0444	0.019167073
210	0x3eec9bd4	0.46212637
211	0xbe81007e	-0.25195688
212	0xbe9cffbe	-0.30663866
213	0x3e3d67d5	0.1849664
214	0x3e169c7a	0.14708129
215	0x3e5a62d9	0.2132677
216	0xbdf5ea92	-0.12007631
217	0x3e2c52d4	0.16828471
218	0xbcfadead	-0.030623758
219	0x3dc8753d	0.097879864
220	0x3ce8083c	0.028324239
221	0x3e93a658	0.28837848
222	0x3e026bc6	0.12736425
223	0xbe829dd2	-0.25511032
224	0x3dab199e	0.083544955
225	0x3ed7d9d3	0.42158374
226	0xbe13d0db	-0.14435141
227	0x3f3bc469	0.73346573
228	0xbee05593	-0.43815288
229	0xbd4f58ef	-0.050621923
230	0x3e6f1587	0.23348056
231	0xbdb2c706	-0.08729367
232	0xbe423e16	-0.18968996
233	0x3f01249a	0.50446475
234	0xbe8967b0	-0.2683692
235	0x3cc55329	0.024087505
236	0xbef7a953	-0.48371372
237	0xbe188402	-0.14894107
238	0xbe5e3eef	-0.21703695
239	0x3bb7f432	0.005613827
240	0x3eec05de	0.46098226
241	0xbd27c269	-0.04095689
242	0xbe7aa5cd	-0.2447731
243	0xbf24538d	-0.6418999
244	0xbd468513	-0.048466753
245	0x3ecb6158	0.39722705
246	0xbe542087	-0.20715533
247	0xbc8946d5	-0.016757408
248	0x3db52f1f	0.08846878
249	0x3eeabd97	0.4584777
250	0x3ee2c92e	0.44294113
251	0xbea262fc	-0.31716144
252	0x3d75be0d	0.0599957
253	0x3eba6949	0.3640845
254	0xbedeb610	-0.43498278
255	0x3e916bb2	0.28402478

clf_net.1.running_var f4 [256]
0	0x3ca258fa	0.019817818
1	0x3cfd4e50	0.030921131
2	0x3d0afebe	0.033934347
3	0x3c975378	0.018472418
4	0x3ca929d6	0.020649832
5	0x3cac43ff	0.021028517
6	0x3cd7f843	0.026363498
7	0x3d06c007	0.032897975
8	0x3d03ffff	0.03222656
9	0x3d0372b8	0.032091826
10	0x3c8ac89a	0.016941357
11	0x3c53c01e	0.012924222
12	0x3d07d6d4	0.03316386
13	0x3d20bcf1	0.03924269
14	0x3cb233d6	0.021753233
15	0x3d23278d	0.03983264
16	0x3cdc2b36	0.026876073
17	0x3ce61035	0.0280839
18	0x3c999658	0.018748447
19	0x3cf82de1	0.030295314
20	0x3ce2141e	0.027597483
21	0x3d258ec8	0.04041937
22	0x3ca7c0eb	0.020477733
23	0x3d02c4e0	0.031926036
24	0x3cef581b	0.029216817
25	0x3d19aa3f	0.037515875
26	0x3d060353	0.032718014
27	0x3cf0a1c6	0.029374015
28	0x3ce07b13	0.027402436
29	0x3d16c0b7	0.03680488
30	0x3cd2b301	0.025720121
31	0x3cbd8193	0.023133075
32	0x3cd2f943	0.025753623
33	0x3cb9f274	0.022698618
34	0x3cf680c7	0.030090703
35	0x3d0ba7eb	0.034095686
36	0x3d1aa0f1	0.037751142
37	0x3cd94693	0.02652291
38	0x3cd18e03	0.025580412
39	0x3cbc3376	0.022973757
40	0x3caac67c	0.020846598
41	0x3d1deed5	0.038557846
42	0x3cb40f24	0.021979876
43	0x3cdea823	0.027179783
44	0x3d07e0ad	0.033173252
45	0x3d0fc259	0.035097454
46	0x3cdeb9ce	0.027188208
47	0x3cd2db4d	0.025739336
48	0x3d2eddf7	0.04269215
49	0x3d4bb8f1	0.04973692
50	0x3cb45ae7	0.022016002
51	0x3cf74703	0.030185228
52	0x3d00f2ac	0.03148143
53	0x3c9e4dbf	0.019324182
54	0x3ce7bd60	0.028288543
55	0x3c9ae2b4	0.018906929
56	0x3c9218ce	0.017834093
57	0x3cfc3ded	0.030791247
58	0x3cdf9ff4	0.027297951
59	0x3d0e4531	0.034733955
60	0x3d13a3c3	0.036044847
61	0x3cf35fef	0.02970883
62	0x3cc832dc	0.024438314
63	0x3cf5932c	0.029977404
64	0x3d08ca6b	0.033396166
65	0x3cfb93a2	0.030710045
66	0x3cd253be	0.025674697
67	0x3cb2d1a5	0.021828482
68	0x3c9d5244	0.019204266
69	0x3ce32a8f	0.027730254
70	0x3d17a4a7	0.03702226
71	0x3d0e0ccc	0.034680173
72	0x3cd57b2d	0.026059711
73	0x3c2141d3	0.009842354
74	0x3cec14bf	0.028818486
75	0x3d1fa025	0.038971085
76	0x3cdf3ae5	0.027249763
77	0x3c8e6283	0.017380958
78	0x3d31fea4	0.043455735
79	0x3ca7abf8	0.020467743
80	0x3cfdba6c	0.030972682
81	0x3d2e2b07	0.042521503
82	0x3d0aac65	0.033855814
83	0x3d24200e	0.040069632
84	0x3d868a76	0.06569378
85	0x3ca9dd56	0.020735424
86	0x3d1611e3	0.03663815
87	0x3d093b3f	0.033503767
88	0x3cc2c7fb	0.023776999
89	0x3ca53075	0.020164708
90	0x3cab5320	0.02091366
91	0x3ce3aa09	0.02779104
92	0x3c919b5b	0.017774275
93	0x3d085184	0.033280864
94	0x3ce970d4	0.028496183
95	0x3ce49d8d	0.027907157
96	0x3c88e8c6	0.016712558
97	0x3cc1f213	0.023675
98	0x3d387d47	0.04504135
99	0x3cf23ded	0.029570544
100	0x3d286155	0.041108448
101	0x3ce981f1	0.028504344
102	0x3cf4951b	0.029856255
103	0x3cb18502	0.021669868
104	0x3d015106	0.03157141
105	0x3d01bb8e	0.031673007
106	0x3c972fbf	0.018455384
107	0x3c8a7723	0.016902512
108	0x3cbf1da5	0.023329565
109	0x3d2e0906	0.042489074
110	0x3cc75a4f	0.024335055
111	0x3d0d8f71	0.034560625
112	0x3cf601e4	0.030030198
113	0x3cb6ae95	0.022300044
114	0x3ce0c3bf	0.027437089
115	0x3d2f8b74	0.042857602
116	0x3c83d652	0.016093407
117	0x3d1c36a0	0.038138032
118	0x3ca3bef9	0.019988524
119	0x3cd3d01d	0.025856072
120	0x3cdba4a7	0.02681191
121	0x3d048d6a	0.032361425
122	0x3cdd604a	0.027023453
123	0x3cca83b1	0.024720998
124	0x3c9f267d	0.019427532
125	0x3d1611d4	0.036638096
126	0x3cd9dbf6	0.026594143
127	0x3c910f7d	0.01770758
128	0x3d6e1327	0.058123734
129	0x3d06c521	0.03290284
130	0x3c9ded84	0.019278295
131	0x3ccfd767	0.025371267
132	0x3ce23ff1	0.02761838
133	0x3cbaa224	0.022782393
134	0x3cb94936	0.022617918
135	0x3d009d1f	0.031399842
136	0x3d79ec9a	0.061016656
137	0x3d2998d1	0.041405503
138	0x3cda8154	0.026672997
139	0x3d12f837	0.035881247
140	0x3cd88106	0.02642871
141	0x3ca511ce	0.020150091
142	0x3d0cd6fb	0.03438471
143	0x3d0361aa	0.03207556
144	0x3ce0b757	0.027431173
145	0x3c8753cd	0.016519452
146	0x3cfdbeeb	0.030974826
147	0x3cc66e5b	0.024222543
148	0x3d36b6ad	0.044607807
149	0x3cb64a03	0.022252088
150	0x3d041990	0.03225094
151	0x3cb948ce	0.022617724
152	0x3cb89aa1	0.02253467
153	0x3ceb477b	0.028720608
154	0x3cd5f263	0.026116556
155	0x3d1ee44c	0.03879194
156	0x3ce6368c	0.028102182
157	0x3d05b251	0.03264076
158	0x3cea410b	0.028595468
159	0x3ce76355	0.028245607
160	0x3d481677	0.04884955
161	0x3c99a4dd	0.01875537
162	0x3ccddc97	0.0251296
163	0x3d2e4145	0.042542715
164	0x3ca916cb	0.020640751
165	0x3cd99d4f	0.026564268
166	0x3cfb5428	0.030679777
167	0x3cdddf46	0.027084004
168	0x3cbd8cc2	0.023138408
169	0x3cf5b2df	0.029992519
170	0x3d245adb	0.04012571
171	0x3d025e49	0.0318282
172	0x3cf24c2e	0.02957734
173	0x3ce22113	0.027603662
174	0x3ca612cd	0.020272637
175	0x3c69441b	0.014237429
176	0x3c9f09b5	0.019413808
177	0x3d12df79	0.03585765
178	0x3ce9d097	0.028541846
179	0x3d02390e	0.031792693
180	0x3cd2a5e5	0.02571387
181	0x3cbfee3c	0.023429029
182	0x3cbe1b84	0.02320648
183	0x3cc3b3d4	0.02388946
184	0x3d272c8d	0.04081397
185	0x3c965745	0.01835216
186	0x3cf8bfd4	0.030364908
187	0x3cf93260	0.030419528
188	0x3d6be4ce	0.057591252
189	0x3cfbd945	0.03074325
190	0x3ca38e9c	0.019965462
191	0x3d02c006	0.03192141
192	0x3d1897e5	0.037254233
193	0x3d0118b8	0.031517714
194	0x3cd28d0c	0.025702022
195	0x3d00117a	0.031266667
196	0x3cd2b2a2	0.025719944
197	0x3cf6eb66	0.030141544
198	0x3cffd430	0.031229109
199	0x3cf23548	0.029566422
200	0x3cdef376	0.0272157
201	0x3cbe0a02	0.023198131
202	0x3cc8ece5	0.024527023
203	0x3cd3028e	0.025758054
204	0x3cc4efab	0.024040064
205	0x3d068609	0.03284267
206	0x3d010cf5	0.031506497
207	0x3cb27b3b	0.021787276
208	0x3c9e6235	0.019333938
209	0x3c6be8a8	0.014398731
210	0x3cc2939c	0.023752026
211	0x3ca5bf31	0.020232769
212	0x3cd54b32	0.026036832
213	0x3d3ae227	0.045625832
214	0x3ca582ab	0.020203909
215	0x3cbc93c7	0.023019684
216	0x3d14a018	0.03628549
217	0x3cd9d1c4	0.026589282
218	0x3cf80a1e	0.030278262
219	0x3d2bb39d	0.04191934
220	0x3d040920	0.032235265
221	0x3cfdd604	0.03098584
222	0x3cc60136	0.0241705
223	0x3cf3d8a5	0.02976639
224	0x3ced7337	0.028985603
225	0x3cdab4ee	0.026697602
226	0x3cfcaf66	0.030845355
227	0x3c99ea47	0.01878847
228	0x3cc2bc1e	0.023771342
229	0x3cfae6a9	0.030627565
230	0x3ce898e5	0.028393218
231	0x3cd0aeb0	0.025473922
232	0x3d1079b5	0.03527232
233	0x3caa6499	0.020799922
234	0x3cd08bca	0.025457282
235	0x3d04e4fb	0.032444935
236	0x3d16078c	0.03662829
237	0x3d0cf920	0.03441727
238	0x3c831345	0.0160004
239	0x3d023644	0.031790033
240	0x3cee50e1	0.0290913
241	0x3cd1e5bc	0.025622241
242	0x3d35e11e	0.04440414
243	0x3d02fbae	0.0319783
244	0x3d0f5985	0.03499748
245	0x3cae4247	0.021271838
246	0x3cf29dd6	0.029616278
247	0x3cd47db7	0.025938852
248	0x3c491ba5	0.012274657
249	0x3cdb9c02	0.026807789
250	0x3ccbb249	0.024865286
251	0x3d0576c4	0.032583967
252	0x3d1c8d25	0.038220543
253	0x3d229bcd	0.039699364
254	0x3d07c31c	0.033145055
255	0x3cce34af	0.025171606

clf_net.3.weight f4 [256, 256]
0	0x3cc4f5d2	0.024042998
1	0x3ce27a7f	0.027646301
2	0x3cb214c2	0.021738414
3	0xbb444695	-0.0029949297
4	0xbd00669b	-0.031347852
5	0xbca93204	-0.020653732
6	0xbc98b1d4	-0.018639483
7	0x3d15ae0b	0.036542933
8	0x3ce7393a	0.02822553
9	0x3d4b6497	0.049656477
10	0x3d3b56ed	0.045737196
11	0x3d5a245a	0.053257324
12	0xbc8ac05a	-0.016937423
13	0xbd3e8516	-0.04651364
14	0x3d4ecf64	0.05049075
15	0xbb7b9fbf	-0.0038394777
16	0x3d470b66	0.048594855
17	0x3d4061e3	0.046968352
18	0x3d895d7d	0.067072846
19	0xbd240e79	-0.040052865
20	0x3c8b4237	0.016999347
21	0x3caf725a	0.021416832
22	0x3c269c5e	0.010169117
23	0xbd3da0fc	-0.046296105
24	0xbc8def3b	-0.017325988
25	0xbd52b9cc	-0.05144672
26	0x3d29f53f	0.04149365
27	0x3c3b67b5	0.0114383
28	0x3cd50675	0.026004056
29	0x3d00465a	0.031317092
30	0xbd4122f1	-0.047152463
31	0x3c08498d	0.008318317
32	0xbc96046c	-0.018312655
33	0x3d0066c1	0.031347994
34	0xbd7aa920	-0.061196446
35	0xbd3b694c	-0.045754716
36	0x3d07edf3	0.03318591
37	0x3d2d9b39	0.04238436
38	0xbc55204b	-0.0130081875
39	0x3bc31509	0.0059534353
40	0x3d13078c	0.03589587
41	0xbc8cc4f6	-0.017183762
42	0xbd098ef4	-0.033583596
43	0xbbea3ca1	-0.007148341
44	0xbcf67aef	-0.030087916
45	0x3d51f0ff	0.051255222
46	0x3d19aee7	0.037520315
47	0x3c72012d	0.014770788
48	0x3cfe4d52	0.031042729
49	0x3d286799	0.041114423
50	0x3d353885	0.044243354
51	0x3ae90fd7	0.001778121
52	0xbd5d78dc	-0.05407034
53	0xbd831151	-0.06399787
54	0x3d033df2	0.032041498
55	0xbd496203	-0.049165737
56	0xbd28048e	-0.04101997
57	0xba50fed0	-0.00079725403
58	0x3c894040	0.01675427
59	0x3d12e7b3	0.035865497
60	0x3d46a52a	0.048497356
61	0xbc189a61	-0.009314151
62	0xbd7fa8dd	-0.0624169
63	0x3d76a4b2	0.06021566
64	0x3d4c51e8	0.0498828
65	0x3ce7f2c4	0.028314002
66	0x3cb12053	0.021621859
67	0x3cc2d843	0.023784762
68	0x3d2a8647	0.041631963
69	0xbc26d773	-0.010183203
70	0x3d1146ff	0.035468098
71	0xba86a680	-0.001027301
72	0xbd0881e9	-0.033327017
73	0x3d2406d1	0.040045563
74	0x3d8444ca	0.06458433
75	0x3d6d0efb	0.057875615
76	0x3ccc5e43	0.024947291
77	0x3d36e335	0.044650275
78	0xbced2758	-0.028949425
79	0x3c1616b4	0.009160686
80	0x3cc935f2	0.024561856
81	0x3ce6c5d0	0.028170496
82	0xbbdc3305	-0.006719949
83	0x3c8a75a7	0.016901804
84	0xbbca6920	-0.0061770827
85	0xbc356554	-0.011071522
86	0xbd213088	-0.039352924
87	0x3ccf17e9	0.025279956
88	0xbce99db5	-0.028517583
89	0xbd2e451d	-0.04254638
90	0x3b9d47c8	0.0047998168
91	0xbd813208	-0.06308371
92	0xbceabee6	-0.02865548
93	0xbbf2b828	-0.007407207
94	0xbc5dc77b	-0.013536329
95	0xbd536614	-0.05161102
96	0x3d4b7c1f	0.049678918
97	0xbd3637a0	-0.044486642
98	0xbc0fb710	-0.008771673
99	0xbd64fe2f	-0.05590647
100	0x3d50c42e	0.05096834
101	0x3cef99a3	0.029248064
102	0xba741b2c	-0.000931191
103	0x3d14cdaa	0.03632895
104	0xbd628c60	-0.055309653
105	0x3d208bc3	0.039195787
106	0x3b51e792	0.0032028896
107	0xbd1ca600	-0.038244247
108	0x3d50ff74	0.05102487
109	0xbbd9b0ff	-0.006643414
110	0x3d30b312	0.043139525
111	0xbd05544d	-0.0325511
112	0xbd69e531	-0.05710334
113	0x3c4b5b69	0.012411931
114	0x3bb8ec75	0.0056434222
115	0xbd34da51	-0.044153515
116	0xbd809ae9	-0.06279547
117	0x3ccd013d	0.025025005
118	0xbba00d96	-0.004884432
119	0xbccf62e9	-0.025315719
120	0x3c31c710	0.010850683
121	0x3c60b314	0.013714571
122	0x3d4fc228	0.05072227
123	0xbd4d61a6	-0.050141953
124	0x3d39cbf2	0.045360513
125	0x3cdf16cd	0.027232552
126	0xbd4f57ee	-0.050620966
127	0x3d035f5b	0.03207336
128	0xbd6fec4d	-0.058574963
129	0xbb9b1f87	-0.004733983
130	0xbd87eea1	-0.06637312
131	0x3ceae16b	0.02867194
132	0x3d87e6d7	0.06635826
133	0xbd3eb325	-0.046557564
134	0xbd676b35	-0.056498725
135	0x3cfcb159	0.030846285
136	0x3d08f1d8	0.033433765
137	0x3b9a7171	0.0047132303
138	0x3d13d510	0.036091864
139	0x3d13874b	0.036017697
140	0x3c1573cd	0.009121847
141	0xbd5d090e	-0.053963713
142	0x3d4e665b	0.050390583
143	0x3d6f86d0	0.058478177
144	0xbd0c6ea1	-0.03428519
145	0xbd506347	-0.05087593
146	0xbd879a65	-0.06621245
147	0x3d5bb093	0.05363519
148	0xbb7d5752	-0.0038656783
149	0x3aa8192f	0.0012824888
150	0xbd183d29	-0.037167702
151	0xbd379ab7	-0.044825282
152	0x3d088225	0.03332724
153	0xbc496d91	-0.012294189
154	0x3d70e65f	0.05881345
155	0x3d466f3b	0.04844592
156	0x3cd0bab6	0.025479656
157	0xbc911898	-0.017711923
158	0xbc9ed5e3	-0.019389099
159	0x3d74fbc1	0.059810404
160	0x3d0eb2a1	0.034838323
161	0xbd17266f	-0.036901888
162	0x3c830dbf	0.015997766
163	0xbd713155	-0.058884937
164	0x3d090c1f	0.033458825
165	0xbd499b3b	-0.049220305
166	0x3d663060	0.056198478
167	0xbd817b49	-0.06322343
168	0xbd1f1550	-0.038838685
169	0xbc2755d5	-0.010213335
170	0x3ceb253b	0.028704276
171	0x3bf31e96	0.0074194176
172	0xbcd85059	-0.0264055
173	0x3a60ad1d	0.0008570718
174	0x3d4dffc9	0.050292764
175	0x3b272bd9	0.0025508313
176	0xbd451835	-0.04811879
177	0x3ce13a90	0.027493745
178	0xbc0e6014	-0.008689899
179	0x3c2ef3c9	0.01067824
180	0xbc40435a	-0.011734808
181	0xbd5f5db0	-0.054532707
182	0x3c8a1a5a	0.016858269
183	0xbc1705a6	-0.009217655
184	0x3b761d14	0.0037553953
185	0x3c499f60	0.012306064
186	0x3cb6deff	0.02232313
187	0xbd891539	-0.06693501
188	0xbd30e99d	-0.04319154
189	0x3c4de57c	0.01256692
190	0x3d461bb8	0.04836628
191	0x3d4e0b69	0.05030385
192	0x3d5ee404	0.05441667
193	0x3d731df2	0.05935473
194	0xbce13f2e	-0.027495947
195	0xbcb72383	-0.0223558
196	0xbc91c906	-0.01779605
197	0xbd5bb257	-0.053636875
198	0xbcf7d303	-0.030251985
199	0xbd67d0a5	-0.056595463
200	0x3c0666da	0.008203233
201	0xbd4034b9	-0.04692528
202	0x3cd77c4b	0.026304385
203	0xbc2dfee7	-0.0106198555
204	0x3d89d35b	0.06729766
205	0xbd017088	-0.03160146
206	0xbd5cf3ce	-0.053943448
207	0x3cdba935	0.026814083
208	0x3d5d7990	0.05407101
209	0xba2bd633	-0.00065550505
210	0xbd459051	-0.048233334
211	0x3cc572e9	0.024102645
212	0x3d2b5274	0.04182668
213	0x3c58aa75	0.013224234
214	0x3be24066	0.0069046495
215	0xbc8454d3	-0.016153729
216	0x3c341f0f	0.010993733
217	0xbd02a43e	-0.031894915
218	0x3cb60339	0.022218334
219	0x3c602f80	0.0136832
220	0x3c275bfe	0.010214804
221	0xbc804d58	-0.01566188
222	0xbd7c8c6f	-0.061657365
223	0xbd1fe1a4	-0.039033547
224	0x3d50815b	0.050904613
225	0x3c9b2b08	0.018941417
226	0x3c91f7c7	0.017818345
227	0xbcad60ab	-0.021164259
228	0xbb90a759	-0.0044144806
229	0x3c02a9c4	0.007975046
230	0x3d7c0c3d	0.06153511
231	0xbd007573	-0.03136201
232	0x3c9bb9c7	0.019009484
233	0x3d0cc814	0.034370497
234	0x3cf43509	0.029810445
235	0x3ba1a7fb	0.004933355
236	0xbd025b6d	-0.03182547
237	0xbcf94ca9	-0.030432062
238	0xbc76f05d	-0.0150719555
239	0x3b955c65	0.0045581334
240	0xbcd8aaad	-0.026448572
241	0xbd50d0ef	-0.050980505
242	0x3b98e6ae	0.004666171
243	0x3d41dc34	0.047329143
244	0xbc8fd725	-0.017558644
245	0xbd5c247b	-0.053745728
246	0x3cc501f0	0.024048775
247	0x3c8af5b3	0.016962862
248	0xbd557c6c	-0.05212061
249	0xbd8d5027	-0.069000535
250	0x3d3fab43	0.046794187
251	0x3d62345a	0.055225708
252	0xbd4cdd67	-0.050015833
253	0xbcbef573	-0.023310399
254	0xbc584dbc	-0.013202127
255	0x3d0548d6	0.032540165
