EE8591/Project/regression_models/Sine_squared/DNN/deepnn/training_models/net_4000.pt (torch, 7359 bytes, 13 tensors)

clf_net.0.weight f4 [16, 1]
00000000: 83c3 ecbe 68d6 f73e 5210 913e 4ade 823e
00000010: 993f 0bbf 44f8 8bbe 222d e43e 88c4 78bf
00000020: 230a 6f3e 1d71 2e3e 61e1 ab3e b316 f53d
00000030: f49a a3be 7570 c53e 9211 273e 312d ccbd
-0.46242914 0.48405766 0.28332764 0.25560218 -0.5439392 -0.2733785 0.44565684 -0.9717488
0.2334371 0.17035337 0.33570388 0.1196722 -0.31954157 0.3856236 0.16315296 -0.09969557

clf_net.0.bias f4 [16]
00000000: 0cce 003e 77c0 02be dbac d1bd 97cf a6bd
00000010: 1605 5abf 33a3 ce3e c218 b43e 52d8 6e3f
00000020: 3f17 07bf 5ef3 563f 9817 c13e 8e89 87bd
00000030: 2cae f33e 97ef 983c da91 0a3e 3a14 fbbe
0.125786 -0.12768732 -0.10238048 -0.08145063 -0.8516401 0.40358886 0.3517514 0.9329883
-0.52769846 0.839651 0.37713313 -0.06618033 0.4759382 0.018668933 0.135322 -0.4903887

clf_net.1.weight f4 [16]
00000000: 65b5 7b3f 5b1a 803f 980b 813f 1144 7d3f
00000010: 51b8 803f 7e54 7c3f 30af 7d3f 8245 813f
00000020: 10b7 813f a603 803f b922 7f3f 51be 7c3f
00000030: ff63 793f 8a06 7d3f 4c59 803f 7b71 843f
0.9832366 1.0008043 1.0081663 0.98931986 1.0056249 0.98566425 0.9909544 1.0099337
1.0133991 1.0001113 0.9966236 0.987279 0.97418207 0.988381 1.0027251 1.0347131

clf_net.1.bias f4 [16]
00000000: 5427 a9bc 6e8f d8bd c831 b13c 46b1 1dbd
00000010: a86f 913d 4269 27bd 06fe 613d 91b4 4d3d
00000020: 02e5 573d 8e86 59bd 0c06 9bbd 3e2e 1abb
00000030: 9570 c93d f347 993d 4b98 26bb 39a1 66bc
-0.020648636 -0.10574232 0.021630183 -0.03849914 0.07101375 -0.040871866 0.055173896 0.05022103
0.052708633 -0.053106837 -0.07569513 -0.0023526098 0.098359264 0.07484426 -0.0025420364 -0.014076524

clf_net.1.running_mean f4 [16]
00000000: 6565 97bd e668 a63d d839 a33c 284c ec3c
00000010: a911 8bbf 3735 923e 184e 0b3f 3e6e 033f
00000020: 1e90 dabe 23c6 693f 60a9 053f 02ec 6cbc
00000030: 200f ad3e cdd8 3d3e 54ae 523e 338f 08bf
-0.07392386 0.081254765 0.019925043 0.028844908 -1.0864764 0.28556225 0.54416037 0.5134009
-0.42688078 0.9131796 0.5221157 -0.0144605655 0.33800602 0.18539734 0.20574313 -0.53343505

clf_net.1.running_var f4 [16]
00000000: 9510 763c 65d7 863c f7ca b83b 9c60 963b
00000010: ad3f aa3c ff04 ac3b 9d92 643c c0d6 873d
00000020: 52e1 7a3b 4194 053b ceba 013c f5ce 833a
00000030: c210 eb3b 0b1b 2b3c 1cf3 f43a 7715 373a
0.015018602 0.01646013 0.0056394297 0.0045891535 0.020782316 0.005249619 0.013950971 0.06632757
0.0038281274 0.0020382556 0.007918073 0.0010056185 0.0071736285 0.010443459 0.0018688175 0.00069840945

clf_net.3.weight f4 [16, 16]
00000000: 44e1 d3bc d1f4 5cbe 8110 49bd 0ac2 813c
00000010: 12bc e1bc 5720 66be 89f3 b6bd a5e1 203e
00000020: 968e 083d f09f ee3d 41bd 13bd 1761 493e
00000030: d6c5 d33d 6f9b dcbd 7cb0 fabc 2d2f 6bbe
00000040: 0a07 273e f06f 453c e1fd 84be aaab b73d
00000050: 3936 163e 2918 a7bd 2d48 30be 3c73 2fbe
00000060: e481 913d 5cb0 1fbe 7e8c 6fbe 64e2 16be
00000070: c7cd 4d3d e64d 11be 064a 94be ccbc a1bd
00000080: 9a24 5bbe 9c07 b23d 5479 683e f86e 90bd
00000090: 172f 75bd 520f 0fbe 92f8 f1bc 1f08 d2bc
000000a0: 906c 663e f640 8a3d 32cc 053e f525 5cbe
000000b0: 72e4 803e 8321 03be 3819 6fbe c4b4 783e
000000c0: 44f6 5b3e 45e4 2ebd 736d 163e a0ab acbc
000000d0: e87f ebbd af80 203e a5c5 813e f132 133e
000000e0: f03a 2e3e 72ce 10be 9185 ea3c f4df 273c
000000f0: 98dc e23d da2e 13be 73a0 123d eac1 0bbe
00000100: d5e5 683e 0d3c 963c e084 b53d 04de 923d
00000110: 7f46 713d 01e6 4a3e dfe4 61bc 5ca1 0d3e
00000120: 8a94 2ebd 9ad1 7d3e c079 efbd 6462 ecbb
00000130: c032 3b3d b51b a9bd ad6f 423e b653 51be
00000140: 8283 723e c5a6 86be d50d 743d 3101 82bd
00000150: 5cb9 81bd db1b bcbd a1cb 18be 6470 18be
00000160: 6cc4 ed3d 389b 4f3e e1d0 1cbd 32e9 73bd
00000170: a2b0 0a3e 4612 ca3d f6b9 0f3e 3e4e d5bd
00000180: bda6 ddbb 9afa d2bd ac25 143e 9372 a53c
00000190: 4b33 4d3d 5e86 b6bd 6c32 8f3c 4c49 6a3e
000001a0: 3538 ea3d e936 a83d 874f ecbc 3ed0 623d
000001b0: a3f8 473e a6ff 42bd ae9b 83bd bffb 25be
000001c0: 0e12 edbd c041 e13d f842 b43d be94 2b3e
000001d0: 0ae6 4fbd 18f4 05bd 2920 29be 2421 55be
000001e0: e998 94bd 6cad 3cbe 1de5 503e b95e 08be
000001f0: bc7e ff3d 29a6 21be cca2 2bbd 8196 243c
00000200: 92f6 42be 3706 053e 2911 b2bd b6f2 133e
00000210: d7ee fe3c 5b9d abbd 49c3 793e b4a4 c5bd
00000220: 0870 263e 1cc4 80be 771d 32bd 942b 93bd
00000230: faf6 343e ddc8 443e 3516 8fbe af23 133d
00000240: 891f e63d 5b0e c03c 4aa4 49bd 5444 fcbd
00000250: 3693 8dbd 44cb aabd a9b6 39be 8388 33be
00000260: dfd3 15bd 6a9c 8cbd eddd c9bd 9ae1 b2bd
00000270: 1e08 febd b9df 2d3e bd55 9f3b 8067 81be
00000280: 7a32 9abd 3de6 48be 5d8b 433d 86ed 363e
00000290: 439c 73bd 8b30 483e b450 353e b740 b4bd
000002a0: 9871 65be 75ed 5d3d 3628 403e 1dc9 9e3d
000002b0: 79d0 67be b4b6 93bd 9ce4 80bd 56a1 a83d
000002c0: b896 c2bb fe15 86bd 7968 1d3e 88ba 59be
000002d0: 5b37 243d 3928 f8bd 11ea 2dbe b341 9e3d
000002e0: 5c3f 5abe 27b8 56be c193 9dbd fb29 0d3e
000002f0: daac e1bd 7825 25be 607c 1ebe 2608 623e
00000300: 4516 b1bd bf03 1c3e b4ec 42bd ef30 b0bd
00000310: bf53 2a3d 9ec1 853e 5d68 75bc cf5b 07be
00000320: 0b6e 7f3c 5748 753d b529 343e 2217 85be
00000330: 448c 853e ba3d 323e fdca 133c 42ec e5bd
00000340: 4128 84be 223a 373d 1f99 8a3d 3b83 0f3d
00000350: 7d89 203e cde4 5ebe e202 0c3c 7a26 be3c
00000360: 54d1 adbd c045 da3d 0042 7c3e d835 11be
00000370: fa96 4b3e 71ef ffbd c598 1fbe 205d d73d
00000380: 1d0e 8bbd f56f e33d ea4e 63be bc41 753e
00000390: a2ac 183d ce56 d9bd e793 34be 8347 1b3e
000003a0: ca74 6dbd d3d5 78bc d193 7e3d 0687 e83d
000003b0: a11d 713e ebf8 f8bd a34b 943d d87b 65be
000003c0: 1640 cfbc 8988 783e b2a6 2ebe c626 e4bd
000003d0: 175e 0bbe 667e 373e c482 ecbd 900d 48be
000003e0: 6b35 eabd 4f6b 323e 703e 2e3d b063 acbd
000003f0: 5115 0d3e 87d7 8f3e 6ac3 49be c463 383d
-0.025864251 -0.21577765 -0.049088005 0.015839595 -0.0275555 -0.22473274 -0.089331694 0.15711077
0.033339106 0.116515994 -0.03606916 0.19665943 0.103404686 -0.10771834 -0.030601732 -0.22967215
0.16311279 0.012050614 -0.25974944 0.08968289 0.14669122 -0.08158905 -0.17215033 -0.17133802
0.07104853 -0.1559462 -0.23393437 -0.14734799 0.050245073 -0.14189872 -0.28962725 -0.07897338
-0.21400681 0.086928576 0.22702533 -0.070524156 -0.05985936 -0.13970688 -0.029537473 -0.025638638
0.22502351 0.067506716 0.13066176 -0.21498854 0.2517429 -0.12805752 -0.23349464 0.24287707
0.21480662 -0.042698164 0.14690189 -0.02107793 -0.114990056 0.15674089 0.25346103 0.14374901
0.1701467 -0.14141253 0.028628143 0.010246266 0.11077231 -0.14373341 0.035797548 -0.13648191
0.22743924 0.018339181 0.088632345 0.07171252 0.05890512 0.19814302 -0.013787477 0.13831085
-0.042622127 0.24786988 -0.11693144 -0.0072138775 0.045702696 -0.08257238 0.18987913 -0.2044209
0.23682979 -0.2629911 0.059583504 -0.063478835 -0.063341826 -0.091850005 -0.14921428 -0.14886624
0.1160973 0.20274055 -0.03828514 -0.059548564 0.13543943 0.09866767 0.14035782 -0.10415314
-0.0067642615 -0.10301705 0.14467496 0.020196235 0.050097745 -0.08912347 0.017480098 0.22879523
0.11436502 0.08213598 -0.028846515 0.055374376 0.19528441 -0.047607087 -0.06426178 -0.16209315
-0.11575709 0.10998869 0.08801836 0.1675596 -0.05075649 -0.03270349 -0.16516174 -0.20813423
-0.07255728 -0.1842553 0.203999 -0.13317384 0.124753445 -0.15786041 -0.041903302 0.010045649
-0.19039372 0.12990652 -0.08694679 0.14448056 0.031119747 -0.083796225 0.24390902 -0.09650555
0.16253674 -0.2514962 -0.04348513 -0.07186046 0.17672339 0.19217248 -0.2794663 0.035922702
0.112364836 0.023444345 -0.049228944 -0.1231772 -0.06912844 -0.08339551 -0.18136086 -0.17532544
-0.03657901 -0.06865771 -0.09856782 -0.08734436 -0.12403892 0.16979875 0.0048625157 -0.25274277
-0.07529159 -0.19619079 0.04774033 0.17864046 -0.059475195 0.19549768 0.17706567 -0.08801406
-0.22406614 0.054181535 0.1876534 0.07753203 -0.2263812 -0.07212582 -0.06293604 0.082338974
-0.005938377 -0.065471634 0.15371884 -0.21262562 0.040091854 -0.12117047 -0.1698382 0.07727375
-0.21313232 -0.20968686 -0.076941974 0.13785546 -0.11019297 -0.16127574 -0.15477133 0.22073421
-0.08646826 0.15235804 -0.04758902 -0.08603083 0.041583773 0.2612428 -0.014978495 -0.13218616
0.015590201 0.05988344 0.17594035 -0.2599421 0.26083577 0.1740636 0.009020564 -0.11226703
-0.2581196 0.044733174 0.06767487 0.03503726 0.15677448 -0.21766968 0.008545609 0.023211706
-0.08487192 0.10657835 0.24634552 -0.14180696 0.19881812 -0.12496842 -0.1558562 0.10515809
-0.06789801 0.111053385 -0.22198072 0.23950857 0.03727401 -0.1061226 -0.17634545 0.15163998
-0.057972707 -0.015187698 0.062152687 0.11353879 0.23546459 -0.12156852 0.07240989 -0.22410524
-0.025299113 0.24270834 -0.17055777 -0.11140208 -0.13610111 0.17919311 -0.11548379 -0.19536424
-0.1143597 0.17423747 0.042540014 -0.084174514 0.13777663 0.28094122 -0.19703451 0.04501702

clf_net.3.bias f4 [16]
00000000: 899e 593e 7a7d 61be 6465 6fbe 0e4c 86be
00000010: 34d7 023e 6065 6b3e 7f3f 2cbe 3113 513e
00000020: b9af 5539 fa70 3b3e ba99 32be ff6e 643d
00000030: 799c 81be 0a7b 51bd 8e60 cdbd 3e85 dd3c
0.21251883 -0.22020522 -0.23378521 -0.262299 0.12777406 0.2298789 -0.16821097 0.20417477
0.00020378725 0.18304816 -0.17441455 0.055769917 -0.25314692 -0.05114273 -0.10028182 0.027041074

clf_net.4.weight f4 [16]
00000000: ee61 833f 9c1d 7e3f a065 973f 549c 8e3f
00000010: a00b 843f b20b 9b3f b5e7 9b3f f2a1 843f
00000020: 974e 8b3f e102 863f c212 8d3f 07fa 953f
00000030: b31c 913f f57b 963f 58fb 913f f8bb 8f3f
1.0264261 0.9926393 1.1827888 1.1141458 1.0316048 1.2112944 1.2180086 1.0361922
1.0883359 1.0469629 1.102135 1.1716927 1.1336883 1.1756579 1.1404829 1.1229239

clf_net.4.bias f4 [16]
00000000: dddf 3dbd 2bfa 17bc 931d 56be 6bf5 2dbe
00000010: 1096 e7bd fa69 813e b958 88be 5079 1bbd
00000020: 8774 123e 4f22 3dbd 5d32 033e 41d4 103e
00000030: 1e92 4dbe bc6e 2b3e f977 0b3e a070 043e
-0.04635607 -0.009275953 -0.20909719 -0.16988151 -0.11307919 0.25276166 -0.2663019 -0.03795749
0.14302264 -0.046175297 0.12812181 0.14143468 -0.2007527 0.1674146 0.13619985 0.12933588

clf_net.4.running_mean f4 [16]
00000000: 8211 c53d b7a8 1bbf 0d06 3bbe ef4c f1bc
00000010: 03e3 c43e a615 7e3e 1148 62bb c256 e63c
00000020: 1a80 163d 94cc 26be 5a8b 52be faa3 65be
00000030: 6bfb fabd f885 32bd 8de2 ccbd 758c 85bc
0.0962248 -0.60804313 -0.18264027 -0.02945563 0.38454446 0.24812946 -0.0034527818 0.028117541
0.03674326 -0.16288978 -0.20560971 -0.22425833 -0.122549854 -0.043584794 -0.10004149 -0.016302327

clf_net.4.running_var f4 [16]
00000000: 7223 1a3c 008e 3a3f a7c0 913a ff09 b73c
00000010: 2ccf 113d 0d6d 8f3b 2bc2 103c 8c99 313c
00000020: 0445 dd3c d058 7c3d 7b2f 2f3d 8f02 043f
00000030: 776e 123c 0c36 d33a 90ab 0c3b 38c8 e43a
0.009407865 0.72872925 0.0011120037 0.022343634 0.035597965 0.0043770135 0.008835356 0.010839831
0.027010448 0.061608136 0.04276989 0.51566404 0.00893747 0.001611413 0.0021464564 0.0017454689

clf_net.6.weight f4 [1, 16]
00000000: 88fa 83be 2cff 363d 852e 13be 5170 49be
00000010: 5c2c 38be 5b42 f83d e882 40be 4f70 b4bd
00000020: 4bf1 a43e a915 78be 52cf a03e dabf 603e
00000030: 80af 3cbe 6d26 333e a0cc 7e3e dab1 a83e
-0.25777078 0.044676945 -0.14373215 -0.19671752 -0.17985672 0.12122031 -0.18799937 -0.08810484
0.32215342 -0.24227013 0.31408173 0.21948186 -0.18426323 0.17495127 0.24882746 0.3294819
