EE8591/Project/regression_models/Sine_squared/DNN/deepnn/training_models/net_2600.pt (torch, 7359 bytes, 13 tensors)

clf_net.0.weight f4 [16, 1]
-0.46532887 0.490783 0.28179806 0.25724334 -0.540809 -0.27821764 0.4477863 -0.96713394
0.23227468 0.16863203 0.34113085 0.1179593 -0.32296118 0.38583615 0.1585785 -0.09865262
00000000: 963f eebe e947 fb3e d647 903e 66b5 833e
00000010: 7572 0abf 8b72 8ebe 3f44 e53e 1796 77bf
00000020: 6ad9 6d3e e0ad 2c3e b4a8 ae3e a594 f13d
00000030: 2b5b a5be 518c c53e 6762 223e 630a cabd

clf_net.0.bias f4 [16]
0.12569982 -0.12934425 -0.098564334 -0.08163597 -0.8529429 0.40466192 0.35172802 0.9344749
-0.52834564 0.8397688 0.37714761 -0.0655387 0.47499612 0.018944453 0.1340442 -0.49136811
00000000: 74b7 003e d272 04be 19dc c9bd c230 a7bd
00000010: 775a 5abf d92f cf3e b215 b43e bf39 6f3f
00000020: a941 07bf 17fb 563f 7e19 c13e 2739 86bd
00000030: b132 f33e 6631 9b3c e242 093e 9a94 fbbe

clf_net.1.weight f4 [16]
0.9859444 1.0073268 1.0066028 0.9909592 1.0025094 0.98995155 0.99306744 1.0051981
1.0121849 0.998161 1.0019646 0.9857873 0.97729534 0.9886001 0.99802023 1.0328633
00000000: da66 7c3f 16f0 803f 5cd8 803f 81af 7d3f
00000010: 3a52 803f 776d 7d3f ab39 7e3f 55aa 803f
00000020: 468f 813f 7b87 7f3f 6040 803f 8e5c 7c3f
00000030: 0730 7a3f e514 7d3f 417e 7f3f dd34 843f

clf_net.1.bias f4 [16]
-0.040935013 -0.0898306 0.040327713 -0.027741842 0.04860639 -0.04001296 0.07169019 0.043507755
0.06815054 -0.04029814 -0.05590196 -0.006833074 0.0715172 0.051702306 -0.0031823479 0.0025433602
00000000: 79ab 27bd 1bf9 b7bd ac2e 253d dc42 e3bc
00000010: 7e17 473d a1e4 23bd 4ed2 923d 3035 323d
00000020: 8392 8b3d aa0f 25bd 74f9 64bd fbe7 dfbb
00000030: 9c77 923d ccc5 533d f08e 50bb 81ae 263b

clf_net.1.running_mean f4 [16]
-0.07517876 0.08265083 0.022948612 0.029434431 -1.0864055 0.2844738 0.5449259 0.51695406
-0.4281129 0.912614 0.5245104 -0.01464217 0.33539382 0.1856147 0.2025313 -0.5339338
00000000: 52f7 99bd d744 a93d bafe bb3c 7a20 f13c
00000010: 560f 8bbf 8da6 913e 4480 0b3f 1a57 043f
00000020: 9d31 dbbe 12a1 693f 5046 063f b6e5 6fbc
00000030: bdb8 ab3e c811 3e3e 5d64 4f3e e3af 08bf

clf_net.1.running_var f4 [16]
0.015212719 0.016922086 0.0055766655 0.004648871 0.020540068 0.0054399753 0.014086136 0.065690584
0.003788778 0.0019969116 0.008175318 0.0009774917 0.0073287413 0.010457571 0.0017659557 0.00068316935
00000000: c53e 793c 30a0 8a3c 76bc b63b 8e55 983b
00000010: a543 a83c d241 b23b 89c9 663c c988 863d
00000020: 264d 783b 9ede 023b c5f1 053c 2e1f 803a
00000030: f025 f03b 3b56 2b3c a477 e73a b816 333a

clf_net.3.weight f4 [16, 16]
-0.026621602 -0.2071235 -0.05213275 0.013995077 -0.024945045 -0.2253356 -0.090767555 0.15846191
0.031660717 0.11631276 -0.033191852 0.19161972 0.10945938 -0.10996134 -0.035729606 -0.23166136
0.20175882 0.028697364 -0.24580869 0.10517557 0.18439676 -0.043501183 -0.1678972 -0.13344717
0.07630523 -0.1395496 -0.21582657 -0.12956806 0.08898503 -0.13758644 -0.27040336 -0.037698533
-0.21314912 0.0867658 0.22709183 -0.069844835 -0.05842803 -0.13905665 -0.02997414 -0.023902213
0.22466101 0.06821111 0.13104902 -0.21435669 0.25245988 -0.12840854 -0.23287843 0.24434406
0.21575473 -0.04502122 0.14590561 -0.022460053 -0.11499167 0.15779272 0.25258252 0.14402704
0.16924901 -0.14294511 0.026832052 0.009138073 0.110092126 -0.14457218 0.03469505 -0.13554616
0.22679941 0.016244937 0.09138247 0.07316825 0.05431074 0.19807695 -0.010596853 0.13482946
-0.039527677 0.24883227 -0.117073126 -0.0047780443 0.03825832 -0.079146825 0.19233073 -0.20518412
0.24000528 -0.26849166 0.05496499 -0.068070546 -0.060527936 -0.088969365 -0.15421703 -0.14577621
0.11115655 0.19794816 -0.043286383 -0.0638143 0.13736905 0.0937004 0.13615187 -0.1001887
-0.0034896613 -0.10962062 0.14674902 0.020929154 0.049593218 -0.08559231 0.019483062 0.22988178
0.1163997 0.08207264 -0.031212037 0.05769228 0.19092077 -0.04514993 -0.061885983 -0.15840459
-0.11334647 0.11324995 0.08861865 0.16887085 -0.0465792 -0.030328987 -0.16454792 -0.20443264
-0.07194636 -0.18258595 0.2062103 -0.13256498 0.13011053 -0.15731524 -0.041334335 0.012495898
-0.19965057 0.13085602 -0.08300832 0.1505087 0.021859787 -0.09351093 0.24409857 -0.10547578
0.16327484 -0.24633606 -0.039804656 -0.06372926 0.16642164 0.19306792 -0.27118883 0.027764674
0.11342508 0.023354663 -0.051694755 -0.12570365 -0.06750301 -0.08222427 -0.18321557 -0.17402628
-0.038532022 -0.07085159 -0.09998148 -0.09057483 -0.12155037 0.16771013 0.0015935459 -0.2520972
-0.07541897 -0.19844915 0.045949027 0.17714174 -0.059476484 0.19503611 0.17470793 -0.08776887
-0.2263486 0.05252117 0.1858036 0.07634492 -0.22710136 -0.074387155 -0.064106405 0.083234265
-0.017407242 -0.06916026 0.15317822 -0.21458647 0.02803498 -0.13254698 -0.16993378 0.06516144
-0.2133002 -0.21206117 -0.07968685 0.13658199 -0.12269412 -0.16160657 -0.15593506 0.20886113
-0.077811375 0.1504493 -0.04049037 -0.08048773 0.04604164 0.27040204 -0.0077608824 -0.12620556
0.022826713 0.064613655 0.17831948 -0.25263894 0.2618079 0.18198518 0.016353428 -0.103366785
-0.26006094 0.041345518 0.06736545 0.035944924 0.15459166 -0.22026949 0.0047834483 0.021307642
-0.08810896 0.10639596 0.2450527 -0.1388513 0.19572978 -0.12856595 -0.15268075 0.10445595
-0.07045383 0.109229624 -0.22239159 0.23920709 0.03414139 -0.1090869 -0.17766337 0.1487451
-0.059159633 -0.015877899 0.061078478 0.113954306 0.23157956 -0.122843675 0.07290799 -0.22593604
-0.030767819 0.2529534 -0.17653118 -0.094730735 -0.13641647 0.17194124 -0.15124841 -0.1958001
-0.14497109 0.18948884 0.056396075 -0.06313536 0.13712122 0.2505945 -0.17494862 0.044470716
00000000: 8c15 dabc 2f18 54be 2789 55bd 9c4b 653c
00000010: 8d59 ccbc 60be 66be 57e4 b9bd d743 223e
00000020: abae 013d 6235 ee3d 2ef4 07bd f637 443e
00000030: 3d2c e03d 6933 e1bd 3559 12bd a338 6dbe
00000040: dd99 4e3e bc16 eb3c 46b5 7bbe 4a66 d73d
00000050: 81d2 3c3e 4c2e 32bd 3eed 2bbe 60a6 08be
00000060: eb45 9c3d 17e6 0ebe a401 5dbe 7dad 04be
00000070: c93d b63d 76e3 0cbe 4f72 8abe c769 1abd
00000080: c343 5abe 45b2 b13d c38a 683e cf0a 8fbd
00000090: 3b52 6fbd de64 0ebe 548c f5bc 93ce c3bc
000000a0: 890d 663e 44b2 8b3d b731 063e 5280 5bbe
000000b0: 6c42 813e 877d 03be af77 6ebe 5435 7a3e
000000c0: cfee 5c3e 2c68 38bd 4868 153e 25fe b7bc
000000d0: c180 ebbd 6a94 213e 7f52 813e d37b 133e
000000e0: 9d4f 2d3e 3460 12be e4ce db3c dbb7 153c
000000f0: fb77 e13d bb0a 14be 661c 0e3d 9dcc 0abe
00000100: 1b3e 683e 1a14 853c bc26 bb3d 3cd9 953d
00000110: f074 5e3d afd4 4a3e 6c9e 2dbc bc10 0a3e
00000120: c6e7 21bd e3cd 7e3e 09c4 efbd 2491 9cbb
00000130: c2b4 1c3d bb17 a2bd 59f2 443e c91b 52be
00000140: f2c3 753e bd77 89be f822 613d 9268 8bbd
00000150: 24ec 77bd 9235 b6bd 12eb 1dbe 5c46 15be
00000160: 0ca6 e33d ecb2 4a3e 104d 31bd 12b1 82bd
00000170: 79aa 0c3e ffe5 bf3d 656b 0b3e bc2f cdbd
00000180: cdb2 64bb c780 e0bd 6045 163e 9e73 ab3c
00000190: 4222 4b3d 054b afbd f19a 9f3c 2166 6b3e
000001a0: f762 ee3d b315 a83d 63b0 ffbc bd4e 6c3d
000001b0: bc80 433e 22ef 38bd 287c 7dbd d034 22be
000001c0: 3222 e8bd 97ef e73d b27d b53d 7bec 2c3e
000001d0: d5c9 3ebd 7f74 f8bc 407f 28be ca56 51be
000001e0: 9d58 93bd d0f7 3abe cb28 533e 1dbf 07be
000001f0: b23b 053e 3f17 21be 314e 29bd 98bb 4c3c
00000200: 3371 4cbe 1fff 053e 4400 aabd f41e 1a3e
00000210: 4c13 b33c a982 bfbd faf4 793e b003 d8bd
00000220: 8531 273e 853f 7cbe 350a 23bd 7c84 82bd
00000230: 6f6a 2a3e 99b3 453e 43d9 8abe be72 e33c
00000240: 694b e83d 4752 bf3c e1bd 53bd 75b8 00be
00000250: 053f 8abd 3365 a8bd dd9c 3bbe f233 32be
00000260: c1d3 1dbd a31a 91bd 17c3 ccbd 4c7f b9bd
00000270: 66ef f8bd 34bc 2b3e 87de d03a e212 81be
00000280: 4375 9abd 4136 4bbe 0c35 3c3d a564 353e
00000290: 9d9d 73bd 8cb7 473e a3e6 323e 2ac0 b3bd
000002a0: edc7 67be 7020 573d 4d43 3e3e ba5a 9c3d
000002b0: 428d 68be 4b58 98bd 384a 83bd ba76 aa3d
000002c0: a299 8ebc e5a3 8dbd c0da 1c3e 8ebc 5bbe
000002d0: 9da9 e53c 65ba 07be 1f03 2ebe 5c73 853d
000002e0: 5e6b 5abe 9026 59be dc32 a3bd 26dc 0b3e
000002f0: 0e47 fbbd 317c 25be 71ad 1fbe b1df 553e
00000300: 925b 9fbd 620f 1a3e 3bd9 25bd c0d6 a4bd
00000310: 2996 3c3d 2372 8a3e 004f febb 083c 01be
00000320: 16ff ba3c 2a54 843d 6299 363e e459 81be
00000330: af0b 863e 535a 3a3e a0f7 853c f7b1 d3bd
00000340: b526 85be eb59 293d e6f6 893d fc3a 133d
00000350: 474d 1e3e 538e 61be 79be 9c3b 5d8d ae3c
00000360: 7872 b4bd 20e6 d93d 18ef 7a3e 092f 0ebe
00000370: 636d 483e cba6 03be 5858 1cbe 00ed d53d
00000380: 194a 90bd c8b3 df3d 9fba 63be b4f2 743e
00000390: d8d7 0b3d f468 dfbd 63ed 35be a350 183e
000003a0: 5f51 72bd 5e12 82bc 6d2d 7a3d e060 e93d
000003b0: 3123 6d3e 7795 fbbd c950 953d c75b 67be
000003c0: cb0c fcbc 1c83 813e 97c4 34be 3002 c2bd
000003d0: c2b0 0bbe 5d11 303e dde0 1abe d27f 48be
000003e0: 4d73 14be 5d09 423e 92ff 663d 1d4d 81bd
000003f0: 8169 0c3e ec4d 803e bb25 33be ed26 363d

clf_net.3.bias f4 [16]
0.20772904 -0.22039716 -0.22954391 -0.25695762 0.13173945 0.2285336 -0.15854168 0.20340323
-0.0020438114 0.18035747 -0.17472701 0.05454185 -0.24636564 -0.051934697 -0.10068465 0.01484451
00000000: ecb6 543e cbaf 61be 8f0d 6bbe f38f 83be
00000010: b5e6 063e b604 6a3e c058 22be f048 503e
00000020: 77f1 05bb a1af 383e a3eb 32be 4667 5f3d
00000030: 4647 7cbe 7ab9 54bd c133 cebd 6336 733c

clf_net.4.weight f4 [16]
0.9886721 0.9750661 1.0708696 1.0489731 1.000147 1.1645749 1.108025 0.97146326
1.0660969 0.99575096 1.0814484 1.1280601 1.0420204 1.1404985 1.1152533 1.0956163
00000000: 9d19 7d3f ef9d 793f 4112 893f c044 863f
00000010: d104 803f ca10 953f c3d3 8d3f d1b1 783f
00000020: dd75 883f 89e9 7e3f e76c 8a3f 4664 903f
00000030: ed60 853f dbfb 913f 9fc0 8e3f 283d 8c3f

clf_net.4.bias f4 [16]
-0.054983873 -0.028822951 -0.10362414 -0.10897527 -0.081570186 0.19627924 -0.15132952 -0.04821737
0.117102854 -0.05629311 0.10783777 0.110197626 -0.12318502 0.13170686 0.109934956 0.102500446
00000000: c536 61bd 1c1e ecbc e538 d4bd 6d2e dfbd
00000010: 450e a7bd 6dfd 483e 20f6 1abe 947f 45bd
00000020: 9fd3 ef3d 9b93 66bd 0cda dc3d 4baf e13d
00000030: 6e48 fcbd 2ade 063e 9425 e13d c1eb d13d

clf_net.4.running_mean f4 [16]
0.08343634 -0.49711555 -0.164612 -0.024918279 0.38456628 0.22910197 0.006126535 0.04423942
0.02882827 -0.17684846 -0.20190611 -0.25667074 -0.08664898 -0.046414666 -0.115092136 -0.041735355
00000000: ace0 aa3d ee85 febe 0c90 28be 6b21 ccbc
00000010: dfe5 c43e b599 6a3e 1ac1 c83b 6534 353d
00000020: 4429 ec3c c317 35be 7ac0 4ebe 596a 83be
00000030: 0575 b1bd 4e1d 3ebd 6db5 ebbd b1f2 2abd

clf_net.4.running_var f4 [16]
0.009342309 0.7677794 0.0011703873 0.021385215 0.034100186 0.00061437755 0.008985084 0.009213849
0.049665157 0.06038157 0.03735815 0.48499295 0.013168028 0.0009532112 0.001308414 0.0018291639
00000000: 7c10 193c 318d 443f ae67 993a 0c30 af3c
00000010: a3ac 0b3d 2e0e 213a 2c36 133c aff5 163c
00000020: b16d 4b3d aa52 773d dc04 193d ff50 f83e
00000030: b6be 573c ece0 793a 177f ab3a 8ec0 ef3a

clf_net.6.weight f4 [1, 16]
-0.22239165 0.024939712 -0.083047725 -0.14636111 -0.14956507 0.09799104 -0.11850177 -0.033133674
0.30004656 -0.19668712 0.29435435 0.18939981 -0.11879439 0.15308183 0.22876906 0.30469197
00000000: a3ba 63be 5e4e cc3c ed14 aabd b0df 15be
00000010: 9627 19be 87af c83d 0eb1 f2bd 2db7 07bd
00000020: b49f 993e 5968 49be 9db5 963e 06f2 413e
00000030: 794a f3bd 7cc1 1c3e 7042 6a3e 9600 9c3e
