EE8591/Project/regression_models/Sine_squared/DNN/deepnn/training_models/net_1700.pt (torch, 7359 bytes, 13 tensors)

clf_net.0.weight f4 [16, 1]
00000000: a1ba f0be 9698 fc3e 35be 903e 8497 843e
00000010: 170f 0abf 8e93 93be 901e e53e 6ff7 75bf
00000020: 527c 6e3e 2389 283e 005f b03e f167 ee3d
00000030: 6935 a6be 3841 c43e 9563 233e 39f4 c5bd
-0.47017387 0.49335164 0.28270116 0.25896847 -0.53929275 -0.28823513 0.4474988 -0.9608068
0.23289612 0.16458564 0.3444748 0.11640919 -0.32462624 0.38331008 0.15955956 -0.096657224

clf_net.0.bias f4 [16]
00000000: e253 fb3d 975c 06be 787e ccbd f224 abbd
00000010: d622 5abf bd73 d03e 5dc9 b43e a016 6f3f
00000020: cc8b 07bf 772b 573f 859a c13e e39b 87bd
00000030: 8b90 f23e 6b61 8b3c f0cc 0b3e c5cb fbbe
0.12271859 -0.13121258 -0.099850595 -0.08356656 -0.85209405 0.407133 0.35309878 0.933939
-0.5294769 0.840507 0.37813202 -0.0662153 0.47375903 0.017014226 0.13652396 -0.491789

clf_net.1.weight f4 [16]
00000000: 8e95 7d3f f043 813f 53f6 803f b822 7e3f
00000010: af21 803f 63da 7f3f 7227 7e3f 90ae 7f3f
00000020: aca4 813f db68 7e3f beaf 803f 9c08 7c3f
00000030: 5794 7a3f fb72 7c3f 96be 7f3f 68c5 833f
0.9905633 1.0098858 1.0075172 0.99271727 1.001028 0.99942607 0.9927894 0.99875736
1.0128379 0.99378747 1.0053632 0.98450637 0.978826 0.98612946 0.99900186 1.0294619

clf_net.1.bias f4 [16]
00000000: fe26 49bd 8e4f 96bd b32c 2c3d eef7 c6bc
00000010: f9cd 283d 8a58 23bd 5a76 893d 79e5 073d
00000020: 45cf 833d 30a6 cbbc 1101 31bd 136b 92bb
00000030: 48c1 2f3d 2aec 293d 0694 0c3c ad3b 6b3c
-0.04910945 -0.073393926 0.042034816 -0.024288144 0.041212056 -0.03987936 0.06712027 0.033177827
0.06436018 -0.024859518 -0.043213908 -0.0044683306 0.042908937 0.04148499 0.008580213 0.0143574895

clf_net.1.running_mean f4 [16]
00000000: 2a4f a4bd a6cb a73d 1af8 b63c 4d81 e93c
00000010: c3d9 8abf df99 903e 5fd3 0b3f 3fe1 043f
00000020: 17a3 dbbe 825c 693f 2ed2 063f e162 83bc
00000030: dcd5 aa3e 22bf 3a3e 4280 523e a496 08bf
-0.08022912 0.0819314 0.0223351 0.028504038 -1.0847706 0.28242394 0.546194 0.519062
-0.42897865 0.9115678 0.5266446 -0.01603836 0.33366287 0.18236974 0.20556739 -0.5335486

clf_net.1.running_var f4 [16]
00000000: 527c 7e3c 6612 8c3c d2f2 b73b 4459 9a3b
00000010: 455e a73c 6147 bf3b 8673 663c e9c6 843d
00000020: 1abf 793b 3b3c f93a 6384 083c b189 793a
00000030: c49d f23b 1411 293c 7382 ea3a 05e9 2b3a
0.01553257 0.017098617 0.0056136632 0.0047103483 0.020430693 0.0058373665 0.014065629 0.064832516
0.003810829 0.0019015142 0.008332345 0.0009519114 0.007404061 0.010319013 0.001789166 0.0006557855

clf_net.3.weight f4 [16, 16]
00000000: 8e59 e3bc 542b 53be 41ca 59bd cca8 2d3c
00000010: 3124 ddbc 5a30 68be e743 b8bd 68f8 1f3e
00000020: 1d9b 033d 688d e73d f487 12bd e735 403e
00000030: 7344 dd3d ae06 e3bd 1de5 20bd 1c2f 70be
00000040: 04bb 5d3e 99c5 e33c c447 6cbe d600 e43d
00000050: 00f9 473e 32f3 eabc 9e28 1bbe 6f27 fabd
00000060: 329a ba3d 24be 08be ed75 58be c65e f6bd
00000070: e306 cc3d dbcd febd 59dd 84be df48 c2bc
00000080: 48c2 5ebe d583 af3d 5962 663e 6ba5 91bd
00000090: 7d74 7bbd 94c4 12be 2616 05bd e0df dcbc
000000a0: 178a 633e 692f 893d 6f11 053e 94f9 5cbe
000000b0: 7982 7f3e fba7 05be 4912 70be e28e 763e
000000c0: ef4b 593e 00d6 2ebd 8448 183e 6911 a2bc
000000d0: cf6b f3bd bbe5 1d3e 0cc8 823e e18c 0f3e
000000e0: 9539 303e 86a6 0fbe 86cd f03c d891 423c
000000f0: 3c47 d93d fb28 11be 7481 193d d8b5 0ebe
00000100: e830 643e 96ff 903c 80d3 be3d d569 9a3d
00000110: af77 513d 31fe 463e 988c 14bc 7ad2 063e
00000120: 2192 1bbd a986 803e fa73 ebbd 13bd 24bb
00000130: 24d2 0d3d f36e 9ebd a42b 473e e026 55be
00000140: 1c93 743e 5936 8abe 86e4 5a3d b042 8cbd
00000150: 8865 72bd 9694 b7bd c54c 20be 01cc 13be
00000160: 7e30 df3d 513c 4a3e 6898 33bd 3455 83bd
00000170: bb6e 0d3e edb2 bc3d 4dee 0a3e 6586 c9bd
00000180: 21a1 b5bb 29b7 e4bd 6b4a 153e b9f7 b83c
00000190: 5316 493d d8cd b2bd 5afd 883c d0f5 6a3e
000001a0: fa6c e93d 2342 ab3d 6cb7 f5bc 6114 743d
000001b0: bf2b 423e 0de3 3cbd 72b7 77bd ac4e 22be
000001c0: 6533 f3bd b5b6 f83d 1037 c73d dd6c 353e
000001d0: a0ee 57bd 8bde 12bd f95e 1fbe 3296 57be
000001e0: 4d31 81bd b072 32be ba87 5b3e 5978 febd
000001f0: a5fa fd3d e92f 18be acb4 06bd 4c5a cc3b
00000200: ca2c 54be aa24 133e 6040 b2bd 794d 243e
00000210: 7a57 a13c 1eb4 cdbd e598 6e3e 5413 ddbd
00000220: 3e13 1d3e e95d 71be f9dd e1bc 6b8f 65bd
00000230: 293b 283e 7756 413e e3fa 87be c32b c63c
00000240: 9334 e93d 1fbd c43c 96ef 51bd 69f1 00be
00000250: de3e 8abd 3cab a7bd 29a3 3abe 693b 32be
00000260: f34b 1abd 1484 91bd 22eb ccbd fb24 babd
00000270: f897 f8bd bf3b 2c3e 333c b23a 0224 81be
00000280: 7270 aebd 189e 4dbe cfa1 273d b267 323e
00000290: 1623 83bd 4a40 3e3e 98a7 2c3e 90ba bdbd
000002a0: 50d7 6dbe 4178 4b3d 19aa 3b3e 8aa6 953d
000002b0: 0322 6dbe 3aa8 a2bd 44af 8abd 21d7 9d3d
000002c0: 37fa 29bd 9a0b 94bd bd04 203e f5b8 5bbe
000002d0: c320 253b 0696 20be 4095 29be 7159 223d
000002e0: dc3a 56be 3c70 59be ab96 a5bd ebfc 0c3e
000002f0: 6948 18be c13a 22be df1a 1ebe c191 3b3e
00000300: 0ba9 a0bd f75f 1b3e 5e72 24bd ee92 9ebd
00000310: cac6 3f3d 4e3a 8a3e 84cd 13bc b972 00be
00000320: c8fc b23c 169c 8a3d 28c1 393e 8ebb 7fbe
00000330: a540 863e b0a0 3a3e 1e52 9a3c fb34 d2bd
00000340: f3a9 86be eaaf 183d 8f6a 893d 2d4a 153d
00000350: 02fa 1a3e 825e 64be b782 393b a230 963c
00000360: abd1 b7bd 4b17 da3d dfb3 793e d70c 0cbe
00000370: 9ba3 443e 4d0a 04be 5b5a 1abe 141f d23d
00000380: 9b55 97bd c305 dc3d 48f4 63be 98cb 743e
00000390: 3e2a f73c 9e2c e6bd 53a7 36be 2080 143e
000003a0: 39df 74bd df8a 84bc 2701 773d db47 ea3d
000003b0: efb3 683e 7519 fcbd 9a2c 963d 6d35 6abe
000003c0: e9f9 16bc 1689 4a3e e3ea 57be 778c f3bd
000003d0: 2a1a f2bd 69a1 463e 3b71 47be 2ebc 34be
000003e0: 714d 3bbe 12b2 233e 63b6 a73c ff86 a4bd
000003f0: e190 1c3e 8d97 5c3e 21cd 44be 1935 8d3d
-0.027752664 -0.20621997 -0.0531714 0.010599326 -0.026994796 -0.22674695 -0.08997326 0.15622103
0.03213035 0.11306268 -0.035774186 0.18770562 0.10804071 -0.110852584 -0.039281 -0.23455471
0.21653372 0.027804183 -0.23074251 0.11132972 0.1952858 -0.028680418 -0.15152213 -0.122145526
0.09111442 -0.13353783 -0.21138735 -0.12029795 0.09962251 -0.124416076 -0.25950125 -0.023716388
-0.217538 0.08570067 0.22498454 -0.07111629 -0.06139039 -0.14332801 -0.032491826 -0.02696222
0.22220646 0.06698496 0.12994932 -0.21579581 0.24952115 -0.1305236 -0.23444475 0.24077943
0.21220373 -0.042684555 0.14871413 -0.019783692 -0.11885797 0.15419666 0.2554325 0.14018585
0.17209466 -0.14028367 0.029394876 0.011875592 0.1060929 -0.14175789 0.03747697 -0.13936555
0.22284281 0.017699998 0.09317684 0.07539717 0.05113953 0.19432904 -0.009066723 0.13166228
-0.037981156 0.25102738 -0.1149673 -0.002513711 0.034624234 -0.07736006 0.19450241 -0.20815611
0.23884243 -0.2699459 0.053440593 -0.06848657 -0.05917886 -0.089638874 -0.15654285 -0.1443329
0.10897921 0.19749571 -0.043846518 -0.064127356 0.13811772 0.09213815 0.13567467 -0.09840087
-0.0055428897 -0.111677475 0.1457917 0.02257906 0.049093556 -0.08730668 0.01672237 0.22945333
0.11397739 0.08362224 -0.029994689 0.059589747 0.18962 -0.04611497 -0.06047768 -0.15850323
-0.11875037 0.121442236 0.09727299 0.1771731 -0.052717805 -0.035856765 -0.15563573 -0.21053389
-0.063082315 -0.17426562 0.21438494 -0.12425298 0.12401322 -0.14862026 -0.032887146 0.00623635
-0.2072021 0.14369455 -0.08703685 0.16045178 0.019695032 -0.1004412 0.23300512 -0.10794702
0.15339372 -0.2357098 -0.027571665 -0.056044977 0.16428818 0.1888064 -0.265586 0.02419079
0.11386981 0.024015961 -0.051253878 -0.1259209 -0.06750272 -0.08186957 -0.18226303 -0.17405476
-0.037670087 -0.0710527 -0.100057855 -0.09089085 -0.12138361 0.16819666 0.0013598263 -0.25222784
-0.08517541 -0.20079839 0.040925797 0.17422369 -0.064031765 0.18579212 0.16860807 -0.092640996
-0.23226666 0.04967523 0.18326606 0.073071554 -0.23157506 -0.07942243 -0.067717105 0.07707048
-0.04149839 -0.07228775 0.15626808 -0.21457274 0.002519653 -0.1568223 -0.1656084 0.03963608
-0.2092089 -0.2123422 -0.08085378 0.13768356 -0.14871372 -0.15842725 -0.15439938 0.1831732
-0.078447424 0.15173326 -0.04014813 -0.07742868 0.04682044 0.26997608 -0.009021167 -0.12543763
0.021849051 0.06768052 0.1814009 -0.2497389 0.26221195 0.1822536 0.018837985 -0.102640115
-0.26301536 0.03727714 0.067097776 0.036447693 0.15134433 -0.22301677 0.0028306672 0.018333737
-0.08975538 0.10648974 0.24385022 -0.13676773 0.19203036 -0.12894554 -0.1507353 0.10259834
-0.07389375 0.107432865 -0.22261155 0.2390579 0.03017151 -0.11238979 -0.17837267 0.14502001
-0.059783194 -0.0161795 0.060303833 0.114394866 0.22724889 -0.12309543 0.07332726 -0.22871943
-0.009214857 0.19778857 -0.21085696 -0.11892026 -0.11821397 0.1939751 -0.19476788 -0.1764991
-0.1829126 0.15985897 0.020472711 -0.08033561 0.15289642 0.21542187 -0.19218875 0.06894893

clf_net.3.bias f4 [16]
00000000: b631 533e 19d0 61be be71 67be 4807 81be
00000010: 6a2d 0a3e 55ab 663e 4b53 1ebe 865f 503e
00000020: 25c5 c9bb b253 383e 844f 34be 088f 5b3d
00000030: 5327 77be 0d27 57bd 419b cebd 54d8 0fbb
0.20624432 -0.22052039 -0.22601983 -0.25200868 0.13493887 0.22526295 -0.15461461 0.2034894
-0.0061575347 0.18000677 -0.17608458 0.053603202 -0.24136095 -0.052527476 -0.10088206 -0.002194901

clf_net.4.weight f4 [16]
00000000: ddc6 773f c4e5 773f 201f 803f 2155 803f
00000010: e871 7a3f 4147 913f 4db5 823f f750 763f
00000020: 6f0f 873f 98f4 773f a017 893f 07a1 8c3f
00000030: 66ca 7b3f e85c 8e3f bb11 8c3f b8b8 893f
0.96787816 0.9683497 1.0009499 1.0025979 0.9783006 1.134987 1.0211579 0.9621729
1.0551585 0.96857595 1.0710335 1.0986642 0.9835571 1.1122103 1.0942911 1.0759497

clf_net.4.bias f4 [16]
00000000: 2093 69bd 23ea 15bd 8381 53bd 82f5 9ebd
00000010: b702 80bd 1da8 213e 6588 b5bd 9f01 43bd
00000020: 66a0 cf3d a381 70bd 2781 c53d 0f11 c23d
00000030: 98c5 acbd 6402 d53d 503e b63d a1e6 a83d
-0.057025075 -0.036600243 -0.051637184 -0.07761671 -0.06250518 0.15786786 -0.08863906 -0.047608968
0.101380154 -0.05871738 0.096437745 0.0947591 -0.084361255 0.104008466 0.08898604 0.08247114

clf_net.4.running_mean f4 [16]
00000000: c925 8a3d 136a e4be aa06 33be adf8 bcbc
00000010: 635f c63e 2413 613e 8115 8b38 df46 833d
00000020: 536a 8f3c 9495 34be 0c75 64be c206 9bbe
00000030: 8979 9fbd 8d87 5fbd 906d 01be c1ff 00be
0.06745488 -0.44612178 -0.17483011 -0.023067797 0.3874465 0.21979958 6.632042e-05 0.06410002
0.017506754 -0.17635185 -0.22310275 -0.30278593 -0.07786853 -0.05457263 -0.12639451 -0.12597562

clf_net.4.running_var f4 [16]
00000000: 7865 303c ed35 393f 6c9f 2e3a e9ef b73c
00000010: da99 0b3d 44dc a339 3fbb 0c3c 0e3c 863c
00000020: 5618 833d 3147 743d e5dc 0e3d 8b26 c53e
00000030: 6602 6a3c d928 c939 b10b da39 b318 e33d
0.01076638 0.7234791 0.0006661329 0.022453265 0.03408227 0.00031253893 0.008589565 0.016386058
0.06401126 0.059638206 0.03487863 0.38505968 0.014282798 0.0003836814 0.0004158891 0.110886954

clf_net.6.weight f4 [1, 16]
00000000: e994 4dbe ca63 2d3c d393 1ebd b06c d9bd
00000010: 5e20 01be 140b a93d 7608 81bd 8a64 43bc
00000020: 0bc6 933e f0ce 2cbe 9d77 913e b7ba 2c3e
00000030: 9d7e 86bd 2fef 093e 55c1 583e 68a9 923e
-0.20076336 0.010582874 -0.038715195 -0.106164336 -0.12610003 0.08254066 -0.06300442 -0.011925826
0.28862032 -0.16875815 0.2841157 0.16868101 -0.06567118 0.13470148 0.211675 0.28644872
