EE8591/Project/regression_models/Sine_squared/DNN/deepnn/training_models/net_3100.pt (torch, 7359 bytes, 13 tensors)

clf_net.0.weight f4 [16, 1]
-0.46264297 0.48810342 0.28285336 0.2563215 -0.5422921 -0.2744465 0.4464225 -0.96981543
0.23320542 0.1697052 0.33928865 0.11806789 -0.32222393 0.38549414 0.16017497 -0.09980376
00000000: 8adf ecbe b1e8 f93e 28d2 903e 923c 833e
00000010: a8d3 0abf 4084 8cbe 7d91 e43e d345 78bf
00000020: 67cd 6e3e 33c7 2d3e 3eb7 ad3e 94cd f13d
00000030: 89fa a4be 7d5f c53e e804 243e ea65 ccbd

clf_net.0.bias f4 [16]
0.12471092 -0.1301144 -0.098359704 -0.08134017 -0.852672 0.40428877 0.35201213 0.9339591
-0.5275226 0.8400606 0.3757628 -0.062156573 0.4737655 0.01968224 0.13484171 -0.4915922
00000000: 7068 ff3d b63c 05be d070 c9bd ad95 a6bd
00000010: b648 5abf f0fe ce3e ef3a b43e f217 6f3f
00000020: b90b 07bf 360e 573f fb63 c03e e497 7ebd
00000030: 6491 f23e a63c a13c f213 0a3e f9b1 fbbe

clf_net.1.weight f4 [16]
0.9834302 1.0047047 1.0076709 0.990037 1.0039762 0.98660016 0.99171203 1.0079644
1.0131555 0.9993702 1.0001335 0.9858792 0.97662073 0.9882585 0.9996226 1.0349025
00000000: 15c2 7b3f 2a9a 803f 5cfb 803f 1173 7d3f
00000010: 4b82 803f d491 7c3f d7e0 7d3f fa04 813f
00000020: 14af 813f bad6 7f3f 6004 803f 9462 7c3f
00000030: d103 7a3f 82fe 7c3f 44e7 7f3f af77 843f

clf_net.1.bias f4 [16]
-0.033370636 -0.09582724 0.035253655 -0.031340692 0.053331006 -0.045193154 0.06911998 0.046211824
0.06481882 -0.046867073 -0.062582605 -0.007956815 0.08052879 0.061706226 -0.0038596485 -0.005804855
00000000: a6af 08bd 1241 c4bd 2366 103d 195f 00bd
00000010: 9d71 5a3d 751c 39bd c78e 8d3d 9c48 3d3d
00000020: bbbf 843d b0f7 3fbd 4f2b 80bd 4d5d 02bc
00000030: 47ec a43d abbf 7c3d 28f2 7cbb a736 bebb

clf_net.1.running_mean f4 [16]
-0.07494169 0.080529675 0.023722969 0.029291151 -1.0868862 0.28579086 0.5447629 0.5153281
-0.42698678 0.91325945 0.522311 -0.01119547 0.3347157 0.18617955 0.20393199 -0.53468496
00000000: 077b 99bd beec a43d ac56 c23c fff3 ef3c
00000010: 161f 8bbf 2e53 923e 9575 0b3f 8bec 033f
00000020: 039e dabe 5fcb 693f 2cb6 053f 346d 37bc
00000030: db5f ab3e daa5 3e3e 8cd3 503e 1de1 08bf

clf_net.1.running_var f4 [16]
0.015036177 0.016737627 0.005618837 0.0046154815 0.020655721 0.0052923188 0.013999579 0.066058986
0.0038195075 0.0020225358 0.008086824 0.0009792072 0.0072936825 0.010438358 0.0018016307 0.0006995497
00000000: 4c5a 763c 591d 893c 391e b83b 773d 973b
00000010: 3036 a93c 306b ad3b 7d5e 653c ef49 873d
00000020: b450 7a3b 858c 043b 997e 043c be58 803a
00000030: d8ff ee3b a605 2b3c b224 ec3a fc61 373a

clf_net.3.weight f4 [16, 16]
-0.025697216 -0.20753057 -0.05107685 0.01648732 -0.023619883 -0.22456188 -0.091149256 0.15992916
0.031504992 0.11850619 -0.03170815 0.19448611 0.10987674 -0.10971905 -0.03286489 -0.22967564
0.17591122 0.016201185 -0.25832418 0.09335323 0.15935336 -0.06940674 -0.17653592 -0.15863805
0.06776802 -0.15228504 -0.22971882 -0.14241631 0.063266054 -0.14654875 -0.2842696 -0.065219626
-0.21150953 0.08701073 0.22779213 -0.069581 -0.057476122 -0.13736355 -0.029018901 -0.022929972
0.22558126 0.06841249 0.13124543 -0.21399792 0.25345442 -0.12756683 -0.23249777 0.24566287
0.21535762 -0.044451553 0.14624928 -0.022085931 -0.1152992 0.1573964 0.25293532 0.14369786
0.16960165 -0.1425466 0.02727195 0.009478608 0.109934464 -0.14422143 0.035032254 -0.13597685
0.22682172 0.016868973 0.091486305 0.07317558 0.054285664 0.1981295 -0.010355383 0.13474196
-0.03931121 0.24887933 -0.11687343 -0.004830016 0.03882129 -0.0789678 0.19226852 -0.20544817
0.23818743 -0.26601642 0.057156626 -0.06601504 -0.06251544 -0.09070781 -0.15180394 -0.1478405
0.113531366 0.20007956 -0.041064747 -0.061859895 0.13580115 0.096028335 0.13807473 -0.10258198
-0.0028595156 -0.10874219 0.14696613 0.020575522 0.049681515 -0.084884405 0.020177301 0.22990647
0.117021576 0.08173658 -0.031250477 0.057311922 0.19174726 -0.044655833 -0.062271092 -0.15838014
-0.11377681 0.11283519 0.08862566 0.16886742 -0.047144376 -0.03077678 -0.16462506 -0.20496042
-0.07201057 -0.18264987 0.20604782 -0.13247804 0.12928265 -0.15735659 -0.0412295 0.012166966
-0.19559401 0.12809712 -0.08374962 0.14704126 0.024841208 -0.08934477 0.24544896 -0.10247924
0.16431397 -0.24985252 -0.04310809 -0.06720093 0.16960835 0.19351615 -0.27466944 0.030917976
0.112916596 0.023450674 -0.05152028 -0.12506938 -0.067738205 -0.08278024 -0.18345354 -0.17424023
-0.0387058 -0.07025126 -0.09952441 -0.089892134 -0.12199817 0.16764656 0.0022859352 -0.2522761
-0.07517122 -0.19825332 0.04637001 0.17717224 -0.05995706 0.19536974 0.1754584 -0.088269666
-0.22564667 0.052562844 0.18588373 0.07636057 -0.22739033 -0.07378118 -0.06409343 0.08273338
-0.009046066 -0.066641055 0.15351237 -0.21324165 0.03678408 -0.12425655 -0.16999069 0.07396391
-0.21329679 -0.21045274 -0.07782748 0.13751988 -0.11364184 -0.161485 -0.1550727 0.21755446
-0.0783448 0.15027419 -0.040926658 -0.08173141 0.04492867 0.26994413 -0.007605448 -0.12736747
0.022891631 0.063341476 0.177304 -0.2538371 0.26124686 0.18188548 0.015165584 -0.104452744
-0.2594795 0.04291924 0.06762577 0.03550977 0.15516646 -0.2195873 0.0063519324 0.021800207
-0.086752124 0.10644001 0.24558634 -0.1400138 0.19672698 -0.12753734 -0.15397435 0.10432058
-0.06947189 0.1100521 -0.22214079 0.23934646 0.035266556 -0.10804156 -0.17706467 0.14980806
-0.058614254 -0.015570973 0.061545722 0.11384401 0.23304006 -0.12238792 0.07275015 -0.22538665
-0.028146438 0.2507864 -0.17205873 -0.104516566 -0.13666022 0.1749708 -0.13093485 -0.1961534
-0.12754293 0.18069485 0.049760252 -0.07584958 0.13768412 0.26392055 -0.18851086 0.043602344
00000000: f882 d2bc e582 54be f635 51bd 6b10 873c
00000010: 7c7e c1bc 8df3 65be 76ac babd 78c4 233e
00000020: 610b 013d 60b3 f23d 68e0 01bd 5e27 473e
00000030: 0e07 e13d 62b4 e0bd 569d 06bd 1730 6bbe
00000040: 1222 343e 59b8 843c 1143 84be fa2f bf3d
00000050: 872d 233e 1f25 8ebd d5c5 34be 0372 22be
00000060: f6c9 8a3d 9cf0 1bbe 693b 6bbe 95d5 11be
00000070: a291 813d e010 16be c98b 91be de91 85bd
00000080: f495 58be ae32 b23d 5742 693e 7c80 8ebd
00000090: 156c 6bbd 08a9 0cbe 0cb9 edbc a3d7 bbbc
000000a0: c6fe 663e d91b 8c3d 3465 063e 4522 5bbe
000000b0: c7c4 813e e1a0 02be e513 6ebe 0c8f 7b3e
000000c0: b586 5c3e d512 36bd 5fc2 153e 8eed b4bc
000000d0: fd21 ecbd 862c 213e bd80 813e 8825 133e
000000e0: 0eac 2d3e bcf7 11be 6d69 df3c 2a4c 1b3c
000000f0: 5225 e13d c8ae 13be fb7d 0f3d 843d 0bbe
00000100: f443 683e cd30 8a3c 2c5d bb3d 14dd 953d
00000110: a55a 5e3d 76e2 4a3e a0a9 29bc ccf9 093e
00000120: cb04 21bd 39da 7e3e 565b efbd 1c45 9ebb
00000130: 1303 1f3d dfb9 a1bd 0ae2 443e 0161 52be
00000140: 68e7 733e 4e33 88be 111d 6a3d e532 87bd
00000150: 1808 80bd 04c5 b9bd 7e72 1bbe 8063 17be
00000160: 2283 e83d a8e1 4c3e 8233 28bd cd60 7dbd
00000170: 750f 0b3e 81aa c43d 7663 0d3e 8016 d2bd
00000180: b666 3bbb 3ab4 debd 4a7e 163e ff8d a83c
00000190: d87e 4b3d e0d7 adbd de4a a53c 9a6c 6b3e
000001a0: 02a9 ef3d 8265 a73d 8000 00bd e8bf 6a3d
000001b0: 6559 443e 09e9 36bd f90f 7fbd 672e 22be
000001c0: d103 e9bd 2316 e73d 5f81 b53d 95eb 2c3e
000001d0: 761a 41bd 961f fcbc 7993 28be 25e1 51be
000001e0: 477a 93bd 9108 3bbe 33fe 523e 53a8 07be
000001f0: ac62 043e 1622 21be 44e0 28bd f457 473c
00000200: cc49 48be e42b 033e ec84 abbd fc91 163e
00000210: ca7f cb3c 64fa b6bd f956 7b3e a3e0 d1bd
00000220: ec41 283e 57d9 7fbe 1c92 30bd a4a0 89bd
00000230: d0ad 2d3e 1929 463e 79a1 8cbe b247 fd3c
00000240: d140 e73d a11b c03c ee06 53bd 3012 00be
00000250: 54ba 8abd b088 a9bd 3fdb 3bbe 086c 32be
00000260: f989 1ebd e5df 8fbd 74d3 cbbd 5e19 b8bd
00000270: 2dda f9bd 8aab 2b3e a1cf 153b 552a 81be
00000280: 5ef3 99bd eb02 4bbe 7bee 3d3d a46c 353e
00000290: 8995 75bd 010f 483e 5eab 333e bac6 b4bd
000002a0: ec0f 67be 234c 573d 4e58 3e3e ee62 9c3d
000002b0: 03d9 68be 961a 97bd 6b43 83bd 1e70 a93d
000002c0: f335 14bc 1b7b 88bd 5932 1d3e 055c 5abe
000002d0: e7aa 163d 387a febd 0a12 2ebe 647a 973d
000002e0: 796a 5abe ec80 57be 0464 9fbd 03d2 0c3e
000002f0: 0ebd e8bd 535c 25be 61cb 1ebe 99c6 5e3e
00000300: 3d73 a0bd 7ae1 193e b6a2 27bd cc62 a7bd
00000310: 2007 383d 1e36 8a3e 1f37 f9bb 9e6c 02be
00000320: 3b87 bb3c 2db9 813d 2e8f 353e f0f6 81be
00000330: 26c2 853e 3040 3a3e 1279 783c 52eb d5bd
00000340: 7fda 84be 16cc 2f3d 617f 8a3d b172 113d
00000350: f5e3 1e3e 7edb 60be df23 d03b 5996 b23c
00000360: 19ab b1bd 38fd d93d fc7a 7b3e c75f 0fbe
00000370: cc72 493e 2699 02be 74ab 1dbe 07a6 d53d
00000380: 4747 8ebd ff62 e13d e078 63be 3d17 753e
00000390: aa73 103d e544 ddbd 7150 35be 4967 193e
000003a0: 8015 70bd 651d 7fbc 5e17 7c3d 0c27 e93d
000003b0: 0ea2 6e3e 85a6 fabd 08fe 943d c2cb 66be
000003c0: 5c93 e6bc 1367 803e 2a30 30be c80c d6bd
000003d0: a8f0 0bbe 8c2b 333e c913 06be 70dc 48be
000003e0: 9d9a 02be 1208 393e 68d1 4b3d 0657 9bbd
000003f0: 11fd 0c3e 9820 873e fe08 41be 5f98 323d

clf_net.3.bias f4 [16]
0.20930097 -0.22031723 -0.23109461 -0.25874758 0.12997997 0.22927128 -0.16213493 0.20378858
-0.0007065852 0.1813031 -0.17465444 0.055080283 -0.24880907 -0.051535692 -0.10052419 0.018640218
00000000: fe52 563e d79a 61be 11a4 6cbe 907a 84be
00000010: 7819 053e 17c6 6a3e b306 26be f4ad 503e
00000020: 213a 39ba 85a7 393e 9dd8 32be dd9b 613d
00000030: cec7 7ebe 1717 53bd a0df cdbd 5fb3 983c

clf_net.4.weight f4 [16]
1.0025796 0.98027515 1.1138461 1.0748023 1.0121884 1.1867063 1.1530087 0.99024093
1.0765725 1.0142497 1.0913103 1.1435176 1.0771987 1.1538466 1.1249214 1.1053876
00000000: 8754 803f 50f3 7a3f 8292 8e3f 1f93 893f
00000010: 648f 813f fee5 973f ca95 933f 6e80 7d3f
00000020: 21cd 893f efd2 813f 0eb0 8b3f c95e 923f
00000030: a6e1 893f 3fb1 933f 6dfd 8f3f 577d 8d3f

clf_net.4.bias f4 [16]
-0.052011374 -0.021862494 -0.13789093 -0.12874413 -0.09258923 0.22073448 -0.1903585 -0.046494022
0.12803839 -0.052895065 0.11646818 0.12041897 -0.14908625 0.14583549 0.12041415 0.113436125
00000000: e109 55bd f918 b3bc 4833 0dbe 80d5 03be
00000010: 6c9f bdbd 3808 623e 57ed 42be 8470 3ebd
00000020: 7f1c 033e 7fa8 58bd df86 ee3d 399e f63d
00000030: 11aa 18be e655 153e b29b f63d 3351 e83d

clf_net.4.running_mean f4 [16]
0.094027855 -0.5819213 -0.16467708 -0.026343787 0.38368878 0.23633125 0.006030479 0.04124086
0.03274847 -0.1726888 -0.20554812 -0.2352005 -0.09269192 -0.045060135 -0.109905906 -0.033393156
00000000: ad91 c03d cbf8 14bf 1ca1 28be edce d7bc
00000010: db72 c43e d200 723e 539b c53b 2dec 283d
00000020: 4223 063d 55d5 30be 357b 52be 66d8 70be
00000030: 43d5 bdbd fa90 38bd 5916 e1bd 43c7 08bd

clf_net.4.running_var f4 [16]
0.00848395 0.77556455 0.0014109894 0.021502927 0.03437392 0.0020200727 0.009282312 0.0094249435
0.039718475 0.06080717 0.038741954 0.5102678 0.0124555025 0.0011428185 0.0016444523 0.00170858
00000000: 4400 0b3c 668b 463f f3f0 b83a e826 b03c
00000010: abcb 0c3d 3263 043b d714 183c 146b 1a3c
00000020: d7af 223d f010 793d e2af 1e3d e9a0 023f
00000030: 2a12 4c3c a0ca 953a aa8a d73a 6ef2 df3a

clf_net.6.weight f4 [1, 16]
-0.23585656 0.031922244 -0.10592896 -0.1663647 -0.16145138 0.10874687 -0.14570856 -0.054498956
0.31023985 -0.21388903 0.3035674 0.20013168 -0.14449382 0.16154994 0.2365628 0.31379345
00000000: 6284 71be e6c0 023d 48f1 d8bd 825b 2abe
00000010: 8353 25be aeb6 de3d a034 15be 4c3a 5fbd
00000020: c2d7 9e3e ba05 5bbe 306d 9b3e 52ef 4c3e
00000030: 30f6 13be 596d 253e 853d 723e 89a9 a03e
