EE8591/Project/regression_models/Sine_squared/DNN/deepnn/training_models/net_400.pt (torch, 7359 bytes, 13 tensors)

clf_net.0.weight f4 [16, 1]
000000 36 52 f2 be 22 76 00 3f dd 36 91 3e c9 09 81 3e
       -0.47328347 0.50180256 0.2836217 0.25202778
000010 9d fa 0c bf fc 2e 96 be 1a 0f e4 3e ac 72 75 bf
       -0.55069906 -0.2933272 0.44542772 -0.958781
000020 ec 95 75 3e 4c 00 1b 3e 87 74 ac 3e 3b 43 ee 3d
       0.23982972 0.15136832 0.33682653 0.11633917
000030 10 05 a8 be 2b 6e c5 3e c7 14 22 3e 3e 06 bb bd
       -0.32816362 0.38560614 0.15828238 -0.0913205

clf_net.0.bias f4 [16]
000000 b0 90 f8 3d ab 9c fb bd 1c e3 c7 bd 4e cd a3 bd
       0.12136972 -0.122857414 -0.097601146 -0.07998143
000010 b2 82 59 bf 51 67 ce 3e c1 15 b2 3e 4c 49 6f 3f
       -0.8496505 0.403132 0.34782222 0.9347122
000020 50 9a 07 bf be 5a 58 3f 2a 7a c3 3e b2 62 8a bd
       -0.5296984 0.8451346 0.3817914 -0.06757106
000030 1f c1 ef 3e cc b1 68 3c 11 f3 0c 3e 34 14 fc be
       0.46827027 0.014202546 0.13764597 -0.49234164

clf_net.1.weight f4 [16]
000000 00 5a 7e 3f 56 5f 82 3f 35 15 81 3f 44 61 7c 3f
       0.9935608 1.0185344 1.0084597 0.98585916
000010 9c 95 81 3f d6 96 80 3f bb a2 7d 3f 27 28 7f 3f
       1.0123782 1.0046031 0.9907643 0.9967064
000020 37 9e 82 3f dc 2a 7b 3f d3 6c 7f 3f 55 05 7c 3f
       1.0204533 0.98112273 0.9977543 0.98445636
000030 0d 69 7b 3f f0 05 7d 3f ac 69 7f 3f 06 b0 82 3f
       0.9820717 0.98837185 0.9977062 1.0209968

clf_net.1.bias f4 [16]
000000 de 5e 10 bd 63 11 0e bd 6f 55 bb 3c d9 31 05 bd
       -0.035246722 -0.03468455 0.022867886 -0.03251824
000010 2b 4f e2 3c 2d 9f d7 bc 11 15 b5 3c 3e 5d b1 3c
       0.02762564 -0.026321018 0.022104772 0.021650907
000020 a0 9b 05 3d d1 52 d7 bc 17 4d 07 bd 71 a7 45 bc
       0.03261912 -0.026284607 -0.033032503 -0.012063847
000030 55 8d af 3c 5c e1 a0 3c 8c f2 84 3b 5e 2e b8 3a
       0.021429697 0.01963871 0.004057234 0.0014051904

clf_net.1.running_mean f4 [16]
000000 0f 55 aa bd fb 32 c0 3d b8 27 ca 3c 10 d1 eb 3c
       -0.08317005 0.09384724 0.024677143 0.028786212
000010 7d 33 8b bf 2e 9a 8d 3e c9 48 0a 3f 10 4f 05 3f
       -1.0875088 0.27656692 0.5401731 0.52073765
000020 9d 2d da be 95 0b 69 3f 26 f4 06 3f bf 51 8f bc
       -0.42612925 0.910333 0.5271629 -0.017495034
000030 36 16 a7 3e 4d 00 39 3e 47 ee 52 3e fb 20 08 bf
       0.32634133 0.18066521 0.20598708 -0.53175324

clf_net.1.running_var f4 [16]
000000 4a ca 80 3c 24 fc 90 3c 14 3b b9 3b fa 1e 92 3b
       0.015721459 0.017698355 0.0056527946 0.004459259
000010 3e a6 ae 3c 9c bd c5 3b f8 7d 64 3c c2 36 84 3d
       0.021319505 0.006034566 0.013946049 0.06455757
000020 7b 78 84 3b 66 2b d2 3a 98 95 02 3c 90 fc 78 3a
       0.0040426827 0.0016034662 0.007970236 0.0009498084
000030 48 f4 f7 3b 90 26 2b 3c 7d b8 e6 3a b6 65 19 3a
       0.0075669624 0.010446206 0.0017602589 0.0005851643

clf_net.3.weight f4 [16, 16]
000000 8c 41 e1 bc 73 ae 4c be c0 b5 6b bd b3 af 65 3c
       -0.027497075 -0.19988422 -0.057546377 0.014018941
000010 94 2e b1 bc ed f2 66 be 28 54 c2 bd ea 04 25 3e
       -0.021628655 -0.22553606 -0.09488708 0.16115156
000020 73 b6 d5 3c 49 a3 eb 3d 67 18 fe bc fb 2a 40 3e
       0.026087975 0.115057535 -0.031017495 0.18766396
000030 89 59 e8 3d 2b 93 ec bd 4d 49 2b bd c2 06 6c be
       0.113452025 -0.115515076 -0.041817952 -0.23049453
000040 79 34 4c 3e c8 29 df 3c 71 a1 80 be f7 94 e3 3d
       0.19941892 0.027241603 -0.2512317 0.11112397
000050 23 6f 3e 3e bc 2b 37 bd c5 d8 2f be ab fd 06 be
       0.18597083 -0.044719443 -0.17172535 -0.13182704
000060 e0 c9 8a 3d a6 9e 0b be 9a 21 58 be 89 33 01 be
       0.06776786 -0.13634738 -0.21106568 -0.12617315
000070 d0 fe b7 3d d4 1d 12 be 7e 15 8b be ad 77 14 bd
       0.089841485 -0.14269191 -0.27164835 -0.036246944
000080 90 4f 68 be 01 25 ae 3d 10 48 65 3e 5f 4a 93 bd
       -0.226866 0.08503152 0.22390771 -0.071919195
000090 a0 d1 8f bd 4c 4d 1c be 47 10 0a bd 3f 6e 12 bd
       -0.07022405 -0.15263861 -0.03370693 -0.03574967
0000a0 9c 4d 62 3e 07 88 87 3d 8e 51 04 3e 33 d3 5d be
       0.22099918 0.06617742 0.12921736 -0.21662597
0000b0 c5 96 76 3e 54 c4 06 be 58 04 71 be b6 32 6d 3e
       0.24080952 -0.1316083 -0.23536813 0.23163876
0000c0 fc 32 53 3e c5 d1 1e bd 66 67 1c 3e 94 9b 81 bc
       0.20624918 -0.03877427 0.15273818 -0.015821256
0000d0 c8 c3 ff bd 12 bf 17 3e bb d4 84 3e c9 6c 09 3e
       -0.12488514 0.14818981 0.2594355 0.13420404
0000e0 4a 5d 34 3e 4e 92 0b be 0c 66 08 3d 4b 1d 82 3c
       0.17613712 -0.1363003 0.033300444 0.015883109
0000f0 6a f2 cc 3d 62 09 0d be 18 28 2a 3d e8 fe 14 be
       0.10007174 -0.1377311 0.041542143 -0.14550364
000100 4d 90 7b 3e 06 50 1d bd f6 cf 1b 3d ac 4c 9e 3c
       0.24566765 -0.038406394 0.038040124 0.01932367
000110 5c ae b3 3d fd 95 60 3e dd 3a 84 bd c5 29 2b 3e
       0.08773491 0.21932216 -0.0645654 0.16715153
000120 f8 4d bf bd af 8d 47 3e 0d 9b 2e be 0d 03 6f bd
       -0.09341043 0.19487642 -0.17051335 -0.05835252
000130 36 49 8f 3d 61 57 08 be 04 fb 0d 3e 9c e1 34 be
       0.06996386 -0.13314582 0.13865286 -0.17664188
000140 fd b1 57 3e b0 1a 85 be b2 f2 37 3d 7f 1f 77 bd
       0.21063991 -0.25996923 0.044909187 -0.06033277
000150 04 e5 8f bd d7 68 eb bd 32 ea 29 be 10 6f 20 be
       -0.07026103 -0.11494606 -0.16593245 -0.15667367
000160 28 fe c5 3d b1 9f 4f 3e 45 1d 0c bd 3e 22 80 bd
       0.09667617 0.20275761 -0.0342076 -0.06256531
000170 ff e1 01 3e 73 55 aa 3d 14 bd 06 3e 45 74 eb bd
       0.12683867 0.083170794 0.13158065 -0.11496786
000180 24 a5 00 bd 27 a2 80 bd 9b e3 46 3e 58 96 92 3d
       -0.03140749 -0.06280928 0.19422762 0.07157582
000190 a3 41 cb 3c 72 44 e7 bd 59 6a 81 3d 09 3b 52 3e
       0.024811571 -0.11292352 0.06319112 0.20530333
0001a0 2d 2a 25 3e ae 09 08 3e df e7 a3 3c 35 b0 df 3d
       0.1612937 0.13284943 0.020008026 0.10922281
0001b0 9c 7e 29 3e 0f 98 9d 3a 8f 46 3a bc dd 90 3b be
       0.16552204 0.0012023466 -0.011369362 -0.1831698
0001c0 34 35 f4 bd e2 ed f9 3d 3d e9 c8 3d 35 1b 36 3e
       -0.1192421 0.12203576 0.09810112 0.17783816
0001d0 8c 15 5b bd f1 10 15 bd 8d 79 1e be 1b 59 58 be
       -0.053487346 -0.03639311 -0.15476055 -0.21127741
0001e0 52 c5 7e bd 1a c0 31 be 64 2b 5c 3e 77 01 fd bd
       -0.062199898 -0.17358437 0.21500927 -0.12353795
0001f0 51 67 fc 3d 34 55 17 be 32 8d 03 bd de 63 b4 3b
       0.123243935 -0.14778596 -0.032117076 0.005505069
000200 6b 45 3d be 18 44 57 3e b3 16 86 bd 58 a9 5d 3e
       -0.18483512 0.2102207 -0.06547298 0.21646631
000210 aa ec 4f 3d 8c 6d 9c bd 16 8c 7d 3e 90 fb 9e bd
       0.05076281 -0.07638082 0.2476047 -0.077628255
000220 db 3c 28 3e 76 f4 3b be da ab 06 3d 50 db 30 bc
       0.16429465 -0.18354973 0.032878734 -0.010794476
000230 f0 01 48 3e 22 5a 56 3e 9c 13 6c be 74 55 5d 3d
       0.19531989 0.2093282 -0.23054355 0.054036573
000240 36 ce ea 3d 9b 10 b0 3c d3 dd 65 bd fd 37 04 be
       0.11465113 0.021492293 -0.05611975 -0.12911983
000250 3a 5d 85 bd 29 76 a5 bd 8d bf 3f be ff f0 2f be
       -0.06511922 -0.08079178 -0.18725415 -0.17181776
000260 fd 18 30 bd e2 c8 98 bd 72 af d2 bd 94 35 c2 bd
       -0.04299258 -0.0746019 -0.1028737 -0.094828755
000270 79 b6 f3 bd b3 19 27 3e cc 10 53 bb a8 1c 80 be
       -0.11900038 0.16318397 -0.0032206057 -0.25021863
000280 ec 8c bc bd 51 26 5d be 30 28 b3 3c 9b a1 21 3e
       -0.09206566 -0.21596648 0.021869749 0.15784304
000290 37 aa 82 bd 25 51 38 3e 9c 79 18 3e 46 76 be bd
       -0.06380122 0.17999704 0.1489014 -0.092999026
0002a0 34 29 81 be 00 fa 06 3d ec 90 2b 3e 00 0b 65 3d
       -0.25226748 0.032953262 0.16754502 0.055918694
0002b0 06 c6 6c be 3c c5 c9 bd 98 c7 af bd 5f 27 9b 3d
       -0.23122415 -0.098520726 -0.08582991 0.07575869
0002c0 d2 b5 9f bd b2 32 81 bd 37 88 31 3e 14 0c 50 be
       -0.07798351 -0.063084975 0.17337118 -0.20317107
0002d0 f6 dd 19 bd 2c 07 47 be d1 19 17 be a8 f8 ff b8
       -0.037565194 -0.1943633 -0.14755942 -0.000122056634
0002e0 4d e6 42 be 6e d7 4c be 40 e0 90 bd aa e3 1a 3e
       -0.19033165 -0.20004055 -0.07074022 0.1512591
0002f0 74 88 41 be c0 43 10 be 83 1c 0e be 1c f0 11 3e
       -0.18899709 -0.14088345 -0.13878064 0.1425175
000300 c7 f8 04 be da 34 42 3e f3 e0 22 3c 03 5c 18 bd
       -0.12985526 0.18965474 0.009941327 -0.037197124
000310 fb b4 d1 bb de 28 5f 3e 25 f3 26 3d 25 9d 36 be
       -0.0063997484 0.21792933 0.040759224 -0.17833383
000320 29 81 97 3d 79 b7 e0 3d e2 2c 62 3e 80 be 52 be
       0.07397682 0.10972495 0.22087434 -0.20580482
000330 df 4a 56 3e be 14 6d 3e 82 7f 87 3d 0a 70 20 be
       0.20926999 0.23152444 0.06616117 -0.1566774
000340 f0 93 84 be 94 be 04 3d 28 f5 91 3d 25 e5 08 3d
       -0.25894117 0.032408312 0.07126838 0.033421654
000350 68 a5 1a 3e 95 11 61 be 57 6a fa 3b 4e 07 96 3c
       0.1510216 -0.21979363 0.007642071 0.01831403
000360 fd f5 aa bd 45 88 d5 3d bd af 75 3e 42 ce 0c be
       -0.083477 0.10426382 0.2399282 -0.13750556
000370 6f 57 44 3e 93 e7 fe bd 93 76 18 be 9b 9e d3 3d
       0.19173978 -0.12446513 -0.14888982 0.10332986
000380 19 6b 8f bd a9 bf d8 3d 46 21 62 be e7 f0 73 3e
       -0.07002849 0.10583431 -0.22083005 0.23822366
000390 61 85 f0 3c 93 1d e0 bd 9e 97 34 be 9f 00 14 3e
       0.029360475 -0.10943141 -0.17635962 0.14453362
0003a0 3e 6e 6a bd 00 de 88 bc 0e 1a 72 3d dd 59 ea 3d
       -0.05723404 -0.01670742 0.05910688 0.11442921
0003b0 9b e7 67 3e f8 37 f8 bd 3b 24 98 3d 92 e9 69 be
       0.22646944 -0.1212005 0.074287854 -0.22843006
0003c0 ef 3e de 3b 5a 88 e0 3d 9c 29 3d be f0 e9 3e be
       0.0067824046 0.10963507 -0.18472904 -0.18643928
0003d0 ea 2e f8 bd 2a ce 53 3e 0e 89 1b be e5 3b 36 be
       -0.12118323 0.20684114 -0.15189001 -0.17796285
0003e0 21 18 07 be bf ad cb 3d 41 94 87 bd 41 59 fe bd
       -0.13192798 0.09945249 -0.06620074 -0.124193676
0003f0 1d 70 19 3e c1 41 79 3e 64 1a 51 be d6 04 91 3d
       0.14984174 0.2434149 -0.20420223 0.070810005

clf_net.3.bias f4 [16]
000000 b6 4a 63 3e 55 2c 61 be 87 e2 65 be c7 8c 78 be
       0.22196469 -0.21989568 -0.22449695 -0.24272452
000010 f8 00 16 3e 99 76 5e 3e 34 d6 17 be a9 71 53 3e
       0.14648807 0.21724929 -0.14827806 0.20648827
000020 8a a2 95 bc a4 93 41 3e a4 b8 3a be 73 38 44 3d
       -0.018265981 0.18903977 -0.18234497 0.047905397
000030 2a 26 73 be 9a ff 62 bd 6b 7c d1 bd c4 95 5d bc
       -0.23745027 -0.055419542 -0.10228809 -0.013524476

clf_net.4.weight f4 [16]
000000 de c9 78 3f 71 af 79 3f bd 51 7c 3f 68 4d 7b 3f
       0.97183025 0.9753333 0.9856222 0.9816499
000010 9c d8 78 3f 12 d2 82 3f 63 26 7e 3f 04 e9 79 3f
       0.9720552 1.0220358 0.99277323 0.9762118
000020 75 f1 80 3f 81 2a 79 3f b8 96 82 3f fe 91 84 3f
       1.0073687 0.9733048 1.0202246 1.0357053
000030 94 b2 7d 3f de e6 84 3f c3 97 84 3f 6e f5 83 3f
       0.99100614 1.0382955 1.0358814 1.0309274

clf_net.4.bias f4 [16]
000000 1b 4b 02 bd 97 e2 df bc 66 03 c9 bc ae 57 00 bd
       -0.031809907 -0.027329726 -0.024537753 -0.031333618
000010 87 48 fc bc 53 8d 19 3d e7 00 2b bd d2 e6 f2 bc
       -0.030796302 0.037488293 -0.041748907 -0.02965108
000020 f7 e5 34 3d ab 6a f8 bc 58 01 3a 3d ed b1 22 3d
       0.044164624 -0.0303243 0.045411438 0.039720464
000030 90 09 2d bd 6d 41 19 3d b6 f2 0d 3d 04 2f 0b 3d
       -0.042245448 0.03741591 0.034655295 0.033980384

clf_net.4.running_mean f4 [16]
000000 74 09 a6 3d cb e3 ff be 12 aa 4e be 68 e6 a2 bc
       0.08107272 -0.4997848 -0.20182064 -0.019885257
000010 57 d8 8b 3e 82 14 2d 3e fe bc d6 3d 72 31 9f 3d
       0.27313492 0.16902354 0.10485266 0.07773103
000020 e0 d6 31 3e cc 84 28 be 65 25 96 be 49 f3 a9 be
       0.17367125 -0.16456908 -0.29325405 -0.33193424
000030 49 2c e5 bc 58 d4 67 bd 34 cc ee bd 10 37 2c be
       -0.027975218 -0.05659899 -0.116600424 -0.1681788

clf_net.4.running_var f4 [16]
000000 b2 a1 2d 3c be da 46 3f 13 f3 c7 3a 1f 38 de 3c
       0.010597633 0.77677524 0.0015254937 0.02712637
000010 e2 57 65 3e 63 c3 9c 3b db 0f 48 3e 17 fb 9d 3c
       0.22396806 0.004784034 0.19537298 0.019284768
000020 ae 83 37 3e 52 dd 7a 3d 4d 19 1b 3c fc 04 3d 3e
       0.17921326 0.061246224 0.009466481 0.18458933
000030 cf 8d 82 3e 5e c4 04 39 3b c7 13 39 b2 67 5d 3e
       0.25498816 0.00012661653 0.00014093232 0.21621588

clf_net.6.weight f4 [1, 16]
000000 12 d8 4f be e6 50 d1 bc 1c 64 a6 bc 06 cd a3 bd
       -0.20297268 -0.02555127 -0.020311408 -0.079980895
000010 e5 fe ee bd 92 06 a3 3c 33 c3 09 bd 07 2d 1c bd
       -0.11669711 0.019900594 -0.033633422 -0.03812888
000020 9f df 75 3e c7 45 2f be 64 c5 6f 3e bc e9 ef 3d
       0.24011086 -0.17116462 0.23415142 0.11714503
000030 62 7e 8c bd 98 1f a6 3d e4 d6 24 3e 1c 34 79 3e
       -0.06860043 0.08111495 0.160976 0.24336284
