EE8591/Project/regression_models/Sine_squared/DNN/deepnn/training_models/net_800.pt (torch, 7359 bytes, 13 tensors)

clf_net.0.weight f4 [16, 1]
-0.47341067 0.49942547 0.28262445 0.254705 -0.54257977 -0.2904658 0.4435465 -0.9600418
0.2371594 0.16075802 0.33384436 0.116571 -0.32707083 0.3844983 0.1636644 -0.09325644
00000000: e262 f2be b2b4 ff3e 27b4 903e b268 823e
00000010: 82e6 0abf efb7 94be 8718 e33e 4dc5 75bf
00000020: ead9 723e c09d 243e a6ed aa3e c7bc ee3d
00000030: d475 a7be f6dc c43e a497 273e 3bfd bebd

clf_net.0.bias f4 [16]
0.12352831 -0.12560578 -0.09696212 -0.08334519 -0.8494635 0.4051723 0.34823278 0.935011
-0.52867293 0.8442642 0.37968215 -0.067070276 0.46834162 0.014469823 0.137864 -0.4921502
00000000: 69fc fc3d cd9e 00be 1394 c6bd e2b0 aabd
00000010: 7176 59bf be72 cf3e 914b b23e e25c 6f3f
00000020: 1c57 07bf b321 583f b365 c23e 245c 89bd
00000030: 79ca ef3e d612 6d3c 382c 0d3e 1cfb fbbe

clf_net.1.weight f4 [16]
0.9936867 1.0160601 1.0074395 0.9884434 1.0042661 1.0016605 0.98893696 0.99796623
1.0174425 0.9898252 0.994899 0.9846395 0.9810656 0.9872858 1.0033367 1.023965
00000000: 4062 7e3f 420e 823f c7f3 803f a00a 7d3f
00000010: cb8b 803f 6936 803f f92a 7d3f b77a 7f3f
00000020: 8e3b 823f 2f65 7d3f b3b1 7e3f 5611 7c3f
00000030: 1d27 7b3f c3be 7c3f 566d 803f 4911 833f

clf_net.1.bias f4 [16]
-0.04776202 -0.046864256 0.030456847 -0.034734033 0.029299414 -0.032067753 0.03356306 0.023476101
0.04815726 -0.020384496 -0.04355914 -0.008840558 0.028774647 0.03363214 0.015588337 0.009385792
00000000: 1ca2 43bd bcf4 3fbd a380 f93c 4645 0ebd
00000010: 5305 f03c 7a59 03bd 6b79 093d f450 c03c
00000020: 8c40 453d 63fd a6bc 126b 32bd fdd7 10bc
00000030: cfb8 eb3c dbc1 093d 3966 7f3c ddc6 193c

clf_net.1.running_mean f4 [16]
-0.0808617 0.09002986 0.024942853 0.026588669 -1.0839233 0.27977535 0.53979135 0.5205104
-0.42625046 0.9136438 0.5238259 -0.016730785 0.32730958 0.18052195 0.20849754 -0.53240955
00000000: d29a a5bd 9361 b83d f454 cc3c 7bd0 d93c
00000010: 00be 8abf b73e 8f3e c42f 0a3f 2b40 053f
00000020: 803d dabe 8fe4 693f 7419 063f 000f 89bc
00000030: 1f95 a73e bfda 383e 6180 553e fe4b 08bf

clf_net.1.running_var f4 [16]
0.015739609 0.017524654 0.005611047 0.004556903 0.020681668 0.005925364 0.013821422 0.06472992
0.0039520725 0.001813272 0.007826212 0.0009548043 0.007517602 0.0103842635 0.0018806562 0.0006103704
00000000: 5af0 803c dd8f 8f3c e0dc b73b 1352 953b
00000010: 9a6c a93c 8e29 c23b 3f73 623c 1f91 843d
00000020: 6380 813b 50ab ed3a 8339 003c d54b 7a3a
00000030: 3756 f63b c222 2a3c 5a80 f63a 4401 203a

clf_net.3.weight f4 [16, 16]
-0.028839706 -0.20015548 -0.053936012 0.014065876 -0.025023745 -0.22730887 -0.091185234 0.15789965
0.03043351 0.11573879 -0.03123574 0.18916923 0.1100866 -0.11181366 -0.039116062 -0.23336151
0.2165504 0.02706105 -0.23074001 0.11188253 0.195404 -0.028487094 -0.15063111 -0.12200663
0.09095372 -0.13354036 -0.2110996 -0.1200192 0.09971744 -0.12461228 -0.25994226 -0.023527127
-0.22176905 0.08400765 0.22269619 -0.07293394 -0.06480069 -0.14744912 -0.03491247 -0.030415332
0.21974409 0.06513811 0.12821378 -0.21771665 0.24614874 -0.13280784 -0.23653027 0.2370823
0.2099361 -0.041038148 0.15038292 -0.018069988 -0.12104746 0.1519386 0.25708872 0.13800164
0.17374468 -0.13856784 0.031080917 0.01358942 0.10389561 -0.14009191 0.039187245 -0.14162499
0.2170179 0.020520434 0.095300905 0.07834987 0.04745081 0.18903686 -0.007133289 0.12788883
-0.036179427 0.25391862 -0.111968935 0.00028630195 0.0309269 -0.07528393 0.19698936 -0.21207567
0.23616853 -0.2657929 0.05347796 -0.06499978 -0.056807928 -0.09129848 -0.15700066 -0.14226437
0.10800301 0.20035723 -0.0398826 -0.061847467 0.1405148 0.09198437 0.13673167 -0.09689625
-0.008979619 -0.10750235 0.14646146 0.027182471 0.04783741 -0.09025844 0.016170895 0.22813539
0.11308687 0.08796614 -0.025088983 0.063588224 0.18837048 -0.04565575 -0.05789369 -0.15994707
-0.11920961 0.1220582 0.09809874 0.17785737 -0.05342733 -0.036358003 -0.1547627 -0.21122178
-0.062203757 -0.17357075 0.21503083 -0.12353067 0.12330135 -0.14778762 -0.032116573 0.0055496413
-0.2069869 0.17426111 -0.09245915 0.1816041 0.02732539 -0.09891388 0.22072338 -0.10085073
0.13876095 -0.2170883 -0.0019578775 -0.042596705 0.17201741 0.18210414 -0.2602131 0.030550875
0.11540343 0.020964408 -0.055726383 -0.12956072 -0.06508496 -0.08016718 -0.18683602 -0.17173591
-0.04240815 -0.07489369 -0.103375025 -0.09494613 -0.11895233 0.1636019 -0.0030436544 -0.24996383
-0.09438386 -0.21267171 0.024837222 0.1610957 -0.06542917 0.17780781 0.15183698 -0.09464792
-0.24936302 0.036184203 0.17079045 0.059084706 -0.23285395 -0.095566675 -0.0827307 0.07392637
-0.06696688 -0.06826769 0.16646598 -0.208465 -0.02545637 -0.18300043 -0.15450402 0.011848562
-0.1976885 -0.20564544 -0.07579997 0.1452956 -0.17688915 -0.14791673 -0.14539832 0.15465617
-0.11227309 0.19145162 0.0070676566 -0.03581234 0.012156778 0.23581594 0.03785189 -0.1599815
0.07021084 0.110374376 0.22261435 -0.20615014 0.227648 0.22868985 0.064429514 -0.13799854
-0.26110196 0.03470697 0.069526784 0.035474464 0.1510034 -0.22154242 0.0057896515 0.0181584
-0.086196914 0.10583095 0.24217814 -0.13667214 0.19165653 -0.12628125 -0.14939383 0.102726854
-0.07194501 0.106493674 -0.22155134 0.23879628 0.029741881 -0.110893615 -0.17712007 0.14477569
-0.058305815 -0.016300652 0.059742402 0.11459961 0.22678633 -0.12194993 0.07399614 -0.22863053
0.001055508 0.12613854 -0.2069451 -0.17273378 -0.121242255 0.20208925 -0.17475125 -0.17843068
-0.15939502 0.10841319 -0.047676526 -0.12235686 0.149639 0.22233427 -0.21485159 0.06888755
00000000: 3f41 ecbc 8ff5 4cbe 02ec 5cbd 8f74 663c
00000010: 99fe ccbc a8c3 68be 53bf babd 72b0 213e
00000020: b24f f93c 7508 ed3d 18e2 ffbc 94b5 413e
00000030: 1575 e13d 8ffe e4bd 2a38 20bd 52f6 6ebe
00000040: 63bf 5d3e 23af dd3c 1c47 6cbe ab22 e53d
00000050: fc17 483e c45d e9bc 0b3f 1abe 9dde f9bd
00000060: f245 ba3d cebe 08be 7e2a 58be a0cc f5bd
00000070: a838 cc3d b934 ffbd 2717 85be f6bb c0bc
00000080: 6d17 63be 340c ac3d 780a 643e 645e 95bd
00000090: 39b6 84bd e7fc 16be 6100 0fbd 9329 f9bc
000000a0: 9804 613e 2167 853d 794a 033e 1df1 5ebe
000000b0: 6a0e 7c3e c7fe 07be fe34 72be b4c5 723e
000000c0: 7df9 563e 9e17 28bd fbfd 193e 8307 94bc
000000d0: bbe7 f7bd cb95 1b3e 22a1 833e 4d50 0d3e
000000e0: 20ea 313e bae4 0dbe 689d fe3c 29a6 5e3c
000000f0: 39c7 d43d 4174 0fbe ce82 203d 2406 11be
00000100: f139 5e3e 781a a83c 1f2d c33d e675 a03d
00000110: c85b 423d e192 413e 5dbe e9bb 4af5 023e
00000120: e130 14bd 9f01 823e f84f e5bd cc1a 9639
00000130: 695a fd3c 762e 9abd 94b7 493e 5d2a 59be
00000140: 2ad6 713e 0216 88be b50b 5b3d 9b1e 85bd
00000150: 6eaf 68bd b3fa babd c8c4 20be c0ad 11be
00000160: af30 dd3d 722a 4d3e f05b 23bd c553 7dbd
00000170: 1de3 0f3e 4d62 bc3d 6303 0c3e 8b71 c6bd
00000180: 401f 13bc 312a dcbd fef9 153e c6ad de3c
00000190: 29f1 433d 6bd9 b8bd d378 843c 539c 693e
000001a0: 179a e73d 9727 b43d 6987 cdbc 8b3a 823d
000001b0: 31e4 403e 8601 3bbd ef21 6dbd 2ac9 23be
000001c0: 2b24 f4bd a6f9 f93d fee7 c83d 3e20 363e
000001d0: 9ed6 5abd 21ec 14bd 1d7a 1ebe 864a 58be
000001e0: 5ec9 7ebd 88bc 31be 0b31 5c3e a6fd fcbd
000001f0: 6b85 fc3d a355 17be ab8c 03bd c4d9 b53b
00000200: 60f4 53be 8171 323e 395b bdbd 6df6 393e
00000210: 7fd9 df3c 5c93 cabd 4f05 623e d48a cebd
00000220: 5a17 0e3e 654c 5ebe bc4f 00bb e279 2ebd
00000230: 5525 303e 8279 3a3e a73a 85be d445 fa3c
00000240: a258 ec3d 8dbd ab3c 5941 64bd 91ab 04be
00000250: 434b 85bd b12e a4bd f151 3fbe 8adb 2fbe
00000260: 2bb4 2dbd dd61 99bd 49b6 d3bd 1e73 c2bd
00000270: 479d f3bd 4287 273e 0c78 47bb 85f6 7fbe
00000280: 534c c1bd 9dc6 59be 6e77 cb3c 45f6 243e
00000290: bbff 85bd 4013 363e 277b 1b3e c5d6 c1bd
000002a0: 0559 7fbe e335 143d b1e3 2e3e ce02 723d
000002b0: 4471 6ebe 76b8 c3bd b76e a9bd b566 973d
000002c0: ee25 89bd eecf 8bbd 0f76 2a3e d977 55be
000002d0: e189 d0bc 7764 3bbe 4d36 1ebe 7920 423c
000002e0: db6e 4abe b894 52be 043d 9bbd 5fc8 143e
000002f0: 6e22 35be 7c77 17be 4ce3 14be 305e 1e3e
00000300: 6fef e5bd e50b 443e cd97 e73b f6af 12bd
00000310: 392d 473c bc79 713e 950a 1b3d 31d2 23be
00000320: b3ca 8f3d f60b e23d 04f5 633e 0619 53be
00000330: 8f1c 693e ac2d 6a3e 9ff3 833d 7d4f 0dbe
00000340: 28af 85be e528 0e3d 0f64 8e3d ac4d 113d
00000350: a3a0 1a3e 04dc 62be 1eb7 bd3b edc0 943c
00000360: 0288 b0bd e6bd d83d 8cfd 773e c8f3 0bbe
00000370: 9c41 443e df4f 01be b2fa 18be 7562 d23d
00000380: e857 93bd 5b19 da3d 5bde 62be 0387 743e
00000390: 3fa5 f33c 311c e3bd f75e 35be 1440 143e
000003a0: 14d2 6ebd f288 85bc 73b4 743d 33b3 ea3d
000003b0: ad3a 683e e3c0 f9bd 4a8b 973d 1f1e 6abe
000003c0: f958 8a3a 762a 013e 6be9 53be 20e1 30be
000003d0: dc4d f8bd 7cf0 4e3e fef1 32be 88b6 36be
000003e0: 7338 23be bc07 de3d 7648 43bd 3c96 fabd
000003f0: f73a 193e 98ab 633e 0e02 5cbe ea14 8d3d

clf_net.3.bias f4 [16]
0.21090241 -0.22047682 -0.22473311 -0.24750105 0.14074412 0.22228707 -0.15040793 0.20419571
-0.012190142 0.18322846 -0.17748138 0.05125402 -0.23930219 -0.05479075 -0.10204961 -0.0077859103
00000000: cdf6 573e adc4 61be 7020 66be ea70 7dbe
00000010: 3a1f 103e 399f 633e 8904 1abe ae18 513e
00000020: 29b9 47bc 3ea0 3b3e aebd 35be bcef 513d
00000030: a20b 75be 446c 60bd 63ff d0bd f320 ffbb

clf_net.4.weight f4 [16]
0.96203125 0.9683033 0.9792496 0.9754262 0.9643331 1.0864606 0.9810184 0.96435976
1.0370892 0.9607364 1.0540167 1.0616771 0.97009844 1.0675001 1.0595967 1.0494956
00000000: ae47 763f bae2 773f 1ab0 7a3f 88b5 793f
00000010: 89de 763f 2411 8b3f 0624 7b3f 48e0 763f
00000020: 57bf 843f d2f2 753f 05ea 863f 09e5 873f
00000030: 5f58 783f d8a3 883f dda0 873f df55 863f

clf_net.4.bias f4 [16]
-0.047256067 -0.036508363 -0.033531 -0.053293213 -0.045695707 0.10068523 -0.05839464 -0.04264399
0.07634439 -0.048176654 0.07762084 0.06713286 -0.06352524 0.06525693 0.05824437 0.056053404
00000000: 948f 41bd cb89 15bd cd57 09bd fc49 5abd
00000010: 6c2b 3bbd 0f34 ce3d 382f 6fbd 77ab 2ebd
00000020: 735a 9c3d e254 45bd adf7 9e3d f47c 893d
00000030: 8519 82bd 6da5 853d a691 6e3d 4198 653d

clf_net.4.running_mean f4 [16]
0.074949265 -0.44350317 -0.19250725 -0.024624372 0.395799 0.22286473 0.00045691445 0.07008715
0.03938069 -0.17333896 -0.28452206 -0.3283188 0.0042150468 -0.05798575 -0.121086925 -0.19324774
00000000: 007f 993d d912 e3be 9f20 45be 0db9 c9bc
00000010: 2ba6 ca3e a736 643e 058e ef39 da89 8f3d
00000020: a54d 213d c57f 31be e0ac 91be 6719 a8be
00000030: 601e 8a3b 7782 6dbd 6cfc f7bd bce2 45be

clf_net.4.running_var f4 [16]
0.010082957 0.7197516 0.00026596413 0.023857648 0.03619846 0.00041250105 0.009873585 0.018058773
0.08315941 0.061324812 0.013114363 0.24659353 0.20366843 0.00022574962 0.00020345498 0.25077298
00000000: fd32 253c a441 383f 1a71 8b39 1d71 c33c
00000010: d644 143d f444 d839 d1c4 213c feef 933c
00000020: 7b4f aa3d ba2f 7b3d a0dd 563c 0483 7c3e
00000030: 758e 503e 34b7 6c39 8856 5539 5165 803e

clf_net.6.weight f4 [1, 16]
-0.19325095 -0.010043129 -0.0070796004 -0.07463522 -0.10858346 0.056058962 -0.017613467 -0.017655427
0.26997364 -0.15846549 0.26728132 0.13976899 -0.043253947 0.10367946 0.18233639 0.26147664
00000000: 94e3 45be f08b 24bc fefb e7bb 5ada 98bd
00000010: 0161 debd 159e 653d 1e4a 90bc 1da2 90bc
00000020: fc39 8a3e c744 22be 19d9 883e 9a1f 0f3e
00000030: 0d2b 31bd e655 d43d 64b6 3a3e 44e0 853e
