EE8591/Project/regression_models/Sine_squared/DNN/deepnn/training_models/net_4800.pt (torch, 7359 bytes, 13 tensors)

clf_net.0.weight f4 [16, 1]
0	0xbeeee36e	-0.4665789
1	0x3ef5cfcb	0.48010096
2	0x3e90521d	0.28187647
3	0x3e83bf03	0.25731668
4	0xbf0bc171	-0.54592043
5	0xbe8b15c8	-0.27165055
6	0x3ee49886	0.44647616
7	0xbf788852	-0.9708301
8	0x3e6d9337	0.2320069
9	0x3e2e7ba8	0.17039359
10	0x3eaa05ce	0.33207554
11	0x3dfb2dc6	0.1226459
12	0xbe9eebf5	-0.31039396
13	0x3ec5e5ad	0.3865179
14	0x3e2a9f0f	0.16662239
15	0xbdca24bc	-0.09870288

clf_net.0.bias f4 [16]
0	0x3e028b34	0.12748414
1	0xbe050ce5	-0.129932
2	0xbdcddc2c	-0.1005176
3	0xbd9f26c4	-0.07771066
4	0xbf5a0110	-0.8515787
5	0x3ecf4fef	0.40490672
6	0x3eb3b39b	0.35097966
7	0x3f6e7b8d	0.93157274
8	0xbf076f15	-0.5290387
9	0x3f576ffe	0.8415526
10	0x3ebf6019	0.37378004
11	0xbd8fc491	-0.07019914
12	0x3ef26829	0.47345093
13	0x3ca4ef70	0.020133704
14	0x3e08eaa1	0.13370754
15	0xbefa7ce6	-0.48923415

clf_net.1.weight f4 [16]
0	0x3f7cb93b	0.9872014
1	0x3f7f3f44	0.9970591
2	0x3f80db3c	1.0066905
3	0x3f7db41d	0.99102956
4	0x3f80f9d1	1.0076238
5	0x3f7bec21	0.9840718
6	0x3f7de4da	0.99177325
7	0x3f812520	1.0089455
8	0x3f818692	1.0119193
9	0x3f8004fa	1.0001519
10	0x3f7e3d4c	0.9931228
11	0x3f7d76d5	0.9900945
12	0x3f773b07	0.96574444
13	0x3f7d41df	0.98928636
14	0x3f80d3e8	1.0064669
15	0x3f84398b	1.0330061

clf_net.1.bias f4 [16]
0	0xbc21231d	-0.009835032
1	0xbdeab70b	-0.11460694
2	0x3c04f15d	0.008114186
3	0xbd2d7210	-0.042345107
4	0x3dc49b50	0.09599936
5	0xbcb7cc07	-0.022436155
6	0x3d1142ca	0.035464086
7	0x3d91cff0	0.07119739
8	0x3d259b7c	0.040431485
9	0xbd620f6e	-0.055190496
10	0xbdbb5ae6	-0.09148197
11	0x3a097357	0.0005243322
12	0x3e067b43	0.13132958
13	0x3daa6967	0.08320885
14	0xbc08a1af	-0.00833933
15	0xbcbe1f22	-0.023208205

clf_net.1.running_mean f4 [16]
0	0xbd976788	-0.07392794
1	0x3d9f2404	0.07770541
2	0x3cad9530	0.021189302
3	0x3d08db06	0.033412002
4	0xbf8b2c46	-1.0872886
5	0x3e931d42	0.2873326
6	0x3f0b3780	0.5438156
7	0x3f032cf6	0.5124048
8	0xbedb872e	-0.4287657
9	0x3f6a4846	0.9151653
10	0x3f0470af	0.5173444
11	0xbc88e698	-0.016711518
12	0x3eadc8cc	0.33942258
13	0x3e3f7078	0.18695247
14	0x3e529c03	0.20567326
15	0xbf083d95	-0.53218967

clf_net.1.running_var f4 [16]
0	0x3c7a7fdf	0.015289276
1	0x3c84a1e5	0.016190479
2	0x3bb6e6e9	0.005581726
3	0x3b985a29	0.00464942
4	0x3cab7dbd	0.02093398
5	0x3ba9de5f	0.0051839794
6	0x3c656b5d	0.014002648
7	0x3d879793	0.06620707
8	0x3b77d57f	0.0037816463
9	0x3b05a4ed	0.0020392493
10	0x3bfdd62b	0.007746478
11	0x3a8a6ce8	0.0010561021
12	0x3bde1c85	0.006778302
13	0x3c2bf13a	0.010494525
14	0x3aff94ea	0.0019499336
15	0x3a336e86	0.00068447774

clf_net.3.weight f4 [16, 16]
0	0xbce257f1	-0.027629824
1	0xbe69a8bd	-0.22818275
2	0xbd43a836	-0.04776784
3	0x3c47d004	0.012195591
4	0xbd152f87	-0.03642228
5	0xbe67432d	-0.2258422
6	0xbdb14bd2	-0.0865704
7	0x3e19bd92	0.15013722
8	0x3d13b22d	0.036058594
9	0x3de3cb34	0.11122742
10	0xbd38be89	-0.045103583
11	0x3e4a0df7	0.1973189
12	0x3dbb9f35	0.09161226
13	0xbdd39560	-0.103312254
14	0xbcf6bed3	-0.030120289
15	0xbe6cdde4	-0.2313152
16	0x3e2ada3c	0.16684812
17	0x3c4ad8d5	0.012380798
18	0xbe850dba	-0.25987035
19	0x3db7e450	0.08979094
20	0x3e19da5b	0.15024702
21	0xbd9e9bbb	-0.07744547
22	0xbe2cae44	-0.16863352
23	0xbe2bc015	-0.16772492
24	0x3d97ef43	0.074186824
25	0xbe1f3eb9	-0.1555127
26	0xbe6f0be9	-0.23344387
27	0xbe186969	-0.14883961
28	0x3d5d2193	0.053987097
29	0xbe0adfa6	-0.13561878
30	0xbe952935	-0.29133
31	0xbd9a1826	-0.07524137
32	0xbe61629b	-0.22010271
33	0x3daf1b31	0.08550108
34	0x3e65b734	0.22433168
35	0xbd960354	-0.073248535
36	0xbd84f5b3	-0.06492176
37	0xbe152e6b	-0.14568488
38	0xbd0303f2	-0.031986184
39	0xbd004dbf	-0.031324144
40	0x3e63e78a	0.22256294
41	0x3d84ef89	0.06491
42	0x3e03c53b	0.12868206
43	0xbe5f0463	-0.21779017
44	0x3e7d79a9	0.24753441
45	0xbe056019	-0.1302494
46	0xbe71ff83	-0.23632626
47	0x3e7259c6	0.23667058
48	0x3e5b002e	0.21386787
49	0xbd247733	-0.04015274
50	0x3e175559	0.14778651
51	0xbca0c4ee	-0.019625153
52	0xbde9f2a0	-0.1142323
53	0x3e1f5be8	0.15562403
54	0x3e821ae4	0.2541114
55	0x3e1371ad	0.14398833
56	0x3e2ee6fb	0.170803
57	0xbe0f1cbd	-0.13975807
58	0x3cfbb7d6	0.030727308
59	0x3c385c85	0.011252527
60	0x3de5d004	0.112213165
61	0xbe12c504	-0.14332968
62	0x3d16e1e4	0.03683652
63	0xbe0cc62b	-0.1374747
64	0x3e65e728	0.2245146
65	0x3cb4d66a	0.022074897
66	0x3db45b38	0.08806461
67	0x3d948dc1	0.072536
68	0x3d77eaad	0.06052654
69	0x3e476622	0.19472554
70	0xbc745398	-0.014912508
71	0x3e0de493	0.13856725
72	0xbd331980	-0.04372549
73	0x3e7f27ef	0.24917577
74	0xbdea375c	-0.1143634
75	0xbbf5e315	-0.007503877
76	0x3d491c7d	0.049099434
77	0xbdac99eb	-0.08427795
78	0x3e42310d	0.18964024
79	0xbe544d88	-0.20732701
80	0x3e75bfd5	0.2399896
81	0xbe8564aa	-0.26053363
82	0x3d7c6959	0.061623905
83	0xbd7af3bd	-0.061267603
84	0xbd741dd4	-0.05959876
85	0xbdb58f4b	-0.088652216
86	0xbe16a8fb	-0.14712898
87	0xbe14bd57	-0.14525352
88	0x3df20857	0.11817997
89	0x3e51f292	0.2050269
90	0xbd132693	-0.03592546
91	0xbd6b8ce5	-0.057507414
92	0x3e0ed733	0.1394928
93	0x3dce7e44	0.10082677
94	0x3e11cea4	0.14238983
95	0xbdcedf57	-0.101011924
96	0xbc76f77f	-0.015073656
97	0xbdc8a250	-0.09796584
98	0x3e10b557	0.14131676
99	0x3c9ecb8e	0.019384172
100	0x3d4686f4	0.048468545
101	0xbdc8f16c	-0.098116726
102	0x3c57c7ba	0.013170177
103	0x3e6678c3	0.22507004
104	0x3de1708d	0.110077955
105	0x3da87540	0.08225489
106	0xbcd6ea3a	-0.026234735
107	0x3d570b6a	0.05250112
108	0x3e492666	0.19643554
109	0xbd58b44b	-0.052906316
110	0xbd8954e7	-0.06705647
111	0xbe2e72a2	-0.17035916
112	0xbdf1bf8d	-0.118041135
113	0x3dd7e853	0.10542359
114	0x3db15524	0.086588174
115	0x3e28fc2e	0.16502449
116	0xbd657bb3	-0.056026172
117	0xbd0e895d	-0.03479897
118	0xbe2a4fd2	-0.16632012
119	0xbe59a73f	-0.21255206
120	0xbd96fb21	-0.07372118
121	0xbe3fadde	-0.18718669
122	0x3e4d1007	0.20025645
123	0xbe09fa1d	-0.13474317
124	0x3df23f73	0.11828508
125	0xbe2287c6	-0.15872106
126	0xbd32481c	-0.0435258
127	0x3bfb335f	0.007666036
128	0xbe397434	-0.18110734
129	0x3e0c3f01	0.13695909
130	0xbdad7122	-0.08468844
131	0x3e18024d	0.14844628
132	0x3d2bc5c3	0.041936647
133	0xbd98512a	-0.07437356
134	0x3e7cc1fb	0.24683373
135	0xbdb01958	-0.08598584
136	0x3e296ea4	0.16546112
137	0xbe7cb4b5	-0.2467831
138	0xbd1a19cb	-0.037622254
139	0xbd8f3e83	-0.06994345
140	0x3e40d577	0.1883143
141	0x3e48a3bf	0.19593714
142	0xbe8e1ac7	-0.27754804
143	0x3d3a583d	0.045494307
144	0x3de7c001	0.11315919
145	0x3cb17e3a	0.021666635
146	0xbd4013b3	-0.046893787
147	0xbdfa4b61	-0.12221409
148	0xbd9087dc	-0.07057163
149	0xbda8db64	-0.082449704
150	0xbe36ef2f	-0.17864679
151	0xbe345b15	-0.1761287
152	0xbd0ab714	-0.033866003
153	0xbd8ba424	-0.06818417
154	0xbdcb5260	-0.09927821
155	0xbdae4a73	-0.08510294
156	0xbe01744f	-0.12642024
157	0x3e312752	0.17300156
158	0x3be73390	0.0070557073
159	0xbe80f786	-0.25188845
160	0xbd91886b	-0.07106098
161	0xbe455c25	-0.19273432
162	0x3d4f823b	0.050661307
163	0x3e3a2609	0.18178572
164	0xbd5ea617	-0.054357614
165	0x3e4ca5f2	0.19985178
166	0x3e386458	0.18007028
167	0xbdaa268c	-0.083081335
168	0xbe625b4c	-0.2210514
169	0x3d6b49c9	0.057443414
170	0x3e439419	0.19099464
171	0x3da4b333	0.08041992
172	0xbe623721	-0.22091343
173	0xbd8d4e5e	-0.06899713
174	0xbd75e764	-0.060035124
175	0x3db1dd6b	0.0868481
176	0xbbe64704	-0.0070275087
177	0xbd86ff83	-0.06591704
178	0x3e1d2224	0.15345055
179	0xbe5a1894	-0.21298438
180	0x3d1fabbd	0.03898214
181	0xbdfa3fc1	-0.12219191
182	0xbe2e04c8	-0.16994011
183	0x3d9bff93	0.07617106
184	0xbe5a5ada	-0.2132372
185	0xbe57181e	-0.21005294
186	0xbd9e649e	-0.07734035
187	0x3e0cc9c0	0.13748837
188	0xbde3e753	-0.11128106
189	0xbe2512ad	-0.16120405
190	0xbe1edf7e	-0.15514943
191	0x3e60eac1	0.21964552
192	0xbdc439db	-0.095813476
193	0x3e1e414b	0.15454595
194	0xbd5056a7	-0.050863888
195	0xbdb2d9cf	-0.0873295
196	0x3d1a407e	0.03765916
197	0x3e808b91	0.2510648
198	0xbc9d5865	-0.019207189
199	0xbe0cd82c	-0.13754338
200	0x3c3a883b	0.011385019
201	0x3d72690c	0.05918221
202	0x3e34efc0	0.17669582
203	0xbe86841e	-0.26272672
204	0x3e848364	0.25881493
205	0x3e2ceaeb	0.16886489
206	0x3bcea2c4	0.0063060243
207	0xbdf90f35	-0.12161104
208	0xbe834395	-0.25637498
209	0x3d3d2e29	0.0461866
210	0x3d8bd0aa	0.06826909
211	0x3d11ffb0	0.035644233
212	0x3e229173	0.15875797
213	0xbe5cbcc8	-0.2155639
214	0x3c2be1e6	0.01049087
215	0x3ccd9265	0.02509422
216	0xbda9f33d	-0.08298347
217	0x3ddc01ac	0.107425064
218	0x3e7d6f6d	0.24749537
219	0xbe115591	-0.14192797
220	0x3e4dd528	0.20100844
221	0xbdf929dc	-0.12166187
222	0xbe1fc34e	-0.15601847
223	0x3ddb0333	0.106939696
224	0xbd880771	-0.06642044
225	0x3de5e63a	0.11225553
226	0xbe6288f6	-0.22122559
227	0x3e761f32	0.24035338
228	0x3d202283	0.039095413
229	0xbdd5d790	-0.10441506
230	0xbe336f1b	-0.17522852
231	0x3e1d06eb	0.1533467
232	0xbd68ebcf	-0.05686551
233	0xbc695124	-0.014240537
234	0x3d8177b9	0.063216634
235	0x3de9b1ce	0.11410867
236	0x3e732e2e	0.23748085
237	0xbdf5ea8d	-0.12007628
238	0x3d957359	0.072973914
239	0xbe63ec1c	-0.22258037
240	0xbcd3fe64	-0.025878139
241	0x3e6e1d6d	0.23253413
242	0xbe2e1467	-0.1699997
243	0xbdecdb53	-0.1156527
244	0xbe0e2449	-0.13881029
245	0x3e37aecd	0.17937775
246	0xbddb6fd2	-0.107146874
247	0xbe4a30ed	-0.19745226
248	0xbdd9d2b7	-0.10635894
249	0x3e2d3553	0.16914873
250	0x3d0cf2c4	0.034411207
251	0xbdb19a21	-0.08671976
252	0x3e09c934	0.13455659
253	0x3e984c0f	0.29745528
254	0xbe4cc330	-0.19996333
255	0x3d36444b	0.044498723

clf_net.3.bias f4 [16]
0	0x3e5ad7af	0.2137134
1	0xbe6166f4	-0.2201193
2	0xbe745fd5	-0.23864682
3	0xbe881850	-0.2658105
4	0x3e00b985	0.1257077
5	0x3e6bb732	0.23019102
6	0xbe305120	-0.17218447
7	0x3e516222	0.20447591
8	0x3aa3ae43	0.0012487847
9	0x3e3bea0e	0.18351004
10	0xbe3239b5	-0.17404826
11	0x3d65995b	0.056054454
12	0xbe836c77	-0.2566869
13	0xbd4f66dc	-0.050635204
14	0xbdcd22a7	-0.10016375
15	0x3ce8c990	0.028416425

clf_net.4.weight f4 [16]
0	0x3f85a1e0	1.0440025
1	0x3f8092f7	1.004485
2	0x3f9e2212	1.2354147
3	0x3f91fb88	1.1404886
4	0x3f85e1a2	1.0459483
5	0x3f9e45ff	1.2365111
6	0x3fa179fa	1.2615349
7	0x3f89be99	1.0761291
8	0x3f8cc166	1.099652
9	0x3f8935fc	1.07196
10	0x3f8e68a7	1.1125687
11	0x3f98d62e	1.1940362
12	0x3f972949	1.1809474
13	0x3f9813e4	1.188107
14	0x3f931a14	1.1492333
15	0x3f917c43	1.1366047

clf_net.4.bias f4 [16]
0	0xbd21ad73	-0.039472055
1	0xbb0143ec	-0.0019724322
2	0xbe8c36b5	-0.27385488
3	0xbe571e10	-0.21007562
4	0xbe099187	-0.1343442
5	0x3e8ca5aa	0.27470142
6	0xbea9a9e3	-0.33137426
7	0xbc9da26c	-0.019242488
8	0x3e1cef5a	0.1532568
9	0xbd19c4ef	-0.037541326
10	0x3e0b3817	0.13595615
11	0x3e1ce0f9	0.15320195
12	0xbe70083e	-0.23440644
13	0x3e387bd0	0.1801598
14	0x3e14e335	0.14539798
15	0x3e0d0c36	0.1377419

clf_net.4.running_mean f4 [16]
0	0x3db13b26	0.0865386
1	0xbf16b69b	-0.58872384
2	0xbe5bd9a2	-0.21469739
3	0xbcf31e91	-0.029677661
4	0x3ec7abd0	0.3899827
5	0x3e882b12	0.2659536
6	0xbc9226ad	-0.017840708
7	0x3c0f2809	0.0087375725
8	0x3d8bf9f4	0.06834784
9	0xbe214aff	-0.15751265
10	0xbe44e31d	-0.19227262
11	0xbe671ec9	-0.22570337
12	0xbe126c75	-0.14299186
13	0xbd1a6810	-0.037696898
14	0xbdad8e13	-0.08474364
15	0xbc52dc14	-0.0128698535

clf_net.4.running_var f4 [16]
0	0x3c49515a	0.012287462
1	0x3f3b4f3a	0.73167765
2	0x39d62155	0.00040842095
3	0x3cc0f889	0.02355601
4	0x3d145716	0.036215864
5	0x3ba1738a	0.0049271034
6	0x3be8cdd7	0.007104616
7	0x3c581dee	0.01319073
8	0x3cc2fb3f	0.023801444
9	0x3d7fdb2f	0.06246489
10	0x3d382d72	0.044965215
11	0x3f026b6c	0.5094516
12	0x3bd1536c	0.0063881185
13	0x3afe1129	0.0019383776
14	0x3b1e9d83	0.002420277
15	0x3aa19aaf	0.0012329424

clf_net.6.weight f4 [1, 16]
0	0xbe8bce97	-0.27306053
1	0x3d5ef412	0.054431982
2	0xbe3356ca	-0.17513576
3	0xbe5ffffc	-0.21874994
4	0xbe4657fc	-0.19369501
5	0x3e077c58	0.13231027
6	0xbe617876	-0.22018608
7	0xbde39c28	-0.11113769
8	0x3eaa58cb	0.3327087
9	0xbe86715c	-0.2625836
10	0x3ea59505	0.32340255
11	0x3e6f7189	0.23383154
12	0xbe5c03e6	-0.21485862
13	0x3e3adbf2	0.18247965
14	0x3e82e638	0.25566268
15	0x3eae93b3	0.3409706
