EE8591/Project/regression_models/Sine_squared/DNN/deepnn/training_models/net_1100.pt (torch, 7359 bytes, 13 tensors)

clf_net.0.weight f4 [16, 1]
0	0xbef211f1	-0.47279313
1	0x3efe07a6	0.4961521
2	0x3e90a5c9	0.28251484
3	0x3e836a2a	0.25666934
4	0xbf0abbc3	-0.5419275
5	0xbe944def	-0.2896571
6	0x3ee3ef90	0.4451871
7	0xbf75f426	-0.96075666
8	0x3e70b484	0.23506361
9	0x3e268540	0.16261768
10	0x3ead87ea	0.33892757
11	0x3dee738a	0.11643131
12	0xbea6cd8f	-0.32578704
13	0x3ec48973	0.38386115
14	0x3e26b1b8	0.16278732
15	0xbdc1e0e7	-0.09466725

clf_net.0.bias f4 [16]
0	0x3dfc08fe	0.123064026
1	0xbe01e0cb	-0.12683408
2	0xbdc62ca4	-0.09676483
3	0xbdaa6e7a	-0.08321853
4	0xbf59539e	-0.84893215
5	0x3ecf0bf2	0.404388
6	0x3eb34415	0.3501288
7	0x3f6f7359	0.9353538
8	0xbf074fa7	-0.52855915
9	0x3f57e99d	0.8434084
10	0x3ec25f30	0.37963247
11	0xbd882543	-0.06647732
12	0x3ef0f11c	0.47058952
13	0x3c678e00	0.0141329765
14	0x3e0d323c	0.13788694
15	0xbefb93aa	-0.49136096

clf_net.1.weight f4 [16]
0	0x3f7e3b74	0.9930947
1	0x3f81a038	1.012702
2	0x3f80f021	1.0073282
3	0x3f7d8a1a	0.9903885
4	0x3f80766e	1.0036142
5	0x3f801bb3	1.0008453
6	0x3f7d92ea	0.990523
7	0x3f7faa36	0.99869096
8	0x3f81f057	1.0151471
9	0x3f7de2b9	0.99174076
10	0x3f7ff23b	0.9997899
11	0x3f7c09f4	0.9845269
12	0x3f7adac2	0.9799005
13	0x3f7c9628	0.9866662
14	0x3f804ded	1.0023781
15	0x3f835b8c	1.0262313

clf_net.1.bias f4 [16]
0	0xbd51969f	-0.051169034
1	0xbd66dfb8	-0.0563657
2	0x3d122bfc	0.035686478
3	0xbcfb0ffd	-0.030647272
4	0x3d021d09	0.03176597
5	0xbd1364f4	-0.03598495
6	0x3d3d2579	0.046178315
7	0x3ccac8e5	0.024753997
8	0x3d658ede	0.056044452
9	0xbc9f971f	-0.01948124
10	0xbd3272d4	-0.04356654
11	0xbbd69931	-0.0065490236
12	0x3d028bb3	0.03187151
13	0x3d1ed5a1	0.03877795
14	0x3c7dc44b	0.015488694
15	0x3c7b1215	0.015324135

clf_net.1.running_mean f4 [16]
0	0xbda66ad7	-0.08125847
1	0x3db2ba00	0.08726883
2	0x3ccecb86	0.025243532
3	0x3ce226c0	0.027606368
4	0xbf8a9c19	-1.0828887
5	0x3e8ef9e5	0.2792503
6	0x3f0ac7b1	0.54210955
7	0x3f0544e6	0.52058256
8	0xbedaa5f7	-0.42704746
9	0x3f69e6cb	0.9136779
10	0x3f06a331	0.5259276
11	0xbc8467d7	-0.016162796
12	0x3ea8cfbc	0.3297099
13	0x3e384001	0.17993166
14	0x3e55275c	0.20815796
15	0xbf08444e	-0.53229225

clf_net.1.running_var f4 [16]
0	0x3c80a532	0.015703771
1	0x3c8db292	0.017297063
2	0x3bb7bb96	0.005607079
3	0x3b978ac6	0.0046246974
4	0x3ca905cb	0.020632645
5	0x3bc11eed	0.005893579
6	0x3c640c36	0.013918927
7	0x3d84c99a	0.06483765
8	0x3b7e7fd6	0.003883352
9	0x3af352fb	0.0018564159
10	0x3c041852	0.008062439
11	0x3a798d89	0.00095196866
12	0x3bf44d7b	0.0074555255
13	0x3c2994f5	0.0103504555
14	0x3af418ad	0.0018623077
15	0x3a24d9c7	0.0006288555

clf_net.3.weight f4 [16, 16]
0	0xbcead818	-0.028667495
1	0xbe4f6d1d	-0.20256467
2	0xbd5a3c8b	-0.053280395
3	0x3c492321	0.012276442
4	0xbcd8d417	-0.02646832
5	0xbe68f426	-0.22749385
6	0xbdb8f496	-0.09031026
7	0x3e2052f0	0.15656638
8	0x3d01d9de	0.031701915
9	0x3dea7119	0.11447353
10	0xbd08dd55	-0.033414204
11	0x3e40e91b	0.18838923
12	0x3dde6fa8	0.108611405
13	0xbde35bf9	-0.11101527
14	0xbd1fcd9a	-0.039014436
15	0xbe702295	-0.23450692
16	0x3e60337f	0.21894644
17	0x3cd0e25f	0.025498567
18	0xbe689952	-0.22714737
19	0x3de36520	0.111032724
20	0x3e48b72b	0.19601123
21	0xbcd873af	-0.02642235
22	0xbe161c90	-0.14659333
23	0xbdf863f1	-0.12128437
24	0x3dc3be4e	0.09557782
25	0xbe08f417	-0.13374363
26	0xbe59b375	-0.21259864
27	0xbdf4f4c3	-0.11960747
28	0x3dcd7b8e	0.10033332
29	0xbdf8281c	-0.12117025
30	0xbe841b17	-0.25801918
31	0xbcb7fac1	-0.022458436
32	0xbe626bf9	-0.22111501
33	0x3dacd4e2	0.08439042
34	0x3e6483a5	0.22315843
35	0xbd949242	-0.07254459
36	0xbd839f7f	-0.06426906
37	0xbe1657e6	-0.14681968
38	0xbd0d1521	-0.03444398
39	0xbcf4c4ae	-0.02987894
40	0x3e6184ef	0.22023366
41	0x3d8638bb	0.06553789
42	0x3e03ae1e	0.12859389
43	0xbe5e866d	-0.21730967
44	0x3e7c986f	0.24667524
45	0xbe078553	-0.13234453
46	0xbe71c0ff	-0.23608778
47	0x3e735b48	0.2376529
48	0x3e5747ec	0.2102353
49	0xbd292da9	-0.04130331
50	0x3e19c217	0.15015446
51	0xbc962f81	-0.018333199
52	0xbdf76e45	-0.12081579
53	0x3e1be009	0.15222181
54	0x3e8383e9	0.25686577
55	0x3e0d8d80	0.13823509
56	0x3e31b1b0	0.17352939
57	0xbe0e292b	-0.13882892
58	0x3cfc7731	0.030818554
59	0x3c5a71fa	0.013332838
60	0x3dd540d2	0.10412754
61	0xbe0faf70	-0.14031768
62	0x3d1f82a3	0.038942944
63	0xbe10c59f	-0.14137886
64	0x3e5ede8b	0.21764581
65	0x3ca5297f	0.020161388
66	0x3dc32757	0.09528988
67	0x3d9fcac6	0.07802348
68	0x3d418f5b	0.047255855
69	0x3e41fd4a	0.18944278
70	0xbbe8c205	-0.007103207
71	0x3e02c9ed	0.12772341
72	0xbd13c407	-0.036075618
73	0x3e81dbd0	0.25363016
74	0xbde60a29	-0.11232407
75	0x3813d339	3.5244248e-05
76	0x3cfbbb59	0.030728983
77	0xbd9a271f	-0.07526993
78	0x3e499954	0.19687396
79	0xbe594633	-0.21218185
80	0x3e72a45b	0.23695509
81	0xbe89f732	-0.26946408
82	0x3d59b306	0.053149246
83	0xbd8b432c	-0.067999214
84	0xbd71efa3	-0.059066426
85	0xbdba8adc	-0.091085166
86	0xbe20e135	-0.1571091
87	0xbe13ba51	-0.14426543
88	0x3ddded7c	0.10836312
89	0x3e4aaff9	0.1979369
90	0xbd3160bc	-0.043305144
91	0xbd828b74	-0.06374255
92	0x3e0d8dce	0.13823625
93	0x3dbc0527	0.0918067
94	0x3e0b0cd8	0.13579118
95	0xbdc97da3	-0.098384164
96	0xbc0762bf	-0.008263289
97	0xbddea7e5	-0.10871867
98	0x3e15fb4b	0.14646642
99	0x3cd5c809	0.02609636
100	0x3d44866c	0.047979757
101	0xbdb7ae17	-0.08968752
102	0x3c85b38d	0.016320968
103	0x3e69c7fd	0.22830196
104	0x3de86789	0.11347873
105	0x3db23763	0.087019704
106	0xbcd757c6	-0.02628697
107	0x3d808feb	0.0627745
108	0x3e4108f7	0.18851076
109	0xbd3aa46b	-0.045566957
110	0xbd6e9255	-0.05824502
111	0xbe2390b3	-0.15973167
112	0xbdf403c3	-0.1191478
113	0x3df9b69a	0.121930316
114	0x3dc89e9c	0.09795877
115	0x3e35fe37	0.17772757
116	0xbd5a8471	-0.053348962
117	0xbd14a7c1	-0.036292795
118	0xbe1e9ef8	-0.1549033
119	0xbe583681	-0.21114542
120	0xbd7f6012	-0.06234748
121	0xbe31df4f	-0.17370342
122	0x3e5c100e	0.214905
123	0xbdfd43fd	-0.12366483
124	0x3dfcae76	0.12337963
125	0xbe177aa3	-0.14792876
126	0xbd041f7d	-0.032256592
127	0x3bb85d78	0.0056263767
128	0xbe5744c3	-0.21022324
129	0x3e208019	0.15673865
130	0xbdce45e9	-0.10071928
131	0x3e29edde	0.16594645
132	0x3cb53a08	0.022122398
133	0xbdd21a81	-0.102589615
134	0x3e5a8a27	0.21341763
135	0xbdd8e8de	-0.10591291
136	0x3e082dc6	0.13298711
137	0xbe6d08b3	-0.2314785
138	0xbc97e6c8	-0.018542662
139	0xbd647f4d	-0.055785466
140	0x3e2acd30	0.16679835
141	0x3e327f95	0.17431481
142	0xbe8a9ef2	-0.2707439
143	0x3cd1e68a	0.025622625
144	0x3de95b7a	0.11394401
145	0x3cc3e68a	0.02391364
146	0xbd559492	-0.05214364
147	0xbe0180ae	-0.12646744
148	0xbd895a3f	-0.06706666
149	0xbda76e7f	-0.08175372
150	0xbe3b9866	-0.18319854
151	0xbe31d691	-0.17367007
152	0xbd1e3dad	-0.038633037
153	0xbd92c220	-0.07165933
154	0xbdcdb6ce	-0.10044633
155	0xbdbbae57	-0.09164112
156	0xbdf7ae35	-0.12093774
157	0x3e2b4bb0	0.16728091
158	0x3a074631	0.00051603006
159	0xbe80f9ef	-0.25190684
160	0xbdc170f7	-0.094453745
161	0xbe539ca1	-0.20665218
162	0x3d0211a8	0.03175512
163	0x3e2b4e93	0.16729192
164	0xbd89d52f	-0.06730115
165	0x3e35a111	0.17737223
166	0x3e22999f	0.15878914
167	0xbdc55c54	-0.09636751
168	0xbe7804ca	-0.24220577
169	0x3d2e4d71	0.042554323
170	0x3e351467	0.17683564
171	0x3d863314	0.06552711
172	0xbe705aa9	-0.23472084
173	0xbdb5834c	-0.088629335
174	0xbd9b8a82	-0.07594778
175	0x3d9442c8	0.072393
176	0xbd6a8ccb	-0.057263177
177	0xbd91868c	-0.07105741
178	0x3e2596b4	0.1617077
179	0xbe58bffd	-0.21166988
180	0xbc7268e5	-0.014795517
181	0xbe311fcc	-0.17297286
182	0xbe234033	-0.15942459
183	0x3cb7d321	0.022439541
184	0xbe4fd165	-0.20294721
185	0xbe563ac3	-0.20920853
186	0xbda12264	-0.078678876
187	0x3e10deba	0.14147463
188	0xbe2a2702	-0.16616443
189	0xbe1c81ce	-0.15283892
190	0xbe1979fc	-0.1498794
191	0x3e297e63	0.16552119
192	0xbdcb8ef6	-0.09939377
193	0x3e3ccd1f	0.18437622
194	0xbb8c623f	-0.004284173
195	0xbd32b460	-0.04362905
196	0x3cd20e07	0.025641454
197	0x3e7edf3b	0.24889843
198	0x3cd8a6b8	0.026446685
199	0xbe16132d	-0.14655752
200	0x3d6d613b	0.057954054
201	0x3dd0a222	0.101871744
202	0x3e5c5479	0.21516599
203	0xbe5c5f70	-0.21520782
204	0x3e76deea	0.24108472
205	0x3e5ebfb8	0.21752822
206	0x3d5d8d80	0.054090023
207	0xbdfe755d	-0.12424729
208	0xbe865c6e	-0.26242393
209	0x3d11d382	0.0356021
210	0x3d8c0e04	0.06838611
211	0x3d14248d	0.03616767
212	0x3e1a726d	0.15082712
213	0xbe63e84c	-0.22256583
214	0x3b8fe6cc	0.004391527
215	0x3c92fb89	0.017942207
216	0xbdb4685c	-0.088089675
217	0x3dd9cc54	0.106346756
218	0x3e78d676	0.2430056
219	0xbe0b97cf	-0.13632129
220	0x3e441412	0.19148281
221	0xbe02a7d3	-0.12759332
222	0xbe1979ca	-0.14987865
223	0x3dd1c789	0.102431364
224	0xbd95f288	-0.0732165
225	0x3ddac985	0.10682968
226	0xbe634e1f	-0.2219777
227	0x3e74c842	0.23904517
228	0x3cf3a0b7	0.02973972
229	0xbde50df2	-0.111843005
230	0xbe35e651	-0.1776364
231	0x3e1432a3	0.14472441
232	0xbd71ab8b	-0.059001487
233	0xbc841d96	-0.016127389
234	0x3d75f23c	0.060045466
235	0x3deaea06	0.11470418
236	0x3e683b11	0.22678782
237	0xbdfabfc9	-0.12243611
238	0x3d9724e4	0.07380083
239	0xbe6a4540	-0.2287798
240	0xba52fc0f	-0.0008048424
241	0x3e18e7f2	0.1493223
242	0xbe59f1a7	-0.2128359
243	0xbe1dbd97	-0.15404354
244	0xbdf27e34	-0.118404776
245	0x3e4e0f19	0.20122947
246	0xbe3bf361	-0.1835456
247	0xbe342b66	-0.1759468
248	0xbe300f2d	-0.17193289
249	0x3dfdd9f8	0.1239509
250	0xbcc18349	-0.023622172
251	0xbde1878c	-0.11012182
252	0x3e1c356c	0.15254754
253	0x3e5c4f88	0.21514714
254	0xbe59f9a0	-0.2128663
255	0x3d911c73	0.070855044

clf_net.3.bias f4 [16]
0	0x3e5537bd	0.20822044
1	0xbe61d92d	-0.22055502
2	0xbe664b6a	-0.22489706
3	0xbe7f50b5	-0.24933131
4	0x3e0d3e4e	0.13793299
5	0x3e6388d0	0.22220159
6	0xbe1b27a4	-0.1515184
7	0x3e50a5c8	0.2037574
8	0xbc0cdad1	-0.008597092
9	0x3e39d833	0.1814888
10	0xbe352dae	-0.17693207
11	0x3d56ab81	0.052409653
12	0xbe759a70	-0.23984694
13	0xbd5d248c	-0.053989932
14	0xbdcf0cf8	-0.101098955
15	0xbbb82461	-0.005619571

clf_net.4.weight f4 [16]
0	0x3f761eda	0.96140826
1	0x3f778ba9	0.9669748
2	0x3f7b0d61	0.9806729
3	0x3f7ac183	0.97951525
4	0x3f7770c8	0.96656466
5	0x3f8dd463	1.108044
6	0x3f7c25b6	0.9849504
7	0x3f766cc3	0.9625971
8	0x3f8610e5	1.0473906
9	0x3f75ca1f	0.9601154
10	0x3f881d07	1.0633858
11	0x3f89b739	1.075904
12	0x3f77570d	0.96617204
13	0x3f8ae838	1.0852118
14	0x3f8969b6	1.0735385
15	0x3f87a72c	1.0597892

clf_net.4.bias f4 [16]
0	0xbd584f66	-0.052810095
1	0xbd1bfa76	-0.038080655
2	0xbd1728f6	-0.036904298
3	0xbd7f6af8	-0.062357873
4	0xbd56496b	-0.05231611
5	0x3e00433a	0.12525645
6	0xbd872cd9	-0.06600351
7	0xbd3a4c37	-0.04548284
8	0x3db5ac4f	0.08870756
9	0xbd5dd66d	-0.05415957
10	0x3db3cfe6	0.08779888
11	0x3da1b57c	0.078959435
12	0xbd90fc43	-0.07079365
13	0x3da4ef9a	0.08053513
14	0x3d90a3fc	0.070625275
15	0x3d88e70a	0.06684692

clf_net.4.running_mean f4 [16]
0	0x3d8e12b2	0.069371596
1	0xbee0633a	-0.43825704
2	0xbe405f15	-0.18786271
3	0xbccde6dc	-0.025134496
4	0x3ec82521	0.39090827
5	0x3e5d076d	0.21584864
6	0x3a2d8a79	0.00066200603
7	0x3d8a62cd	0.06757126
8	0xbbbbdf4c	-0.005733406
9	0xbe2f6d1e	-0.17131469
10	0xbe86e34d	-0.26345292
11	0xbea49b72	-0.32149845
12	0xbacb22d5	-0.0015498052
13	0xbd6bebaa	-0.057597794
14	0xbdfe0974	-0.12404147
15	0xbe32f43f	-0.17475985

clf_net.4.running_var f4 [16]
0	0x3c2d3ff0	0.010574326
1	0x3f363546	0.7117504
2	0x39ad47f4	0.0003305074
3	0x3cc1acc4	0.023641951
4	0x3d137d49	0.036008153
5	0x39d01e11	0.00039695253
6	0x3c1d8393	0.009613889
7	0x3c901b99	0.017591285
8	0x3d469712	0.048483916
9	0x3d750033	0.059814643
10	0x3cbfc96c	0.023411475
11	0x3e9a82c5	0.30177894
12	0x3e02665d	0.12734361
13	0x398d4ade	0.00026949396
14	0x3979e6c8	0.00023832463
15	0x3e5eaae4	0.21744877

clf_net.6.weight f4 [1, 16]
0	0xbe45bb77	-0.19309793
1	0xbaf08ff9	-0.0018353454
2	0xbc4cc762	-0.012498708
3	0xbda59637	-0.08085292
4	0xbde52a65	-0.11189727
5	0x3d8b77d4	0.06809965
6	0xbcdb9cd9	-0.02680819
7	0xbc50b055	-0.012737353
8	0x3e8f8610	0.2803197
9	0xbe224910	-0.15848184
10	0x3e8d9542	0.27652937
11	0x3e1af1f4	0.1513136
12	0xbd1c1b4c	-0.03811197
13	0x3dee52a1	0.11636854
14	0x3e47052f	0.19435571
15	0x3e8ae9d2	0.27131516
