EE8591/Project/regression_models/Sine_squared/DNN/deepnn/training_models/net_3200.pt (torch, 7359 bytes, 13 tensors)

clf_net.0.weight f4 [16, 1]
0	0xbeecbd76	-0.46238297
1	0x3ef9a3dc	0.48757827
2	0x3e90eaa1	0.28304008
3	0x3e832b01	0.25618747
4	0xbf0ae29f	-0.54252046
5	0xbe8c4984	-0.27399838
6	0x3ee47ac7	0.44624922
7	0xbf786071	-0.9702216
8	0x3e6ef81a	0.2333683
9	0x3e2dedd4	0.16985255
10	0x3ead9749	0.33904484
11	0x3df1f333	0.11813965
12	0xbea4e1ec	-0.32203615
13	0x3ec552c7	0.38539717
14	0x3e244f15	0.16045792
15	0xbdcc9440	-0.09989214

clf_net.0.bias f4 [16]
0	0x3dff8dc2	0.1247821
1	0xbe0449af	-0.12918733
2	0xbdca4490	-0.098763585
3	0xbda6938a	-0.081336096
4	0xbf5a4266	-0.85257566
5	0x3ecee9ef	0.40412852
6	0x3eb41f9f	0.35180375
7	0x3f6f1232	0.9338714
8	0xbf06d248	-0.52664614
9	0x3f5722b9	0.8403736
10	0x3ec01535	0.3751618
11	0xbd7aae11	-0.06120116
12	0x3ef274d8	0.4735477
13	0x3c99c467	0.01877041
14	0x3e0a1183	0.13483243
15	0xbefbba08	-0.49165368

clf_net.1.weight f4 [16]
0	0x3f7bb242	0.98318875
1	0x3f808962	1.0041926
2	0x3f8101a0	1.0078621
3	0x3f7d6a4d	0.9899033
4	0x3f8089be	1.0042036
5	0x3f7c7811	0.98620707
6	0x3f7dd59c	0.9915407
7	0x3f811250	1.0083714
8	0x3f81b4a5	1.0133253
9	0x3f7fe1b4	0.9995377
10	0x3f7ff8fc	0.99989295
11	0x3f7c668c	0.98593974
12	0x3f79f8a6	0.9764503
13	0x3f7cf83e	0.9881629
14	0x3f7ffa31	0.99991137
15	0x3f847ce3	1.0350612

clf_net.1.bias f4 [16]
0	0xbd02755a	-0.031850196
1	0xbdc63c5a	-0.0967948
2	0x3d0af03f	0.033920523
3	0xbd044338	-0.032290667
4	0x3d606347	0.05478218
5	0xbd3c13e8	-0.04591742
6	0x3d8b6ced	0.06807885
7	0x3d3e30c1	0.046433214
8	0x3d82a782	0.06379606
9	0xbd438301	-0.047732357
10	0xbd82f3ce	-0.06394158
11	0xbbf7caaa	-0.0075620012
12	0x3da84ac3	0.08217385
13	0x3d825ed4	0.06365743
14	0xbb6e4682	-0.0036357944
15	0xbbeafe3f	-0.007171422

clf_net.1.running_mean f4 [16]
0	0xbd997ccd	-0.07494507
1	0x3da65bd3	0.08122983
2	0x3cbfd249	0.023415701
3	0x3cf00469	0.029298978
4	0xbf8b1b59	-1.0867721
5	0x3e925613	0.28581294
6	0x3f0b66f2	0.5445396
7	0x3f03d615	0.5149854
8	0xbeda15a2	-0.4259463
9	0x3f69e77d	0.9136885
10	0x3f058c5b	0.5216729
11	0xbc2bc09a	-0.0104829315
12	0x3eab4908	0.33454156
13	0x3e3dbcd6	0.18529066
14	0x3e510b97	0.20414577
15	0xbf08e778	-0.53478193

clf_net.1.running_var f4 [16]
0	0x3c7610d3	0.01501866
1	0x3c88d2df	0.016702114
2	0x3bb8594e	0.0056258803
3	0x3b9714a7	0.0046106162
4	0x3ca95624	0.020670958
5	0x3bacd803	0.005274774
6	0x3c652fe5	0.01398847
7	0x3d876767	0.06611519
8	0x3b7aa307	0.0038244145
9	0x3b04c86b	0.002026106
10	0x3c044bb5	0.008074691
11	0x3a80823b	0.0009804437
12	0x3beebb33	0.0072854995
13	0x3c2af3c2	0.010434093
14	0x3aed0188	0.0018082121
15	0x3a37ba66	0.00070086715

clf_net.3.weight f4 [16, 16]
0	0xbcd12dd4	-0.025534548
1	0xbe55030b	-0.20801942
2	0xbd505ed4	-0.050871685
3	0x3c88e399	0.01671009
4	0xbcc13e1d	-0.023589188
5	0xbe65d618	-0.22444952
6	0xbdba9ef7	-0.091123514
7	0x3e23db17	0.16001545
8	0x3d0143ef	0.031558927
9	0x3df2f0a0	0.11862302
10	0xbd023223	-0.031786095
11	0x3e478b24	0.19486672
12	0x3de09a2d	0.10966907
13	0xbde09644	-0.10966161
14	0xbd04fa5f	-0.032465335
15	0xbe6aeb09	-0.22941221
16	0x3e2d7cf2	0.16942194
17	0x3c60710f	0.01369883
18	0xbe84d603	-0.25944528
19	0x3dbb5e25	0.09148816
20	0x3e1c9a16	0.15293154
21	0xbd9b5759	-0.075850196
22	0xbe34b242	-0.17646125
23	0xbe290a95	-0.16507943
24	0x3d8a8f0e	0.06765567
25	0xbe1e1bfc	-0.15440363
26	0xbe6dbe9f	-0.23217247
27	0xbe13b770	-0.14425445
28	0x3d67e958	0.05661902
29	0xbe163304	-0.14667898
30	0xbe928aba	-0.28621465
31	0xbd939018	-0.07205218
32	0xbe5887b0	-0.2114551
33	0x3db256f0	0.08707988
34	0x3e695b6b	0.2278878
35	0xbd8e6d6d	-0.06954465
36	0xbd6b88d6	-0.057503544
37	0xbe0c9550	-0.13728833
38	0xbcec99e2	-0.02888197
39	0xbcbc1b36	-0.022962194
40	0x3e672119	0.2257122
41	0x3d8c2b12	0.068441525
42	0x3e066ff6	0.13128647
43	0xbe5b15b1	-0.21394993
44	0x3e81c598	0.25346065
45	0xbe027eef	-0.12743734
46	0xbe6e06a3	-0.23244719
47	0x3e7b91ff	0.24567412
48	0x3e5c6ebe	0.2152662
49	0xbd35780d	-0.044303942
50	0x3e15d844	0.1463328
51	0xbcb42185	-0.02198864
52	0xbdec3fa8	-0.11535579
53	0x3e211455	0.15730412
54	0x3e818b7e	0.25301737
55	0x3e131451	0.14363219
56	0x3e2dc1b9	0.1696843
57	0xbe11dc57	-0.14244209
58	0x3ce05e66	0.027388763
59	0x3c1cb9b1	0.009565757
60	0x3de11bf5	0.109916605
61	0xbe139918	-0.1441387
62	0x3d0fd863	0.03511847
63	0xbe0b563b	-0.13607113
64	0x3e68c0a1	0.22729732
65	0x3c88db23	0.016706055
66	0x3dba8d27	0.09108954
67	0x3d951f6d	0.072813846
68	0x3d60d8fa	0.054894425
69	0x3e4b5c09	0.19859327
70	0xbc3047be	-0.010759292
71	0x3e0a91c3	0.13532166
72	0xbd22a531	-0.03970832
73	0x3e7e8145	0.24854
74	0xbdeff026	-0.117157266
75	0xbbab1ee1	-0.005222187
76	0x3d2230fc	0.039597496
77	0xbda28d52	-0.07937111
78	0x3e447b26	0.19187602
79	0xbe51e4bb	-0.2049741
80	0x3e739907	0.23788844
81	0xbe87f5c1	-0.26554683
82	0x3d6bb653	0.057546925
83	0xbd86650d	-0.06562243
84	0xbd808fe8	-0.06277448
85	0xbdba5409	-0.0909806
86	0xbe1b051b	-0.15138666
87	0xbe17ace3	-0.14812045
88	0x3de95b6a	0.11394389
89	0x3e4d4d3b	0.20048992
90	0xbd267316	-0.0406371
91	0xbd7bde2a	-0.06149117
92	0x3e0adf8c	0.13561839
93	0x3dc5847a	0.096444085
94	0x3e0dc27f	0.13843726
95	0xbdd2ce2d	-0.10293231
96	0xbb3bdbbf	-0.0028664914
97	0xbdde0b6e	-0.10842024
98	0x3e167458	0.14692819
99	0x3ca81411	0.02051738
100	0x3d4bad2a	0.04972569
101	0xbdadce41	-0.084866054
102	0x3ca57b6d	0.020200456
103	0x3e6b6c99	0.22990645
104	0x3defb007	0.117034964
105	0x3da7543d	0.08170364
106	0xbcff5f05	-0.031173239
107	0x3d6a59e6	0.05721464
108	0x3e449d3a	0.19200602
109	0xbd36dbc0	-0.044643164
110	0xbd7f7d01	-0.062375072
111	0xbe223e1c	-0.15844005
112	0xbde94bc9	-0.11391408
113	0x3de6bb06	0.11266141
114	0x3db57607	0.088604026
115	0x3e2cde3e	0.16881654
116	0xbd41ffe6	-0.047363184
117	0xbcfd4ada	-0.030919481
118	0xbe289bf9	-0.16465749
119	0xbe5215d3	-0.20516138
120	0xbd938a68	-0.07204133
121	0xbe3b1b9c	-0.18272251
122	0x3e52e2fc	0.205944
123	0xbe07acf3	-0.13249569
124	0x3e0414f0	0.12898612
125	0xbe212a22	-0.15738729
126	0xbd28ece6	-0.04124155
127	0x3c4526cb	0.012033175
128	0xbe47a086	-0.19494829
129	0x3e0336a1	0.12813808
130	0xbdac2b0c	-0.08406648
131	0x3e161f5d	0.14660402
132	0x3cd0f157	0.025505705
133	0xbdb59389	-0.08866031
134	0x3e7b4740	0.24538898
135	0xbdd08d2c	-0.101831764
136	0x3e282782	0.16421321
137	0xbe801af9	-0.25020579
138	0xbd317def	-0.04333299
139	0xbd8acf93	-0.06777873
140	0x3e2e75e9	0.17037167
141	0x3e460d3c	0.19340986
142	0xbe8cf099	-0.2752731
143	0x3d0101f2	0.031495996
144	0x3de74605	0.11292652
145	0x3cbed0e9	0.023292976
146	0xbd53425e	-0.051576965
147	0xbe001673	-0.12508564
148	0xbd8ab203	-0.06772234
149	0xbda98d5d	-0.08278916
150	0xbe3bfc0c	-0.18357867
151	0xbe3264b9	-0.17421235
152	0xbd1f0184	-0.038819805
153	0xbd8ff18e	-0.07028495
154	0xbdcbf92c	-0.09959635
155	0xbdb813c9	-0.08988149
156	0xbdf9ee2b	-0.1220363
157	0x3e2b8d62	0.16753152
158	0x3b16cf72	0.002301183
159	0xbe81237b	-0.25222382
160	0xbd9a2f95	-0.07528607
161	0xbe4ad510	-0.1980784
162	0x3d3e6085	0.046478767
163	0x3e35860d	0.17726918
164	0xbd75fb77	-0.06005427
165	0x3e47f7ed	0.1952817
166	0x3e33d1d8	0.17560518
167	0xbdb5037c	-0.08838555
168	0xbe66eaec	-0.22550553
169	0x3d57c2f8	0.05267617
170	0x3e3e7b09	0.18601622
171	0x3d9c8906	0.07643323
172	0xbe68dee8	-0.22741282
173	0xbd96d0c7	-0.0736404
174	0xbd831f5f	-0.06402468
175	0x3da90f04	0.08254817
176	0xbc02262d	-0.007943672
177	0xbd87aaf4	-0.066244036
178	0x3e1d4ba5	0.15360887
179	0xbe5a1f1a	-0.21300927
180	0x3d1b68a8	0.037941605
181	0xbdfc414d	-0.12317143
182	0xbe2e0595	-0.16994317
183	0x3d99db57	0.07512539
184	0xbe5a5bf8	-0.21324146
185	0xbe57392f	-0.21017908
186	0xbd9ec250	-0.07751906
187	0x3e0cfdfe	0.13768765
188	0xbde647ab	-0.11244138
189	0xbe254d6f	-0.1614282
190	0xbe1ea249	-0.15491594
191	0x3e5ff042	0.21868995
192	0xbda120a3	-0.07867553
193	0x3e19f19f	0.15033577
194	0xbd28a272	-0.041170545
195	0xbda7fe82	-0.082028404
196	0x3d36c9ac	0.044625923
197	0x3e8a0e26	0.2696392
198	0xbbfea727	-0.007771391
199	0xbe02c5a2	-0.12770703
200	0x3cba10b3	0.022713041
201	0x3d8126cc	0.06306228
202	0x3e3561bc	0.17713064
203	0xbe822188	-0.25416207
204	0x3e85b118	0.26111674
205	0x3e3a10c5	0.1817046
206	0x3c731417	0.014836333
207	0xbdd6b288	-0.10483271
208	0xbe84cb88	-0.25936532
209	0x3d30f64d	0.04320364
210	0x3d8a93f4	0.06766501
211	0x3d1128e7	0.0354394
212	0x3e1f0574	0.15529424
213	0xbe60b0a2	-0.2194238
214	0x3bda3bc8	0.0066599585
215	0x3cb378ce	0.02190819
216	0xbdb1212c	-0.08648905
217	0x3dda09b9	0.10646386
218	0x3e7b97cd	0.24569626
219	0xbe0f98dd	-0.14023156
220	0x3e49a893	0.19693212
221	0xbe025412	-0.12727383
222	0xbe1deb07	-0.15421687
223	0x3dd5ab3b	0.1043305
224	0xbd8df3af	-0.069312446
225	0x3de1b6d5	0.110212006
226	0xbe636bcf	-0.22209094
227	0x3e752113	0.23938398
228	0x3d1144ac	0.03546588
229	0xbddce169	-0.10785181
230	0xbe353119	-0.1769451
231	0x3e19976b	0.14999168
232	0xbd6fa3d1	-0.058505837
233	0xbc7df567	-0.015500403
234	0x3d7c7f1c	0.06164466
235	0x3de9201b	0.11383077
236	0x3e6ee6c5	0.23330219
237	0xbdfa6dc2	-0.12227966
238	0x3d94f26a	0.07272799
239	0xbe66b1ed	-0.22528811
240	0xbce31ed1	-0.027724655
241	0x3e7ff38d	0.24995251
242	0xbe2fcc68	-0.17167819
243	0xbdd85b06	-0.10564236
244	0xbe0bde4d	-0.1365902
245	0x3e33c183	0.17554288
246	0xbe03854d	-0.12843819
247	0xbe48cafd	-0.19608684
248	0xbe007021	-0.12542774
249	0x3e37feff	0.17968367
250	0x3d47f092	0.04881341
251	0xbd9e1b3c	-0.07720038
252	0x3e0d104b	0.13775747
253	0x3e88316a	0.266002
254	0xbe4277d9	-0.18991031
255	0x3d330aee	0.043711595

clf_net.3.bias f4 [16]
0	0x3e56ad0a	0.20964447
1	0xbe6194db	-0.2202944
2	0xbe6c9c3f	-0.23106478
3	0xbe84c1ce	-0.2592911
4	0x3e04fbc4	0.12986666
5	0x3e6aee57	0.22942482
6	0xbe26e049	-0.16296495
7	0x3e50866d	0.2036378
8	0xba2d2282	-0.00066045683
9	0x3e39bcfa	0.18138495
10	0xbe329732	-0.17440489
11	0x3d61f9b7	0.055169787
12	0xbe7f484e	-0.24929926
13	0xbd52e989	-0.051492248
14	0xbdcdcfd9	-0.100494094
15	0x3ca0552f	0.019571869

clf_net.4.weight f4 [16]
0	0x3f80b0f3	1.0054001
1	0x3f7b43b7	0.981502
2	0x3f8f9e5a	1.12202
3	0x3f8a31be	1.079643
4	0x3f81dab8	1.0144873
5	0x3f9856a7	1.1901444
6	0x3f94a04c	1.1611419
7	0x3f7eb258	0.9949088
8	0x3f8a03f1	1.0782453
9	0x3f824f4a	1.0180447
10	0x3f8be2cb	1.0928587
11	0x3f92c7ff	1.1467284
12	0x3f8abb48	1.0838404
13	0x3f940918	1.1565275
14	0x3f903c8e	1.126848
15	0x3f8dbf1a	1.1073945

clf_net.4.bias f4 [16]
0	0xbd527e1c	-0.0513898
1	0xbca62ee3	-0.02028603
2	0xbe14b9ce	-0.14524004
3	0xbe08277a	-0.13296309
4	0xbdc215a2	-0.094767824
5	0x3e666697	0.22500072
6	0xbe4b6184	-0.19861418
7	0xbd3c78a8	-0.046013504
8	0x3e052291	0.13001467
9	0xbd55de56	-0.05221399
10	0x3df1b757	0.118025474
11	0x3dfb47e5	0.12269572
12	0xbe1e7ce3	-0.15477328
13	0x3e181dfa	0.14855185
14	0x3dfab533	0.12241592
15	0x3dec962c	0.115520805

clf_net.4.running_mean f4 [16]
0	0x3dc320d2	0.09527744
1	0xbf19f884	-0.6014483
2	0xbe2927fe	-0.16519162
3	0xbcdc77c1	-0.026912572
4	0x3ec475ef	0.38371226
5	0x3e739736	0.23788151
6	0x3bb5ee84	0.005552115
7	0x3d245517	0.04012021
8	0x3d07b675	0.03313299
9	0xbe304b01	-0.17216112
10	0xbe52d37c	-0.20588487
11	0xbe6daf62	-0.23211434
12	0xbdc12692	-0.09431185
13	0xbd37e9cf	-0.04490071
14	0xbddef264	-0.10886076
15	0xbd00868c	-0.031378314

clf_net.4.running_var f4 [16]
0	0x3c09dd77	0.008414618
1	0x3f421044	0.7580607
2	0x3abbbac3	0.0014322627
3	0x3cb091c2	0.021553878
4	0x3d0d371b	0.03447638
5	0x3b1a2c7f	0.0023525057
6	0x3c18d44b	0.009327958
7	0x3c1bbde1	0.00950572
8	0x3d1babff	0.038005825
9	0x3d79638d	0.060885955
10	0x3d20b9c2	0.039239652
11	0x3f035548	0.51302004
12	0x3c48b0d6	0.012249192
13	0x3a9aa2fe	0.0011797843
14	0x3ade0493	0.0016938619
15	0x3ada0516	0.0016633596

clf_net.6.weight f4 [1, 16]
0	0xbe743ec2	-0.23852065
1	0x3d08b26b	0.033373278
2	0xbde1da3d	-0.11027954
3	0xbe2e24eb	-0.1700627
4	0xbe279744	-0.16366297
5	0x3de23e57	0.11047047
6	0xbe1a6242	-0.15076545
7	0xbd7038de	-0.058647983
8	0x3e9fb208	0.31190515
9	0xbe5e8500	-0.21730423
10	0x3e9c2f8a	0.3050502
11	0x3e4f3543	0.20235161
12	0xbe18d46c	-0.14924783
13	0x3e2723c3	0.16322236
14	0x3e73cfe9	0.2380978
15	0x3ea19b06	0.31563586
