EE8591/Project/regression_models/Sine_squared/DNN/deepnn/training_models/net_1000.pt (torch, 7359 bytes, 13 tensors)

clf_net.0.weight f4 [16, 1]
0	0xbef24657	-0.4731929
1	0x3efe737a	0.49697477
2	0x3e90b2bc	0.28261364
3	0x3e830de8	0.25596547
4	0xbf0ad0f8	-0.5422511
5	0xbe94752a	-0.2899564
6	0x3ee3ae2b	0.44468817
7	0xbf75ec84	-0.9606402
8	0x3e7154f7	0.23567568
9	0x3e261514	0.16218978
10	0x3eacc25d	0.33742037
11	0x3dee7ddf	0.11645102
12	0xbea6e82f	-0.32599017
13	0x3ec49611	0.38395742
14	0x3e272254	0.16321689
15	0xbdc0fcb9	-0.09423203

clf_net.0.bias f4 [16]
0	0x3dfd21c1	0.12359954
1	0xbe01e1f3	-0.12683849
2	0xbdc63c60	-0.09679484
3	0xbdac4c27	-0.084129624
4	0xbf59779c	-0.84948134
5	0x3ecf1c90	0.4045148
6	0x3eb2c700	0.3491745
7	0x3f6f9706	0.9358982
8	0xbf07515a	-0.5285851
9	0x3f580980	0.84389496
10	0x3ec229fc	0.37922657
11	0xbd87c893	-0.06630053
12	0x3eefbbe9	0.46823052
13	0x3c637b16	0.013884326
14	0x3e0d08be	0.13772866
15	0xbefc14cf	-0.49234626

clf_net.1.weight f4 [16]
0	0x3f7e54c0	0.9934807
1	0x3f81bbc2	1.0135424
2	0x3f80f36a	1.0074284
3	0x3f7d5c15	0.9896863
4	0x3f8080f9	1.0039359
5	0x3f802590	1.0011463
6	0x3f7d7326	0.9900383
7	0x3f7fa29b	0.9985749
8	0x3f82061b	1.0158113
9	0x3f7dc572	0.991294
10	0x3f7f91f1	0.99832064
11	0x3f7c0afe	0.9845427
12	0x3f7ae6c1	0.9800835
13	0x3f7c9c45	0.9867595
14	0x3f805d3c	1.0028453
15	0x3f83446c	1.0255256

clf_net.1.bias f4 [16]
0	0xbd4ed45d	-0.050495494
1	0xbd58ff72	-0.052977987
2	0x3d0bab0d	0.034098674
3	0xbd04f0d1	-0.032456223
4	0x3cfcb457	0.030847711
5	0xbd0d6fbc	-0.034530386
6	0x3d2ac88e	0.04169517
7	0x3cc583ef	0.024110762
8	0x3d5d1942	0.053979166
9	0xbca15323	-0.019692963
10	0xbd341f01	-0.04397488
11	0xbbf2d6aa	-0.007410844
12	0x3cfbca44	0.030736096
13	0x3d194111	0.037415568
14	0x3c843558	0.016138718
15	0x3c5fe737	0.013665966

clf_net.1.running_mean f4 [16]
0	0xbda540a9	-0.080689736
1	0x3db4355f	0.08799242
2	0x3ccedf70	0.025253028
3	0x3cd752bc	0.026284568
4	0xbf8ab401	-1.0836183
5	0x3e8f1493	0.27945384
6	0x3f0a883a	0.54114115
7	0x3f05668f	0.52109617
8	0xbeda884d	-0.42682114
9	0x3f69f846	0.9139446
10	0x3f0657ea	0.52477896
11	0xbc83d91e	-0.01609474
12	0x3ea7a428	0.3274243
13	0x3e37ebc2	0.17961028
14	0x3e553915	0.20822556
15	0xbf0870e6	-0.5329727

clf_net.1.running_var f4 [16]
0	0x3c80dce8	0.015730336
1	0x3c8e2d06	0.017355453
2	0x3bb7d4a0	0.0056100637
3	0x3b96b992	0.0045997584
4	0x3ca932ad	0.020654047
5	0x3bc191ac	0.005907258
6	0x3c638253	0.013886052
7	0x3d84bf73	0.064818285
8	0x3b7fcf1d	0.0039033361
9	0x3af20707	0.0018465229
10	0x3c02e5f1	0.007989393
11	0x3a79bce2	0.0009526742
12	0x3bf4a472	0.0074658925
13	0x3c29ac32	0.010355996
14	0x3af562b4	0.0018721432
15	0x3a2359a3	0.00062313135

clf_net.3.weight f4 [16, 16]
0	0xbceb8500	-0.028749943
1	0xbe4ea11b	-0.20178644
2	0xbd5b0b28	-0.053477436
3	0x3c51c89b	0.012804176
4	0xbcd553ac	-0.026040874
5	0xbe68ee54	-0.22747165
6	0xbdb98c32	-0.09059943
7	0x3e20b904	0.15695578
8	0x3d004935	0.031319816
9	0x3deb3a5f	0.11485743
10	0xbd0625cc	-0.03275089
11	0x3e4125a1	0.1886201
12	0x3ddf553c	0.10904929
13	0xbde3d897	-0.111252956
14	0xbd1fdcf4	-0.039029077
15	0xbe6fc9ef	-0.23416875
16	0x3e5f902b	0.2183234
17	0x3cd1eb29	0.025624828
18	0xbe697f79	-0.22802533
19	0x3de350d6	0.110994026
20	0x3e486a25	0.19571741
21	0xbcdd2580	-0.02699542
22	0xbe1721da	-0.14759007
23	0xbdf908e9	-0.121599026
24	0x3dc19d94	0.09453884
25	0xbe091976	-0.13388619
26	0xbe59a3b6	-0.21253857
27	0xbdf57e78	-0.119870126
28	0x3dccde6f	0.10003363
29	0xbdf9d5c5	-0.121989764
30	0xbe845f3e	-0.25853914
31	0xbcbb2bda	-0.022848058
32	0xbe62e646	-0.22158155
33	0x3daca003	0.08428957
34	0x3e645ff0	0.22302222
35	0xbd94c999	-0.07265014
36	0xbd8478c2	-0.06468345
37	0xbe16cfef	-0.14727758
38	0xbd0da866	-0.034584425
39	0xbcf82cd8	-0.03029482
40	0x3e615e44	0.22008616
41	0x3d85ff3e	0.06542824
42	0x3e039386	0.12849244
43	0xbe5ea41b	-0.21742289
44	0x3e7c2cd0	0.2462647
45	0xbe07a946	-0.13248166
46	0xbe71e237	-0.2362145
47	0x3e72e891	0.2372153
48	0x3e5701bf	0.2099676
49	0xbd285e69	-0.04110566
50	0x3e19f478	0.15034664
51	0xbc948e25	-0.018134186
52	0xbdf7f2cd	-0.121068574
53	0x3e1b9a5f	0.15195607
54	0x3e839cd0	0.25705576
55	0x3e0d4b4b	0.13798253
56	0x3e31e367	0.17371903
57	0xbe0df4c0	-0.13862896
58	0x3cfe13c9	0.031015294
59	0x3c5db2e6	0.013531422
60	0x3dd4bc17	0.10387438
61	0xbe0f7d24	-0.14012581
62	0x3d205264	0.039141074
63	0xbe110a50	-0.1416409
64	0x3e5e4701	0.21706773
65	0x3ca78a23	0.02045161
66	0x3dc37f14	0.095457226
67	0x3da05e00	0.07830429
68	0x3d406f37	0.046981063
69	0x3e417a27	0.18894254
70	0xbbe3eac3	-0.006955476
71	0x3e027e67	0.12743531
72	0xbd13408c	-0.03595023
73	0x3e81ff3a	0.25390035
74	0xbde57178	-0.11203283
75	0x39983dd3	0.00029037762
76	0x3cf97c53	0.03045479
77	0xbd99d3b2	-0.07511081
78	0x3e49d043	0.19708352
79	0xbe599751	-0.21249129
80	0x3e71eb22	0.23624852
81	0xbe89925b	-0.26869473
82	0x3d59e28b	0.053194564
83	0xbd8a1683	-0.06742575
84	0xbd718a69	-0.05896989
85	0xbdbbb0f7	-0.09164613
86	0xbe20e7d4	-0.15713435
87	0xbe13b386	-0.14423952
88	0x3dddb8cc	0.10826263
89	0x3e4b2bbc	0.19840902
90	0xbd2ea14a	-0.042634286
91	0xbd81ca7b	-0.06337448
92	0x3e0da918	0.13834035
93	0x3dbc0d27	0.09182196
94	0x3e0b3de4	0.13597828
95	0xbdc9a901	-0.09846688
96	0xbc0dfb7b	-0.008665915
97	0xbddd1f78	-0.10797018
98	0x3e1636de	0.14669368
99	0x3cdb709f	0.0267871
100	0x3d43dc3b	0.04781745
101	0xbdb862df	-0.09003233
102	0x3c86e89a	0.016468335
103	0x3e699a9a	0.22812882
104	0x3de88830	0.11354101
105	0x3db38567	0.08765679
106	0xbcd14114	-0.025543727
107	0x3d81be5b	0.063351355
108	0x3e40debe	0.1883497
109	0xbd39d9b2	-0.045373626
110	0xbd6cf8e9	-0.057854567
111	0xbe23c360	-0.15992498
112	0xbdf401c4	-0.11914399
113	0x3df9a052	0.12188782
114	0x3dc88cf1	0.097925074
115	0x3e35f3b9	0.17768754
116	0xbd5a8a82	-0.053354748
117	0xbd14a5a8	-0.036290795
118	0xbe1ea78b	-0.154936
119	0xbe5837ce	-0.21115038
120	0xbd7f81b8	-0.06237957
121	0xbe31e980	-0.1737423
122	0x3e5c055b	0.21486418
123	0xbdfd57ab	-0.12370237
124	0x3dfcab66	0.12337379
125	0xbe178362	-0.14796212
126	0xbd044528	-0.032292515
127	0x3bb83cc9	0.0056224805
128	0xbe572efb	-0.21014015
129	0x3e236456	0.15956244
130	0xbdd12394	-0.10211864
131	0x3e2be16f	0.16785215
132	0x3cbc9627	0.023020817
133	0xbdd19718	-0.10233897
134	0x3e58911d	0.21149106
135	0xbdd73198	-0.10507506
136	0x3e0598db	0.13046591
137	0xbe6b9e5a	-0.23009625
138	0xbc844c06	-0.016149532
139	0xbd6131c6	-0.05497911
140	0x3e2bba89	0.16770376
141	0x3e30d363	0.17268138
142	0xbe8ad0c0	-0.2711239
143	0x3cd827b5	0.026386121
144	0x3de9f4a3	0.11423614
145	0x3cbea808	0.023273483
146	0xbd5906e7	-0.0529851
147	0xbe023833	-0.12716751
148	0xbd887289	-0.06662471
149	0xbda6c43d	-0.08142898
150	0xbe3c7b1f	-0.18406342
151	0xbe316660	-0.17324209
152	0xbd21e6f2	-0.039526887
153	0xbd9443d5	-0.072395004
154	0xbdcf0d97	-0.10110014
155	0xbdbd3c7c	-0.09240052
156	0xbdf6c5c8	-0.120494425
157	0x3e2a68f1	0.16641594
158	0xb9a1978a	-0.00030821218
159	0xbe80c1d1	-0.2514787
160	0xbdc2abed	-0.095054485
161	0xbe554242	-0.20826057
162	0x3cf34eef	0.029700724
163	0x3e298d37	0.16557775
164	0xbd894c5a	-0.06704016
165	0x3e352f35	0.1769379
166	0x3e207598	0.15669858
167	0xbdc4f7dd	-0.09617589
168	0xbe7a3c11	-0.24436976
169	0x3d26feff	0.040770527
170	0x3e33646c	0.17518777
171	0x3d827419	0.063698
172	0xbe7014ff	-0.2344551
173	0xbdb9bf2a	-0.09069665
174	0xbd9f93f1	-0.077918895
175	0x3d947216	0.07248323
176	0xbd770dff	-0.060316082
177	0xbd901eee	-0.07037149
178	0x3e270236	0.16309437
179	0xbe57dc50	-0.21080136
180	0xbc94d9ac	-0.0181702
181	0xbe345a5c	-0.17612594
182	0xbe21c062	-0.15796044
183	0x3c9c5feb	0.019088706
184	0xbe4e39fd	-0.20139308
185	0xbe553b23	-0.2082334
186	0xbd9f9724	-0.077925
187	0x3e11f665	0.14254148
188	0xbe2da0f5	-0.16955931
189	0xbe1b0915	-0.15140183
190	0xbe182c93	-0.14860754
191	0x3e25f791	0.1620772
192	0xbdd5d09b	-0.10440179
193	0x3e40a8f5	0.18814452
194	0x3aa2b015	0.0012412096
195	0xbd21c725	-0.03949656
196	0x3ca71773	0.020396924
197	0x3e79aabd	0.24381538
198	0x3d032134	0.032014087
199	0xbe1b6c0c	-0.15177935
200	0x3d82bb6b	0.063834034
201	0x3dd998a2	0.106248155
202	0x3e606b15	0.21915849
203	0xbe57abe6	-0.21061668
204	0x3e7184ef	0.23585866
205	0x3e644b54	0.2229436
206	0x3d725ce9	0.059170637
207	0xbe04b635	-0.12960131
208	0xbe862bee	-0.2620539
209	0x3d10b20e	0.035326056
210	0x3d8cbcdc	0.068719596
211	0x3d134cb5	0.035961825
212	0x3e1a7923	0.15085272
213	0xbe639e1e	-0.22228286
214	0x3b9e65cf	0.004833914
215	0x3c9348d1	0.017979058
216	0xbdb341f0	-0.08752811
217	0x3dd975fe	0.10618208
218	0x3e7895b6	0.2427586
219	0xbe0bb709	-0.13644041
220	0x3e441a77	0.1915072
221	0xbe024390	-0.12721086
222	0xbe195b4d	-0.14976235
223	0x3dd1e431	0.10248602
224	0xbd952d4c	-0.0728403
225	0x3dda8fd2	0.10671963
226	0xbe632e28	-0.22185576
227	0x3e74b3cb	0.2389671
228	0x3cf3b554	0.02974955
229	0xbde4774a	-0.11155565
230	0xbe35bc5b	-0.17747633
231	0x3e143901	0.1447487
232	0xbd70d671	-0.058798257
233	0xbc849939	-0.016186344
234	0x3d758db9	0.05994961
235	0x3dead5df	0.11466574
236	0x3e683d3b	0.22679608
237	0xbdfa76ea	-0.12229712
238	0x3d973ce0	0.07384658
239	0xbe6a38bf	-0.2287321
240	0x3a2d9e0e	0.0006622978
241	0x3e1180b4	0.14209253
242	0xbe574e4c	-0.21025962
243	0xbe234b84	-0.15946776
244	0xbdf2c568	-0.118540585
245	0x3e4f3f2a	0.20238939
246	0xbe37f650	-0.17965055
247	0xbe342f41	-0.17596151
248	0xbe2b4891	-0.167269
249	0x3df4789f	0.11937069
250	0xbcfba102	-0.030716423
251	0xbde895cb	-0.11356696
252	0x3e1c0dc5	0.15239628
253	0x3e5f4f3e	0.21807572
254	0xbe5a46ab	-0.2131602
255	0x3d917d07	0.07103925

clf_net.3.bias f4 [16]
0	0x3e55beaf	0.20873521
1	0xbe61d6d7	-0.22054611
2	0xbe664bf6	-0.22489914
3	0xbe7ee0e4	-0.24890476
4	0x3e0e2110	0.138798
5	0x3e642814	0.22280914
6	0xbe1aea2f	-0.15128396
7	0x3e50c451	0.20387389
8	0xbc1ff87f	-0.009763836
9	0x3e3a4029	0.18188538
10	0xbe355ab7	-0.17710386
11	0x3d55557d	0.05208348
12	0xbe756842	-0.23965552
13	0xbd5e27aa	-0.054237045
14	0xbdcfbdbf	-0.10143613
15	0xbbcf1e92	-0.006320783

clf_net.4.weight f4 [16]
0	0x3f7612cd	0.9612244
1	0x3f779a0a	0.9671942
2	0x3f7ad222	0.9797689
3	0x3f7a2ee8	0.97727823
4	0x3f7720d6	0.9653448
5	0x3f8d15c4	1.1022267
6	0x3f7b8d67	0.9826264
7	0x3f7683c5	0.96294814
8	0x3f85bfcd	1.0449158
9	0x3f75b69b	0.9598176
10	0x3f87d032	1.0610411
11	0x3f892581	1.071457
12	0x3f777f51	0.96678644
13	0x3f8a3132	1.0796263
14	0x3f88da7d	1.0691677
15	0x3f873f11	1.0566121

clf_net.4.bias f4 [16]
0	0xbd5239ad	-0.051324535
1	0xbd1af1d3	-0.037828278
2	0xbd1236ba	-0.035696723
3	0xbd7429de	-0.05961024
4	0xbd4e5ddd	-0.050382484
5	0x3df24f3d	0.1183152
6	0xbd81f268	-0.063450634
7	0xbd378297	-0.044802275
8	0x3daf1084	0.08548072
9	0xbd57852b	-0.052617233
10	0x3daecc53	0.085350655
11	0x3d9ac5c2	0.075572506
12	0xbd8caaae	-0.06868492
13	0x3d9b4674	0.07581797
14	0x3d88e4df	0.06684279
15	0x3d824530	0.06360853

clf_net.4.running_mean f4 [16]
0	0x3d90c818	0.07069415
1	0xbee1374d	-0.43987504
2	0xbe42605e	-0.18982074
3	0xbcce6307	-0.025193704
4	0x3ec8e391	0.3923612
5	0x3e5de324	0.21668679
6	0x3a778d30	0.0009443341
7	0x3d8b4a71	0.06801308
8	0xbbc477ec	-0.005995741
9	0xbe2f9001	-0.17144777
10	0xbe8a9464	-0.27066338
11	0xbea5f309	-0.32411984
12	0x3b868269	0.0041049016
13	0xbd6d544b	-0.057941716
14	0xbdfc983b	-0.12333723
15	0xbe35a600	-0.17739105

clf_net.4.running_var f4 [16]
0	0x3c2aec1b	0.0104322685
1	0x3f36cdfa	0.71408045
2	0x39a28dcb	0.00031004692
3	0x3cc30032	0.023803804
4	0x3d148f56	0.03626951
5	0x39ee14c1	0.0004541036
6	0x3c21f2fe	0.009884594
7	0x3c90501d	0.017616326
8	0x3d45b8e7	0.04827204
9	0x3d75f95b	0.060052257
10	0x3ca4ff05	0.020141134
11	0x3e917d69	0.28415993
12	0x3e23a8be	0.15982339
13	0x3985134d	0.00025382117
14	0x396b31cb	0.00022429896
15	0x3e683ae9	0.22678722

clf_net.6.weight f4 [1, 16]
0	0xbe455c3f	-0.1927347
1	0xbb8e3eeb	-0.0043409965
2	0xbc1df8b0	-0.009641811
3	0xbd9f59d0	-0.07780802
4	0xbde1c8c6	-0.110246226
5	0x3d84e1cf	0.06488382
6	0xbcb6e626	-0.02232654
7	0xbc6241fe	-0.013809679
8	0x3e8e3c1f	0.27780244
9	0xbe21b818	-0.15792882
10	0x3e8c6865	0.27423397
11	0x3e17533d	0.14777847
12	0xbd1e5981	-0.038659576
13	0x3de644ac	0.11243567
14	0x3e43341d	0.19062848
15	0x3e895e1d	0.26829615
