EE8591/Project/regression_models/Sine_squared/DNN/deepnn/training_models/net_3900.pt (torch, 7359 bytes, 13 tensors)

clf_net.0.weight f4 [16, 1]
000000 d3 9f ec be d8 03 f8 3e de 23 91 3e 35 df 82 3e
       -0.46215686 0.48440433 0.28347677 0.25560918
000010 5e 3f 0b bf e1 e8 8b be b4 36 e4 3e a8 c3 78 bf
       -0.54393566 -0.2732611 0.44572985 -0.9717355
000020 0f 2a 6f 3e ab 59 2e 3e 9b 29 ac 3e 46 8a f4 3d
       0.23355888 0.17026393 0.33625492 0.11940436
000030 4a ce a3 be 20 57 c5 3e 28 ad 26 3e ee 85 cc bd
       -0.31993324 0.38543034 0.16276991 -0.099864826

clf_net.0.bias f4 [16]
000000 5b 2e 01 3e 33 3c 03 be f2 90 d1 bd bc ec a5 bd
       0.1261534 -0.12815933 -0.10232724 -0.08101794
000010 25 0b 5a bf 00 b2 ce 3e 38 21 b4 3e cf f0 6e 3f
       -0.85173255 0.40370178 0.35181594 0.93336195
000020 94 3c 07 bf 0e 03 57 3f f0 25 c1 3e 14 54 85 bd
       -0.5282681 0.83989036 0.37724257 -0.06510177
000030 9d c6 f3 3e da 51 a7 3c 15 1e 0a 3e e8 41 fb be
       0.47612467 0.020424772 0.13488038 -0.4907372

clf_net.1.weight f4 [16]
000000 bc a4 7b 3f 4a 25 80 3f 90 10 81 3f 77 44 7d 3f
       0.9829824 1.001138 1.008318 0.98932594
000010 38 b8 80 3f a9 4d 7c 3f c3 b3 7d 3f 50 45 81 3f
       1.0056219 0.98556 0.9910242 1.0099277
000020 45 bb 81 3f 4a 00 80 3f e4 45 7f 3f 9f ae 7c 3f
       1.0135275 1.0000088 0.9971602 0.9870395
000030 61 7b 79 3f e0 f9 7c 3f 03 4c 80 3f 4e 7b 84 3f
       0.97453886 0.9881878 1.0023197 1.035013

clf_net.1.bias f4 [16]
000000 09 35 b4 bc a7 97 d5 bd c7 e7 bd 3c 15 8c 1b bd
       -0.021997945 -0.10429316 0.02318181 -0.03797539
000010 a8 d5 8c 3d 9e 55 2f bd ca 41 6a 3d 17 7e 47 3d
       0.06876689 -0.04280626 0.057191648 0.048704233
000020 53 76 5e 3d c4 cf 55 bd 99 79 97 bd 50 99 1f bb
       0.05431206 -0.052200094 -0.0739624 -0.0024352856
000030 cd 49 c4 3d 0e b7 97 3d 38 3c 27 bb cc 18 59 bc
       0.09584389 0.07407962 -0.002551807 -0.013250541

clf_net.1.running_mean f4 [16]
000000 d7 25 96 bd d9 21 a6 3d 51 af a4 3c 2e 7f f0 3c
       -0.07331436 0.08111925 0.020103129 0.029357519
000010 97 15 8b bf 6a 45 92 3e ca 56 0b 3f 47 89 03 3f
       -1.0865964 0.28568584 0.54429305 0.51381344
000020 2b e1 da be 4e d2 69 3f 86 bb 05 3f 17 4e 5c bc
       -0.42749915 0.91336524 0.52239263 -0.013446352
000030 eb 0e ad 3e bc 2d 3f 3e 6f ff 51 3e 84 b1 08 bf
       0.33800444 0.1866979 0.20507596 -0.5339587

clf_net.1.running_var f4 [16]
000000 92 c6 75 3c 5b 0a 87 3c a2 f8 b8 3b bf 62 96 3b
       0.015000956 0.01648443 0.0056448737 0.004589408
000010 5a 3b aa 3c d0 dd ab 3b 63 a5 64 3c 44 d4 87 3d
       0.020780254 0.005244948 0.013955447 0.06632283
000020 87 1f 7b 3b 2b 72 05 3b 38 28 02 3c 34 36 83 3a
       0.0038318352 0.002036224 0.007944159 0.0010010661
000030 41 a4 eb 3b 6f f3 2a 3c 1d d3 f3 3a 24 b7 37 3a
       0.0071912115 0.010434016 0.0018602345 0.0007008186

clf_net.3.weight f4 [16, 16]
000000 8a 3b d2 bc a6 ab 5b be bb 1e 4a bd 01 13 84 3c
       -0.025663156 -0.21452197 -0.049345713 0.016122343
000010 fb 93 da bc 00 fb 65 be 10 b7 b7 bd 5a 92 21 3e
       -0.02668189 -0.2245903 -0.08970463 0.15778485
000020 51 19 07 3d f1 99 ef 3d f9 6b 10 bd a4 31 49 3e
       0.032983128 0.11699284 -0.03525922 0.19647843
000030 65 33 d6 3d 47 81 dd bd 02 24 fc bc 26 f5 6a be
       0.104590215 -0.10815673 -0.030778889 -0.22945079
000040 aa aa 26 3e 9c a2 46 3c 75 fc 84 be 67 c1 b7 3d
       0.1627604 0.01212373 -0.2597386 0.089724354
000050 94 e1 15 3e fe f5 a7 bd bb cc 30 be 4a cb 2f be
       0.14636832 -0.08201216 -0.17265598 -0.17167392
000060 b1 a8 90 3d 86 b2 1f be 5e 84 6f be 57 98 16 be
       0.07063425 -0.15595445 -0.23390338 -0.1470655
000070 fc 89 4c 3d 87 03 12 be bc 21 94 be 45 68 a2 bd
       0.04993628 -0.14259158 -0.28931987 -0.07930044
000080 4f 8e 5a be 6a 38 b2 3d f9 b8 68 3e 9c f0 8f bd
       -0.21343349 0.087021664 0.22726811 -0.070283145
000090 95 32 73 bd aa 7c 0e be 1c 2c f0 bc d0 75 cd bc
       -0.05937441 -0.13914743 -0.029317908 -0.025080591
0000a0 23 a7 66 3e 04 b8 8a 3d 77 f8 05 3e 81 e2 5b be
       0.22524695 0.067733794 0.13083063 -0.21473123
0000b0 df 15 81 3e fc ea 02 be 22 d5 6e be 47 52 79 3e
       0.25212 -0.12784952 -0.23323491 0.24347793
0000c0 a9 d7 5b 3e 0a 66 2f bd a5 7e 16 3e 22 ae ac bc
       0.21468987 -0.04282192 0.14696749 -0.021079127
0000d0 a5 15 ec bd 7c 68 20 3e f3 d1 81 3e 64 f6 12 3e
       -0.11527566 0.15664858 0.2535549 0.14351803
0000e0 d9 52 2e 3e 59 d4 10 be a6 fc e9 3c 18 9d 28 3c
       0.17023791 -0.14143504 0.028562855 0.01029136
0000f0 91 1c e2 3d 0c 12 13 be 1a d0 12 3d b1 e4 0b be
       0.11040605 -0.14362353 0.035842992 -0.13661458
000100 8c 3e 69 3e 0c 46 92 3c f8 c2 b5 3d 11 af 92 3d
       0.22777766 0.017855667 0.08875078 0.071622975
000110 ad 2c 70 3d d0 55 4b 3e 7b 88 5e bc 9c 8e 0d 3e
       0.058636356 0.19856954 -0.013582344 0.13823932
000120 d3 c9 2d bd 63 a8 7d 3e ff 15 f0 bd 02 87 ea bb
       -0.042428803 0.24771266 -0.117229454 -0.0071572075
000130 fd f1 38 3d b1 97 a8 bd 48 7e 42 3e 92 06 51 be
       0.045152653 -0.08232058 0.18993485 -0.20412663
000140 0c 80 72 3e f4 c2 86 be fd 58 73 3d 0c 63 82 bd
       0.23681659 -0.26320612 0.059411038 -0.06366548
000150 be dc 81 bd cb 2d bc bd b0 fc 18 be ee 7d 18 be
       -0.06340931 -0.09188422 -0.14940143 -0.14891788
000160 2c 63 ed 3d cb 67 4f 3e bf a5 1d bd 6e 94 74 bd
       0.11591181 0.20254438 -0.038488146 -0.059711866
000170 dc 98 0a 3e a8 aa c9 3d 5d 8f 0f 3e 8f 50 d5 bd
       0.13534874 0.09847003 0.14019533 -0.10415756
000180 69 ed c4 bb 81 7b d4 bd 39 b2 14 3e 31 b0 a6 3c
       -0.006009747 -0.10375119 0.14521112 0.020347686
000190 16 d0 4c 3d 36 c4 b4 bd 3a b3 94 3c b0 80 6a 3e
       0.050003134 -0.08826487 0.018151868 0.22900653
0001a0 38 91 eb 3d 8c 3d a8 3d ac c7 ee bc e6 9b 64 3d
       0.11502308 0.08214864 -0.029147945 0.05581274
0001b0 ba 6d 47 3e 51 ea 3f bd 32 b6 82 bd 7c 43 25 be
       0.19475451 -0.04685432 -0.06382407 -0.16139024
0001c0 51 a5 ec bd a4 4c e2 3d 9a a5 b4 3d 68 e4 2b 3e
       -0.11554969 0.11049774 0.088206485 0.16786349
0001d0 c2 f4 4d bd 4b 2c 05 bd c0 f4 28 be 6a ba 54 be
       -0.050282247 -0.032512944 -0.16499615 -0.20774236
0001e0 71 40 94 bd 3e 52 3c be c2 50 51 3e ed 28 08 be
       -0.07238854 -0.18390748 0.20440963 -0.13296862
0001f0 51 5a 00 3e a0 7d 21 be 3d c9 2a bd 06 4f 28 3c
       0.12534453 -0.15770578 -0.041695822 0.010272747
000200 88 98 43 be 84 ca 04 3e be 9d b1 bd 38 0a 14 3e
       -0.19101155 0.12967879 -0.08672665 0.14457023
000210 bb c6 f8 3c 78 f7 ac bd 59 d1 79 3e e9 1e c7 bd
       0.0303682 -0.084456384 0.24396266 -0.097226925
000220 f3 82 26 3e f8 c3 80 be 7c 80 32 bd c4 73 92 bd
       0.1626089 -0.25149512 -0.043579563 -0.07150987
000230 68 24 34 3e 79 c0 44 3e 1b e8 8e be a7 99 10 3d
       0.17592013 0.19214047 -0.27911457 0.035302784
000240 c0 32 e6 3d 1e 2c c0 3c f0 31 4b bd 76 ca fc bd
       0.112401485 0.023458537 -0.04960817 -0.12343304
000250 c7 1e 8d bd ed bc aa bd 57 1f 3a be f9 5d 33 be
       -0.06890636 -0.08336816 -0.18176018 -0.17516316
000260 88 74 17 bd 69 08 8d bd d9 16 ca bd 71 a7 b3 bd
       -0.036976367 -0.0688637 -0.09867639 -0.08772171
000270 27 66 fd bd 5d 72 2d 3e 36 f7 92 3b f4 61 81 be
       -0.12373 0.16938157 0.0044850362 -0.25270045
000280 48 6d 9a bd 61 1e 49 be f9 e1 42 3d dc be 36 3e
       -0.07540375 -0.19640495 0.047578786 0.17846245
000290 9f 5a 74 bd 99 0b 48 3e 5f 20 35 3e b6 95 b4 bd
       -0.059656736 0.19535674 0.1768813 -0.088176176
0002a0 7b a1 65 be 10 25 5d 3d ed f3 3f 3e 39 7d 9e 3d
       -0.22424881 0.053990424 0.18745394 0.07738728
0002b0 ee 06 68 be d8 1e 94 bd d9 30 81 bd e3 68 a8 3d
       -0.22658893 -0.072324455 -0.06308145 0.082231306
0002c0 07 a8 ae bb 0e 9b 85 bd 20 83 1d 3e 79 8e 59 be
       -0.005330089 -0.06523715 0.15382051 -0.21245755
0002d0 7f ce 26 3d 25 f5 f6 bd 59 dc 2d be e7 8a 9f 3d
       0.040724274 -0.12058476 -0.16978587 0.077901654
0002e0 38 30 5a be c3 88 56 be e9 2a 9d bd 40 4f 0d 3e
       -0.21307456 -0.20950608 -0.076742 0.13799763
0002f0 2d 59 e0 bd 90 1e 25 be 20 57 1e be de aa 62 3e
       -0.10954509 -0.1612494 -0.15462923 0.22135493
000300 7c fe ad bd 0b 7b 1b 3e 35 7b 40 bd 25 cf af bd
       -0.08495805 0.15183656 -0.0469925 -0.085844316
000310 93 d0 2c 3d cd 9c 86 3e 94 90 68 bc f3 76 06 be
       0.0421911 0.26291505 -0.014194626 -0.13131313
000320 09 f8 85 3c 31 8c 75 3d 20 fa 33 3e 01 db 84 be
       0.016353624 0.05994815 0.17575884 -0.25948337
000330 2e aa 85 3e d2 25 33 3e 5f 4c 1b 3c f9 f9 e2 bd
       0.261064 0.17494896 0.0094786575 -0.11082835
000340 d4 43 84 be 0d 97 36 3d de 93 8a 3d fa 8d 0f 3d
       -0.25833 0.044577647 0.06766485 0.03504751
000350 7d 49 20 3e a5 2c 5f be d7 57 08 3c 9f 50 bc 3c
       0.15653034 -0.21794374 0.008321724 0.022987662
000360 b1 39 ae bd 58 32 da 3d f4 2a 7c 3e 5f 0f 11 be
       -0.085070975 0.106541336 0.2462576 -0.1416602
000370 90 4e 4b 3e 07 51 00 be 4b 72 1f be 5e fa d6 3d
       0.19854188 -0.1253091 -0.15570943 0.104969725
000380 d6 88 8b bd 07 45 e3 3d 9e 50 63 be cb 3d 75 3e
       -0.06813209 0.1109715 -0.22198722 0.23949353
000390 c1 81 17 3d 56 e6 d9 bd 60 a4 34 be 1c 02 1b 3e
       0.036988977 -0.10639636 -0.17640829 0.15137523
0003a0 38 b0 6d bd 0d 60 79 bc cd 5b 7e 3d 14 99 e8 3d
       -0.058029383 -0.015220654 0.062099267 0.11357322
0003b0 f9 ca 70 3e 08 2a f9 bd d9 5d 94 3d bc b6 65 be
       0.23514928 -0.1216622 0.072444625 -0.22432989
0003c0 f4 eb d0 bc f4 3b 79 3e 81 b4 2e be 39 79 e3 bd
       -0.025503136 0.24339277 -0.17061044 -0.11107106
0003d0 46 6d 0b be 86 2c 37 3e 87 97 ee bd bb 29 48 be
       -0.13615903 0.17888078 -0.11649995 -0.19547169
0003e0 f1 07 ec bd 6b c2 32 3e 6a 4b 30 3d 56 69 ab bd
       -0.11524952 0.17456977 0.04304067 -0.083697006
0003f0 9f 18 0d 3e b0 0a 8f 3e d4 44 49 be 8c bd 37 3d
       0.13778923 0.2793784 -0.19655162 0.0448585

clf_net.3.bias f4 [16]
000000 e6 b0 59 3e 22 7e 61 be 66 99 6f be ae 07 86 be
       0.21258888 -0.22020772 -0.2339836 -0.26177734
000010 2b 47 03 3e 07 3b 6b 3e 6d d9 2b be 6d 1f 51 3e
       0.12820117 0.22971736 -0.1678216 0.20422144
000020 52 6b 8e 37 db 36 3b 3e f3 7c 32 be 34 15 64 3d
       1.6977694e-05 0.18282644 -0.17430477 0.055684283
000030 2b 8d 81 be c1 cb 51 bd d8 58 cd bd 19 73 da 3c
       -0.25303015 -0.051219705 -0.10026711 0.026666211

clf_net.4.weight f4 [16]
000000 05 14 83 3f 00 c2 7d 3f e1 7d 96 3f 20 1e 8e 3f
       1.0240484 0.99124146 1.1757165 1.1102943
000010 5f ca 83 3f 98 ab 9a 3f 31 19 9b 3f 62 fa 83 3f
       1.0296134 1.2083616 1.2117063 1.0310786
000020 f1 22 8b 3f e5 95 85 3f 05 ea 8c 3f 6c 9e 95 3f
       1.0870038 1.0436369 1.1008917 1.1688972
000030 da 52 90 3f f1 3d 96 3f 8d cf 91 3f a6 82 8f 3f
       1.1275284 1.1737653 1.1391464 1.1211746

clf_net.4.bias f4 [16]
000000 8f cf 40 bd 6c 91 2a bc 60 8e 4d be 75 fe 28 be
       -0.047072943 -0.010410648 -0.20073843 -0.16503318
000010 1f 88 e2 bd 9e 9e 7f 3e 2a 0b 84 be 2c d9 21 bd
       -0.11061119 0.24962851 -0.25789768 -0.039513752
000020 6e f5 10 3e 94 c4 40 bd 99 0a 02 3e b7 7f 0e 3e
       0.14156124 -0.04706247 0.12699355 0.13915907
000030 91 81 48 be c3 75 29 3e 66 09 0a 3e 4f 1f 03 3e
       -0.19580676 0.16548829 0.13480148 0.12804912

clf_net.4.running_mean f4 [16]
000000 78 2a c7 3d 76 2a 1c bf 29 7d 38 be b0 a0 ef bc
       0.09724897 -0.6100229 -0.18016495 -0.029251426
000010 f7 b7 c4 3e 37 bd 7c 3e 78 40 ef ba 5c 67 f6 3c
       0.38421604 0.24681555 -0.0018253466 0.030078582
000020 56 58 12 3d aa 0f 28 be be c5 52 be a0 51 64 be
       0.035728775 -0.16412225 -0.20583245 -0.22296762
000030 bd b0 f4 bd 98 c7 33 bd dd 94 cf bd c7 53 8e bc
       -0.11947773 -0.04389152 -0.10135815 -0.017373933

clf_net.4.running_var f4 [16]
000000 35 ed 15 3c 88 6e 3a 3f 38 8c 9c 3a 55 1a b6 3c
       0.009150793 0.7282491 0.0011943644 0.022229353
000010 f7 62 11 3d f4 34 8a 3b d0 8d 13 3c 32 1d 2e 3c
       0.03549477 0.0042177383 0.009005979 0.010627078
000020 46 94 e5 3c 98 dd 7b 3d 9f 04 2e 3d ee 7c 04 3f
       0.028024804 0.061490625 0.042484876 0.5175313
000030 6f 89 19 3c a9 d4 cb 3a b6 83 07 3b e7 0f e6 3a
       0.009371146 0.0015551049 0.002067787 0.0017552347

clf_net.6.weight f4 [1, 16]
000000 8a e4 82 be f9 c4 31 3d 87 07 0f be 18 52 46 be
       -0.25564986 0.04340074 -0.13967715 -0.19367254
000010 38 3e 36 be 62 6e f5 3d b8 11 3c be b6 dd ad bd
       -0.17797172 0.119839445 -0.18366134 -0.08489554
000020 d3 46 a4 3e 77 3c 75 be 5a 37 a0 3e 80 c8 5e 3e
       0.32085285 -0.23948847 0.3129223 0.21756172
000030 04 74 38 be 1e f8 31 3e 9d b9 7d 3e a8 eb a7 3e
       -0.18013006 0.17379805 0.24777837 0.3279698
