EE8591/Project/regression_models/Sine_squared/DNN/deepnn/training_models/net_4900.pt (torch, 7359 bytes, 13 tensors)

clf_net.0.weight f4 [16, 1]
-0.46685857 0.48056173 0.28158998 0.25770086 -0.54574776 -0.27134922 0.446398 -0.970424
0.23175222 0.17036808 0.33219567 0.12280587 -0.30805805 0.38644907 0.16654752 -0.09866919
00000000: 1608 efbe 300c f63e 902c 903e 5ef1 833e
00000010: 20b6 0bbf 49ee 8abe 478e e43e b56d 78bf
00000020: 7450 6d3e f874 2e3e 8d15 aa3e a581 fb3d
00000030: c9b9 9dbe a7dc c53e 6f8b 2a3e 1313 cabd

clf_net.0.bias f4 [16]
0.12744088 -0.1301375 -0.0994673 -0.0787853 -0.8527125 0.40472966 0.35119835 0.93212855
-0.5269211 0.8419231 0.37430376 -0.07026726 0.47390857 0.020525074 0.13323683 -0.4889555
00000000: dd7f 023e c442 05be 83b5 cbbd 305a a1bd
00000010: 5e4b 5abf ba38 cf3e 45d0 b33e fa9f 6e3f
00000020: 4de4 06bf 4688 573f bea4 bf3e 48e8 8fbd
00000030: 25a4 f23e 3324 a83c 3c6f 083e 6058 fabe

clf_net.1.weight f4 [16]
0.9874779 0.9974962 1.0064038 0.99141675 1.007441 0.98377794 0.9916956 1.008518
1.0116606 1.0001228 0.9932399 0.99025077 0.9635296 0.9892165 1.006385 1.0329522
00000000: 5acb 7c3f e95b 7f3f d7d1 803f 7dcd 7d3f
00000010: d4f3 803f dfd8 7b3f c3df 7d3f 1e17 813f
00000020: 187e 813f 0604 803f f844 7e3f 1381 7d3f
00000030: e0a9 763f 4b3d 7d3f 39d1 803f c737 843f

clf_net.1.bias f4 [16]
-0.009344324 -0.11364187 0.008697183 -0.042518683 0.09939639 -0.0200811 0.03428338 0.074906334
0.040834185 -0.05393554 -0.09262877 0.001249719 0.14511779 0.08251733 -0.01140348 -0.02489969
00000000: ef18 19bc 12bd e8bd a17e 0e3c 1228 2ebd
00000010: 5690 cb3d 1e81 a4bc bb6c 0c3d 7e68 993d
00000020: bf41 273d 83eb 5cbd 27b4 bdbd 9ccd a33a
00000030: c299 143e d9fe a83d a9d5 3abc 6ffa cbbc

clf_net.1.running_mean f4 [16]
-0.07405475 0.07726574 0.021950245 0.03266006 -1.0881969 0.2874504 0.54391384 0.5128962
-0.42688948 0.9156563 0.51761854 -0.017120637 0.34075826 0.18730767 0.20543274 -0.5315964
00000000: 04aa 97bd 803d 9e3d 00d1 b33c 8ec6 053d
00000010: 094a 8bbf b32c 933e f03d 0b3f 2a4d 033f
00000020: 4291 dabe 7468 6a3f a682 043f 9440 8cbc
00000030: de77 ae3e 95cd 3f3e f65c 523e b416 08bf

clf_net.1.running_var f4 [16]
0.015308398 0.016216343 0.0055711446 0.004663104 0.020922435 0.0051739104 0.013996706 0.06615378
0.003773842 0.0020388262 0.00775116 0.001058976 0.006675075 0.010489524 0.0019482698 0.00068371533
00000000: 13d0 7a3c 23d8 843c 268e b63b f4cc 983b
00000010: 8765 ab3c e889 a93b 7152 653c a27b 873d
00000020: 9052 773b d49d 053b 71fd fd3b 57cd 8a3a
00000030: 96ba da3b 41dc 2b3c 165d ff3a 5c3b 333a

clf_net.3.weight f4 [16, 16]
-0.028097788 -0.22927712 -0.047798738 0.01177722 -0.037519246 -0.22623736 -0.08642808 0.14919817
0.03623044 0.110699855 -0.045989696 0.19723658 0.089414254 -0.10285727 -0.030275773 -0.23169966
0.16683918 0.011849181 -0.2593942 0.08989696 0.15011488 -0.077462494 -0.16829725 -0.16781564
0.07447193 -0.15550406 -0.2338302 -0.14845373 0.054600243 -0.13556051 -0.29095164 -0.07525938
-0.22026831 0.085530594 0.22428837 -0.07330057 -0.06502527 -0.14583783 -0.032003284 -0.031462032
0.22255008 0.06486575 0.12868385 -0.2178403 0.24743809 -0.13022128 -0.23637925 0.23651859
0.21382964 -0.03994719 0.14780162 -0.019551994 -0.114057295 0.15557618 0.25411096 0.14410065
0.17079967 -0.1396644 0.030890297 0.011272184 0.112466894 -0.14335816 0.03686726 -0.13752532
0.2242928 0.02237681 0.08805461 0.07261092 0.060642317 0.19449183 -0.014938914 0.13858168
-0.04375468 0.24928278 -0.11413441 -0.0075091883 0.049337294 -0.08433331 0.1896501 -0.20755985
0.24087442 -0.26097462 0.061214387 -0.061690174 -0.05875919 -0.08778059 -0.1475367 -0.14439484
0.117772505 0.20459883 -0.036358844 -0.05792526 0.14082871 0.10041342 0.14197291 -0.100132704
-0.015646938 -0.09771884 0.14111966 0.019304 0.048303213 -0.09870487 0.012952951 0.22478159
0.10985681 0.08222006 -0.02609375 0.052309614 0.19642106 -0.053159934 -0.067226626 -0.17094678
-0.11827905 0.104923375 0.086326785 0.16468209 -0.05651878 -0.035017397 -0.16654904 -0.21297336
-0.073944665 -0.18755646 0.19981031 -0.13501626 0.117245644 -0.15889274 -0.043817133 0.0074383877
-0.17968665 0.13546167 -0.08549932 0.14741102 0.043097153 -0.07296116 0.24605364 -0.084742524
0.16467836 -0.24789932 -0.03896362 -0.07078366 0.1905292 0.19515345 -0.27842778 0.04695349
0.113321505 0.02151348 -0.046697687 -0.12213308 -0.07062806 -0.08226914 -0.17839478 -0.17612623
-0.033604287 -0.068138905 -0.09935715 -0.08491499 -0.12689283 0.17335963 0.007219356 -0.25169745
-0.07095182 -0.19252606 0.050949182 0.18205072 -0.054375857 0.19996873 0.18036547 -0.08306343
-0.22075345 0.05770287 0.19122003 0.08070849 -0.22035995 -0.068682946 -0.059750423 0.08697363
-0.008730128 -0.06653319 0.1532388 -0.2133623 0.03716367 -0.123856395 -0.17008649 0.07438271
-0.2133713 -0.21047354 -0.07787596 0.13724872 -0.11302125 -0.16123335 -0.15541916 0.21796237
-0.09682351 0.15477623 -0.05102841 -0.08735877 0.037107006 0.25001377 -0.01942576 -0.13821012
0.011156483 0.059192102 0.17684302 -0.2628763 0.25841495 0.16855043 0.0061828336 -0.12266013
-0.25580513 0.04650346 0.068774685 0.036121998 0.15925653 -0.21501198 0.010934774 0.025624258
-0.08255312 0.10788439 0.24786356 -0.14139767 0.20164905 -0.121325396 -0.15549172 0.10750199
-0.0662795 0.11265902 -0.22074395 0.24082199 0.03916708 -0.10428266 -0.17476258 0.15344225
-0.05640186 -0.013775159 0.0636385 0.114599675 0.23765562 -0.119633585 0.07346627 -0.22244507
-0.02571516 0.23152716 -0.16913697 -0.11530861 -0.13895966 0.17954963 -0.10624556 -0.19751237
-0.1054542 0.16929714 0.03382786 -0.085882165 0.13495879 0.29839492 -0.19920881 0.04467044
00000000: 552d e6bc 9fc7 6abe 9cc8 43bd 3ef5 403c
00000010: c8ad 19bd c4aa 67be 3501 b1bd 68c7 183e
00000020: 5f66 143d 9bb6 e23d b15f 3cbd 63f8 493e
00000030: d21e b73d d5a6 d2bd e604 f8bc ad42 6dbe
00000040: e4d7 2a3e 1123 423c 51cf 84be e61b b83d
00000050: b7b7 193e a8a4 9ebd 1d56 2cbe ddd7 2bbe
00000060: bd84 983d 753c 1fbe 2f71 6fbe 4104 18be
00000070: 81a4 5f3d 60d0 0abe 9df7 94be 9721 9abd
00000080: 048e 61be aa2a af3d daab 653e 9c1e 96bd
00000090: f82b 85bd 8356 15be e015 03bd 55de 00bd
000000a0: 2be4 633e 56d8 843d b3c5 033e 8711 5fbe
000000b0: 6960 7d3e ba58 05be 670d 72be ee31 723e
000000c0: 28f6 5a3e aa9f 23bd 4f59 173e 812b a0bc
000000d0: df96 e9bd 5d4f 1f3e d51a 823e 1f8f 133e
000000e0: 1ce6 2e3e 2f04 0fbe a60d fd3c f7ae 383c
000000f0: 0b55 e63d 7bcc 12be 2002 173d 70d3 0cbe
00000100: 03ad 653e 924f b73c fa55 b43d 09b5 943d
00000110: 1464 783d de28 473e 59c2 74bc 5be8 0d3e
00000120: 1b38 33bd fc43 7f3e 4dbf e9bd a30f f6bb
00000130: e715 4a3d f1b6 acbd a333 423e 928a 54be
00000140: c9a7 763e 779e 85be f0bb 7a3d d6ae 7cbd
00000150: 7aad 70bd 4fc6 b3bd dc13 17be 3edc 13be
00000160: b632 f13d 5b82 513e 03ed 14bd 0a43 6dbd
00000170: 6735 103e 8da5 cd3d 5961 113e 6012 cdbd
00000180: 022e 80bc d120 c8bd ac81 103e 6c23 9e3c
00000190: 97d9 453d c725 cabd 9d38 543c 252d 663e
000001a0: 9bfc e03d fe62 a83d 8fc2 d5bc 9b42 563d
000001b0: 9a22 493e 3bbe 59bd 1dae 89bd ac0c 2fbe
000001c0: 493c f2bd 11e2 d63d 19cc b03d 6ca2 283e
000001d0: 3c80 67bd 676e 0fbd d58b 2abe b015 5abe
000001e0: 4d70 97bd cd0e 40be 139b 4c3e b441 0abe
000001f0: 7c1e f03d c7b4 22be 9879 33bd b8bd f33b
00000200: c7ff 37be 77b6 0a3e 441a afbd eaf2 163e
00000210: a486 303d a96c 95bd 7cf5 7b3e 7d8d adbd
00000220: 72a1 283e 52d9 7dbe 5198 1fbd 06f7 90bd
00000230: 161a 433e 4ed6 473e 168e 8ebe 4d52 403d
00000240: 1b15 e83d 0a3d b03c 1346 3fbd e920 fabd
00000250: 72a5 90bd b97c a8bd 1fad 36be 6f5a 34be
00000260: a6a4 09bd 698c 8bbd c37b cbbd e9e7 adbd
00000270: 32f0 01be 3085 313e 5990 ec3b 7dde 80be
00000280: 304f 91bd 8d25 45be 17b0 503d 816b 3a3e
00000290: 38b9 5ebd 9ac4 4c3e bab1 383e 291d aabd
000002a0: 310d 62be d859 6c3d 2fcf 433e 7e4a a53d
000002b0: 0aa6 61be a5a9 8cbd dcbc 74bd 3b1f b23d
000002c0: d008 0fbc 8e42 88bd a2ea 1c3e a67b 5abe
000002d0: ef38 183d 6ca8 fdbd 272b 2ebe f655 983d
000002e0: 027e 5abe 6086 57be 6e7d 9fbd ee8a 0c3e
000002f0: af77 e7bd 5b1a 25be 3326 1fbe 8731 5f3e
00000300: 684b c6bd a97d 1e3e 2b03 51bd 28e9 b2bd
00000310: 84fd 173d ce01 803e c522 9fbc f486 0dbe
00000320: aec9 363c 6b73 723d 5616 353e b997 86be
00000330: f74e 843e 7c98 2c3e 5e99 ca3b 3c35 fbbd
00000340: e4f8 82be 697a 3e3d bed9 8c3d a9f4 133d
00000350: 2514 233e 1a2c 5cbe c427 333c f7e9 d13c
00000360: 9c11 a9bd 7ef2 dc3d f2cf 7d3e 8dca 10be
00000370: 177d 4e3e 7379 f8bd 3939 1fbe 012a dc3d
00000380: 8cbd 87bd c6b9 e63d b40a 62be 0a9a 763e
00000390: a96d 203d 2692 d5bd f6f4 32be f71f 1d3e
000003a0: a305 67bd 34b1 61bc e754 823d 3cb3 ea3d
000003b0: ff5b 733e 7402 f5bd 7c75 963d a4c8 63be
000003c0: 99a8 d2bc 7515 6d3e 3e32 2dbe ec26 ecbd
000003d0: 714b 0ebe dcdb 373e 4697 d9bd af40 4abe
000003e0: 5ff8 d7bd 3b5c 2d3e 158f 0a3d fde2 afbd
000003f0: a332 0a3e 38c7 983e 65fd 4bbe 5af8 363d

clf_net.3.bias f4 [16]
0.21351701 -0.22010301 -0.24052827 -0.26611975 0.1255585 0.23016861 -0.17256346 0.20456508
0.0010424906 0.18362081 -0.17387368 0.056212086 -0.25677866 -0.050642736 -0.10018065 0.027890708
00000000: 34a4 5a3e af62 61be 0b4d 76be d940 88be
00000010: 6892 003e 52b1 6b3e 7ab4 30be 8279 513e
00000020: 2ea4 883a 1807 3c3e f10b 32be a53e 663d
00000030: 7e78 83be c26e 4fbd 832b cdbd 0e7b e43c

clf_net.4.weight f4 [16]
1.0458537 1.0060123 1.2420903 1.1435058 1.0476612 1.2399683 1.2664754 1.0805603
1.1010346 1.0746632 1.1137707 1.1965605 1.186926 1.1892515 1.1500641 1.1384053
00000000: 89de 853f 03c5 803f d1fc 9e3f 665e 923f
00000010: c319 863f 48b7 9e3f de1b a23f cd4f 8a3f
00000020: b4ee 8c3f 908e 893f 0a90 8e3f e528 993f
00000030: 31ed 973f 6539 983f 4d35 933f 44b7 913f

clf_net.4.bias f4 [16]
-0.038495045 -0.0013941372 -0.28012845 -0.21500221 -0.1370526 0.27712956 -0.3388946 -0.016166793
0.15430465 -0.03630312 0.13680108 0.15498877 -0.23743537 0.18130034 0.14621657 0.13839039
00000000: fbac 1dbd 7bbb b6ba ff6c 8fbe 8a29 5cbe
00000010: 8457 0cbe ede3 8d3e 9883 adbe 3970 84bc
00000020: 0a02 1e3e 95b2 14bd 9515 0c3e 60b5 1e3e
00000030: 4222 73be cca6 393e ccb9 153e 36b6 0d3e

clf_net.4.running_mean f4 [16]
0.08485909 -0.5869244 -0.21480961 -0.028577218 0.39116967 0.26731703 -0.016881391 0.0071933074
0.06970563 -0.15825489 -0.19289595 -0.23062056 -0.14299673 -0.03340625 -0.08056449 -0.01074556
00000000: 9aca ad3d ad40 16bf 0df7 5bbe c51a eabc
00000010: 6447 c83e c7dd 883e d84a 8abc d6b5 eb3b
00000020: d3c1 8e3d 920d 22be 8486 45be cc27 6cbe
00000030: bc6d 12be fed4 08bd fffe a4bd 250e 30bc

clf_net.4.running_var f4 [16]
0.012783534 0.73037004 0.00039432492 0.023626855 0.03630064 0.004132613 0.006971626 0.013488403
0.020473419 0.062509075 0.04579219 0.504297 0.0061762114 0.0019601784 0.0023614073 0.0010644835
00000000: 0772 513c 88f9 3a3f 65bd ce39 1b8d c13c
00000010: fbaf 143d df6a 873b 3d72 e43b 76fe 5c3c
00000020: dfb7 a73c c204 803d 9790 3b3d 9c19 013f
00000030: d161 ca3b 5676 003b d7c1 1a3b 2486 8b3a

clf_net.6.weight f4 [1, 16]
-0.27463132 0.05557971 -0.17892574 -0.22135362 -0.19535363 0.13376793 -0.22399868 -0.113547504
0.33395115 -0.26472318 0.32445922 0.23549497 -0.2185002 0.1831637 0.25630248 0.34240252
00000000: 7a9c 8cbe 8da7 633d 4f38 37be 86aa 62be
00000010: c80a 48be 76fa 083e e95f 65be 988b e8bd
00000020: a5fb aa3e cc89 87be 851f a63e 9825 713e
00000030: 84be 5fbe 448f 3b3e 143a 833e 624f af3e
