EE8591/Project/classification_models/Ripley/DNN/deepnn/training_models/net_3400.pt (torch, 282047 bytes, 14 tensors)

clf_net.0.weight f4 [256, 2]
-0.15675926 0.23957732 -0.23648861 -0.6933493 0.10082629 -0.1945482 0.3672215 -0.55341125
-0.31188324 0.5502997 -0.15827362 0.5211576 -0.30048406 -0.6859834 -0.14972025 -0.3955383
-0.41558045 0.35453025 -0.30381185 -0.34478575 0.46912605 0.015236295 0.11971201 0.41398793
-0.40149346 -0.6129579 -0.20614244 -0.3638283 -0.09261925 -0.43795672 -0.026441338 -0.6331873
-0.048266567 -0.4551863 0.47380477 -0.41695836 -0.004585851 -0.07588412 0.16615072 -0.5287697
0.58288604 -0.19643705 -0.06456546 -0.39556134 0.67190427 0.526609 -0.61091906 0.110993035
-0.41690275 0.41070485 0.17898901 -0.41599092 0.41151613 -0.5200465 0.5111482 0.52978414
-0.6613915 0.013974332 0.18488905 -0.3045739 0.6692891 0.2918356 -0.49241036 -0.23531021
0.34997228 0.19594735 0.4939634 -0.7028877 -0.009618289 -0.30462876 -0.5570486 0.35029978
-0.60773784 -0.01447758 0.06563697 0.026556509 -0.4139109 0.39391327 -0.119633734 0.6567602
-0.11552516 0.675736 -0.18105873 -0.687971 0.5751099 0.4086867 0.6838821 0.2535244
-0.35531354 0.49523914 0.6955709 -0.15983517 -0.41825035 0.54008913 -0.18903258 0.38545612
-0.03482632 -0.45070451 -0.040555127 0.40073568 -0.5299956 0.18523128 0.32339787 0.21659857
-0.43264866 -0.23250888 -0.40129575 -0.27355713 -0.025397545 -0.20126055 0.10898734 -0.21320485
0.6499767 0.4607027 -0.31044242 -0.17974685 0.6474314 0.11150468 -0.21170142 -0.37360334
-0.25461763 -0.15037732 -0.3170893 0.57120377 -0.62927663 -0.37386864 -0.6907061 0.27910918
-0.24279168 0.3087087 0.41625428 0.16687241 -0.02790276 0.3262424 -0.7068866 0.04988118
-0.49642193 0.4423539 0.33273008 -0.45574367 -0.21567701 -0.45259532 0.43945226 -0.1307052
-0.45510897 0.26838878 0.35880762 0.36246505 0.46691924 -0.081271455 0.10018509 0.6519349
-0.15785128 0.7018263 -0.54538316 -0.5211913 0.63413227 0.34933066 -0.28025407 -0.5603702
0.49306068 0.3915947 0.58588123 0.70109564 0.44838092 -0.49143204 0.14314105 -0.5557557
-0.617403 0.33408305 -0.2170154 -0.65164363 0.2758775 0.29907092 0.24371088 0.69883543
-0.3483394 -0.60303086 -0.033968143 0.39051604 0.50546247 -0.24610145 -0.38504875 0.2395843
0.047838725 0.61666894 0.055428974 0.17690352 -0.70008385 -0.12599559 0.59762216 0.44730547
0.2143132 0.17292778 -0.16815415 0.14547159 -0.3457901 -0.085930884 0.31417352 0.4255271
-0.67030483 -0.111514986 0.55401605 -0.3188085 -0.4242739 -0.23533516 -0.25239733 -0.5247104
-0.4766136 -0.2477963 -0.021913704 0.59444493 -0.49896792 0.31792626 -0.6166425 -0.68612915
0.5016144 -0.46151915 -0.51421404 -0.55281425 -0.4323746 0.4721138 -0.13759111 -0.6573748
0.6450698 -0.0951241 0.44066644 -0.3361073 0.67890096 0.2024257 0.52458906 0.28005326
-0.24544835 -0.3584621 0.44791377 0.02895972 -0.38401195 0.5103861 -0.15744907 -0.091561235
0.42215475 0.5559718 -0.6702918 0.65337723 0.058083404 0.53769314 -0.2835079 0.62813157
-0.39619684 -0.1528909 -0.31063762 -0.3792624 -0.55252516 0.32455814 0.24757424 -0.3314768
00000000: 8085 20be c253 753e 122a 72be 577f 31bf
00000010: 047e ce3d a537 47be 7504 bc3e 5cac 0dbf
00000020: 29af 9fbe 71e0 0c3f 7b12 22be 966a 053f
00000030: 0cd9 99be 9c9c 2fbf 4450 19be ff83 cabe
00000040: f6c6 d4be fd84 b53e 3a8d 9bbe c287 b0be
00000050: 4a31 f03e a7a1 793c 922b f53d 3af6 d33e
00000060: 8d90 cdbe cfea 1cbf 0117 53be b447 babe
00000070: 29af bdbd dd3b e0be 819b d8bc 9018 22bf
00000080: 2ab3 45bd 2e0e e9be 8a96 f23e 917b d5be
00000090: e844 96bb 2269 9bbd 6a23 2a3e 735d 07bf
000000a0: 0538 153f cb26 49be e53a 84bd 0487 cabe
000000b0: eb01 2c3f d9cf 063f 3165 1cbf 5150 e33d
000000c0: 4774 d5be e847 d23e e548 373e c3fc d4be
000000d0: 3eb2 d23e c421 05bf 9cda 023f ef9f 073f
000000e0: f450 29bf 99f4 643c 8e53 3d3e 1cf1 9bbe
000000f0: 8856 2b3f 7a6b 953e 361d fcbe 29f5 70be
00000100: 912f b33e 6ca6 483e c5e8 fc3e 73f0 33bf
00000110: 0796 1dbc 4df8 9bbe bd9a 0ebf 7e5a b33e
00000120: b594 1bbf 5f33 6dbc ad6c 863d 098d d93c
00000130: 21ec d3be 00af c93e 8802 f5bd 7021 283f
00000140: 7598 ecbd 09fd 2c3f 7667 39be de1e 30bf
00000150: 673a 133f 623f d13e e612 2f3f f3cd 813e
00000160: a8eb b5be fc8f fd3e ef10 323f d5ab 23be
00000170: e924 d6be 4843 0a3f c291 41be 815a c53e
00000180: 0ba6 0ebd bec2 e6be 221d 26bd 3a2d cd3e
00000190: cbad 07bf 45ad 3d3e 6894 a53e 04cc 5d3e
000001a0: 2084 ddbe cf16 6ebe a376 cdbe ae0f 8cbe
000001b0: 830e d0bc 3f17 4ebe c134 df3d 5f52 5abe
000001c0: df64 263f 39e1 eb3e 4ff2 9ebe 8f0f 38be
000001d0: 10be 253f 915c e43d 42c8 58be f048 bfbe
000001e0: 3e5d 82be 83fc 19be 8759 a2be 693a 123f
000001f0: 4618 21bf b66b bfbe 1dd2 30bf 66e7 8e3e
00000200: 629e 78be 110f 9e3e 481f d53e 9ae0 2a3e
00000210: 5494 e4bc 3e09 a73e 85f6 34bf 3550 4c3d
00000220: 042b febe 367c e23e 995b aa3e 3c57 e9be
00000230: 6fda 5cbe 93ba e7be e3ff e03e 95d7 05be
00000240: 0b04 e9be 416a 893e a2b5 b73e 0595 b93e
00000250: 0a10 ef3e a671 a6bd d72d cd3d 35e5 263f
00000260: c4a3 21be e3aa 333f 3b9e 0bbf cb6c 05bf
00000270: 7e56 223f 78db b23e 767d 8fbe 6c74 0fbf
00000280: 7372 fc3e 1a7f c83e 50fc 153f 017b 333f
00000290: 2f92 e53e fb9c fbbe 9193 123e 0146 0ebf
000002a0: 1f0e 1ebf ef0c ab3e 4939 5ebe 1ed2 26bf
000002b0: d13f 8d3e d31f 993e 588f 793e e1e6 323f
000002c0: 8b59 b2be 3b60 1abf 2e22 0bbd b8f1 c73e
000002d0: fd65 013f 0502 7cbe 1c25 c5be 9655 753e
000002e0: 8af2 433d 04de 1d3f 7e09 633d 3226 353e
000002f0: b238 33bf fd04 01be c4fd 183f 3905 e53e
00000300: eb74 5b3e fb13 313e 9a30 2cbe 81f6 143e
00000310: 660b b1be 88fc afbd 5adb a03e b0de d93e
00000320: 1999 2bbf f861 e4bd ffd3 0d3f de3a a3be
00000330: 6e3a d9be b3fb 70be 393a 81be 6c53 06bf
00000340: b306 f4be 50be 7dbe 5e84 b3bc 8b2d 183f
00000350: b978 ffbe 3bc7 a23e 48dc 1dbf 29a6 2fbf
00000360: cd69 003f 3d4c ecbe 88a3 03bf 3c85 0dbf
00000370: 3460 ddbe e6b8 f13e afe4 0cbe b749 28bf
00000380: 4b23 253f 6dd0 c2bd 089f e13e 4216 acbe
00000390: 74cc 2d3f af48 4f3e 784b 063f 2463 8f3e
000003a0: d056 7bbe 5888 b7be f454 e53e ef3c ed3c
000003b0: 379d c4be aaa8 023f 543a 21be 7584 bbbd
000003c0: ab24 d83e 2b54 0e3f 3e98 2bbf bb43 273f
000003d0: dde8 6d3d 42a6 093f f327 91be 3bcd 203f
000003e0: 50da cabe 6f8f 1cbe e50b 9fbe ae2e c2be
000003f0: 4a72 0dbf 7c2c a63e 1a84 7d3e 54b7 a9be

clf_net.0.bias f4 [256]
-0.415794 -0.018115558 -0.16798393 0.5704213 0.16484196 0.101675816 0.41231006 -0.08225042
0.074322425 0.46132168 0.3236989 0.45138025 0.5103829 0.35270396 -0.3780755 0.6871381
-0.47281194 0.67939246 0.64627546 0.00042821196 0.57863295 0.34991568 0.05384066 0.39651367
-0.34478995 -0.29961586 -0.35547265 -0.049935754 0.19519538 -0.09524353 0.3848899 0.65796256
0.29780045 -0.33122128 0.05704188 0.27532202 -0.11659074 0.12355096 -0.518038 -0.21817291
-0.033697754 -0.2692473 0.547047 0.41491118 0.44029725 0.1367828 -0.3345858 -0.13975827
-0.015426252 0.48891255 -0.26485112 0.3841074 -0.100483984 -0.60209435 0.18778807 -0.16483168
0.49455962 0.17288527 -0.36919248 0.17777456 -0.6339294 0.60157454 0.6816921 0.23725632
-0.40852687 -0.583496 -0.6130281 0.39449584 0.12979206 -0.33557194 -0.07957333 0.075239204
0.5344405 0.14754592 0.1886928 -0.046789743 -0.56826687 -0.4398612 -0.019982241 0.27288583
-0.3422668 -0.5885582 0.22583394 -0.62742865 -0.5243568 -0.2777822 0.10994966 0.16879542
-0.43589526 0.49281356 -0.44713834 0.63131285 -0.6630974 0.39227983 -0.403871 0.08181403
0.13138571 0.45928583 -0.12786072 -0.055372108 -0.13106355 0.28805408 -0.52515477 -0.086881936
-0.47632235 0.30018756 0.06044423 -0.46131033 0.47026527 -0.4446569 0.09640619 -0.2581104
-0.05585081 0.39708325 -0.029701896 -0.06966031 -0.15240645 -0.3205508 0.43682805 0.4516984
0.3120348 -0.36296654 0.61698407 -0.25686827 0.28361127 -0.1860715 0.47084874 0.020222142
0.5462025 -0.022364128 -0.46550173 0.44551072 0.27969137 0.6480046 -0.2842558 -0.01045284
0.510638 -0.38602415 0.056001443 0.22543354 -0.64596575 -0.16296542 0.53819275 -0.21115528
0.7006916 0.31665257 -0.24056806 -0.07945566 -0.4021923 0.17517233 0.34134826 0.4019583
0.029777002 -0.50402254 0.65313905 -0.6811213 0.26094377 0.14950195 -0.57878596 -0.046537455
-0.36027226 0.3749552 0.083919935 -0.3442197 -0.4817152 0.5143398 -0.44008306 0.5408896
-0.6413778 0.48790362 0.31088534 -0.5668038 -0.4428564 -0.4344325 -0.52936417 -0.35156682
-0.018775241 0.61699957 -0.041078594 0.026847374 -0.52008045 -0.13227822 0.19999725 -0.64592344
0.3445746 -0.52852285 -0.6504717 0.5885968 -0.09992267 -0.47799852 0.058557734 0.61440784
0.63415873 0.10367366 0.65616167 0.17300792 -0.42101625 0.088916786 0.10060714 0.53125113
-0.19452499 0.2655028 -0.15983213 0.5972019 0.25039998 0.3350875 -0.6749145 -0.7052116
0.27092 0.47317734 0.36033094 0.6656693 -0.58231604 0.5419287 -0.07565384 -0.40677246
0.031603225 -0.6694202 -0.29248488 0.13705185 -0.618527 0.49953422 0.036183152 0.5284983
0.22509772 0.47177008 -0.34841374 0.2993646 -0.3282254 0.49107087 -0.058368918 0.70477897
-0.5206107 0.6808661 -0.5561267 -0.6372328 0.29653427 -0.5487878 -0.3304951 0.61625916
0.37219527 -0.5354048 -0.37387085 0.38559815 0.35777912 0.37496686 0.44960648 0.6340061
0.6290019 0.5148434 0.40044656 0.43212977 0.11692058 0.022513498 -0.31541672 -0.5024447
00000000: f3e2 d4be 1467 94bc fb03 2cbe 2107 123f
00000010: 55cc 283e 693b d03d 4e1a d33e e872 a8bd
00000020: 5b36 983d 5b32 ec3e ddbb a53e 501b e73e
00000030: 74a8 023f 9d95 b43e 1d93 c1be 48e8 2f3f
00000040: 6814 f2be aaec 2d3f 4f72 253f a381 e039
00000050: 4a21 143f 2628 b33e 0688 5c3d d703 cb3e
00000060: 4f88 b0be 4067 99be 8300 b6be 6f89 4cbd
00000070: 4ce1 473e 0a0f c3bd 4a10 c53e 3c70 283f
00000080: 4d79 983e d695 a9be bfa4 693d 02f7 8c3e
00000090: 20c7 eebd 4908 fd3d 239e 04bf b868 5fbe
000000a0: a806 0abd c8da 89be 460b 0c3f 3d6f d43e
000000b0: a46e e13e ca10 0c3e d44e abbe cb1c 0fbe
000000c0: 64be 7cbc bf52 fa3e 919a 87be baa9 c43e
000000d0: 8cca cdbd db22 1abf 844b 403e a3c9 28be
000000e0: eb36 fd3e d608 313e cc06 bdbe 890a 363e
000000f0: 3249 22bf ca00 1a3f 6083 2e3f 52f3 723e
00000100: 6f2a d1be fe5f 15bf 69ef 1cbf 5cfb c93e
00000110: 36e8 043e 16d0 abbe 58f7 a2bd 0317 9a3d
00000120: 18d1 083f 4716 173e af38 413e 9aa6 3fbd
00000130: f079 11bf 7d35 e1be ccb1 a3bc b1b7 8b3e
00000140: 983d afbe c0ab 16bf 0341 673e 2a9f 20bf
00000150: 3f3c 06bf 7839 8ebe 4a2d e13d b5d8 2c3e
00000160: aa2d dfbe 0f52 fc3e 51ef e4be b89d 213f
00000170: c0c0 29bf e7d8 c83e 2ec8 cebe 1d8e a73d
00000180: fa89 063e 8327 eb3e eced 02be ddcd 62bd
00000190: 8635 06be d37b 933e 8b70 06bf 28ef b1bd
000001a0: 86e0 f3be 2fb2 993e 5e94 773d de30 ecbe
000001b0: 9cc6 f03e 12aa e3be 9c70 c53d 0c27 84be
000001c0: d2c3 64bd 7f4e cb3e 6451 f3bc 11aa 8ebd
000001d0: 7010 1cbe 3c1f a4be eda7 df3e 0345 e73e
000001e0: 06c3 9f3e c0d6 b9be abf2 1d3f 3d84 83be
000001f0: 7f35 913e 8789 3ebe 1613 f13e e8a8 a53c
00000200: edd3 0b3f fa34 b7bc 3e56 eebe fb19 e43e
00000210: b533 8f3e a1e3 253f fa89 91be 6342 2bbc
00000220: 2cb9 023f f5a4 c5be c561 653d 0dd8 663e
00000230: 035e 25bf 68e0 26be 00c7 093f 1739 58be
00000240: 8660 333f 4920 a23e 7957 76be a6b9 a2bd
00000250: 26ec cdbe 6060 333e 33c5 ae3e 7acd cd3e
00000260: e6ee f33c 9f07 01bf 1f34 273f f75d 2ebf
00000270: 6c9a 853e 0a17 193e 512b 14bf 0f9e 3ebd
00000280: 9b75 b8be 21fa bf3e 37de ab3d 913d b0be
00000290: 60a3 f6be c6ab 033f 9152 e1be be77 0a3f
000002a0: 5631 24bf 81ce f93e 5d2c 9f3e 0e1a 11bf
000002b0: 13be e2be f06d debe 6984 07bf 9100 b4be
000002c0: 89ce 99bc aff3 1d3f 0742 28bd 06ef db3c
000002d0: fe23 05bf f173 07be 14cc 4c3e 3d5b 25bf
000002e0: 156c b03e 464d 07bf 5085 26bf 48ae 163f
000002f0: 42a4 ccbd 39bc f4be 3cda 6f3d d549 1d3f
00000300: 3a58 223f db52 d43d 36fa 273f fd28 313e
00000310: 718f d7be 011a b63d 1e0b ce3d 1300 083f
00000320: 8f31 47be fcef 873e 09ab 23be 39e2 183f
00000330: 6d34 803e 9790 ab3e 32c7 2cbf bf88 34bf
00000340: 07b6 8a3e 4d44 f23e 4c7d b83e 4e69 2a3f
00000350: aa12 15bf d7bb 0a3f 67f0 9abd 7b44 d0be
00000360: 6272 013d 1f5f 2bbf 94c0 95be 5257 0c3e
00000370: c957 1ebf f3c2 ff3e c934 143d aa4b 073f
00000380: 0480 663e d98b f13e 4963 b2be 5146 993e
00000390: 290d a8be a46d fb3e 3f14 6fbd 656c 343f
000003a0: be46 05bf 3e4d 2e3f 525e 0ebf b021 23bf
000003b0: 57d3 973e 5b7d 0cbf a736 a9be 29c3 1d3f
000003c0: 6190 be3e 4a10 09bf 006c bfbe 1f6d c53e
000003d0: d32e b73e a8fb bf3e d232 e63e 394e 223f
000003e0: 4506 213f c7cc 033f 5507 cd3e 1d40 dd3e
000003f0: 0f74 ef3d 3a6e b83c 4d7e a1be 37a0 00bf

clf_net.1.weight f4 [256]
0.9997106 0.9993191 0.99965894 1.0001043 1.000347 0.9996474 0.99997056 0.99886006
0.9995509 0.99928164 0.99994355 1.0002886 1.0007415 1.0004599 1.0001888 1.0002108
0.999773 0.9997047 0.9993934 1.0000231 1.0004803 1.0001649 1.0013399 1.0001808
1.0007329 0.99976677 0.9999845 1.0000163 1.0005038 1.0003111 0.99946797 0.99951804
0.9998048 0.9997075 1.000889 0.9997762 0.99971086 1.0002301 1.0000349 0.9998926
0.9995887 0.99983215 0.99956876 0.9997604 1.0010458 1.0004197 0.9995252 1.0002764
1.0000794 0.9998974 0.99987924 1.0001134 1.0000225 0.9998771 1.0001293 1.0004008
0.9998728 0.9999792 0.99984574 0.9996169 0.999509 1.0002115 1.0001276 0.9993614
1.000016 0.9998104 0.9994805 0.99972427 1.0001389 1.0001589 1.0002359 1.0000026
1.0001435 0.9998842 1.0001385 0.9996277 1.0003638 1.0001436 1.0002375 1.0005857
1.0003982 0.9994659 1.0004818 0.99966764 0.99984264 1.0003649 1.0000293 1.0001452
0.9999048 1.0003084 1.0005703 0.9990243 0.9999381 1.0003581 1.0009004 0.99990344
1.0000852 0.9994717 1.0000997 0.99970776 0.99976784 0.999507 1.0001212 0.9999757
1.0009097 0.9991777 1.0001392 0.9997277 0.99973124 1.0000397 0.99964696 1.0002599
0.9997231 1.0004026 1.0004165 0.9991491 1.0002265 0.99957913 0.99945235 0.99994653
0.99952346 0.9996259 0.99949986 0.9999272 1.0002091 1.0004964 0.9994698 1.0007256
0.99967176 0.9995347 1.0001734 0.9996594 1.0001607 1.0004315 1.000119 1.001026
1.0004194 1.0002228 0.99967706 0.9998846 0.99936736 1.0004611 0.99982625 0.99954504
1.0010115 0.99968296 0.9999007 0.9998552 1.0005723 0.9996043 0.9998349 0.99975675
0.99961114 0.99959713 1.000177 1.0006486 0.9993983 0.99985 1.0002418 1.0000569
1.0001574 0.9998933 1.0003489 0.99965674 0.999865 0.9997213 0.99977386 1.0002766
0.9993301 1.0001955 1.000077 1.0000486 0.99971575 0.99990976 0.9994482 1.000011
1.0000154 1.0002956 1.0008796 0.99996305 1.0004945 1.00021 0.9999665 1.0005978
0.9999301 0.99962616 0.999941 1.0001383 1.0006336 0.9998364 0.9996772 1.0006955
1.0001814 0.9999263 1.0007625 1.0003393 1.0001415 1.0001943 1.0001502 0.99997
0.9997396 1.0005074 0.9996301 0.9999051 0.9990949 1.0002038 0.9998835 0.99910855
0.99952084 1.0007243 0.99982744 1.0004699 0.9994711 1.0002903 0.99980986 0.99989027
1.0003618 1.000027 1.0002196 0.9995064 1.0001733 0.99995065 1.000249 0.9999632
1.0005386 0.99972147 0.9992315 1.000057 0.99984664 1.0010524 1.0001708 0.99973476
1.0005469 0.9999746 1.0005326 1.000688 0.999345 1.0003508 1.0004067 0.99961245
0.9995021 1.0001725 1.0005583 0.9998494 1.0002023 0.9997466 1.0004346 1.000044
1.0004578 0.99924105 0.9999806 1.0003093 0.99963707 0.9992049 1.0002353 0.9997196
00000000: 09ed 7f3f 60d3 7f3f a6e9 7f3f 6b03 803f
00000010: 5f0b 803f e4e8 7f3f 12fe 7f3f 4bb5 7f3f
00000020: 91e2 7f3f ecd0 7f3f 4dfc 7f3f 7509 803f
00000030: 4c18 803f 120f 803f 3006 803f e806 803f
00000040: 20f1 7f3f a6ec 7f3f 3fd8 7f3f c200 803f
00000050: bd0f 803f 6705 803f e82b 803f ed05 803f
00000060: 0418 803f b7f0 7f3f fcfe 7f3f 8900 803f
00000070: 8210 803f 320a 803f 22dd 7f3f 6ae0 7f3f
00000080: 35f3 7f3f d5ec 7f3f 211d 803f 55f1 7f3f
00000090: 0ded 7f3f 8a07 803f 2501 803f f6f8 7f3f
000000a0: 0ce5 7f3f 00f5 7f3f bde3 7f3f 4cf0 7f3f
000000b0: 4522 803f c10d 803f e2e0 7f3f 0f09 803f
000000c0: 9a02 803f 47f9 7f3f 16f8 7f3f b703 803f
000000d0: bd00 803f f2f7 7f3f 3d04 803f 220d 803f
000000e0: aaf7 7f3f a3fe 7f3f e4f5 7f3f e5e6 7f3f
000000f0: d2df 7f3f ee06 803f 2e04 803f 26d6 7f3f
00000100: 8600 803f 93f3 7f3f f4dd 7f3f eeed 7f3f
00000110: 8d04 803f 3505 803f bb07 803f 1600 803f
00000120: b404 803f 69f8 7f3f 8a04 803f 9ae7 7f3f
00000130: ec0b 803f b504 803f c807 803f 3113 803f
00000140: 0c0d 803f ffdc 7f3f ca0f 803f 38ea 7f3f
00000150: b0f5 7f3f f50b 803f f600 803f c204 803f
00000160: c3f9 7f3f 1b0a 803f b012 803f 0ec0 7f3f
00000170: f1fb 7f3f bc0b 803f 811d 803f acf9 7f3f
00000180: cb02 803f 61dd 7f3f 4403 803f d9ec 7f3f
00000190: c9f0 7f3f b1df 7f3f f903 803f 68fe 7f3f
000001a0: cf1d 803f 1cca 7f3f 9004 803f 28ee 7f3f
000001b0: 63ee 7f3f 4d01 803f dde8 7f3f 8408 803f
000001c0: daed 7f3f 310d 803f a60d 803f 3cc8 7f3f
000001d0: 6c07 803f 6be4 7f3f 1cdc 7f3f 7ffc 7f3f
000001e0: c5e0 7f3f 7ce7 7f3f 39df 7f3f 3bfb 7f3f
000001f0: da06 803f 4410 803f 41dd 7f3f c717 803f
00000200: 7dea 7f3f 82e1 7f3f af05 803f aee9 7f3f
00000210: 4405 803f 240e 803f e603 803f 9f21 803f
00000220: be0d 803f 4d07 803f d6ea 7f3f 70f8 7f3f
00000230: 8ad6 7f3f 1c0f 803f 9df4 7f3f 2fe2 7f3f
00000240: 2521 803f 39eb 7f3f 7ef9 7f3f 83f6 7f3f
00000250: c112 803f 11e6 7f3f 2ef5 7f3f 0ff0 7f3f
00000260: 84e6 7f3f 99e5 7f3f cd05 803f 4115 803f
00000270: 91d8 7f3f 2bf6 7f3f ec07 803f dd01 803f
00000280: 2805 803f 02f9 7f3f 6f0b 803f 81e9 7f3f
00000290: 27f7 7f3f bced 7f3f 2ef1 7f3f 1009 803f
000002a0: 19d4 7f3f 6806 803f 8602 803f 9801 803f
000002b0: 5fed 7f3f 16fa 7f3f d6db 7f3f 5c00 803f
000002c0: 8100 803f b009 803f d31c 803f 94fd 7f3f
000002d0: 3410 803f e206 803f cefd 7f3f 9713 803f
000002e0: 6bfb 7f3f 80e7 7f3f 22fc 7f3f 8804 803f
000002f0: c314 803f 47f5 7f3f d8ea 7f3f ca16 803f
00000300: f205 803f 2cfb 7f3f fc18 803f 1e0b 803f
00000310: a304 803f 5e06 803f ec04 803f 09fe 7f3f
00000320: efee 7f3f a010 803f c2e7 7f3f c8f9 7f3f
00000330: afc4 7f3f ae06 803f 5df8 7f3f 94c5 7f3f
00000340: 99e0 7f3f bc17 803f b1f4 7f3f 660f 803f
00000350: 57dd 7f3f 8309 803f 8af3 7f3f cff8 7f3f
00000360: db0b 803f e200 803f 3207 803f a7df 7f3f
00000370: ae05 803f c4fc 7f3f 2908 803f 97fd 7f3f
00000380: a611 803f bfed 7f3f a3cd 7f3f de01 803f
00000390: f3f5 7f3f 7c22 803f 9905 803f 9eee 7f3f
000003a0: ec11 803f 56fe 7f3f 7411 803f 8b16 803f
000003b0: 13d5 7f3f 7f0b 803f 540d 803f 9ae6 7f3f
000003c0: 5fdf 7f3f a705 803f 4b12 803f 21f6 7f3f
000003d0: a106 803f 65ef 7f3f 3e0e 803f 7101 803f
000003e0: 000f 803f 43ce 7f3f bbfe 7f3f 230a 803f
000003f0: 37e8 7f3f e4cb 7f3f b607 803f a0ed 7f3f

clf_net.1.bias f4 [256]
-0.00033285553 -0.0004358852 -0.00038637943 -0.0002783969 0.00018397732 6.782205e-05 -0.000105148676 -0.00061281543
-0.0016529895 -6.829433e-05 -0.00046845106 0.000110041874 -0.00029391292 0.0001690186 7.196199e-06 -8.0906386e-05
0.00045328558 -0.00097046903 -0.00040126272 -5.47914e-05 0.0014202044 0.00039396813 0.00033653452 -0.0007362365
0.0014266537 -0.00020310853 0.00047306556 6.54835e-05 -0.0004499684 0.00055074354 -0.0018393009 0.00025160238
0.0007744227 0.0002565159 0.00043102624 -0.00072943757 -0.00014800082 -0.00056869106 0.00065247656 0.00021881833
-1.0895485e-05 -0.00016738485 0.0007169776 1.5162995e-05 0.00029454636 0.00061631476 -0.0010826456 -0.00013272018
7.2723415e-05 -0.0003647031 -0.0009255509 0.000724632 -0.0012658375 -0.00088126067 -0.0005864076 0.0005274542
-0.00030809004 -0.0009250183 0.00038165427 -0.0006150966 -0.00067579065 0.00029707313 7.534628e-05 -0.00013900801
7.430117e-05 -0.000508679 0.00030611036 0.00046939016 0.0011179699 0.00088123995 -0.00043559584 -0.0007999099
0.0008930311 0.00015043558 -0.0012866528 -0.00036644057 -2.7741804e-05 -0.0005031552 -0.0002256314 0.0002761017
0.0010811352 -0.00025321334 0.00020890226 -0.00024225053 -0.0007855824 0.00023281385 -0.0003592629 0.00039444465
-0.00037096645 0.00041373877 0.0010103507 -0.00022875583 -5.7796882e-05 0.0002581852 0.0004162249 -0.0009446928
-0.0005193342 -0.00080693234 -0.00047364706 -0.0010861934 0.0001221514 -0.000648953 -0.00024528377 2.4449631e-05
0.0009573536 -0.00017019725 -0.0004186769 0.00014724364 0.0004680113 -0.0005233209 -0.00035200242 -5.1713367e-05
0.0012928587 -0.0008752298 -0.00038769975 -0.0010819527 -0.0007473385 0.00084583 -0.00083167217 0.0003970934
-0.0009495033 -1.0086784e-05 -4.247088e-05 -0.00031904303 0.0014768242 -3.6872905e-05 0.0013406131 0.0003215655
-0.00024307979 9.208012e-05 0.00035700737 0.00046569895 -0.0002810855 9.532847e-05 0.0003597782 0.0006139415
0.00062369776 0.00028008892 -0.000116134535 -0.0006511412 -0.00032226017 -0.00046398444 0.00040561703 -0.00025360714
0.0005289826 -0.00029869846 0.0009840464 -0.00043177672 -0.00041463072 -0.00035220842 -0.0003138139 0.00040453693
-0.0008030599 -0.00042852215 -0.0002579422 0.00032023338 0.00018378382 -0.00011773799 0.0012762336 -0.00035076236
0.00015910511 2.5099398e-05 -8.172613e-05 0.00021415485 -0.000102431106 -0.00020381015 -8.925188e-05 0.0007794802
-0.00037056528 0.00012299302 0.0005612991 0.0007292115 2.7727847e-06 -0.00015768202 -0.00062684383 -0.00039102524
2.1936294e-06 0.00017167504 0.0011698775 -0.00021898767 0.00019412959 -0.0004588108 0.000288987 0.00052579667
-5.607855e-05 0.00094445515 -0.00025013887 0.00014146026 0.0006945589 -0.0005944097 0.00073660124 0.00039012192
-0.0002746565 0.00032949634 9.402756e-05 0.00054134725 0.0011670527 -0.0006780826 -0.001247925 0.00047354645
-0.0008218455 -0.00029721545 0.0014632093 3.3205017e-06 -0.0002683805 -0.00037757913 0.0005614702 -0.00033526035
-0.0013723833 7.0238275e-05 0.0005021389 0.00029783833 -9.956553e-05 0.00030685458 0.00026247703 0.00030575704
-0.0006211724 0.00019689146 0.00019448697 -0.00067197625 -0.00063150685 0.00011606204 0.0008878075 -0.00061442057
-0.0005427947 -0.00024702164 -8.1951956e-05 0.0010710866 -0.00021091662 0.00085888116 -0.00029520126 0.0001828935
0.0024112568 -0.0007531261 0.000511802 0.00015866084 0.0005374506 0.0007462349 -0.00031809125 3.5850633e-05
-0.000648577 -0.0001559763 0.00020322269 -0.0003239216 6.541335e-05 -0.00025554313 0.00013998283 -0.0010355322
-0.00064273376 -4.9731847e-05 6.394205e-05 -0.00043404335 -0.00036960488 -0.0015294768 0.00010410022 3.3242263e-06
00000000: 1d83 aeb9 8587 e4b9 f892 cab9 cdf5 91b9
00000010: 09ea 4039 b03b 8e38 4483 dcb8 59a5 20ba
00000020: 20a9 d8ba 3d39 8fb8 709a f5b9 48c6 e638
00000030: 5318 9ab9 963a 3139 e176 f136 49ac a9b8
00000040: f6a6 ed39 1367 7eba 9260 d2b9 d1cf 65b8
00000050: 2726 ba3a 828d ce39 e670 b039 ffff 40ba
00000060: 8efe ba3a 88f9 54b9 c905 f839 3054 8938
00000070: bce9 ebb9 c65f 103a b214 f1ba 80e9 8339
00000080: a102 4b3a fb7c 8639 5dfb e139 ba37 3fba
00000090: ab30 1bb9 3614 15ba f60a 2b3a 9972 6539
000000a0: c0cb 36b7 0784 2fb9 8df3 3b3a 9164 7e37
000000b0: 586d 9a39 2f90 213a 8fe7 8dba cd2a 0bb9
000000c0: 1683 9838 9f35 bfb9 aba0 72ba 3bf5 3d3a
000000d0: 75ea a5ba 6704 67ba 26b9 19ba da44 0a3a
000000e0: 2587 a1b9 ed7c 72ba c518 c839 6f3e 21ba
000000f0: 8b27 31ba 7bc0 9b39 3a03 9e38 aec2 11b9
00000100: 23d2 9b38 df58 05ba 707d a039 7b18 f639
00000110: d888 923a 0303 673a af60 e4b9 0bb1 51ba
00000120: 4d1a 6a3a 3ebe 1d39 e7a4 a8ba d21e c0b9
00000130: 12b7 e8b7 2de6 03ba 7897 6cb9 bec1 9039
00000140: e1b4 8d3a b8c1 84b9 c60c 5b39 a204 7eb9
00000150: 8bef 4dba 7e1f 7439 735b bcb9 77cd ce39
00000160: 467e c2b9 14eb d839 be6d 843a 2dde 6fb9
00000170: ee6a 72b8 085d 8739 c338 da39 43a5 77ba
00000180: ee23 08ba 5088 53ba d553 f8b9 9a5e 8eba
00000190: c415 0039 801e 2aba 6e99 80b9 2f19 cd37
000001a0: eaf6 7a3a fa76 32b9 dd81 dbb9 6a65 1a39
000001b0: 6a5f f539 792f 09ba f78c b8b9 cee6 58b8
000001c0: 2475 a93a ad6f 65ba 2e44 cbb9 4fd0 8dba
000001d0: 0ae9 43ba b1ba 5d3a 9304 5aba f930 d039
000001e0: 16e8 78ba 683a 29b7 c322 32b8 3b45 a7b9
000001f0: ff91 c13a fba7 1ab8 83b7 af3a ca97 a839
00000200: 3ce3 7eb9 231b c138 b82c bb39 0e29 f439
00000210: a85e 93b9 15eb c738 9da0 bc39 ebf0 203a
00000220: a67f 233a e6d8 9239 418d f3b8 59b1 2aba
00000230: 07f5 a8b9 f042 f3b9 ffa8 d439 93f6 84b9
00000240: 6cab 0a3a a19a 9cb9 1efb 803a 1760 e2b9
00000250: cb62 d9b9 9da8 b8b9 6487 a4b9 0718 d439
00000260: 7084 52ba 45ab e0b9 6b3c 87b9 ffe4 a739
00000270: 18b6 4039 1aea f6b8 4b47 a73a 87e6 b7b9
00000280: 74d5 2639 8c8c d237 6264 abb8 c18e 6039
00000290: 48d0 d6b8 dfb5 55b9 bd2c bbb8 0856 4c3a
000002a0: 6e48 c2b9 b0f7 0039 2524 133a 8e28 3f3a
000002b0: 1414 3a36 7257 25b9 c752 24ba 8502 cdb9
000002c0: 4436 1336 ab03 3439 9356 993a 0ea0 65b9
000002d0: 448f 4b39 8b8c f0b9 2e83 9739 9ed5 093a
000002e0: e235 6bb8 5095 773a 1225 83b9 f354 1439
000002f0: 0f13 363a 29d2 1bba 7918 413a 4789 cc39
00000300: c5ff 8fb9 40c0 ac39 a930 c538 33e9 0d3a
00000310: caf7 983a 5ac1 31ba 6a91 a3ba 5446 f839
00000320: 1e71 57ba 95d3 9bb9 28c9 bf3a c9d5 5e36
00000330: 6cb5 8cb9 d0f5 c5b9 a12f 133a e2c5 afb9
00000340: 8be1 b3ba e34c 9338 f9a1 033a 2f27 9c39
00000350: d6cd d0b8 53e1 a039 129d 8939 044e a039
00000360: 2dd6 22ba a674 4e39 33ef 4b39 9027 30ba
00000370: b58b 25ba 5566 f338 c1bb 683a 1111 21ba
00000380: 564a 0eba af82 81b9 9fdd abb8 b463 8c3a
00000390: 8029 5db9 8a26 613a 3ec5 9ab9 1ac7 3f39
000003a0: 2d06 1e3b 706d 45ba 732a 063a 325e 2639
000003b0: b3e3 0c3a fa9e 433a 7cc5 a6b9 535e 1638
000003c0: 4405 2aba 928d 23b9 2d18 5539 05d4 a9b9
000003d0: 862e 8938 6bfa 85b9 5bc8 1239 b2ba 87ba
000003e0: 227d 28ba 2a97 50b8 a018 8638 5090 e3b9
000003f0: 87c7 c1b9 ba78 c8ba 6150 da38 c615 5f36

clf_net.1.running_mean f4 [256]
-0.288896 -0.35781962 -0.2699749 0.2770912 0.4543965 0.3704255 0.07886866 -0.2754525
0.26943392 0.29982615 0.31264925 0.6550697 0.21774508 0.17772178 -0.5949159 0.36934638
-0.7000992 0.45052093 0.60824573 -0.27246898 0.45645347 0.15330395 0.29220498 0.47678548
-0.12133856 -0.51623416 -0.63376915 0.19644266 0.22862679 -0.25599244 0.5051366 0.5591212
0.382505 -0.70487934 -0.09597217 0.473949 -0.09962743 0.13430475 -0.30316103 0.117318615
0.31118527 -0.60845524 0.7298932 0.5152829 0.70385885 0.028537853 -0.0459281 0.061885618
-0.24099264 0.6923248 -0.1504254 0.4802712 -0.20029953 -0.7238315 0.08745556 -0.27654138
0.70061153 0.09476113 -0.33888102 -0.0019086973 -0.6994922 0.9018633 0.51854044 0.4053686
-0.24338466 -0.51607734 -0.4476323 0.447824 0.3723539 -0.57834435 -0.2988749 -0.008115854
0.6877519 0.31574953 0.12913425 0.27749932 -0.20855653 -0.68054646 0.13061927 0.001890658
-0.164753 -0.2588967 -0.039524876 -0.9129966 -0.3314873 -0.5972623 0.24954008 0.51097393
-0.72565526 0.69081676 -0.59123665 0.767324 -0.35447752 0.4791495 -0.43937847 0.28320873
0.20991252 0.5392504 -0.15733185 0.14636739 -0.16046746 0.10540583 -0.6267279 -0.34103116
-0.5820817 0.6003998 0.24045132 -0.7822075 0.21784465 -0.7025103 0.35139814 -0.58364594
-0.1294948 0.21024798 0.04513814 0.050427802 -0.32311815 -0.32384327 0.7091626 0.41187578
0.57515174 -0.0072028646 0.8854259 0.070747204 0.22243266 -0.36465552 0.6563323 -0.15657562
0.5541203 0.34899026 -0.3018552 0.7660253 0.47836632 0.8501799 0.0686355 0.32555518
0.7713081 -0.746116 0.3941241 0.40493536 -0.6088941 -0.2100932 0.6739799 -0.4024942
0.89700997 0.62692803 -0.4481352 0.14569293 -0.4619603 0.25174007 0.066696145 0.72354835
0.36662602 -0.19791082 0.92506886 -0.31464764 0.59823984 0.16959356 -0.6028051 0.06041521
-0.24087565 0.6053726 0.060618542 -0.059207436 -0.14729731 0.3341956 -0.2859259 0.68422884
-0.3848708 0.7892771 0.4469435 -0.9039472 -0.6000219 -0.34039944 -0.22301674 -0.31541243
0.10505286 0.8916365 0.07668109 -0.26061407 -0.3569456 -0.05179677 0.24917562 -0.5256645
0.046276115 -0.79799163 -0.74548227 0.6302784 -0.14689012 -0.6876667 -0.018743485 0.96802676
0.89541173 0.28746778 0.4611204 -0.10223842 -0.23147798 -0.1558494 0.21532117 0.70609885
-0.12961899 0.39839342 -0.08595227 0.9619189 0.12765281 -0.020928835 -0.8041277 -0.5393411
0.39790204 0.17241433 0.3728519 0.8471245 -0.68834424 0.2636651 0.06588839 -0.6067301
0.04422059 -0.39914432 -0.21485095 0.40992478 -0.28486592 0.47471663 0.004021389 0.5110275
0.47359326 0.58695966 -0.025264738 0.40493694 -0.053192303 0.7870492 -0.061068162 0.6410021
-0.7338949 0.7953572 -0.6096144 -0.8526509 0.2040682 -0.74527305 -0.48393038 0.34180328
0.15542375 -0.46258318 -0.111327365 0.6121421 0.6963565 0.115667194 0.43484536 0.66137385
0.556813 0.45255688 0.64279026 0.2466882 -0.044397477 0.20689917 -0.36955687 -0.57211506
00000000: 2dea 93be 2234 b7be 263a 8abe e6de 8d3e
00000010: a8a6 e83e 69a8 bd3e e485 a13d 1c08 8dbe
00000020: 3ef3 893e d082 993e 9013 a03e a6b2 273f
00000030: 91f8 5e3e b3fc 353e 694c 18bf f81a bd3e
00000040: b339 33bf aeaa e63e feb5 1b3f 0e81 8bbe
00000050: 45b4 e93e b6fb 1c3e e49b 953e 3a1d f43e
00000060: 5a80 f8bd ec27 04bf b23e 22bf 4428 493e
00000070: 241d 6a3e 7111 83be a250 013f 9122 0f3f
00000080: b2d7 c33e f972 34bf 0f8d c4bd 71a9 f23e
00000090: 7709 ccbd 2f87 093e ec37 9bbe be44 f03d
000000a0: ad53 9f3e b9c3 1bbf 48da 3a3f 95e9 033f
000000b0: 1830 343f 37c8 e93c 1a1f 3cbd c67b 7d3d
000000c0: c6c6 76be 333c 313f 1e09 1abe 1be6 f53e
000000d0: 521b 4dbe 054d 39bf e71b b33d d596 8dbe
000000e0: 475b 333f 2012 c23d d081 adbe 412d faba
000000f0: ec11 33bf 83e0 663f 11bf 043f 798c cf3e
00000100: d439 79be a51d 04bf 1030 e5be 3049 e53e
00000110: 2ca5 be3e 600e 14bf 2206 99be 5cf8 04bc
00000120: 8210 303f eca9 a13e c53b 043e 6414 8e3e
00000130: d88f 55be 4b38 2ebf 0fc1 053e f5cf f73a
00000140: 03b5 28be 1c8e 84be d6e4 21bd 25ba 69bf
00000150: b4b8 a9be 2fe6 18bf 6f87 7f3e 30cf 023f
00000160: 8bc4 39bf 5ed9 303f 495b 17bf 586f 443f
00000170: 147e b5be 1553 f53e 37f6 e0be bc00 913e
00000180: 4ff3 563e 500c 0a3f 9a1b 21be 55e1 153e
00000190: 9551 24be 03df d73d 3d71 20bf a39b aebe
000001a0: 4e03 15bf cdb3 193f df38 763e c03e 48bf
000001b0: ab12 5f3e b7d7 33bf 75ea b33e d269 15bf
000001c0: 499a 04be 3f4b 573e c5e2 383d 628d 4e3d
000001d0: be6f a5be c9ce a5be ae8b 353f 62e1 d23e
000001e0: 253d 133f 0206 ecbb 46ab 623f e9e3 903d
000001f0: 63c5 633e 21b4 babe 6505 283f 5c55 20be
00000200: d4da 0d3f daae b23e c48c 9abe 3c1a 443f
00000210: 6eec f43e 64a5 593f c590 8c3d 2baf a63e
00000220: 7374 453f 7501 3fbf a2ca c93e b053 cf3e
00000230: 7ce0 1bbf ac22 57be f289 2c3f b813 cebe
00000240: 72a2 653f 5b7e 203f fa71 e5be 8730 153e
00000250: 0f86 ecbe 13e4 803e fd97 883d 773a 393f
00000260: 68b6 bb3e 22a9 4abe 50d1 6c3f 7f19 a1be
00000270: 3f26 193f efa9 2d3e 6f51 1abf f075 773d
00000280: 1ba8 76be b3f9 1a3f 264b 783d 7f83 72bd
00000290: 1bd5 16be b01b ab3e e164 92be 9f29 2f3f
000002a0: c90d c5be 100e 4a3f c7d5 e43e 1569 67bf
000002b0: 099b 19bf d648 aebe 805e 64be bd7d a1be
000002c0: f425 d73d 4a42 643f fa0a 9d3d 356f 85be
000002d0: 93c1 b6be da28 54bd e527 7f3e f391 06bf
000002e0: 068c 3d3d 2e49 4cbf edd7 3ebf ed59 213f
000002f0: 5d6a 16be ed0a 30bf f08b 99bc 9ad0 773f
00000300: b439 653f fa2e 933e f917 ec3e 6062 d1bd
00000310: 9008 6dbe fc96 1fbe 277d 5c3e e5c2 343f
00000320: d7ba 04be 39fa cb3e be07 b0bd 5140 763f
00000330: 6bb7 023e f372 abbc 50db 4dbf 4212 0abf
00000340: d1b9 cb3e 628d 303e 72e6 be3e 27dd 583f
00000350: 5437 30bf 1dff 863e 7ef0 863d aa52 1bbf
00000360: a620 353d a55c ccbe e301 5cbe a9e1 d13e
00000370: f2d9 91be 0f0e f33e dbc5 833b b3d2 023f
00000380: d17a f23e fd42 163f fff7 cebc e553 cf3e
00000390: 2ce0 59bd 0e7c 493f 9c22 7abd b718 243f
000003a0: 89e0 3bbf 889c 4b3f b00f 1cbf 5447 5abf
000003b0: 41f7 503e 37ca 3ebf b9c5 f7be d700 af3e
000003c0: 6727 1f3e b4d7 ecbe 9aff e3bd 58b5 1c3f
000003d0: 6b44 323f ece2 ec3d 0da4 de3e cc4f 293f
000003e0: 4c8b 0e3f 89b5 e73e e78d 243f d59b 7c3e
000003f0: 21da 35bd 60dd 533e 8f36 bdbe 2276 12bf

clf_net.1.running_var f4 [256]
0.0068553085 0.040916827 0.0033673944 0.037304375 0.029948277 0.01562013 0.049465053 0.014447625
0.03897257 0.029636448 0.04877447 0.013043514 0.061955642 0.018271534 0.01243794 0.019847581
0.011151092 0.050948426 0.00029118246 0.016378883 0.072780624 0.009261674 0.12497572 0.08051993
0.040438972 0.012739108 0.042828213 0.08033974 0.09612288 0.01001199 0.10956221 0.060097184
0.03120184 0.065341994 0.0045460896 0.06751103 0.08173606 0.0010436156 0.039529443 0.021003498
0.022013463 0.034098152 0.08900196 0.11216086 0.033441603 0.104032375 0.044662338 0.012442114
0.010494602 0.007457073 0.06016538 0.02771412 0.04731958 0.042863354 0.002250126 0.0039826063
0.113603555 0.02471499 0.09549347 0.019268537 0.016693424 0.031459644 0.102092385 0.10222078
0.014947658 0.041925468 0.0049313516 0.10905577 0.05606466 0.029066248 0.023394857 0.04140177
0.044872325 0.039140686 0.047064092 0.024733802 0.025146686 0.088347815 0.10212355 0.037714366
0.06757862 0.11330451 0.048217315 0.016492382 0.08222339 0.03551592 0.023894407 0.042264752
0.051347967 0.007066583 0.054910537 0.032232028 0.019654628 0.0025082189 0.11185209 0.09751388
0.012832067 0.0063966624 0.027738519 0.03501384 0.10222659 0.06640353 0.045774665 0.03174813
0.057087447 0.016502693 0.054220323 0.12089574 0.05762103 0.08268683 0.04478277 0.027902987
0.090042494 0.043074466 0.10831072 0.06948402 0.022448465 0.04471641 0.03815272 0.0063630464
0.06213763 0.104259714 0.015607159 0.030373612 0.03781276 0.032202728 0.0661229 0.015913758
0.059406027 0.054263532 0.07977495 0.07177361 0.015958095 0.0143104475 0.06298329 0.028070401
0.13474603 0.044449806 0.045717195 0.0076531097 0.0005880885 0.0016204233 0.006294453 0.060684778
0.0122087365 0.022164995 0.03891006 0.01323883 0.0057382844 0.0026355414 0.013593513 0.1408788
0.020614887 0.085219 0.015558785 0.04200562 0.031995825 0.031952564 0.09275172 0.04952779
0.06924547 0.039134394 0.03772344 0.106858276 0.064235635 0.012876109 0.004919768 0.033739686
0.013834495 0.09596103 0.06318873 0.03386017 0.026645705 0.097099796 0.03843859 0.04193415
0.009146834 0.042232554 0.054712724 0.04969403 0.06386657 0.005558881 0.034101367 0.025545944
0.036813933 0.05110246 0.008004235 0.010075394 0.056226883 0.10279974 0.04152017 0.04617825
0.07544184 0.017095134 0.062505625 0.019437253 0.043194763 0.057529237 0.046180867 0.01720194
0.021692062 0.07469164 0.017320158 0.029026944 0.007689168 0.08708099 0.09881308 0.005517783
0.059368055 0.10956465 0.06360479 0.021438573 0.0020261903 0.0153160915 0.003625161 0.03288536
0.0059351195 0.013162905 0.0024360502 0.110642344 0.10648444 0.099972144 0.00676289 0.01243406
0.118419714 0.004281483 0.027403846 0.018112391 0.028020918 0.02153486 0.032735907 0.113076665
0.040711187 0.0151636405 0.05277272 0.06161472 0.009308653 0.007041313 0.032618526 0.014722707
0.02061605 0.032596346 0.09932093 0.03814808 0.029507933 0.10152056 0.02995942 0.021582551
0.09484044 0.027185805 0.011802254 0.029296735 0.0047376254 0.051843897 0.00079916033 0.0018176823
00000000: 7fa2 e03b 6798 273d 81af 5c3b 79cc 183d
00000010: 1756 f53c 93eb 7f3c de9b 4a3d bbb5 6c3c
00000020: b4a1 1f3d 23c8 f23c bdc7 473d 77b4 553c
00000030: 33c5 7d3d 2fae 953c 80c8 4b3c 6597 a23c
00000040: 12b3 363c 4caf 503d d9a9 9839 022d 863c
00000050: 020e 953d 47be 173c 45f3 ff3d a2e7 a43d
00000060: 56a3 253d b1b7 503c a36c 2f3d 2989 a43d
00000070: 13dc c43d 5409 243c 2762 e03d 7728 763d
00000080: 009b ff3c 06d2 853d 5df7 943b 3943 8a3d
00000090: 3c65 a73d eec9 883a a0e9 213d 870f ac3c
000000a0: 9455 b43c 81aa 0b3d a946 b63d 98b4 e53d
000000b0: 10fa 083d ed0e d53d dbef 363d 02da 4b3c
000000c0: 8df1 2b3c 765a f43b f96f 763d b908 e33c
000000d0: 2dd2 413d 7c91 2f3d da76 133b 8680 823b
000000e0: fba8 e83d 1777 ca3c 1592 c33d 0dd9 9d3c
000000f0: a6c0 883c d4db 003d d015 d13d 2159 d13d
00000100: 06e7 743c 0aba 2b3d 2d97 a13b a258 df3d
00000110: 0fa4 653d 571c ee3c 92a6 bf3c e794 293d
00000120: 0bcc 373d fc51 203d 47c6 403d 8b9e ca3c
00000130: 6c00 ce3c b3ef b43d 2726 d13d 617a 1a3d
00000140: a966 8a3d 320c e83d 857f 453d 081b 873c
00000150: bd64 a83d 2479 113d 34be c33c ce1d 2d3d
00000160: 3f52 523d cb8e e73b dfe9 603d bb05 043d
00000170: be02 a13c ee60 243b b512 e53d 5bb5 c73d
00000180: 973d 523c 189b d13b e43b e33c ac6a 0f3d
00000190: 2d5c d13d 93fe 873d 377e 3b3d 540a 023d
000001a0: 87d4 693d a830 873c 2116 5e3d 3098 f73d
000001b0: 0704 6c3d b657 a93d 236e 373d ce94 e43c
000001c0: 3368 b83d da6e 303d 03d2 dd3d a34d 8e3d
000001d0: d8e5 b73c 8e28 373d 0746 1c3d 1a81 d03b
000001e0: 0784 7e3d 1e86 d53d 2bb5 7f3c 15d2 f83c
000001f0: 8de1 1a3d 02e7 033d 716b 873d 925d 823c
00000200: bc53 733d 7043 5e3d 0d61 a33d 0bfe 923d
00000210: 8dba 823c 5e76 6a3c 62fd 803d e6f3 e53c
00000220: ddfa 093e 0011 363d f441 3b3d f0c6 fa3b
00000230: f329 1a3a 6264 d43a b341 ce3b 9a90 783d
00000240: 2707 483c 5d93 b53c 2860 1f3d ade7 583c
00000250: 3808 bc3b 0cb9 2c3b 53b7 5e3c 8842 103e
00000260: 8de0 a83c 4d87 ae3d 46ea 7e3c 160e 2c3d
00000270: 0e0e 033d b1e0 023d 9df4 bd3d a7dd 4a3d
00000280: 92d0 8d3d 634b 203d e583 1a3d 83d8 da3d
00000290: f98d 833d 51f6 523c 0136 a13b a032 0a3d
000002a0: 14aa 623c 3787 c43d 1869 813d f6b0 0a3d
000002b0: 1848 da3c 42dc c63d c871 1d3d 25c3 2b3d
000002c0: 9adc 153c 0bfc 2c3d 731a 603d f88b 4b3d
000002d0: 7acc 823d 4627 b63b e0ad 0b3d ba45 d13c
000002e0: 35ca 163d d050 513d 3224 033c 4413 253c
000002f0: 294e 663d ac88 d23d 0e11 2a3d 6825 3d3d
00000300: 4081 9a3d 180b 8c3c f302 803d e03a 9f3c
00000310: feec 303d c7a3 6b3d 2628 3d3d 15eb 8c3c
00000320: 8db3 b13c eef7 983d 01e3 8d3c eac9 ed3c
00000330: 6bf5 fb3b 8557 b23d 835e ca3d 85ce b43b
00000340: eb2b 733d 6e63 e03d 3a43 823d f29f af3c
00000350: d5c9 043b 58f0 7a3c 1c94 6d3b cdb2 063d
00000360: 647b c23b 3aa9 573c 24a6 1f3b 7498 e23d
00000370: 8414 da3d 32be cc3d 3c9b dd3b 3ab8 4b3c
00000380: 0986 f23d af4b 8c3b 087e e03c 7060 943c
00000390: 208c e53c e069 b03c 1616 063d bd94 e73d
000003a0: c6c0 263d eb70 783c 3528 583d b75f 7c3d
000003b0: 5283 183c d1ba e63b 019b 053d 8237 713c
000003c0: fee2 a83c bf83 053d c668 cb3d 2941 1c3d
000003d0: 9fba f13c 03ea cf3d 756d f53c e4cd b03c
000003e0: b43b c23d c4b4 de3c 3e5e 413c b5ff ef3c
000003f0: 153e 9b3b 445a 543d be7e 513a 4c3f ee3a

clf_net.3.weight f4 [256, 256]
-0.036190197 0.015601472 -0.015436012 -0.008407349 -0.034476656 -0.036830775 0.05861986 0.01590478
0.029736804 -0.018597538 0.0039607054 -0.05463947 -0.039817847 0.059853632 -0.012099064 -0.057429425
-0.048970155 -0.03830106 0.011294189 0.036363497 0.031760663 0.025938626 -0.03779 -0.058244
-0.037177183 0.04627556 -0.011346033 -0.05893637 -0.0048503596 -0.061015155 -0.022748875 -0.035506688
0.04583804 0.046684187 0.030483227 0.026034944 -0.015341724 0.013657124 0.019804034 -0.034731057
0.03474138 0.0021752878 0.008768532 -0.048923995 0.024302604 -0.029129721 0.01980843 -0.016004235
-0.056450304 0.051140964 0.060937315 -0.0380474 0.0329086 -0.009424621 0.061299264 -0.011941395
-0.055447284 0.027298307 -0.036687147 -0.0034139485 0.053775974 -0.0571804 -0.05122945 0.027843786
0.032917872 0.056836512 0.05799887 0.033416875 -0.013857578 0.04536375 -0.00041492967 0.021089407
0.050844986 0.011212955 0.037579708 0.010666371 0.037302822 0.024186628 -0.025744023 0.05725753
0.025022516 -0.030442793 0.033110224 0.018359987 0.059583154 -0.016636632 -0.05706979 0.051520873
0.028535081 0.051181972 0.029447323 -0.0058513563 0.000104634935 0.00052321586 -0.01161276 0.012013795
0.056467403 -0.011885996 -0.053964976 0.05461323 0.033924907 0.019162253 0.05043041 0.029768761
-0.029473275 0.007928668 0.049667552 0.024726424 0.03712057 0.011994173 -0.03524216 -0.008467781
-0.020195698 0.059548642 0.027933192 -0.019666415 -0.024017353 -0.008177194 0.034934726 -0.010923879
-0.00057886774 0.021463526 0.0027434302 0.0010883067 -0.009923076 0.01269083 0.04685327 0.005113021
-0.051491078 0.04064114 -0.026537055 -0.010961261 -0.05732007 -0.028751899 0.010526213 0.030563101
-0.046675812 -0.0045969267 0.05045639 -0.057907976 0.023443185 0.003335509 0.05354344 -0.059806023
0.047059074 -0.0449341 -0.05059661 -0.019688489 -0.0039023813 -0.023062505 0.00031417306 -0.0057889707
0.015368986 0.03732776 0.036338586 -0.017465087 0.041618954 0.017312847 -0.025710128 0.03693159
-0.03599828 0.013064711 -0.015303631 -0.04910195 -0.00035207355 0.008372996 -0.04140281 -0.056293875
0.04175054 -0.058795385 -0.011737551 0.047885858 0.023124337 0.03445769 0.041251455 -0.010605734
-0.0015505941 0.031060321 0.02419837 0.0102999685 0.05142621 0.028202565 -0.05120398 -0.053707205
-0.019609058 -0.054346617 0.014632384 0.01686144 -0.0129860025 -0.015018212 0.012716924 -0.033305977
0.013603788 0.023307182 0.05395539 0.02755851 -0.05804378 -0.033318304 -0.011972851 -0.03792826
0.024239773 0.00899298 0.032441683 -0.04634733 -0.012245622 -0.04534784 -0.03281066 0.01534187
1.7883261e-06 -0.028249133 0.023290254 0.01489374 -0.06053946 -0.03299279 -0.051921893 0.0019999538
-0.05935841 -0.043837447 -0.012150064 0.0125656985 0.013186236 0.062288832 0.042493608 -0.012573254
-0.039804503 -0.0070758513 0.03769666 -0.051339645 0.0081121 -0.041648824 -0.042055212 -0.051066503
0.054794934 -0.032923337 0.0046596946 -0.0151781775 -0.056500487 0.02865753 -0.0138094425 0.048260927
0.05522058 0.040415455 -0.012262601 -0.0323345 -0.054533888 0.037881583 0.044974897 0.05865621
0.041558724 0.03801302 -0.04973282 0.012606636 0.028358363 -0.009957674 0.060424164 0.05721211
00000000: 2c3c 14bd 519d 7f3c 54e7 7cbc fabe 09bc
00000010: 6537 0dbd dedb 16bd 611b 703d be4a 823c
00000020: 999a f33c dd59 98bc cec8 813b a3cd 5fbd
00000030: 0a18 23bd 1529 753d 273b 46bc 1e3b 6bbd
00000040: ee94 48bd 93e1 1cbd 430b 393c e4f1 143d
00000050: 7817 023d 3e7d d43c b0c9 1abd 4391 6ebd
00000060: 1a47 18bd 718b 3d3d b6e4 39bc 4367 71bd
00000070: c4ef 9ebb 07eb 79bd d95b babc 766f 11bd
00000080: abc0 3b3d eb37 3f3d f6b7 f93c 3c47 d53c
00000090: db5b 7bbc 21c2 5f3c 123c a23c 2742 0ebd
000000a0: fa4c 0e3d 468f 0e3b e4a9 0f3c 8764 48bd
000000b0: 4116 c73c 74a1 eebc 4a45 a23c 501b 83bc
000000c0: 6f38 67bd 3079 513d 6899 793d 97d7 1bbd
000000d0: 2bcb 063d ba69 1abc f014 7b3d d7a5 43bc
000000e0: b11c 63bd b3a0 df3c 4345 16bd 8dbc 5fbb
000000f0: 3244 5c3d ff35 6abd f9d5 51bd a718 e43c
00000100: e4d4 063d 67cd 683d 3990 6d3d 22e0 083d
00000110: e50a 63bc 57cf 393d eb8a d9b9 b1c3 ac3c
00000120: d542 503d 8bb6 373c 2eed 193d 01c2 2e3c
00000130: d8ca 183d 0923 c63c 21e5 d2bc df86 6a3d
00000140: 05fc cc3c 2a63 f9bc 969e 073d af67 963c
00000150: 770d 743d 8c49 88bc 03c2 69bd 8d07 533d
00000160: 67c2 e93c 30a4 513d 833b f13c bcbc bfbb
00000170: 746f db38 6c28 093a 7243 3ebc 82d5 443c
00000180: 5d4a 673d 7bbd 42bc 610a 5dbd 1fb2 5f3d
00000190: d8f4 0a3d 28fa 9c3c 1e90 4e3d 9edd f33c
000001a0: f071 f1bc 3ee7 013c 3470 4b3d 128f ca3c
000001b0: bd0b 183d 3583 443c 155a 10bd 73bc 0abc
000001c0: 7371 a5bc 47e9 733d 26d4 e43c 761b a1bc
000001d0: 0ac0 c4bc a3f9 05bc b717 0f3d 12fa 32bc
000001e0: 28bf 17ba 47d4 af3c 1fcb 333b 83a5 8e3a
000001f0: 6694 22bc 33ed 4f3c 37e9 3f3d 218b a73b
00000200: 4fe8 52bd 5377 263d 3d64 d9bc dc96 33bc
00000210: 73c8 6abd 1a89 ebbc 2376 2c3c 785f fa3c
00000220: 232f 3fbd d1a1 96bb 5cab 4e3d ea30 6dbd
00000230: ec0b c03c 8e98 5a3b 5e50 5b3d 29f7 74bd
00000240: 04c1 403d d20c 38bd 643e 4fbd c149 a1bc
00000250: 18bf 7fbb 94ed bcbc 98b7 a439 68b1 bdbb
00000260: 33ce 7b3c fee4 183d c5d7 143d f112 8fbc
00000270: a378 2a3d acd3 8d3c 0c9e d2bc 9445 173d
00000280: ef72 13bd 5f0d 563c 15bc 7abc 201f 49bd
00000290: 8396 b8b9 e42e 093c fe95 29bd 6894 66bd
000002a0: 9d02 2b3d 6ed3 70bd db4e 40bc f623 443d
000002b0: 406f bd3c 8223 0d3d 49f7 283d acc3 2dbc
000002c0: 4e3d cbba 3772 fe3c a93b c63c 33c1 283c
000002d0: 4aa4 523d 1109 e73c 44bb 51bd 16fc 5bbd
000002e0: 2da3 a0bc 8f9a 5ebd abbc 6f3c 0121 8a3c
000002f0: 3ec3 54bc f20e 76bc a55a 503c d96b 08bd
00000300: 6ce2 5e3c b4ee be3c 5400 5d3d 62c2 e13c
00000310: 51bf 6dbd c678 08bd c729 44bc aa5a 1bbd
00000320: 7d92 c63c 4b57 133c 92e1 043d b3d6 3dbd
00000330: dda1 48bc a8be 39bd 7864 06bd 775c 7b3c
00000340: 6b06 f035 ba6a e7bc 34cb be3c e004 743c
00000350: 3af8 77bd 7323 07bd 0dac 54bd a811 033b
00000360: ce21 73bd e58e 33bd 1011 47bc 5ce0 4d3c
00000370: 150b 583c 9322 7f3d c70d 2e3d 0d00 4ebc
00000380: 0c0a 23bd 8bdc e7bb d067 1a3d 8549 52bd
00000390: 9de8 043c f597 2abd 1642 2cbd 1c2b 51bd
000003a0: a770 603d 9fda 06bd 5ab0 983b e4ad 78bc
000003b0: 0e6d 67bd 32c3 ea3c 0041 62bc 40ad 453d
000003c0: fa2e 623d ad8a 253d 14e9 48bc 2e71 04bd
000003d0: ed5e 5fbd b829 1b3d 9937 383d 7e41 703d
000003e0: 7b39 2a3d 8ab3 1b3d a4b4 4bbd 108c 4e3c
000003f0: cc4f e83c 8325 23bc 547f 773d 3f57 6a3d

clf_net.3.bias f4 [256]
-0.015986994 0.041239463 -0.008411944 0.04972613 0.054119363 0.015687384 0.023579232 0.026609033
0.024549231 -0.019021243 -0.017113492 -0.011853009 -0.046339095 0.04976937 -0.034058817 -0.0138748735
0.0045974553 0.03089621 0.015586428 -0.0030395314 0.0066876262 -0.0018140823 0.013236597 -0.029137991
0.058455095 0.007314123 -0.029051155 0.0017963126 -0.034632184 0.0028597116 -0.03908243 0.059938982
0.01714877 0.013705507 0.03681484 0.033823386 0.006296277 -0.0016020313 0.046918817 -0.046834327
-0.047736995 -0.018441416 0.039008014 0.03998816 0.0366928 -0.02096852 -0.0030852258 -0.035844333
-0.020309485 -0.025087468 -0.034371324 -0.013991445 0.028983109 0.03872882 -0.046588592 0.056338325
-0.0016547889 -0.025901176 -0.009876981 -0.051889047 -0.037656635 -0.056199394 -0.009968676 0.04064367
-0.02517192 0.05494623 -0.028464817 -0.059160747 0.05560986 0.013482936 0.04049824 0.030791879
0.054255776 0.05292245 -0.014166817 -0.051719606 -0.05527409 -0.00766965 0.03898266 -0.0022952184
0.047407813 0.051605515 0.04304049 -0.019900016 -0.011201106 -0.04368964 0.0348389 -0.029376552
0.03942973 -0.003069289 0.0058194697 -0.052970707 -0.04808262 -0.002903983 0.05165431 0.008132167
-0.031358868 -0.06041891 0.034179404 -0.044944495 -0.039550006 0.0039631054 -0.01900687 -0.05750058
-0.04263486 0.05805987 0.048613362 -0.013849229 -0.0074754506 0.032007955 -0.050503135 0.012534976
0.0031215176 -0.006756477 0.04941257 -0.042312227 -0.045793205 -0.02129767 0.051314637 0.060698316
-0.061523274 0.050234042 0.032685995 0.0007491037 0.02303955 0.050402276 -0.042640142 -0.04082089
-0.0051059723 -0.008533165 0.04670514 0.03520102 -0.030279234 -0.043986395 0.056491107 0.04070369
-7.7575445e-05 -0.04832033 -0.036794648 0.04778076 -0.036622852 -0.01025483 -0.050315678 0.013217613
0.034984596 -0.055128746 0.043194085 -0.04180281 -0.05206638 -0.006152369 0.033253163 -0.00844346
0.028395422 0.019366123 -0.0146301165 0.031701975 0.030416004 0.05214674 0.05375492 0.0023838654
0.02561488 0.0101323575 -0.040771067 0.038210437 0.038867377 -0.053935133 0.009191081 -0.03177122
-0.04857505 -0.05785729 -0.04210017 -0.003312327 -0.010209195 0.054355696 0.049242973 -0.032396205
-0.038797885 -0.04732407 0.04866583 0.0021031648 0.048752487 0.0010295957 -0.03249544 -0.01716894
0.018721156 0.03083089 0.046847314 0.00047650188 -0.0409362 -0.009661138 0.050879218 0.029558659
0.023157783 -0.05194799 0.058387578 0.046443596 0.04398442 0.01493147 0.010154776 0.0027330145
-0.04394021 -0.03101302 0.0028237253 -0.027430281 -0.017293938 -0.037977695 -0.024310447 -0.057375602
-0.055008605 -0.0062124655 -0.033412166 -0.057866037 -0.0048910826 -0.05918473 -0.035194203 -0.06177824
-0.037514657 -0.05996462 -0.059177242 -0.00092853606 0.032334335 -0.05936528 -0.034493424 0.048354335
0.00068862736 0.04660663 0.04291241 -0.040753514 0.03632573 0.01778844 -0.0418401 0.048969507
0.031603396 0.0437413 -0.037235186 0.027875759 -0.00036334246 -0.007890783 -0.020366825 0.047013424
0.047865838 0.018871121 0.019783393 -0.045185916 -0.045499444 -0.022950806 0.034468226 0.013204128
0.03096912 -0.06213148 0.05114782 0.03939548 -0.025678925 0.057160668 -0.005741507 0.035397485
00000000: 28f7 82bc b6ea 283d 40d2 09bc a0ad 4b3d
00000010: 44ac 5d3d d482 803c 3c29 c13c 30fb d93c
00000020: 781b c93c 70d2 9bbc 9831 8cbc 2033 42bc
00000030: 10ce 3dbd f8da 4b3d 4281 0bbd 7053 63bc
00000040: 40a6 963b 0c1a fd3c 385e 7f3c e032 47bb
00000050: e023 db3b 80c6 edba 50de 583c ccb2 eebc
00000060: 9c6e 6f3d 50ab ef3b b0fc edbc 4072 eb3a
00000070: 7ada 0dbd 006a 3b3b e614 20bd 9482 753d
00000080: 947b 8c3c 108d 603c 28cb 163d 648a 0a3d
00000090: 0051 ce3b 40fb d1ba f22d 403d 5ad5 3fbd
000000a0: de87 43bd 7412 97bc dec6 1f3d a0ca 233d
000000b0: 304b 163d 2cc6 abbc 8031 4abb 82d1 12bd
000000c0: 1460 a6bc 3c84 cdbc f2c8 0cbd 603c 65bc
000000d0: fc6d ed3c 1ca2 1e3d aed3 3ebd 04c3 663d
000000e0: 80e5 d8ba b42e d4bc 10d3 21bc 9c89 54bd
000000f0: d83d 1abd 5631 66bd a853 23bc fa79 263d
00000100: 5835 cebc 4c0f 613d 0c2f e9bc 8a52 72bd
00000110: 2ac7 633d 88e7 5c3c 7ce1 253d 403f fc3c
00000120: 4e3b 5e3d 36c5 583d f01b 68bc f0d7 53bd
00000130: 1667 62bd b051 fbbb 48ac 1f3d 606b 16bb
00000140: b22e 423d 4e60 533d 3a4b 303d 5c05 a3bc
00000150: d884 37bc e8f3 32bd 3cb3 0e3d 18a7 f0bc
00000160: 1281 213d 2026 49bb 40b1 be3b d0f7 58bd
00000170: 48f2 44bd c050 3ebb 7893 533d c83c 053c
00000180: 2872 00bd d279 77bd b4ff 0b3d b817 38bd
00000190: 30ff 21bd f0dc 813b 4cb4 9bbc ba85 6bbd
000001a0: e4a1 2ebd 30d0 6d3d ce1e 473d e0e7 62bc
000001b0: a0f4 f4bb c61a 033d 60dc 4ebd 805f 4d3c
000001c0: 6092 4c3b 7065 ddbb d664 4a3d 964f 2dbd
000001d0: a891 3bbd 7478 aebc 4c2f 523d cc9e 783d
000001e0: d4ff 7bbd 36c2 4d3d c0e1 053d 805f 443a
000001f0: 70bd bc3c 9e72 4e3d 6ea7 2ebd ce33 27bd
00000200: 0050 a7bb b0ce 0bbc e44d 3f3d f22e 103d
00000210: 280c f8bc 142b 34bd 3863 673d eab8 263d
00000220: 00b0 a2b8 8aeb 45bd fcb5 16bd c2b5 433d
00000230: d801 16bd e003 28bc d017 4ebd b08e 583c
00000240: 024c 0f3d aece 61bd 48ec 303d 6c39 2bbd
00000250: 8e43 55bd d099 c9bb 7834 083d 7056 0abc
00000260: 849d e83c b4a5 9e3c 28b3 6fbc eed9 013d
00000270: fc2a f93c d297 553d 1e2e 5c3d a03a 1c3b
00000280: 4cd6 d13c 3002 263c 90ff 26bd 8c82 1c3d
00000290: 6633 1f3d 16eb 5cbd 3096 163c 8a22 02bd
000002a0: a2f6 46bd c4fb 6cbd 3a71 2cbd a013 59bb
000002b0: 7844 27bc 14a4 5e3d 00b3 493d e2b1 04bd
000002c0: 88ea 1ebd e2d6 41bd d255 473d 40d5 093b
000002d0: b0b0 473d 80f3 863a f019 05bd e0a5 8cbc
000002e0: 1c5d 993c 1091 fc3c f8e2 3f3d 00d3 f939
000002f0: b8ac 27bd c049 1ebc ba66 503d 0025 f23c
00000300: 64b5 bd3c 6ac7 54bd d027 6f3d a43b 3e3d
00000310: 0229 343d 20a3 743c 3860 263c 601c 333b
00000320: a6fa 33bd 040f febc 400e 393b 78b5 e0bc
00000330: 04ac 8dbc 808e 1bbd b426 c7bc ae02 6bbd
00000340: b450 61bd f091 cbbb 32db 08bd f004 6dbd
00000350: 6045 a0bb b06b 72bd cc27 10bd 2e0b 7dbd
00000360: f8a8 19bd 769d 75bd d663 72bd 0069 73ba
00000370: 0271 043d 0229 73bd fa48 0dbd 320f 463d
00000380: 0085 343a 98e6 3e3d ecc4 2f3d 28ed 26bd
00000390: 4aca 143d 10b9 913c 8660 2bbd 4094 483d
000003a0: 9072 013d 142a 333d ec83 18bd b45b e43c
000003b0: 007f beb9 5848 01bc 54d8 a6bc 2691 403d
000003c0: f80e 443d 9c97 9a3c c810 a23c de14 39bd
000003d0: a05d 3abd 5403 bcbc 8e2e 0d3d 2056 583c
000003e0: f4b2 fd3c 947d 7ebd 6080 513d 285d 213d
000003f0: 9c5c d2bc 4e21 6a3d 4023 bcbb f4fc 103d
