EE8591/Project/classification_models/Ripley/DNN/deepnn/training_models/net_4100.pt (torch, 282047 bytes, 14 tensors)

clf_net.0.weight f4 [256, 2]
0	0xbe20d1aa	-0.1570498
1	0x3e7521dc	0.23938698
2	0xbe721221	-0.23639728
3	0xbf31815c	-0.6933801
4	0x3dcf4a2d	0.1012157
5	0xbe47022c	-0.19434422
6	0x3ebc080e	0.36724895
7	0xbf0dab14	-0.5533917
8	0xbe9fabc0	-0.31185722
9	0x3f0ce16a	0.55031455
10	0xbe221463	-0.1582809
11	0x3f056a69	0.52115494
12	0xbe99ebbd	-0.30062667
13	0xbf2f9870	-0.68591976
14	0xbe197f60	-0.14989996
15	0xbeca7b0e	-0.39547008
16	0xbed4c2ab	-0.4155477
17	0x3eb58a0a	0.35456878
18	0xbe9b9191	-0.30384496
19	0xbeb083e4	-0.34475625
20	0x3ef03149	0.46912602
21	0x3c79db20	0.015249997
22	0x3df4e146	0.1195703
23	0x3ed3fb98	0.41402888
24	0xbecd9dff	-0.40159604
25	0xbf1ce65d	-0.61289006
26	0xbe5314f0	-0.20613456
27	0xbeba484a	-0.36383277
28	0xbdbd6c6f	-0.09249198
29	0xbee03f50	-0.43798304
30	0xbcd746c0	-0.026278853
31	0xbf22191d	-0.6331957
32	0xbd49efa3	-0.0493008
33	0xbee8ffa5	-0.4550754
34	0x3ef299b0	0.4738288
35	0xbed577f2	-0.41693074
36	0xbbc16ea6	-0.005903083
37	0xbd9b384a	-0.07579096
38	0x3e2a21df	0.16614483
39	0xbf075d8f	-0.52877134
40	0x3f153915	0.58290225
41	0xbe491a06	-0.19638833
42	0xbd843737	-0.06455844
43	0xbeca8729	-0.39556244
44	0x3f2c0321	0.67192274
45	0x3f06ce4d	0.5265854
46	0xbf1c6507	-0.61091655
47	0x3de35a2c	0.11101183
48	0xbed56e04	-0.41685498
49	0x3ed24e49	0.41075352
50	0x3e36ea7a	0.17862883
51	0xbed51105	-0.41614547
52	0x3ed2b47c	0.41153324
53	0xbf0520e2	-0.520033
54	0x3f02d993	0.5111324
55	0x3f07a0eb	0.52979916
56	0xbf2950f4	-0.6613915
57	0x3c65620e	0.014000429
58	0x3e3d2dba	0.18474475
59	0xbe9bfcae	-0.30466217
60	0x3f2b57bb	0.6693074
61	0x3e9565c3	0.291792
62	0xbefc1c30	-0.49240255
63	0xbe70f961	-0.2353263
64	0x3eb33577	0.35001728
65	0x3e489136	0.19586644
66	0x3efcec0b	0.49398836
67	0xbf33ef47	-0.70286983
68	0xbc0658e9	-0.008199909
69	0xbe9bfdd9	-0.30467108
70	0xbf0e9b7b	-0.55705994
71	0x3eb35868	0.35028386
72	0xbf1b94b5	-0.60773784
73	0xbc6da28d	-0.014504087
74	0x3d868753	0.0656878
75	0x3cd867e7	0.026416732
76	0xbed3f56b	-0.41398177
77	0x3ec9a53e	0.39383882
78	0xbdf4eb24	-0.11958912
79	0x3f2821f1	0.6567679
80	0xbded41e2	-0.11584832
81	0x3f2cf962	0.6756803
82	0xbe394c45	-0.18095501
83	0xbf3020af	-0.6879987
84	0x3f133a72	0.57511055
85	0x3ed13f30	0.4086852
86	0x3f2f1154	0.68385816
87	0x3e81d762	0.25359637
88	0xbeb5ee4f	-0.35533378
89	0x3efd8e03	0.4952241
90	0x3f3210a6	0.69556653
91	0xbe23b0da	-0.15985432
92	0xbed61a26	-0.41816825
93	0x3f0a4774	0.5401528
94	0xbe41b2c3	-0.18915848
95	0x3ec55275	0.38539472
96	0xbd1031c7	-0.03520372
97	0xbee6bedf	-0.45067498
98	0xbd289279	-0.041155312
99	0x3ecd252c	0.40067422
100	0xbf07ad3f	-0.5299873
101	0x3e3db349	0.18525423
102	0x3ea58ff0	0.32336378
103	0x3e5dd939	0.21664895
104	0xbedd817b	-0.43262848
105	0xbe6e209f	-0.23254631
106	0xbecd7a55	-0.40132394
107	0xbe8c0a73	-0.27351722
108	0xbcc3f670	-0.023921221
109	0xbe4e4668	-0.20144045
110	0x3dde8489	0.10865123
111	0xbe5a7f76	-0.21337685
112	0x3f2667b8	0.6500201
113	0x3eebd917	0.46064064
114	0xbe9ef4b4	-0.3104607
115	0xbe380735	-0.179715
116	0x3f25bda9	0.64742523
117	0x3de46f30	0.1115402
118	0xbe590c46	-0.21196088
119	0xbebf359e	-0.37345594
120	0xbe8262e9	-0.25466087
121	0xbe19e953	-0.15030412
122	0xbea26301	-0.3171616
123	0x3f1237d9	0.57116467
124	0xbf211756	-0.6292623
125	0xbebf6ed3	-0.3738924
126	0xbf30d265	-0.69071037
127	0x3e8ee5b6	0.2790963
128	0xbe789da0	-0.24278879
129	0x3e9e0f66	0.30871123
130	0x3ed523b3	0.416288
131	0x3e2aca6f	0.16678785
132	0xbceb680c	-0.028736137
133	0x3ea6ffa3	0.3261691
134	0xbf34f685	-0.7068866
135	0x3d4c7540	0.049916506
136	0xbefe22c4	-0.496359
137	0x3ee28582	0.44242483
138	0x3eaa6dfd	0.3328704
139	0xbee949c7	-0.455641
140	0xbe5d2398	-0.21595609
141	0xbee7a925	-0.45246235
142	0x3ee0fe6c	0.43944108
143	0xbe05e1f8	-0.13074481
144	0xbee8ff9e	-0.4550752
145	0x3e8971b9	0.26844576
146	0x3eb7c68b	0.35893664
147	0x3eb98446	0.3623373
148	0x3eef0fb8	0.4669168
149	0xbda67957	-0.081286125
150	0x3dcd4480	0.10022831
151	0x3f26e4df	0.6519298
152	0xbe22127d	-0.15827365
153	0x3f33a49c	0.7017305
154	0xbf0b9e54	-0.54538465
155	0xbf056cbf	-0.5211906
156	0x3f225524	0.63411164
157	0x3eb2e047	0.34936735
158	0xbe8f8cd7	-0.2803714
159	0xbf0f7095	-0.5603116
160	0x3efc700a	0.4930423
161	0x3ec8820e	0.39161724
162	0x3f15fc95	0.58588535
163	0x3f337ac6	0.7010921
164	0x3ee59776	0.44842118
165	0xbefb981e	-0.49139494
166	0x3e12cafb	0.14335243
167	0xbf0e4272	-0.5557014
168	0xbf1e0c44	-0.61737466
169	0x3eab1376	0.33413285
170	0xbe5e445a	-0.21705762
171	0xbf26d12c	-0.6516292
172	0x3e8d4e1e	0.2759866
173	0x3e9912a3	0.2989703
174	0x3e799854	0.24374515
175	0x3f32e615	0.6988233
176	0xbeb2666c	-0.34843767
177	0xbf1a5c7c	-0.6029737
178	0xbd0bad13	-0.034100603
179	0x3ec7f02b	0.3905042
180	0x3f0166e4	0.50547624
181	0xbe7bfaa1	-0.24607326
182	0xbec528e5	-0.38507763
183	0x3e75495e	0.23953769
184	0x3d444785	0.04791977
185	0x3f1dddba	0.6166645
186	0x3d632906	0.055459045
187	0x3e3523bf	0.17689417
188	0xbf3338c8	-0.70008516
189	0xbe00f700	-0.12594223
190	0x3f18fe3d	0.59762937
191	0x3ee5041d	0.447297
192	0x3e5b7b85	0.21433838
193	0x3e310bc5	0.17289646
194	0xbe2c4864	-0.1682449
195	0x3e14dae0	0.14536619
196	0xbeb10933	-0.3457733
197	0xbdb01efd	-0.085996605
198	0x3ea0c92c	0.31403482
199	0x3ed9ec25	0.42562976
200	0xbf2b9918	-0.6703048
201	0xbde4605a	-0.1115119
202	0x3f0dd44b	0.5540206
203	0xbea339d2	-0.3188005
204	0xbed93b5c	-0.424281
205	0xbe70f851	-0.23532225
206	0xbe811835	-0.2521378
207	0xbf065b9a	-0.5248352
208	0xbef407c2	-0.4766217
209	0xbe7dba29	-0.24778046
210	0xbcb2d916	-0.02183203
211	0x3f182da2	0.5944463
212	0xbeff76d4	-0.49895346
213	0x3ea2ca2a	0.31794864
214	0xbf1dde00	-0.6166687
215	0xbf2fa4a0	-0.6861057
216	0x3f006f79	0.50170094
217	0xbeec3fdb	-0.46142468
218	0xbf03a779	-0.5142742
219	0xbf0d8183	-0.55275744
220	0xbedd594e	-0.43232197
221	0x3ef1bf32	0.47216183
222	0xbe0ce1cb	-0.13758008
223	0xbf2849e2	-0.65737736
224	0x3f2523b8	0.6450763
225	0xbdc2b5ea	-0.095073536
226	0x3ee1959b	0.44059452
227	0xbeac229c	-0.33620155
228	0x3f2dcd89	0.67891747
229	0x3e4f3953	0.20236711
230	0x3f064bf3	0.5245964
231	0x3e8f6142	0.2800389
232	0xbe7b7b05	-0.24558647
233	0xbeb77bfa	-0.35836774
234	0x3ee5547e	0.44791025
235	0x3ceddb07	0.029035104
236	0xbec4a624	-0.38408005
237	0x3f02a543	0.5103342
238	0xbe2128ab	-0.1573817
239	0xbdbbc0f9	-0.09167666
240	0x3ed82256	0.42213696
241	0x3f0e5509	0.55598503
242	0xbf2b9afc	-0.6703336
243	0x3f2740e6	0.653334
244	0x3d6dfde6	0.058103465
245	0x3f09a618	0.53769064
246	0xbe914004	-0.28369153
247	0x3f20c7c7	0.62804836
248	0xbecadf55	-0.39623514
249	0xbe1c7543	-0.15279107
250	0xbe9f0dc0	-0.31065178
251	0xbec22d2f	-0.37925097
252	0xbf0d6e72	-0.5524665
253	0x3ea639c7	0.32465956
254	0x3e7d63de	0.24745128
255	0xbea9c364	-0.33156884

clf_net.0.bias f4 [256]
0	0xbed4e2f3	-0.415794
1	0xbc946714	-0.018115558
2	0xbe2c03fb	-0.16798393
3	0x3f120721	0.5704213
4	0x3e28cc55	0.16484196
5	0x3dd03b69	0.101675816
6	0x3ed31a4e	0.41231006
7	0xbda872e8	-0.08225042
8	0x3d98365b	0.074322425
9	0x3eec325b	0.46132168
10	0x3ea5bbdd	0.3236989
11	0x3ee71b50	0.45138025
12	0x3f02a874	0.5103829
13	0x3eb4959d	0.35270396
14	0xbec1931d	-0.3780755
15	0x3f2fe848	0.6871381
16	0xbef21468	-0.47281194
17	0x3f2decaa	0.67939246
18	0x3f25724f	0.64627546
19	0x39e081a3	0.00042821196
20	0x3f14214a	0.57863295
21	0x3eb32826	0.34991568
22	0x3d5c8806	0.05384066
23	0x3ecb03d7	0.39651367
24	0xbeb0884f	-0.34478995
25	0xbe996740	-0.29961586
26	0xbeb60083	-0.35547265
27	0xbd4c896f	-0.049935754
28	0x3e47e14c	0.19519538
29	0xbdc30f0a	-0.09524353
30	0x3ec5104a	0.3848899
31	0x3f28703c	0.65796256
32	0x3e98794d	0.29780045
33	0xbea995d6	-0.33122128
34	0x3d69a4bf	0.05704188
35	0x3e8cf702	0.27532202
36	0xbdeec720	-0.11659074
37	0x3dfd0849	0.12355096
38	0xbf049e23	-0.518038
39	0xbe5f68b8	-0.21817291
40	0xbd0a06a8	-0.033697754
41	0xbe89dac8	-0.2692473
42	0x3f0c0b46	0.547047
43	0x3ed46f3d	0.41491118
44	0x3ee16ea4	0.44029725
45	0x3e0c10ca	0.1367828
46	0xbeab4ed4	-0.3345858
47	0xbe0f1ccb	-0.13975827
48	0xbc7cbe64	-0.015426252
49	0x3efa52bf	0.48891255
50	0xbe879a91	-0.26485112
51	0x3ec4a9ba	0.3841074
52	0xbdcdca8c	-0.100483984
53	0xbf1a22db	-0.60209435
54	0x3e404b84	0.18778807
55	0xbe28c9a3	-0.16483168
56	0x3efd36eb	0.49455962
57	0x3e3108d6	0.17288527
58	0xbebd06cc	-0.36919248
59	0x3e360a89	0.17777456
60	0xbf224932	-0.6339294
61	0x3f1a00ca	0.60157454
62	0x3f2e8360	0.6816921
63	0x3e72f352	0.23725632
64	0xbed12a6f	-0.40852687
65	0xbf155ffe	-0.583496
66	0xbf1cef69	-0.6130281
67	0x3ec9fb5c	0.39449584
68	0x3e04e836	0.12979206
69	0xbeabd016	-0.33557194
70	0xbda2f758	-0.07957333
71	0x3d9a1703	0.075239204
72	0x3f08d118	0.5344405
73	0x3e171647	0.14754592
74	0x3e4138af	0.1886928
75	0xbd3fa69a	-0.046789743
76	0xbf1179f0	-0.56826687
77	0xbee1357d	-0.4398612
78	0xbca3b1cc	-0.019982241
79	0x3e8bb7b1	0.27288583
80	0xbeaf3d98	-0.3422668
81	0xbf16abc0	-0.5885582
82	0x3e674103	0.22583394
83	0xbf209f2a	-0.62742865
84	0xbf063c3f	-0.5243568
85	0xbe8e3978	-0.2777822
86	0x3de12d4a	0.10994966
87	0x3e2cd8b5	0.16879542
88	0xbedf2daa	-0.43589526
89	0x3efc520f	0.49281356
90	0xbee4ef51	-0.44713834
91	0x3f219db8	0.63131285
92	0xbf29c0c0	-0.6630974
93	0x3ec8d8e7	0.39227983
94	0xbecec82e	-0.403871
95	0x3da78e1d	0.08181403
96	0x3e0689fa	0.13138571
97	0x3eeb2783	0.45928583
98	0xbe02edec	-0.12786072
99	0xbd62cddd	-0.055372108
100	0xbe063586	-0.13106355
101	0x3e937bd3	0.28805408
102	0xbf06708b	-0.52515477
103	0xbdb1ef28	-0.086881936
104	0xbef3e086	-0.47632235
105	0x3e99b22f	0.30018756
106	0x3d77945e	0.06044423
107	0xbeec30de	-0.46131033
108	0x3ef0c69c	0.47026527
109	0xbee3aa12	-0.4446569
110	0x3dc5709c	0.09640619
111	0xbe84270c	-0.2581104
112	0xbd64c3d2	-0.05585081
113	0x3ecb4e7f	0.39708325
114	0xbcf35164	-0.029701896
115	0xbd8eaa11	-0.06966031
116	0xbe1c1070	-0.15240645
117	0xbea41f3c	-0.3205508
118	0x3edfa7ed	0.43682805
119	0x3ee74503	0.4516984
120	0x3e9fc306	0.3120348
121	0xbeb9d6c0	-0.36296654
122	0x3f1df2ab	0.61698407
123	0xbe83843d	-0.25686827
124	0x3e91357f	0.28361127
125	0xbe3e8987	-0.1860715
126	0x3ef11316	0.47084874
127	0x3ca5a8e8	0.020222142
128	0x3f0bd3ed	0.5462025
129	0xbcb734fa	-0.022364128
130	0xbeee563e	-0.46550173
131	0x3ee419fb	0.44551072
132	0x3e8f33b5	0.27969137
133	0x3f25e3a1	0.6480046
134	0xbe9189fa	-0.2842558
135	0xbc2b4263	-0.01045284
136	0x3f02b92c	0.510638
137	0xbec5a4f5	-0.38602415
138	0x3d6561c5	0.056001443
139	0x3e66d80d	0.22543354
140	0xbf255e03	-0.64596575
141	0xbe26e068	-0.16296542
142	0x3f09c700	0.53819275
143	0xbe583917	-0.21115528
144	0x3f336086	0.7006916
145	0x3ea22049	0.31665257
146	0xbe765779	-0.24056806
147	0xbda2b9a6	-0.07945566
148	0xbecdec26	-0.4021923
149	0x3e336060	0.17517233
150	0x3eaec533	0.34134826
151	0x3ecdcd7a	0.4019583
152	0x3cf3eee6	0.029777002
153	0xbf01079f	-0.50402254
154	0x3f27341f	0.65313905
155	0xbf2e5df7	-0.6811213
156	0x3e859a6c	0.26094377
157	0x3e19170a	0.14950195
158	0xbf142b51	-0.57878596
159	0xbd3e9e0f	-0.046537455
160	0xbeb8759b	-0.36027226
161	0x3ebffa21	0.3749552
162	0x3dabde37	0.083919935
163	0xbeb03d91	-0.3442197
164	0xbef6a360	-0.4817152
165	0x3f03abc6	0.5143398
166	0xbee15291	-0.44008306
167	0x3f0a77be	0.5408896
168	0xbf243156	-0.6413778
169	0x3ef9ce81	0.48790362
170	0x3e9f2c5d	0.31088534
171	0xbf111a0e	-0.5668038
172	0xbee2be13	-0.4428564
173	0xbede6df0	-0.4344325
174	0xbf078469	-0.52936417
175	0xbeb40091	-0.35156682
176	0xbc99ce89	-0.018775241
177	0x3f1df3af	0.61699957
178	0xbd284207	-0.041078594
179	0x3cdbef06	0.026847374
180	0xbf0523fe	-0.52008045
181	0xbe0773f1	-0.13227822
182	0x3e4ccc14	0.19999725
183	0xbf255b3d	-0.64592344
184	0x3eb06c15	0.3445746
185	0xbf074d46	-0.52852285
186	0xbf268550	-0.6504717
187	0x3f16ae48	0.5885968
188	0xbdcca442	-0.09992267
189	0xbef4bc39	-0.47799852
190	0x3d6fda3c	0.058557734
191	0x3f1d49d5	0.61440784
192	0x3f22583a	0.63415873
193	0x3dd452db	0.10367366
194	0x3f27fa36	0.65616167
195	0x3e3128fd	0.17300792
196	0xbed78f71	-0.42101625
197	0x3db61a01	0.088916786
198	0x3dce0b1e	0.10060714
199	0x3f080013	0.53125113
200	0xbe47318f	-0.19452499
201	0x3e87effc	0.2655028
202	0xbe23ab09	-0.15983213
203	0x3f18e239	0.5972019
204	0x3e80346d	0.25039998
205	0x3eab9097	0.3350875
206	0xbf2cc732	-0.6749145
207	0xbf3488bf	-0.7052116
208	0x3e8ab607	0.27092
209	0x3ef2444d	0.47317734
210	0x3eb87d4c	0.36033094
211	0x3f2a694e	0.6656693
212	0xbf1512aa	-0.58231604
213	0x3f0abbd7	0.5419287
214	0xbd9af067	-0.07565384
215	0xbed0447b	-0.40677246
216	0x3d017262	0.031603225
217	0xbf2b5f1f	-0.6694202
218	0xbe95c094	-0.29248488
219	0x3e0c5752	0.13705185
220	0xbf1e57c9	-0.618527
221	0x3effc2f3	0.49953422
222	0x3d1434c9	0.036183152
223	0x3f074baa	0.5284983
224	0x3e668004	0.22509772
225	0x3ef18bd9	0.47177008
226	0xbeb26349	-0.34841374
227	0x3e994651	0.2993646
228	0xbea80d29	-0.3282254
229	0x3efb6da4	0.49107087
230	0xbd6f143f	-0.058368918
231	0x3f346c65	0.70477897
232	0xbf0546be	-0.5206107
233	0x3f2e4d3e	0.6808661
234	0xbf0e5e52	-0.5561267
235	0xbf2321b0	-0.6372328
236	0x3e97d357	0.29653427
237	0xbf0c7d5b	-0.5487878
238	0xbea936a7	-0.3304951
239	0x3f1dc329	0.61625916
240	0x3ebe9061	0.37219527
241	0xbf09104a	-0.5354048
242	0xbebf6c00	-0.37387085
243	0x3ec56d1f	0.38559815
244	0x3eb72ed3	0.35777912
245	0x3ebffba8	0.37496686
246	0x3ee632d2	0.44960648
247	0x3f224e39	0.6340061
248	0x3f210645	0.6290019
249	0x3f03ccc7	0.5148434
250	0x3ecd0755	0.40044656
251	0x3edd401d	0.43212977
252	0x3def740f	0.11692058
253	0x3cb86e3a	0.022513498
254	0xbea17e4d	-0.31541672
255	0xbf00a037	-0.5024447

clf_net.1.weight f4 [256]
0	0x3f7fed12	0.99971116
1	0x3f7fcf76	0.99925935
2	0x3f7fe220	0.99954414
3	0x3f800649	1.0001918
4	0x3f800d64	1.0004086
5	0x3f7fe769	0.9996248
6	0x3f7ffdfa	0.9999691
7	0x3f7fb447	0.99884456
8	0x3f7fe0a3	0.99952143
9	0x3f7fcdc3	0.9992334
10	0x3f7ff5ad	0.99984246
11	0x3f8009de	1.0003011
12	0x3f801998	1.000781
13	0x3f800ee0	1.000454
14	0x3f800441	1.0001298
15	0x3f800682	1.0001986
16	0x3f7ff02e	0.9997586
17	0x3f7fed55	0.99971515
18	0x3f7fd7c6	0.9993862
19	0x3f80019e	1.0000494
20	0x3f80122e	1.0005548
21	0x3f800463	1.0001339
22	0x3f803036	1.0014713
23	0x3f800886	1.0002601
24	0x3f8019af	1.0007838
25	0x3f7fef4a	0.999745
26	0x3f7ffef3	0.99998397
27	0x3f8000f5	1.0000292
28	0x3f8013f5	1.000609
29	0x3f800a58	1.0003157
30	0x3f7fd725	0.9993766
31	0x3f7fdf42	0.9995004
32	0x3f7ff15e	0.9997767
33	0x3f7fe57c	0.9995954
34	0x3f801f67	1.0009583
35	0x3f7ff152	0.999776
36	0x3f7fe9be	0.9996604
37	0x3f8006b2	1.0002043
38	0x3f800209	1.0000621
39	0x3f7ff154	0.9997761
40	0x3f7fdd30	0.9994688
41	0x3f7ff3eb	0.99981564
42	0x3f7fe00a	0.9995123
43	0x3f7fedd0	0.9997225
44	0x3f8025c7	1.0011529
45	0x3f800eaa	1.0004475
46	0x3f7fdee8	0.999495
47	0x3f800afe	1.0003355
48	0x3f8002dc	1.0000873
49	0x3f7ff921	0.99989516
50	0x3f7ff87a	0.9998852
51	0x3f800429	1.000127
52	0x3f800130	1.0000362
53	0x3f7ff609	0.99984795
54	0x3f8002f7	1.0000905
55	0x3f800e19	1.0004302
56	0x3f7ff855	0.999883
57	0x3f800037	1.0000066
58	0x3f7ff706	0.999863
59	0x3f7fe4cb	0.99958485
60	0x3f7fdcb8	0.99946165
61	0x3f800794	1.0002313
62	0x3f800501	1.0001527
63	0x3f7fd352	0.99931824
64	0x3f800015	1.0000025
65	0x3f7ff178	0.9997783
66	0x3f7fd67c	0.9993665
67	0x3f7fec39	0.9996982
68	0x3f8003b7	1.0001134
69	0x3f8003b0	1.0001125
70	0x3f8007b6	1.0002353
71	0x3f7ffdc5	0.99996597
72	0x3f8004c8	1.0001459
73	0x3f7ffa0b	0.9999091
74	0x3f8003c2	1.0001147
75	0x3f7fdf9b	0.9995057
76	0x3f800d4b	1.0004057
77	0x3f800506	1.0001533
78	0x3f8007a8	1.0002337
79	0x3f801491	1.0006276
80	0x3f800d0b	1.000398
81	0x3f7fdade	0.9994334
82	0x3f801126	1.0005233
83	0x3f7fe9ca	0.9996611
84	0x3f7ff62a	0.9998499
85	0x3f800d2c	1.000402
86	0x3f8000d4	1.0000253
87	0x3f8005b3	1.0001739
88	0x3f7ff716	0.999864
89	0x3f800b1d	1.0003392
90	0x3f8014e7	1.0006379
91	0x3f7fbb09	0.9989477
92	0x3f7ffe59	0.9999748
93	0x3f800bf2	1.0003645
94	0x3f802035	1.0009829
95	0x3f7ff73a	0.9998661
96	0x3f80025c	1.000072
97	0x3f7fda5b	0.9994256
98	0x3f8000f0	1.0000286
99	0x3f7feaab	0.9996745
100	0x3f7ff3df	0.9998149
101	0x3f7fe08f	0.99952024
102	0x3f800464	1.000134
103	0x3f7ffad9	0.9999214
104	0x3f801f86	1.000962
105	0x3f7fc4c7	0.99909633
106	0x3f8004bc	1.0001445
107	0x3f7fed9e	0.9997195
108	0x3f7feb6c	0.999686
109	0x3f80017f	1.0000457
110	0x3f7fe83f	0.99963754
111	0x3f800707	1.0002145
112	0x3f7ff048	0.99976015
113	0x3f80105b	1.0004991
114	0x3f801061	1.0004998
115	0x3f7fbff7	0.9990229
116	0x3f8005ad	1.0001732
117	0x3f7fe71f	0.9996204
118	0x3f7fdb8c	0.99944377
119	0x3f7ffc10	0.9999399
120	0x3f7fdc8d	0.9994591
121	0x3f7fe5e0	0.99960136
122	0x3f7fe1c6	0.9995388
123	0x3f7ffced	0.9999531
124	0x3f800879	1.0002586
125	0x3f8010ad	1.0005089
126	0x3f7fda3c	0.99942374
127	0x3f801d66	1.0008972
128	0x3f7fe68b	0.99961156
129	0x3f7fdf65	0.9995025
130	0x3f8006ee	1.0002115
131	0x3f7fea31	0.9996672
132	0x3f800842	1.000252
133	0x3f800fc9	1.0004817
134	0x3f800451	1.0001317
135	0x3f8021ca	1.0010312
136	0x3f800f2c	1.000463
137	0x3f800740	1.0002213
138	0x3f7febc0	0.999691
139	0x3f7ff582	0.9998399
140	0x3f7fd713	0.9993755
141	0x3f8010e7	1.0005158
142	0x3f7ff176	0.99977815
143	0x3f7fe03a	0.9995152
144	0x3f8021f5	1.0010363
145	0x3f7fe558	0.99959326
146	0x3f7ff795	0.99987155
147	0x3f7ff49f	0.9998264
148	0x3f8012c0	1.0005722
149	0x3f7fe476	0.9995798
150	0x3f7ff20d	0.99978715
151	0x3f7fef87	0.99974865
152	0x3f7febee	0.99969375
153	0x3f7fe280	0.99954987
154	0x3f80043a	1.000129
155	0x3f801712	1.000704
156	0x3f7fd50f	0.99934477
157	0x3f7ff848	0.9998822
158	0x3f800888	1.0002604
159	0x3f80003b	1.000007
160	0x3f80045b	1.0001329
161	0x3f7ffd67	0.99996036
162	0x3f800d40	1.0004044
163	0x3f7fe7cb	0.99963063
164	0x3f7ff739	0.99986607
165	0x3f7fe6eb	0.9996173
166	0x3f7ff599	0.9998413
167	0x3f800a12	1.0003073
168	0x3f7fd034	0.9992707
169	0x3f8006dd	1.0002095
170	0x3f8002b2	1.0000823
171	0x3f80018f	1.0000476
172	0x3f7ff01f	0.9997577
173	0x3f7ffb66	0.9999298
174	0x3f7fda5e	0.99942577
175	0x3f800159	1.0000411
176	0x3f80026e	1.0000741
177	0x3f800919	1.0002776
178	0x3f802211	1.0010396
179	0x3f7ffc16	0.9999403
180	0x3f801269	1.0005618
181	0x3f800730	1.0002193
182	0x3f7ffe0c	0.9999702
183	0x3f8013bb	1.0006021
184	0x3f7ffb01	0.99992377
185	0x3f7fe7d4	0.99963117
186	0x3f800100	1.0000305
187	0x3f80063c	1.0001903
188	0x3f8016dc	1.0006976
189	0x3f7ff415	0.99981815
190	0x3f7fe777	0.9996256
191	0x3f8018ff	1.0007628
192	0x3f800516	1.0001552
193	0x3f7ffcfd	0.99995404
194	0x3f801b58	1.0008345
195	0x3f800bf7	1.0003651
196	0x3f800607	1.0001839
197	0x3f800701	1.0002137
198	0x3f800342	1.0000994
199	0x3f7ffd81	0.9999619
200	0x3f7feeb1	0.9997359
201	0x3f801130	1.0005245
202	0x3f7fe55a	0.9995934
203	0x3f7ff93b	0.9998967
204	0x3f7fc3e8	0.99908304
205	0x3f8008b0	1.0002651
206	0x3f7ff681	0.9998551
207	0x3f7fbd32	0.99898064
208	0x3f7fdab9	0.9994312
209	0x3f801a0d	1.000795
210	0x3f7ff39e	0.99981105
211	0x3f8010ad	1.0005089
212	0x3f7fd623	0.9993612
213	0x3f800a4e	1.0003145
214	0x3f7feee4	0.99973893
215	0x3f7ff9e9	0.9999071
216	0x3f800afb	1.0003351
217	0x3f7fffc1	0.99999624
218	0x3f8007ef	1.0002421
219	0x3f7fdb17	0.9994368
220	0x3f800608	1.000184
221	0x3f7ffb29	0.99992615
222	0x3f80092e	1.0002801
223	0x3f7ffb94	0.9999325
224	0x3f80134a	1.0005887
225	0x3f7fecff	0.99971
226	0x3f7fca70	0.9991827
227	0x3f80021a	1.0000641
228	0x3f7ff545	0.99983627
229	0x3f802624	1.001164
230	0x3f800528	1.0001574
231	0x3f7feafd	0.9996794
232	0x3f8012ea	1.0005772
233	0x3f800095	1.0000178
234	0x3f8015a2	1.0006602
235	0x3f80197b	1.0007776
236	0x3f7fd270	0.9993048
237	0x3f800bfd	1.0003659
238	0x3f800e51	1.0004369
239	0x3f7fe499	0.9995819
240	0x3f7fdb2b	0.999438
241	0x3f800660	1.0001945
242	0x3f801398	1.000598
243	0x3f7ff18a	0.99977934
244	0x3f80070d	1.0002152
245	0x3f7fec09	0.99969536
246	0x3f800e6d	1.0004402
247	0x3f80023c	1.0000682
248	0x3f8010ef	1.0005168
249	0x3f7fcbf1	0.99920565
250	0x3f7fffbc	0.99999595
251	0x3f800b80	1.000351
252	0x3f7fe889	0.99964195
253	0x3f7fc92e	0.9991635
254	0x3f8009bc	1.0002971
255	0x3f7fee19	0.99972683

clf_net.1.bias f4 [256]
0	0xb9ba24a7	-0.00035503993
1	0xb9f4fb7c	-0.00046726677
2	0xb9fd4139	-0.00048304515
3	0xb99bc58b	-0.00029711085
4	0x395ee1ee	0.00021255735
5	0x38c566c8	9.4128365e-05
6	0xb90b5e8a	-0.00013291292
7	0xba257a8e	-0.00063125126
8	0xbb016b8e	-0.0019747945
9	0xb8667eb6	-5.4954282e-05
10	0xba149aaa	-0.00056687987
11	0x3901c63a	0.00012376244
12	0xb9d6ee8c	-0.00040994992
13	0x392e1879	0.0001660305
14	0xb86a5a4b	-5.587404e-05
15	0xb9329691	-0.00017031493
16	0x3a1eb916	0.00060548016
17	0xba926263	-0.0011168238
18	0xb9c6b33c	-0.00037899043
19	0xb8c14bb5	-9.217059e-05
20	0x3adc4337	0.00168047
21	0x39d905a4	0.00041393668
22	0x39b1fbd0	0.00033947686
23	0xba59b00d	-0.00083041267
24	0x3ada2ce8	0.0016645463
25	0xb98bd71e	-0.0002667242
26	0x3a0dc8f7	0.0005408669
27	0x38c67b0c	9.464295e-05
28	0xba0cb3e6	-0.0005367383
29	0x3a1d9827	0.0006011747
30	0xbb0cd153	-0.0021487072
31	0x39a46b73	0.00031360573
32	0x3a717eb1	0.0009212299
33	0x39816ade	0.0002468442
34	0x39e68093	0.00043964814
35	0xba5c2217	-0.0008397414
36	0xb91b9a1c	-0.00014839362
37	0xba35304d	-0.00069117994
38	0x3a522d01	0.00080175704
39	0x395fdb71	0.00021348686
40	0xb7c726d9	-2.3740738e-05
41	0xb948050f	-0.00019075371
42	0x3a5c4ad2	0.0008403483
43	0x36c35fc2	5.8226005e-06
44	0x399226fa	0.0002787633
45	0x3a3f360c	0.00072941254
46	0xbaa105a1	-0.0012285003
47	0xb94dd5ed	-0.00019630017
48	0x38c904f1	9.585347e-05
49	0xb9dc1e42	-0.00041984214
50	0xba8ca9d9	-0.0010731771
51	0x3a5fc3bf	0.00085359433
52	0xbac08ae9	-0.0014689836
53	0xba8b5d26	-0.0010632619
54	0xba52f54f	-0.0008047418
55	0x3a17172d	0.00057636463
56	0xb9aa82a0	-0.0003252225
57	0xba8ddc32	-0.001082307
58	0x39f1453c	0.00046018686
59	0xba3c7ad3	-0.0007189933
60	0xba4eca01	-0.00078883773
61	0x39b02a75	0.0003360097
62	0x38ae0086	8.297064e-05
63	0xb9157aa9	-0.00014255442
64	0x38dc75d5	0.000105123654
65	0xba1a1e03	-0.0005879106
66	0x39c54105	0.0003762321
67	0x3a0c836a	0.00053601584
68	0x3aa87db4	0.0012854845
69	0x3a812d36	0.0009855393
70	0xba0ff965	-0.000549218
71	0xba767f86	-0.0009403158
72	0x3a8cee2c	0.0010752133
73	0x39740cab	0.00023274373
74	0xbac50b5d	-0.0015033294
75	0xb9f4bbe5	-0.000466793
76	0xb8302723	-4.199812e-05
77	0xba197fd7	-0.00058555364
78	0xb9a36322	-0.00031163642
79	0x399811a8	0.00029004854
80	0x3aa280f8	0.0012398055
81	0xb9888d2e	-0.00026045128
82	0x39621f93	0.00021564802
83	0xb98d8d0c	-0.00026998704
84	0xba725bad	-0.0009245228
85	0x398595ed	0.0002547944
86	0xb9d1e99b	-0.00040037636
87	0x39eae5de	0.00044803222
88	0xb9e3535d	-0.00043358924
89	0x39f230a3	0.00046194074
90	0x3a9a21ce	0.0011759342
91	0xb94cb355	-0.00019521762
92	0xb81ba1f0	-3.7105696e-05
93	0x397bdbac	0.0002401906
94	0x39ed8afb	0.0004530771
95	0xba923930	-0.0011155959
96	0xba27db59	-0.000640323
97	0xba731499	-0.00092727836
98	0xba18d72b	-0.00058304024
99	0xbaaacb0c	-0.0013030483
100	0x39305a44	0.00016818295
101	0xba387c60	-0.0007037576
102	0xb99501e4	-0.00028420903
103	0xb7be56f8	-2.2690263e-05
104	0x3a8d7467	0.0010792137
105	0xb92cdb30	-0.00016484852
106	0xba08e0b8	-0.0005221474
107	0x394abb6f	0.00019334046
108	0x39ffae4e	0.00048767257
109	0xba29066c	-0.00064477953
110	0xb9d59278	-0.00040735654
111	0xb908e97a	-0.00013056948
112	0x3aca3906	0.0015428371
113	0xba83db60	-0.0010059886
114	0xb9e3bb1e	-0.00043436227
115	0xba9f476f	-0.0012152026
116	0xba7dc8c8	-0.0009681103
117	0x3a88a2cd	0.0010424495
118	0xba709873	-0.000917799
119	0x39f7e369	0.00047280945
120	0xba968c27	-0.001148586
121	0x3829de94	4.0500032e-05
122	0x3836358a	4.3442044e-05
123	0xb9cdfb5c	-0.00039287924
124	0x3ae2f8cd	0.001731658
125	0xb900ad99	-0.00012271701
126	0x3ad03299	0.001588422
127	0x39dc694c	0.00042040122
128	0xb9a35420	-0.0003115246
129	0x3911a8a4	0.00013891101
130	0x39e587b2	0.00043779385
131	0x3a1aa53a	0.00058992545
132	0xb9a2f0d8	-0.0003107849
133	0x38b53057	8.6397566e-05
134	0x39e1c9be	0.00043065654
135	0x3a188493	0.0005818095
136	0x3a3dc909	0.00072397344
137	0x399c2318	0.00029780786
138	0xb896695d	-7.172183e-05
139	0xba549639	-0.0008109543
140	0xb990ac22	-0.0002759407
141	0xba11bcd5	-0.0005559449
142	0x3a03784a	0.0005015178
143	0xb98cf8b5	-0.00026888182
144	0x3a02d8ce	0.0004991413
145	0xb9cd0003	-0.00039100656
146	0x3a9afb0d	0.0011824087
147	0xba0c66d8	-0.0005355901
148	0xba104707	-0.0005503748
149	0xb9b56ca1	-0.00034603945
150	0xb9c3cea0	-0.00037347246
151	0x3a073d8f	0.0005159014
152	0xba68071d	-0.00088511576
153	0xba101346	-0.0005496036
154	0xb9c0319d	-0.00036658059
155	0x39b2821c	0.00034047745
156	0x398caa7d	0.00026829905
157	0xb8dfb754	-0.00010667616
158	0x3ac2dfc2	0.001486771
159	0xb9e89bf2	-0.00044366677
160	0x3935e8b6	0.00017348197
161	0x38dffa0e	0.00010680045
162	0xb9171a33	-0.00014410242
163	0x398e8ede	0.00027190795
164	0xb8b4ee13	-8.6274136e-05
165	0xb98b7509	-0.00026599344
166	0xb88cdf22	-6.717282e-05
167	0x3a6c31ea	0.00090101233
168	0xb9d09647	-0.00039784817
169	0x3917223f	0.0001441324
170	0x3a2bcfc9	0.0006554095
171	0x3a5bba65	0.0008381962
172	0x3837f04d	4.3854398e-05
173	0xb92fdf08	-0.00016772386
174	0xba313975	-0.0006760576
175	0xb9e4d6a2	-0.00043647463
176	0x3833ba62	4.2850508e-05
177	0x39268c4d	0.0001588326
178	0x3abc93fc	0.0014387364
179	0xb98907b7	-0.00026136424
180	0x398b5015	0.00026571812
181	0xba141185	-0.00056483626
182	0x39aa1a1d	0.00032444383
183	0x3a1b052d	0.0005913552
184	0xb89ef584	-7.579758e-05
185	0x3a968bec	0.0011485792
186	0xb9867a84	-0.00025649753
187	0x39365eea	0.00017392231
188	0x3a46e88d	0.00075877534
189	0xba3cca23	-0.00072017516
190	0x3a52f02a	0.00080466515
191	0x39d5a977	0.00040752787
192	0xb9b39264	-0.0003425061
193	0x39f175f7	0.00046054993
194	0x38a5c509	7.904514e-05
195	0x3a2a7efd	0.0006503908
196	0x3ab7a1f8	0.0014010062
197	0xba572d36	-0.0008208336
198	0xbac7744c	-0.0015217154
199	0x3a1b814c	0.00059320475
200	0xba78d7e2	-0.0009492618
201	0xb9d0aeec	-0.00039803179
202	0x3ae23cb3	0.0017260521
203	0x37478077	1.1891235e-05
204	0xb97c212d	-0.00024044952
205	0xb9db2fec	-0.0004180664
206	0x3a2d7805	0.00066173106
207	0xb9bb3333	-0.00035705566
208	0xbad4def4	-0.0016240762
209	0x386be225	5.623898e-05
210	0x3a1b9574	0.0005935051
211	0x39b913f0	0.00035300804
212	0xb90e9b83	-0.00013600108
213	0x39b3e543	0.00034312354
214	0x39a4e466	0.00031450688
215	0x39c41db7	0.00037406172
216	0xba4ba017	-0.00077676907
217	0x3952dca9	0.00020109363
218	0x3956ab3f	0.00020472425
219	0xba54c833	-0.000811699
220	0xba48e520	-0.0007663537
221	0x39065245	0.00012809884
222	0x3a8a496b	0.0010550445
223	0xba43fa07	-0.00074759166
224	0xba2e5447	-0.00066501315
225	0xb9851b75	-0.00025388194
226	0xb5f484f1	-1.8218108e-06
227	0x3aa778e5	0.0012777118
228	0xb97242e1	-0.00023103833
229	0x3a805316	0.0009790387
230	0xb9b0818c	-0.00033665856
231	0x393f2ead	0.00018232568
232	0x3b38adbc	0.0028179726
233	0xba685268	-0.0008862377
234	0x3a1ed3b0	0.00060587656
235	0x39558f6a	0.00020366689
236	0x3a302a96	0.0006720213
237	0x3a5b9be2	0.00083774154
238	0xb9dcc7d8	-0.00042110565
239	0x38cb5e1c	9.6973235e-05
240	0xba3e4de8	-0.0007259534
241	0xb938b875	-0.00017616323
242	0x3962f505	0.00021644316
243	0xb9c54363	-0.00037624975
244	0x376448de	1.3606825e-05
245	0xb99f13c0	-0.00030341558
246	0x39106768	0.00013771432
247	0xba9bae8e	-0.0011877583
248	0xba4403f4	-0.00074773957
249	0xb7a57051	-1.9721834e-05
250	0x38c6315f	9.450572e-05
251	0xba08acae	-0.00052137196
252	0xb9c99ac1	-0.00038453008
253	0xbae5898a	-0.0017512303
254	0x39157b9f	0.000142558
255	0x3827c7a8	4.0001847e-05

clf_net.1.running_mean f4 [256]
0	0xbe9408ab	-0.28912863
1	0xbeb788a1	-0.35846427
2	0xbe8a242a	-0.26980716
3	0x3e8e0dc1	0.27744868
4	0x3ee884b9	0.4541376
5	0x3ebda2b7	0.37038204
6	0x3da01fd4	0.07818571
7	0xbe8d346d	-0.2757906
8	0x3e89b447	0.26895353
9	0x3e9936ee	0.2992472
10	0x3ea07305	0.31337753
11	0x3f27caaf	0.65543646
12	0x3e5e24a6	0.21693668
13	0x3e35852e	0.17726585
14	0xbf1861cf	-0.59524244
15	0x3ebcf49e	0.36905378
16	0xbf3343aa	-0.7002512
17	0x3ee6f631	0.45109704
18	0x3f1bb9ff	0.6083068
19	0xbe8b7a65	-0.27241817
20	0x3eea221b	0.45729145
21	0x3e1cba1b	0.15305369
22	0x3e963aee	0.29341835
23	0x3ef3a9e0	0.47590542
24	0xbdf96f89	-0.12179477
25	0xbf0424a6	-0.5161842
26	0xbf222230	-0.63333416
27	0x3e4a2bdb	0.19743292
28	0x3e69198a	0.22763649
29	0xbe8300d7	-0.25586578
30	0x3f019959	0.50624615
31	0x3f0eeae3	0.5582716
32	0x3ec421e3	0.38307104
33	0xbf3452ab	-0.7043864
34	0xbdc4f979	-0.09617896
35	0x3ef24aa0	0.4732256
36	0xbdcdf961	-0.10057331
37	0x3e099105	0.13434227
38	0xbe9b7b80	-0.3036766
39	0x3df069bf	0.117389195
40	0x3e9f5c5d	0.31125155
41	0xbf1be83a	-0.60901225
42	0x3f3b1df4	0.7309258
43	0x3f0436bc	0.5164602
44	0x3f341889	0.7034994
45	0x3cf1e533	0.029528236
46	0xbd3dc53a	-0.046330668
47	0x3d7ccc6c	0.06171839
48	0xbe76fa27	-0.24118863
49	0x3f3141ab	0.69240826
50	0xbe1ac78e	-0.15115187
51	0x3ef6351b	0.4808739
52	0xbe4de4ca	-0.20106807
53	0xbf397a99	-0.72452694
54	0x3db29255	0.08719317
55	0xbe8d9576	-0.27653092
56	0x3f33a59d	0.7017458
57	0x3dc0fe9c	0.09423563
58	0xbeacf868	-0.3378327
59	0xbb161560	-0.0022900924
60	0xbf332c9c	-0.69989944
61	0x3f66ce04	0.90158105
62	0x3f0475fa	0.5174252
63	0x3ecf0f88	0.40441537
64	0xbe797bac	-0.24363583
65	0xbf03f2bc	-0.5154226
66	0xbee525f4	-0.44755518
67	0x3ee4c0b5	0.44678274
68	0x3ebe5c7b	0.37179932
69	0xbf13f57c	-0.57796454
70	0xbe993dba	-0.29929906
71	0xbbf64223	-0.0075152083
72	0x3f2feb8b	0.68718785
73	0x3ea1fab6	0.3163659
74	0x3e04ec5d	0.1298079
75	0x3e8e4889	0.27789715
76	0xbe55910e	-0.20856115
77	0xbf2e7bd4	-0.68157697
78	0x3e06e69f	0.13173912
79	0x3aa82f13	0.0012831412
80	0xbe27c574	-0.16383916
81	0xbe83f61c	-0.25773704
82	0xbd1fca8d	-0.039011527
83	0xbf69b87d	-0.9129713
84	0xbeaa2043	-0.3322774
85	0xbf190b9a	-0.5978333
86	0x3e8002a5	0.25002018
87	0x3f02f894	0.5116055
88	0xbf39f453	-0.72638434
89	0x3f30dfb1	0.69091326
90	0xbf172e06	-0.590546
91	0x3f444d65	0.76680595
92	0xbeb55655	-0.3541743
93	0x3ef56640	0.47929573
94	0xbee184f2	-0.44046742
95	0x3e918e05	0.28428665
96	0x3e5755db	0.21028845
97	0x3f09fbdb	0.53899926
98	0xbe21b755	-0.15792592
99	0x3e16988c	0.1470663
100	0xbe25685f	-0.16153096
101	0x3dd95c25	0.10613278
102	0xbf20a119	-0.62745816
103	0xbeaef1ed	-0.3416895
104	0xbf15389d	-0.5828951
105	0x3f19c057	0.6005911
106	0x3e759406	0.23982248
107	0xbf488cbd	-0.7833975
108	0x3e5fb8a5	0.2184778
109	0xbf3416ec	-0.70347476
110	0x3eb3ae90	0.35094118
111	0xbf158827	-0.58410877
112	0xbe039b3f	-0.1285219
113	0x3e57cdf7	0.21074663
114	0x3d3d51ea	0.046220697
115	0x3d523c9c	0.051327333
116	0xbea5abcf	-0.32357642
117	0xbea56ecc	-0.32311094
118	0x3f357084	0.7087481
119	0x3ed2b557	0.41153976
120	0x3f1375bf	0.5760154
121	0xbc0300a5	-0.007995759
122	0x3f62be67	0.8857178
123	0x3d906cb7	0.07051986
124	0x3e63253f	0.22182177
125	0xbebb0464	-0.36526787
126	0x3f27d981	0.6556626
127	0xbe201e80	-0.15636635
128	0x3f0e0f6a	0.5549227
129	0x3eb27a8e	0.34859127
130	0xbe9a0972	-0.3008533
131	0x3f4455d2	0.7669345
132	0x3ef4d5c6	0.47819346
133	0x3f59949e	0.84992397
134	0x3d8b90af	0.068147056
135	0x3ea6e737	0.32598278
136	0x3f45c883	0.7725908
137	0xbf3eed03	-0.745804
138	0x3eca2157	0.3947856
139	0x3ecf629e	0.40504926
140	0xbf1bdb74	-0.60881734
141	0xbe56ffb1	-0.20995976
142	0x3f2c8993	0.6739742
143	0xbecdba8d	-0.4018139
144	0x3f65b9ad	0.89736444
145	0x3f20774d	0.6268204
146	0xbee52fe2	-0.44763094
147	0x3e157c1f	0.1459813
148	0xbeec8fbd	-0.46203414
149	0x3e80f787	0.25188848
150	0x3d885221	0.0665629
151	0x3f399071	0.72486025
152	0x3ebbd0cb	0.36682734
153	0xbe499ecb	-0.19689481
154	0x3f6ce41a	0.92535555
155	0xbea13792	-0.3148771
156	0x3f191b1a	0.5980698
157	0x3e2d0f53	0.16900377
158	0xbf1a0c9f	-0.6017551
159	0x3d7aa16d	0.061189104
160	0xbe75b7a2	-0.23995832
161	0x3f1b1f91	0.6059504
162	0x3d75a1d1	0.059968773
163	0xbd7605ad	-0.060064007
164	0xbe15fed4	-0.1464799
165	0x3eaae5b4	0.33378375
166	0xbe926a1e	-0.28596586
167	0x3f2f0b49	0.68376595
168	0xbec4e83f	-0.3845844
169	0x3f4a54ef	0.7903585
170	0x3ee5427c	0.44777286
171	0xbf675bbf	-0.9037437
172	0xbf198347	-0.5996594
173	0xbeadbfc7	-0.33935377
174	0xbe63c28f	-0.22242187
175	0xbea127ca	-0.3147567
176	0x3dd6a294	0.10480228
177	0x3f646fbd	0.89233
178	0x3d9ec93e	0.07753228
179	0xbe85d158	-0.2613628
180	0xbeb64b49	-0.35604313
181	0xbd54c25e	-0.051943175
182	0x3e7fc8da	0.24978963
183	0xbf0668f3	-0.5250389
184	0x3d3b4414	0.04571922
185	0xbf4c2836	-0.7974886
186	0xbf3ed213	-0.745393
187	0x3f214433	0.6299469
188	0xbe1733fb	-0.14765923
189	0xbf3053f5	-0.6887811
190	0xbc9f50f0	-0.019447774
191	0x3f77b6e7	0.9676346
192	0x3f657882	0.89637005
193	0x3e935f55	0.2878367
194	0x3eeba6a7	0.46025583
195	0xbdd20b30	-0.1025604
196	0xbe6c4fec	-0.23077363
197	0xbe206e46	-0.15667066
198	0x3e5be16c	0.2147271
199	0x3f34dc86	0.7064899
200	0xbe052e8a	-0.13006034
201	0x3ecc73a4	0.39931977
202	0xbdb0b84f	-0.08628904
203	0x3f763c25	0.96185523
204	0x3e028022	0.12744191
205	0xbca60012	-0.020263705
206	0xbf4d9aee	-0.8031453
207	0xbf0a11d4	-0.53933454
208	0x3ecc2857	0.39874527
209	0x3e2f65ae	0.17128631
210	0x3ebf5785	0.3737146
211	0x3f58c5d3	0.84676856
212	0xbf303a85	-0.68839294
213	0x3e86dcec	0.26340425
214	0x3d870c7c	0.06594178
215	0xbf1b344c	-0.60626674
216	0x3d36757d	0.04454564
217	0xbecc4c2e	-0.3990187
218	0xbe5bc818	-0.21463048
219	0x3ed2767e	0.41106027
220	0xbe9144a6	-0.28372687
221	0x3ef39632	0.47575527
222	0x3b8cdd22	0.004298822
223	0x3f02be0d	0.51071244
224	0x3ef3152d	0.47477093
225	0x3f1651cc	0.5871856
226	0xbccacf40	-0.024757028
227	0x3ecf1fad	0.40453854
228	0xbd57ca5f	-0.05268323
229	0x3f49985a	0.78748095
230	0xbd77caaf	-0.06049603
231	0x3f23cbda	0.6398293
232	0xbf3bbf81	-0.73339087
233	0x3f4bb6a8	0.79575586
234	0xbf1be06e	-0.6088933
235	0xbf5a7e8f	-0.85349363
236	0x3e509844	0.20370585
237	0xbf3ed1f6	-0.74539125
238	0xbef81342	-0.48452193
239	0x3eaee398	0.34158015
240	0x3e1f7478	0.15571773
241	0xbeec8adb	-0.46199688
242	0xbde5c06c	-0.11218342
243	0x3f1c9711	0.6116801
244	0x3f323982	0.69619
245	0x3deeab31	0.11653746
246	0x3edeea7c	0.43538272
247	0x3f296a04	0.6617739
248	0x3f0e46be	0.55576694
249	0x3ee76e3a	0.45201284
250	0x3f249e32	0.64303887
251	0x3e7c1256	0.2461637
252	0xbd363d1f	-0.044491883
253	0x3e533b7a	0.20628157
254	0xbebd2b1b	-0.3694695
255	0xbf1270f0	-0.5720358

clf_net.1.running_var f4 [256]
0	0x3be0bdf2	0.0068585807
1	0x3d28fd51	0.041257206
2	0x3b5d62c6	0.0033780797
3	0x3d188e04	0.03724481
4	0x3cf51c76	0.029920798
5	0x3c807050	0.015678555
6	0x3d4c2e53	0.049848866
7	0x3c6ed0aa	0.014576117
8	0x3d1f1e6f	0.038847383
9	0x3cf3b5f4	0.029749848
10	0x3d4779db	0.048700195
11	0x3c578999	0.013155364
12	0x3d7f2b47	0.062297132
13	0x3c9694d1	0.018381508
14	0x3c4db9b7	0.012556485
15	0x3ca4481d	0.020053918
16	0x3c3934f3	0.011304128
17	0x3d500f9c	0.050796136
18	0x399d5c51	0.00030014155
19	0x3c86a3b2	0.016435478
20	0x3d94a872	0.07258691
21	0x3c1951f2	0.009357916
22	0x3e003e83	0.12523846
23	0x3da4860e	0.080333814
24	0x3d251f67	0.04031315
25	0x3c50a52b	0.012734692
26	0x3d2f046a	0.04272882
27	0x3da51157	0.08059948
28	0x3dc48418	0.095955074
29	0x3c23b370	0.009991512
30	0x3de0771d	0.10960219
31	0x3d764982	0.060128696
32	0x3cffe355	0.03123633
33	0x3d8591c8	0.06521946
34	0x3b95e738	0.0045746826
35	0x3d89d5ee	0.06730257
36	0x3da72296	0.081608936
37	0x3a88ec63	0.0010446425
38	0x3d21787f	0.039421555
39	0x3cad3c00	0.021146774
40	0x3cb5aad7	0.02217619
41	0x3d0cf3b2	0.034412093
42	0x3db6966e	0.08915411
43	0x3de5b336	0.112158224
44	0x3d08b596	0.0333763
45	0x3dd488de	0.10377668
46	0x3d36783b	0.044548254
47	0x3c4bfc5a	0.012450302
48	0x3c2df5f5	0.010617723
49	0x3bf6804d	0.007522619
50	0x3d75c0bd	0.059998263
51	0x3ce358e1	0.027752342
52	0x3d41f929	0.04735676
53	0x3d2fdb98	0.04293403
54	0x3b13893b	0.0022512216
55	0x3b822036	0.003971125
56	0x3de912e8	0.11380559
57	0x3ccab118	0.024742648
58	0x3dc3635c	0.09540436
59	0x3c9efa28	0.019406393
60	0x3c88ee7c	0.01671528
61	0x3d00cba0	0.031444192
62	0x3dd1509f	0.102204554
63	0x3dd0c0a8	0.10192996
64	0x3c74526a	0.014912227
65	0x3d2bc50b	0.04193596
66	0x3ba30396	0.0049747927
67	0x3ddeea33	0.10884514
68	0x3d64e4d1	0.05588228
69	0x3cedbc66	0.0290205
70	0x3cc12fa0	0.02358228
71	0x3d292096	0.041290842
72	0x3d373402	0.044727333
73	0x3d20e3f3	0.03927989
74	0x3d405542	0.04695631
75	0x3cccc357	0.024995489
76	0x3ccf4a77	0.025304062
77	0x3db575fb	0.088603936
78	0x3dd154c4	0.10221246
79	0x3d1b9207	0.03798106
80	0x3d8ab03a	0.06771894
81	0x3de8f89f	0.11375546
82	0x3d44fac1	0.0480907
83	0x3c87d1bc	0.016579501
84	0x3da7dd69	0.081965275
85	0x3d12bf57	0.035827007
86	0x3cc482d2	0.023988161
87	0x3d2e984f	0.04262572
88	0x3d53a05e	0.05166661
89	0x3be9a699	0.0071304557
90	0x3d604095	0.05474909
91	0x3d03a0ad	0.032135654
92	0x3ca2c3bd	0.019868726
93	0x3b25e329	0.00253124
94	0x3de4dd92	0.11175074
95	0x3dc81715	0.097700275
96	0x3c52baa5	0.012861882
97	0x3bd123aa	0.0063824253
98	0x3ce317c4	0.027721293
99	0x3d10037f	0.035159584
100	0x3dd12902	0.102129
101	0x3d87938c	0.06619939
102	0x3d3babb3	0.045818042
103	0x3d02d582	0.0319419
104	0x3d6a02ce	0.05713158
105	0x3c888a3c	0.016667478
106	0x3d5d6174	0.054048017
107	0x3df87ff8	0.12133783
108	0x3d6b5d34	0.057461932
109	0x3da9f295	0.08298222
110	0x3d36e475	0.044651467
111	0x3ce6ddf4	0.028182007
112	0x3db80215	0.08984772
113	0x3d2fd4f5	0.0429277
114	0x3dddc002	0.10827638
115	0x3d8e6c39	0.069542356
116	0x3cb8ecd0	0.022573858
117	0x3d36e7e1	0.04465473
118	0x3d1bf6ce	0.03807717
119	0x3bd09eb9	0.0063665775
120	0x3d7fa45a	0.062412597
121	0x3dd4e99c	0.1039612
122	0x3c813a44	0.015774854
123	0x3cf91d49	0.030409472
124	0x3d1ae92f	0.037820037
125	0x3d04724a	0.032335557
126	0x3d86f989	0.06590564
127	0x3c82005c	0.015869312
128	0x3d7308bd	0.059334505
129	0x3d5dfdd3	0.054197144
130	0x3da39d7b	0.079890214
131	0x3d93c96e	0.07216154
132	0x3c82734e	0.015924122
133	0x3c6a9f6e	0.014320238
134	0x3d80b3c7	0.0628429
135	0x3ce86526	0.028368544
136	0x3e0a4aaf	0.13505052
137	0x3d35f5ad	0.044423748
138	0x3d3cc78a	0.046088733
139	0x3bfe62cd	0.007763243
140	0x3a1b64f8	0.0005927826
141	0x3ad4262d	0.0016185694
142	0x3bcd7df3	0.006271118
143	0x3d77ca9e	0.060495965
144	0x3c49be08	0.012313373
145	0x3cb62b45	0.02223743
146	0x3d1eeae2	0.03879822
147	0x3c5b3cb8	0.013381176
148	0x3bbd0e28	0.00576951
149	0x3b2e1edf	0.0026568694
150	0x3c60ba82	0.013716342
151	0x3e10b708	0.14132321
152	0x3caa8143	0.02081359
153	0x3daf4a2c	0.08559069
154	0x3c80d004	0.01572419
155	0x3d2bf8b6	0.041985236
156	0x3d031bb1	0.03200883
157	0x3d02a628	0.03189674
158	0x3dbda68d	0.09260283
159	0x3d4b0e58	0.049574226
160	0x3d8ded37	0.06930011
161	0x3d21407a	0.03936813
162	0x3d1a62e8	0.03769198
163	0x3dda265f	0.1065185
164	0x3d8466bb	0.06464907
165	0x3c546ca7	0.012965358
166	0x3ba21b16	0.0049470766
167	0x3d09bb68	0.03362599
168	0x3c64f575	0.013974537
169	0x3dc54a73	0.09633341
170	0x3d8197cd	0.06327782
171	0x3d0ab293	0.033861708
172	0x3cd981f3	0.026551222
173	0x3dc6de1d	0.097103335
174	0x3d1ebb30	0.038752735
175	0x3d2bab35	0.041911323
176	0x3c159b96	0.009131333
177	0x3d2e1111	0.042496745
178	0x3d605181	0.05476523
179	0x3d4cc59f	0.049993154
180	0x3d83090b	0.06398209
181	0x3bb57c80	0.005538523
182	0x3d0ba947	0.034096982
183	0x3cd1b586	0.025599252
184	0x3d180efd	0.03712367
185	0x3d50b6d6	0.050955616
186	0x3c027927	0.007963455
187	0x3c24aa69	0.010050395
188	0x3d6633ae	0.05620163
189	0x3dd2f136	0.102999136
190	0x3d2a229a	0.041536905
191	0x3d3d0df3	0.04615588
192	0x3d9b1563	0.075724386
193	0x3c8d206a	0.01722737
194	0x3d805c33	0.062675856
195	0x3ca109b2	0.019657943
196	0x3d319165	0.04335155
197	0x3d6ca533	0.057774734
198	0x3d3c9606	0.04604151
199	0x3c8de6b4	0.017321922
200	0x3cb1382f	0.021633236
201	0x3d992023	0.07476833
202	0x3c8d6e4c	0.017264508
203	0x3ceea46e	0.02913114
204	0x3bfe1b47	0.0077547166
205	0x3db1d911	0.0868398
206	0x3dc9d8db	0.09855815
207	0x3bb5ac4a	0.00554422
208	0x3d73755d	0.0594381
209	0x3de13158	0.1099574
210	0x3d821da9	0.063533135
211	0x3caf3764	0.021388717
212	0x3b05f34b	0.0020439203
213	0x3c7d89cb	0.015474747
214	0x3b6f8a1c	0.0036550825
215	0x3d06555c	0.03279625
216	0x3bc25347	0.0059303376
217	0x3c5995bb	0.013280327
218	0x3b207330	0.002448272
219	0x3de347c2	0.11097671
220	0x3ddafe17	0.10692995
221	0x3dcc68d3	0.09980931
222	0x3bdd12ca	0.0067466246
223	0x3c4b9a4a	0.012426922
224	0x3df31b41	0.11870433
225	0x3b8d6776	0.004315312
226	0x3ce28b9a	0.027654458
227	0x3c93f2c1	0.01806009
228	0x3ce781ce	0.028260138
229	0x3cb21295	0.021737376
230	0x3d05e61c	0.032690153
231	0x3de77624	0.113018304
232	0x3d26431d	0.040591348
233	0x3c796b53	0.015223342
234	0x3d57b085	0.052658577
235	0x3d7d379c	0.06182061
236	0x3c190998	0.009340666
237	0x3be90f20	0.0071123987
238	0x3d060e16	0.032728277
239	0x3c73e9d5	0.014887293
240	0x3ca8ac02	0.020589832
241	0x3d059996	0.032617174
242	0x3dcac6d0	0.09901202
243	0x3d1bd1dc	0.038041934
244	0x3cf22996	0.029560845
245	0x3dcf4463	0.101204656
246	0x3cf503e5	0.029909084
247	0x3cb0bc48	0.021574154
248	0x3dc22c4f	0.094811074
249	0x3cdecf66	0.027198505
250	0x3c434ea0	0.011920601
251	0x3cf13f19	0.029449033
252	0x3b9ccf3c	0.0047854465
253	0x3d53afd6	0.051681362
254	0x3a572635	0.00082072924
255	0x3aee2071	0.0018167627

clf_net.3.weight f4 [256, 256]
0	0xbd143586	-0.036183856
1	0x3c7fb37a	0.015606755
2	0xbc7ced8c	-0.015437495
3	0xbc09c692	-0.008409159
4	0xbd0d30ea	-0.034470476
5	0xbd16d7d2	-0.036826916
6	0x3d702063	0.058624636
7	0x3c825588	0.015909925
8	0x3cf3a942	0.029743794
9	0xbc984b6b	-0.01859065
10	0x3b81c59e	0.0039603254
11	0xbd5fcdd8	-0.054639667
12	0xbd23120c	-0.039812133
13	0x3d752e79	0.059858773
14	0xbc462d0d	-0.012095702
15	0xbd6b3bf9	-0.05743024
16	0xbd4893e3	-0.04896916
17	0xbd1ce34d	-0.03830271
18	0x3c390ac0	0.011294067
19	0x3d14f09c	0.036362275
20	0x3d021643	0.03175951
21	0x3cd4828b	0.025941154
22	0xbd1ac8fe	-0.037789337
23	0xbd6e8984	-0.058236614
24	0xbd183ff6	-0.037170373
25	0x3d3d8a49	0.046274457
26	0xbc39eca3	-0.0113479225
27	0xbd7166f9	-0.058936093
28	0xbb9eaff1	-0.004842751
29	0xbd79ecb8	-0.06101677
30	0xbcba5aed	-0.022748435
31	0xbd116708	-0.03549865
32	0x3d3bc13f	0.04583859
33	0x3d3f35f3	0.04668231
34	0x3cf9b5bd	0.030482167
35	0x3cd55633	0.02604208
36	0xbc7b3bbf	-0.015334069
37	0x3c5fc3c1	0.013657511
38	0x3ca24a72	0.019810889
39	0xbd0e4214	-0.034730986
40	0x3d0e4cc1	0.034741167
41	0x3b0ed89d	0.0021796592
42	0x3c0fac89	0.008769163
43	0xbd486439	-0.048923705
44	0x3cc723a6	0.02430899
45	0xbceea365	-0.029130647
46	0x3ca252fe	0.019814964
47	0xbc830ec3	-0.01599825
48	0xbd673859	-0.05645022
49	0x3d51775f	0.05113923
50	0x3d79a110	0.060944617
51	0xbd1bd6f3	-0.03804679
52	0x3d06d39f	0.03291666
53	0xbc1a4872	-0.009416686
54	0x3d7b1684	0.06130077
55	0xbc43abd5	-0.011942823
56	0xbd631c09	-0.05544666
57	0x3cdfb168	0.027306274
58	0xbd16454d	-0.036687184
59	0xbb5f6600	-0.0034087896
60	0x3d5c4c93	0.053783964
61	0xbd6a2f82	-0.057174213
62	0xbd51cd99	-0.051221464
63	0x3ce427d2	0.027851019
64	0x3d06dbb1	0.032924358
65	0x3d68cdc6	0.056836866
66	0x3d6d8e0a	0.057996787
67	0x3d08e816	0.03342446
68	0xbc62edf8	-0.0138506815
69	0x3d39cd59	0.04536185
70	0xb9d7088a	-0.00041014358
71	0x3cacc17b	0.021088352
72	0x3d504a4a	0.050852098
73	0x3c37b7b1	0.011213229
74	0x3d19ec44	0.037578836
75	0x3c2ebbb5	0.01066487
76	0x3d18cc61	0.037304286
77	0x3cc63293	0.024194038
78	0xbcd2e3e7	-0.025743438
79	0x3d6a8c01	0.057262424
80	0x3cccfd38	0.025023088
81	0xbcf96366	-0.030442905
82	0x3d079cad	0.033108402
83	0x3c9663b5	0.01835809
84	0x3d7414f3	0.05959029
85	0xbc883e62	-0.016631309
86	0xbd69c1db	-0.05706964
87	0x3d53076e	0.051520757
88	0x3ce9cd54	0.02854029
89	0x3d51a203	0.051179897
90	0x3cf138bd	0.029446
91	0xbbbf8109	-0.0058442396
92	0x38d5d6a1	0.00010196609
93	0x3a0924a4	0.0005231595
94	0xbc3e2281	-0.011604906
95	0x3c44d7ef	0.012014373
96	0x3d674af9	0.056467984
97	0xbc42a04f	-0.011879041
98	0xbd5d020a	-0.053957023
99	0x3d5fb19b	0.054612737
100	0x3d0afd12	0.033932753
101	0x3c9cf720	0.019160807
102	0x3d4e9886	0.050438426
103	0x3cf3e7af	0.029773561
104	0xbcf16129	-0.029465275
105	0x3c01dc9b	0.007926132
106	0x3d4b77a8	0.04967466
107	0x3cca9dae	0.02473339
108	0x3d1809fa	0.03711889
109	0x3c44a0cb	0.012001227
110	0xbd105304	-0.03523542
111	0xbc0aae98	-0.008464478
112	0xbca572ee	-0.020196404
113	0x3d73e797	0.059547033
114	0x3ce4d4b0	0.027933449
115	0xbca11a5a	-0.019665886
116	0xbcc4b3c1	-0.024011495
117	0xbc05fadd	-0.008177486
118	0x3d0f1e92	0.034941263
119	0xbc32d88f	-0.010915889
120	0xba17db46	-0.0005792867
121	0x3cafe2a1	0.02147037
122	0x3b33a700	0.0027412772
123	0x3a8f6a32	0.0010941683
124	0xbc2272e7	-0.00991509
125	0x3c5008cf	0.012697413
126	0x3d3ff0a8	0.046860367
127	0x3ba77b6a	0.0051111476
128	0xbd52e889	-0.051491294
129	0x3d267dee	0.04064744
130	0xbcd962e7	-0.026536418
131	0xbc339a83	-0.010962131
132	0xbd6ac1d3	-0.05731375
133	0xbceb7c25	-0.02874572
134	0x3c2c9156	0.010532698
135	0x3cfa5cd2	0.030561838
136	0xbd3f2e87	-0.04667523
137	0xbb96aedb	-0.004598481
138	0x3d4eaabe	0.0504558
139	0xbd6d3258	-0.05790934
140	0x3cc00a06	0.02344228
141	0x3b5a7a26	0.0033336966
142	0x3d5b56d8	0.053549618
143	0xbd74f8ac	-0.059807464
144	0x3d40c0e1	0.047058944
145	0xbd3807c6	-0.04492929
146	0xbd4f4025	-0.050598282
147	0xbca14c22	-0.019689623
148	0xbb7f4176	-0.003894893
149	0xbcbcefd0	-0.02306357
150	0x39a34f76	0.00031148986
151	0xbbbdaf05	-0.005788686
152	0x3c7bc428	0.0153665915
153	0x3d18e48a	0.037327327
154	0x3d14d525	0.036336083
155	0xbc8f0648	-0.01745905
156	0x3d2a7ec3	0.041624796
157	0x3c8de3a5	0.017320463
158	0xbcd29ee4	-0.02571053
159	0x3d174625	0.03693213
160	0xbd137259	-0.035997722
161	0x3c560a29	0.013063946
162	0xbc7a9b1f	-0.015295773
163	0xbd4917b1	-0.04909486
164	0xb9b93504	-0.0003532545
165	0x3c094440	0.0083780885
166	0xbd2992c5	-0.041399736
167	0xbd668cf7	-0.05628678
168	0x3d2afffc	0.041748032
169	0xbd70d390	-0.05879551
170	0xbc404c58	-0.011736952
171	0x3d442296	0.047884546
172	0x3cbd6bcd	0.023122692
173	0x3d0d23d0	0.03445798
174	0x3d28f682	0.041250713
175	0xbc2dc32f	-0.010605617
176	0xbaca5fef	-0.0015439967
177	0x3cfe6fb5	0.031059125
178	0x3cc63cfb	0.024199
179	0x3c28d6d7	0.010305128
180	0x3d52a4fe	0.05142688
181	0x3ce7177e	0.028209444
182	0xbd51bb03	-0.05120374
183	0xbd5bfb8d	-0.053706694
184	0xbca098b8	-0.019604072
185	0xbd5e9c6c	-0.054348394
186	0x3c6fb55b	0.014630641
187	0x3c8a304e	0.016868737
188	0xbc54a200	-0.012978077
189	0xbc75ee2e	-0.0150104
190	0x3c507c55	0.012724956
191	0xbd086558	-0.033299774
192	0x3c5ee24e	0.01360376
193	0x3cbeec1f	0.02330595
194	0x3d5d082d	0.053962875
195	0x3ce1c8d2	0.027561579
196	0xbd6dbf24	-0.058043614
197	0xbd087202	-0.03331185
198	0xbc440b4f	-0.011965587
199	0xbd1b5be7	-0.03792944
200	0x3cc6a1c5	0.02424706
201	0x3c1359af	0.00899355
202	0x3d04e925	0.032448906
203	0xbd3dd26a	-0.046343245
204	0xbc488da5	-0.012240802
205	0xbd39c091	-0.04534966
206	0xbd06659f	-0.032811757
207	0x3c7b6641	0.015344203
208	0x361e9ca7	2.3635018e-06
209	0xbce75bfc	-0.028242104
210	0x3cbecada	0.023290087
211	0x3c7420e8	0.014900424
212	0xbd77fb19	-0.0605422
213	0xbd072438	-0.032993525
214	0xbd54ad76	-0.051923238
215	0x3b02f42e	0.0019981968
216	0xbd73219e	-0.05935823
217	0xbd3390ea	-0.043839373
218	0xbc4713c9	-0.012150713
219	0x3c4de1e3	0.012566063
220	0x3c5809d3	0.013185936
221	0x3d7f2215	0.062288363
222	0x3d2e0cb8	0.0424926
223	0xbc4ddef2	-0.012565361
224	0xbd23097e	-0.039803974
225	0xbbe7dd95	-0.007075975
226	0x3d1a668e	0.03769546
227	0xbd524216	-0.051332556
228	0x3c04e786	0.00811184
229	0xbd2a9957	-0.041650143
230	0xbd2c425f	-0.042055484
231	0xbd5122c5	-0.05105855
232	0x3d606ee7	0.054793265
233	0xbd06da8e	-0.032923274
234	0x3b98aa20	0.0046589524
235	0xbc788fc9	-0.015171
236	0xbd6765fd	-0.056493748
237	0x3ceabeab	0.02865537
238	0xbc6222ab	-0.013802211
239	0x3d45ac4c	0.04826002
240	0x3d622cfc	0.05521868
241	0x3d258b2a	0.04041592
242	0xbc48cb61	-0.012255521
243	0xbd046a15	-0.03232773
244	0xbd5f5910	-0.054528296
245	0x3d1b2831	0.037880126
246	0x3d383716	0.04497441
247	0x3d7041a9	0.05865637
248	0x3d2a41e5	0.04156675
249	0x3d1bbc00	0.038021088
250	0xbd4bb7af	-0.04973572
251	0x3c4ea5d2	0.012612777
252	0x3ce84b21	0.028356137
253	0xbc2307ad	-0.0099505605
254	0x3d778339	0.060427878
255	0x3d6a5579	0.05721042
