EE8591/Project/classification_models/Ripley/DNN/deepnn/training_models/net_600.pt (torch, 282047 bytes, 14 tensors)

clf_net.0.weight f4 [256, 2]
000000 62 f3 f1 3e 88 58 7f be 5e 98 2f bf f2 8c 19 3f
       0.47256 -0.24936116 -0.6859187 0.5998069
000010 97 d4 6e be b1 a5 eb be 14 69 5a 3e c6 f7 f0 be
       -0.23323284 -0.4602485 0.21329147 -0.47064036
000020 db 16 92 be 57 17 a4 3e 12 de 2e 3e dd d2 fb 3d
       -0.28533062 0.32049057 0.170769 0.12296078
000030 0e a7 f2 3e a7 71 6e be 41 b9 0e 3f 4a a7 0b 3e
       0.47393078 -0.23285542 0.55751425 0.13638034
000040 d4 45 c2 3e dc bb c8 3e 81 7d af 3e 62 27 97 ba
       0.379439 0.39205825 0.3427544 -0.0011532123
000050 d9 85 13 3f 5c 1b 00 bf 50 03 27 bf e7 6e f2 be
       0.5762611 -0.5004175 -0.6523943 -0.47350237
000060 29 ec ff bd 44 ff d0 3d 99 68 1b 3f a8 f2 56 be
       -0.12496216 0.10204938 0.6070648 -0.20991004
000070 93 71 b5 3d 04 c0 8c be 12 db 9d be c8 29 26 3f
       0.08859553 -0.27490246 -0.308312 0.64907503
000080 ee b6 91 3d 00 62 b5 be 6a 96 2a be c2 6c 0d 3f
       0.07114969 -0.3542633 -0.16658941 0.55244076
000090 98 2f 21 bf da 4d 29 3e 49 a4 24 bf 1b 7f 81 3d
       -0.6296325 0.16533604 -0.6431318 0.063230716
0000a0 e4 b2 79 be 84 29 1f 3f b4 00 2e bf 4f f6 f0 3e
       -0.24384648 0.6217272 -0.6796982 0.4706292
0000b0 cc a3 df 3d 5e 4f 05 3f 8e de 57 3e f5 6b 20 3f
       0.10919914 0.5207423 0.21080992 0.6266473
0000c0 2d d3 e6 3e 2a 53 a9 be ec f8 b9 3d 57 39 d6 bd
       0.4508299 -0.33071262 0.09080681 -0.104601555
0000d0 5e 7b 21 bf a7 5b de 3e 56 e2 2c bf 4a 5b a1 bd
       -0.6307887 0.434293 -0.6753286 -0.0787874
0000e0 21 a9 c5 3b b0 a7 b5 3d 34 f2 2e 3f 53 3e 23 bf
       0.0060321246 0.088698745 0.6833832 -0.63766974
0000f0 ac 3d 26 bf 06 de 99 be d6 0d 3c 3e 6c 8b 5d be
       -0.64937854 -0.30052203 0.18364653 -0.21635216
000100 7e c0 5f be 08 56 b5 be f3 2d bb be 22 1f 0b bf
       -0.21850774 -0.354172 -0.36558494 -0.5434438
000110 62 e4 fe be 64 62 0d bf 80 15 8d 3e e4 6b 34 3f
       -0.49783617 -0.5522826 0.27555466 0.7047713
000120 b0 6b 86 3e a1 de ad 3d 42 38 d9 3e db 60 08 3f
       0.26254034 0.08489729 0.42425734 0.5327279
000130 6a 5d 26 3f 6e 03 aa be 34 64 bf be b9 08 c4 bd
       0.6498629 -0.33205742 -0.37381136 -0.09571976
000140 d1 e7 03 bf dc be 2f 3f c7 92 60 be a9 3e 8f 3e
       -0.515256 0.68650603 -0.21930991 0.27977493
000150 ce 37 64 be 30 fb 2f 3f 3a 5c e5 bb ea 40 f3 be
       -0.22286913 0.68742657 -0.0069995197 -0.47510463
000160 12 1f 9c 3e 70 60 d0 be c3 ae f8 3e bb 25 f1 be
       0.30492455 -0.40698576 0.48570833 -0.470991
000170 27 8d b0 3d 18 82 18 3f 08 71 0f 3f a9 2f 16 3d
       0.08620673 0.5957351 0.56031847 0.036666546
000180 28 d7 b2 3e c0 53 f5 be 1a c9 a5 bd 85 66 bb 3e
       0.34929776 -0.4791546 -0.08094998 0.36601654
000190 ef b1 7e be 24 3e 11 3f 17 68 0c 3e 4b 36 ab be
       -0.24872564 0.56735444 0.13711582 -0.3343986
0001a0 78 6c 30 3f 92 65 fa be db 95 9d be 50 6f f1 bd
       0.6891551 -0.48905617 -0.30778393 -0.11788809
0001b0 e5 ee 28 bf ef 0b c4 be 4f 5c 92 be d8 f0 0c 3f
       -0.65989524 -0.38290355 -0.2858605 0.55055
0001c0 b1 24 21 3f f8 df 52 be 1a 91 79 3d 7f 2f a7 bd
       0.6294661 -0.2059325 0.060929395 -0.08163356
0001d0 15 7e ba 3e d2 6f 2e be 80 f1 e0 3e f0 1c ac be
       0.36424318 -0.17034844 0.4393425 -0.33615828
0001e0 4d e8 26 3f d3 0f 85 be aa 75 a8 3e b1 97 24 3e
       0.6519821 -0.25988635 0.3290227 0.1607349
0001f0 00 4a 2b bf c8 2b d8 be 85 a4 38 3e 81 62 11 bf
       -0.6690979 -0.42220902 0.18031509 -0.5679093
000200 2a 71 03 bf d3 ab 1c 3f 29 c1 20 3f ad 7e e3 3e
       -0.5134455 0.6119968 0.6279474 0.44432583
000210 6f 28 c7 be 4f 2d 0b be e9 b1 00 be d5 88 32 bf
       -0.38898036 -0.13591503 -0.12567867 -0.6974004
000220 8d 20 fb bd 4f dc e4 3e 74 bc 0a be 7e 5e 3a bd
       -0.12262068 0.44699332 -0.13548452 -0.04550027
000230 f4 df c7 3e bf 47 a6 3e 31 5e 05 3f b1 19 8a 3e
       0.3903805 0.32476613 0.5209685 0.26972726
000240 f2 ce b1 be e6 08 e7 be 64 24 ab be d4 06 12 be
       -0.347282 -0.45123976 -0.334262 -0.14260417
000250 47 d8 86 be 86 a0 38 be 34 d0 8b 3e 08 3f 12 bf
       -0.26336882 -0.18029985 0.27307284 -0.5712743
000260 6a 98 1e bf 8e 4f 83 3e fd d0 24 be 5c 93 e5 be
       -0.61951315 0.25646633 -0.16095348 -0.4483899
000270 d5 84 a2 be d6 70 af be 0a c3 f3 be 02 a3 01 bf
       -0.31741968 -0.34265774 -0.4760974 -0.50639355
000280 d0 d6 27 be bf c0 27 bf 62 5d 12 3e 1d 74 2e 3f
       -0.16390538 -0.6552848 0.14293435 0.68145925
000290 0f ae a5 3e 97 0d 67 be 05 01 e2 3e a3 a5 93 3d
       0.3235936 -0.22563778 0.44141403 0.07209327
0002a0 ba 4d 13 3e 53 4b 46 bd fc e5 3e 3e e3 f9 20 3f
       0.14385119 -0.04841168 0.1864242 0.62881297
0002b0 08 b3 8d be f8 d7 3c 3e c4 59 ac be bc 7e 06 bf
       -0.27675653 0.1844176 -0.33662236 -0.5253713
0002c0 41 0a 4d be f6 f6 6b be 4c 0f d1 3e 7c dc 78 3e
       -0.20023443 -0.23043427 0.40831983 0.24302858
0002d0 b7 ea 11 bf de d3 b4 3e b7 37 98 be e7 b0 6d be
       -0.5699877 0.35317892 -0.29730007 -0.23212014
0002e0 ca 86 00 3f 7d c7 d1 3d 87 a5 ce 3e 30 6d 89 be
       0.5020567 0.102431275 0.40360662 -0.26841116
0002f0 32 75 01 bf 49 7c e2 be fe 69 f5 3e 62 98 71 3e
       -0.5056945 -0.44235447 0.47932428 0.23593286
000300 32 8c 9b be a9 df 8e 3e 27 ab ed 3e 4d 67 90 be
       -0.30380398 0.27905014 0.4641964 -0.28203812
000310 8c ff ae bd fb 04 15 bf 46 38 38 be 74 e8 12 bf
       -0.085448354 -0.58210725 -0.17990217 -0.57385945
000320 1a 17 de 3e d1 2e 2f be f6 dd 10 bf 66 a0 a6 3e
       0.43377 -0.17107703 -0.56588686 0.3254425
000330 35 a6 19 bc 05 ea 0b bf 0a 3f 19 3e fd 1b 4b be
       -0.009378006 -0.5465396 0.14965454 -0.19834895
000340 cc d2 6d 3e 98 cd f2 be 50 b9 b1 be e7 2d 82 bd
       0.23224944 -0.4742248 -0.34711695 -0.063564114
000350 07 54 fd be f5 1f b8 bd ce 3f 22 3f 4d a2 98 be
       -0.4947817 -0.0899047 0.6337861 -0.29811326
000360 96 0d e8 bd 60 cc 93 3e 69 f4 e2 3e 17 79 88 be
       -0.11330716 0.28866863 0.44327095 -0.26654884
000370 b7 06 ad 3e 9f 42 24 bf ae 15 25 bf 35 63 ac 3e
       0.33794186 -0.64164156 -0.64486206 0.3366944
000380 58 8b fe 3e 38 30 22 3f 91 7b 6c 3e c1 dd db be
       0.49715686 0.63354826 0.23094012 -0.42942622
000390 60 75 8f 3e fb 85 e3 3e 20 10 e7 3e 74 52 e2 3e
       0.28019238 0.44438156 0.4512949 0.44203532
0003a0 75 cd 2f 3f 97 26 dd be a1 1e b5 3e f4 3f c9 bc
       0.6867288 -0.43193504 0.3537493 -0.024566628
0003b0 76 4f 1f 3e b2 5e 2f 3f d7 3e 21 3f 31 85 a7 be
       0.15557656 0.6850387 0.6298651 -0.32718804
0003c0 19 51 f8 3e a5 34 f5 bd 82 44 43 be 81 0b 3e 3e
       0.48499373 -0.11972932 -0.19069102 0.18559076
0003d0 ef 51 5d 3d 49 11 b2 3e 8b 26 c6 bd 3b ef 32 3f
       0.054033216 0.34778813 -0.0967532 0.69896287
0003e0 35 3e 1f 3f 10 5f be 3c 35 34 ab 3e fb 96 b4 be
       0.62204295 0.023238689 0.33438268 -0.3527144
0003f0 a5 3f b4 3e d1 d5 d3 3e b4 f9 d5 3e 81 98 9c be
       0.35204807 0.41374066 0.4179207 -0.305851

clf_net.0.bias f4 [256]
000000 0c f6 06 3f 44 c8 fa 3e ff e4 f3 bc 3c 31 fe 3e
       0.5271919 0.48980916 -0.02977228 0.49646938
000010 30 01 f5 3e c8 39 f9 be c0 85 23 bf 5d 99 9e bb
       0.47852468 -0.48676896 -0.6387596 -0.0048400597
000020 2c 3d 2a bf ed 98 fc be 93 59 f1 bb 8a 98 d4 3e
       -0.6649959 -0.49335423 -0.0073654144 0.41522628
000030 ec 7b 2c 3e 47 c9 96 3e 41 b4 ad 3e b5 07 7d be
       0.16844147 0.29450437 0.33926585 -0.24709971
000040 cc 80 19 3e 6f f7 2c 3f f3 0b f3 3e 9f 29 26 3e
       0.14990538 0.67565054 0.47470054 0.16226815
000050 8e 76 0a 3d 52 d7 81 bd 90 fb 2f bf c4 3a 8d be
       0.03380447 -0.06339897 -0.6874323 -0.27583897
000060 b9 e7 ae bd 4a 25 13 bf fc f1 0e bf 77 33 a0 3e
       -0.08540291 -0.57478774 -0.5583799 0.31289265
000070 9e 11 33 bf 68 65 eb bd dd c5 ab 3e 8b cf f7 be
       -0.69948757 -0.11493951 0.33549395 -0.4840053
000080 0e fc 2f 3f 30 8d ee bd 83 fd 69 be 47 76 11 be
       0.6874398 -0.11648023 -0.22850613 -0.14205275
000090 2e 4a 5f 3e e4 98 ac be b4 86 db be e9 4e fa 3e
       0.21805641 -0.33710396 -0.42876208 0.4888833
0000a0 2b f4 e4 3e 21 c1 15 bf c2 95 00 bf d3 b9 ec 3e
       0.44717535 -0.58497816 -0.5022851 0.46235523
0000b0 a6 d1 50 be 6d be e9 3d 9d 0d a8 3c 50 d5 2b 3e
       -0.20392475 0.11413274 0.020514304 0.16780591
0000c0 0f 36 15 bf eb d7 98 be 24 ee 89 be 3d 2f 0c 3f
       -0.5828561 -0.29852232 -0.269395 0.5475958
0000d0 71 6e fa 3e e6 03 30 3f 32 04 fb 3e b5 f0 3d be
       0.48912385 0.6875595 0.49026638 -0.18548854
0000e0 37 80 ff be 4b 60 86 3e 56 0b f0 be 35 da 5f 3e
       -0.49902508 0.2624534 -0.4688365 0.21860583
0000f0 9e f5 e6 3d 3c 4f 27 3f 52 6c 1f bf 57 e0 72 3e
       0.112773165 0.6535528 -0.6227466 0.23718391
000100 6e fd fd 3d d9 69 12 bf 4e ac fe bd f5 1d 7e 3e
       0.124018535 -0.5719276 -0.12435208 0.24816115
000110 e5 e4 6d 3d fb ef ef be 81 b2 41 be ae 0c 92 3e
       0.05807962 -0.46862778 -0.1891575 0.285253
000120 b5 59 36 be 57 8e 65 3e 62 d9 a8 3e 48 49 27 3f
       -0.17807658 0.2241758 0.3297835 0.65346193
000130 02 26 b5 bd 7d dd 01 3f fb 8a 7e be 90 8a 19 3e
       -0.0884514 0.5072859 -0.24857704 0.14994264
000140 5c 2e 14 3f e1 5e 28 3f d9 ba c9 be 48 0a 33 3f
       0.5788324 0.65769774 -0.39400366 0.6993756
000150 aa a6 1a bf 45 f6 03 be 6b 54 62 3d 43 b8 da 3e
       -0.6041056 -0.12886913 0.05525629 0.42718706
000160 ca 81 e9 bd 7f 58 01 3f 18 d6 28 3f 4a b0 35 3e
       -0.114017084 0.5052566 0.6595168 0.1774303
000170 cb 3e 88 bd 1e 6a 4d 3e 69 8e a3 3e 8c 47 02 3f
       -0.06652602 0.20060012 0.31944588 0.5089042
000180 24 2d 2b 3f d1 27 2d 3c 6e fc 30 3f 7b b6 5a be
       0.66865754 0.010568575 0.6913518 -0.21358673
000190 8e 77 e8 3e a9 ff 64 3d 0b 93 17 3f b0 d1 26 bf
       0.45403713 0.05590788 0.59208745 -0.6516371
0001a0 28 d6 1d 3e 13 5b 0c 3f cd f3 ac 3d 7e 0c 0f bf
       0.15413725 0.5482647 0.08444939 -0.55878437
0001b0 3f 11 3b 3d 96 7c 93 bd 30 7e bf be 44 55 0c 3d
       0.045670744 -0.07201497 -0.3740096 0.034261003
0001c0 e3 98 d3 3e f6 46 d1 3d e8 d1 cb 3e b2 a6 f1 3e
       0.4132758 0.10218613 0.39808583 0.4719749
0001d0 4e 7a d3 3d 81 23 1b 3f f8 d3 04 bd cb 91 ff be
       0.10326062 0.6060105 -0.03242871 -0.4991592
0001e0 78 79 2c bf 35 d8 66 be 12 d6 88 be e9 03 2d 3f
       -0.67372847 -0.22543414 -0.26725823 0.6758409
0001f0 32 6a 10 3e be f0 f7 3e ff a5 13 be cd 5b 85 3e
       0.1410301 0.4842586 -0.14418791 0.260466
000200 e4 30 91 3d bc 5d 08 bf ca 98 c0 be 19 a7 12 3f
       0.07089403 -0.5326803 -0.3761657 0.5728622
000210 9d 32 00 be 93 25 87 be ee 65 10 bf 29 e7 6b bc
       -0.12519307 -0.26395854 -0.5640553 -0.014398375
000220 69 28 0c bf 38 17 dc be e2 13 dc bd f4 ca 26 3e
       -0.5474916 -0.42986465 -0.1074598 0.16288358
000230 f2 51 01 3d a1 07 a3 be ed 29 27 bf 76 ba 4d 3d
       0.03157229 -0.31841758 -0.6529835 0.05022665
000240 de ab 13 bf f3 7b ff 3e 3f ee e4 3c 61 5c b0 be
       -0.57684124 0.49899253 0.027945636 -0.3444548
000250 57 0c ff 3e a4 45 15 3e 13 cb 07 bf f5 b6 c7 be
       0.49814102 0.14577347 -0.5304424 -0.39006773
000260 ac bf 00 3f 58 96 a5 bd 08 05 fe 3d bc f4 55 3e
       0.5029247 -0.080853164 0.124033034 0.2089414
000270 03 a0 00 3f 4a 43 33 3f 9e 7d 24 b9 53 21 bb be
       0.5024416 0.7002455 -0.00015687055 -0.36548862
000280 cb 36 71 3e f5 09 12 bf 47 1f 33 be a5 f6 3a bb
       0.23556058 -0.57046443 -0.174924 -0.002852836
000290 4d a7 a3 be 8a 32 2c 3d 52 50 46 3e 4e 85 32 3e
       -0.31963578 0.042040385 0.19366577 0.17433664
0002a0 d4 03 0d bf e5 54 f2 be 20 f8 c0 3e b3 ce 17 be
       -0.55083966 -0.47330394 0.37689304 -0.14824943
0002b0 a8 27 2d bf 17 54 d0 3e 35 ea 10 bf d7 35 1d 3f
       -0.67638636 0.40689155 -0.5660737 0.6141028
0002c0 13 d3 86 3e 8a 12 b5 3e e4 99 96 3d ef fd f7 3e
       0.26332912 0.35365707 0.07353571 0.48435923
0002d0 18 21 08 3e 71 83 96 3d 3c 01 2c 3f 22 39 04 3f
       0.13293874 0.07349289 0.67189384 0.5164968
0002e0 85 17 27 3f 6d f4 1e 3f f5 75 86 bd 3b 57 f6 bd
       0.6527026 0.62091714 -0.06565467 -0.12028357
0002f0 2c 55 ea be 40 96 8d be 03 1a 20 3f 76 28 f4 3e
       -0.45768106 -0.27653694 0.6253969 0.4768712
000300 69 7d c8 be 09 5f ba 3e 1b 8f c9 be 29 ab e4 3e
       -0.3915818 0.3640063 -0.39366993 0.44661835
000310 b9 33 e0 be c4 d1 1b 3f b4 62 c0 be 9f 9f fe be
       -0.4378946 0.6086695 -0.37575305 -0.49731156
000320 31 7d a8 3e 57 53 15 3d 09 32 81 3d 25 e1 7d be
       0.32908013 0.036456432 0.063083716 -0.24792917
000330 aa 16 1e 3f ce 6e e1 be 19 de 9c 3d 8b 62 19 be
       0.6175333 -0.4402985 0.07659549 -0.14978997
000340 1a 2c 81 3e 87 df b0 be c5 df 1b bf e7 38 da be
       0.2522896 -0.34545538 -0.6088832 -0.42621538
000350 3d 22 6e bd 45 33 30 bf 03 56 19 3f ee 1d f4 3e
       -0.05813812 -0.6882823 0.5989687 0.47679085
000360 e5 1f bc bd 44 90 ed bd ec 57 a0 be 25 b7 ae be
       -0.09185771 -0.11599782 -0.3131708 -0.34124103
000370 3d f7 dc 3e 6a 49 27 3e c6 ab 95 be c7 65 b3 3e
       0.43157378 0.16336599 -0.29232615 0.35038587
000380 c2 5f 34 3f 4d 12 86 bd 18 f7 22 bf 7d e8 6b 3d
       0.70458615 -0.06546459 -0.63658285 0.057594765
000390 7d 78 cb bd 97 fb 8c 3e a6 05 14 bf ba 03 c1 3e
       -0.09935091 0.27535698 -0.5782112 0.37698156
0003a0 12 32 03 bd d8 36 2c 3f 9c 90 a3 bd 2a 00 ea be
       -0.032030173 0.67271185 -0.079865664 -0.4570325
0003b0 b0 dc 32 3f 10 b4 99 be f3 28 d2 3e c7 89 e3 3d
       0.6986799 -0.3002019 0.41046867 0.11110263
0003c0 38 f8 c3 be 06 1c 19 3f b1 8c d7 3e 02 ab 34 bf
       -0.38275313 0.59808385 0.42099527 -0.7057344
0003d0 08 16 4e bd 49 72 2d 3e 6a 53 1c 3e a3 2a 10 3f
       -0.05031398 0.16938128 0.15266195 0.5631506
0003e0 48 06 c5 be d8 17 84 be b1 d4 be be f6 fb 76 3e
       -0.38481355 -0.2579944 -0.37271646 0.24119553
0003f0 39 47 8e be 30 c5 1d 3f c4 8c 2c 3f d9 d4 66 3e
       -0.27788714 0.6162901 0.6740229 0.22542132

clf_net.1.weight f4 [256]
000000 e3 d0 7f 3f 02 00 80 3f 30 be 7f 3f 0c 15 80 3f
       0.9992811 1.0000002 0.9989958 1.0006423
000010 fe 16 80 3f 3a 01 80 3f 63 16 80 3f 44 d9 7f 3f
       1.0007017 1.0000374 1.0006832 0.99940896
000020 3b 04 80 3f 5c 10 80 3f af ed 7f 3f 7a e4 7f 3f
       1.0001291 1.0004992 0.9997205 0.99958
000030 11 df 7f 3f 26 fd 7f 3f 46 a6 7f 3f 7e 07 80 3f
       0.9994975 0.9999565 0.9986309 1.0002286
000040 f2 cb 7f 3f 6e 1b 80 3f fc 22 80 3f 45 08 80 3f
       0.9992057 1.0008371 1.0010676 1.0002524
000050 b5 12 80 3f eb ee 7f 3f 13 e9 7f 3f 70 05 80 3f
       1.0005709 0.99973935 0.9996502 1.0001659
000060 c7 fa 7f 3f d1 0d 80 3f a5 05 80 3f d4 e6 7f 3f
       0.9999203 1.0004216 1.0001723 0.9996159
000070 b3 01 80 3f cc 0a 80 3f e1 ec 7f 3f c1 02 80 3f
       1.0000519 1.0003295 0.99970824 1.000084
000080 32 08 80 3f 88 05 80 3f d3 0a 80 3f 2d 0d 80 3f
       1.0002501 1.0001688 1.0003303 1.0004021
000090 1a 02 80 3f be 03 80 3f eb 03 80 3f f7 ec 7f 3f
       1.0000641 1.0001142 1.0001196 0.99970955
0000a0 c9 06 80 3f 49 f5 7f 3f ee bc 7f 3f 75 29 80 3f
       1.0002071 0.9998365 0.9989766 1.0012652
0000b0 25 06 80 3f 04 02 80 3f a3 e9 7f 3f 23 09 80 3f
       1.0001875 1.0000615 0.99965876 1.0002788
0000c0 04 d7 7f 3f 42 13 80 3f 41 11 80 3f e1 05 80 3f
       0.9993746 1.0005877 1.0005265 1.0001794
0000d0 c0 de 7f 3f b1 b9 7f 3f 7f db 7f 3f 89 cd 7f 3f
       0.99949265 0.9989272 0.999443 0.99922997
0000e0 9a bf 7f 3f f7 ff 7f 3f 46 0a 80 3f 0f fc 7f 3f
       0.99901736 0.99999946 1.0003135 0.99993986
0000f0 fe f3 7f 3f 8c e5 7f 3f 57 e6 7f 3f 5f c6 7f 3f
       0.9998168 0.99959636 0.99960846 0.99912065
000100 f9 c5 7f 3f 55 05 80 3f 44 0a 80 3f f6 09 80 3f
       0.9991146 1.0001627 1.0003133 1.000304
000110 29 f3 7f 3f b3 f4 7f 3f c9 e8 7f 3f ce 02 80 3f
       0.9998041 0.99982756 0.99964577 1.0000856
000120 b1 c7 7f 3f c4 04 80 3f 9c d4 7f 3f 04 19 80 3f
       0.9991408 1.0001454 0.9993379 1.0007634
000130 3d 02 80 3f d4 df 7f 3f 08 14 80 3f 65 02 80 3f
       1.0000683 0.9995091 1.0006113 1.0000731
000140 d6 f2 7f 3f 06 cb 7f 3f 5c f8 7f 3f 47 16 80 3f
       0.99979913 0.99919164 0.9998834 1.0006799
000150 73 20 80 3f 7a 16 80 3f 91 02 80 3f 40 cc 7f 3f
       1.0009903 1.0006859 1.0000783 0.99921036
000160 a5 07 80 3f ae 00 80 3f a9 06 80 3f c1 b6 7f 3f
       1.0002333 1.0000207 1.0002033 0.99888235
000170 33 f6 7f 3f ce 1d 80 3f 1d 19 80 3f c3 f0 7f 3f
       0.99985045 1.0009096 1.0007664 0.9997675
000180 eb cf 7f 3f cd 02 80 3f 79 ef 7f 3f 8d 00 80 3f
       0.9992663 1.0000855 0.9997478 1.0000168
000190 fb 11 80 3f 0b f1 7f 3f 77 1b 80 3f a3 06 80 3f
       1.0005487 0.9997718 1.0008382 1.0002025
0001a0 84 c0 7f 3f 17 05 80 3f bd 02 80 3f 56 f6 7f 3f
       0.9990313 1.0001553 1.0000836 0.99985254
0001b0 d2 e5 7f 3f ea ea 7f 3f 74 f1 7f 3f b2 2a 80 3f
       0.9996005 0.99967825 0.99977803 1.001303
0001c0 cb df 7f 3f 4c 12 80 3f fe fc 7f 3f 94 16 80 3f
       0.99950856 1.0005584 0.9999541 1.000689
0001d0 1b 03 80 3f 31 05 80 3f 1c 01 80 3f b5 ea 7f 3f
       1.0000948 1.0001584 1.0000339 0.9996751
0001e0 b9 21 80 3f de de 7f 3f d0 bd 7f 3f d2 f5 7f 3f
       1.0010291 0.99949443 0.99899006 0.9998447
0001f0 eb 04 80 3f 55 f2 7f 3f 56 dc 7f 3f 7b d8 7f 3f
       1.0001501 0.99979144 0.9994558 0.999397
000200 a3 34 80 3f 6a eb 7f 3f 39 12 80 3f 66 0e 80 3f
       1.0016063 0.9996859 1.0005561 1.0004394
000210 fe 1a 80 3f f6 de 7f 3f 0b 07 80 3f da 0e 80 3f
       1.0008237 0.99949586 1.0002149 1.0004532
000220 89 13 80 3f ad fb 7f 3f 12 fb 7f 3f 81 02 80 3f
       1.0005962 0.999934 0.9999248 1.0000764
000230 bf f8 7f 3f 4f 03 80 3f 07 ee 7f 3f ed dc 7f 3f
       0.9998893 1.000101 0.99972576 0.9994648
000240 f4 02 80 3f 3a f4 7f 3f 7b ed 7f 3f 1f 0b 80 3f
       1.0000901 0.99982035 0.9997174 1.0003394
000250 54 06 80 3f a9 e6 7f 3f 8a fb 7f 3f 23 0f 80 3f
       1.0001931 0.99961334 0.99993193 1.0004619
000260 58 04 80 3f c2 02 80 3f 30 03 80 3f 64 12 80 3f
       1.0001326 1.0000842 1.0000973 1.0005612
000270 93 13 80 3f 96 13 80 3f d5 d7 7f 3f 9e 15 80 3f
       1.0005974 1.0005977 0.9993871 1.0006597
000280 0b dc 7f 3f b0 26 80 3f 65 e7 7f 3f 01 0c 80 3f
       0.99945134 1.0011806 0.99962455 1.0003663
000290 a6 d8 7f 3f 84 e4 7f 3f b8 dd 7f 3f 65 10 80 3f
       0.99939954 0.9995806 0.9994769 1.0005003
0002a0 ef d6 7f 3f d5 04 80 3f 12 02 80 3f dd ca 7f 3f
       0.9993734 1.0001475 1.0000632 0.9991892
0002b0 d6 0a 80 3f cd 0e 80 3f 76 bf 7f 3f e1 06 80 3f
       1.0003307 1.0004517 0.9990152 1.0002099
0002c0 e9 f8 7f 3f 87 fa 7f 3f e1 0a 80 3f fe 09 80 3f
       0.9998918 0.9999165 1.000332 1.0003049
0002d0 f2 0b 80 3f 73 02 80 3f 28 dc 7f 3f d0 01 80 3f
       1.0003645 1.0000747 0.99945307 1.0000553
0002e0 89 0b 80 3f 01 bb 7f 3f f2 ca 7f 3f 4e bb 7f 3f
       1.000352 0.9989472 0.99919045 0.9989518
0002f0 f3 0b 80 3f 20 ff 7f 3f 9e 04 80 3f e7 fd 7f 3f
       1.0003647 0.99998665 1.0001409 0.999968
000300 a9 16 80 3f e0 c9 7f 3f 0e ee 7f 3f e0 0b 80 3f
       1.0006915 0.9991741 0.9997262 1.0003624
000310 8d e9 7f 3f 30 0b 80 3f 08 03 80 3f e1 db 7f 3f
       0.99965745 1.0003414 1.0000925 0.99944884
000320 01 ee 7f 3f 57 d1 7f 3f 02 cf 7f 3f d9 01 80 3f
       0.9997254 0.999288 0.99925244 1.0000564
000330 e6 19 80 3f 09 df 7f 3f e9 e1 7f 3f 22 19 80 3f
       1.0007904 0.999497 0.99954087 1.000767
000340 b1 03 80 3f f1 11 80 3f 9b f2 7f 3f 52 f3 7f 3f
       1.0001127 1.0005475 0.9997956 0.9998065
000350 d2 b1 7f 3f 5a 0b 80 3f 38 08 80 3f 7d ee 7f 3f
       0.9988071 1.0003464 1.0002508 0.9997328
000360 33 13 80 3f a5 39 80 3f 8e df 7f 3f 86 f7 7f 3f
       1.0005859 1.0017592 0.9995049 0.99987066
000370 25 0a 80 3f c5 0c 80 3f e6 06 80 3f d0 16 80 3f
       1.0003096 1.0003897 1.0002105 1.0006962
000380 a7 fb 7f 3f f0 d9 7f 3f a1 1a 80 3f 73 f7 7f 3f
       0.99993366 0.9994192 1.0008126 0.9998695
000390 fa d0 7f 3f ff 11 80 3f 16 d5 7f 3f 49 1a 80 3f
       0.9992825 1.0005492 0.9993452 1.0008022
0003a0 86 fb 7f 3f d2 11 80 3f c3 02 80 3f e6 1b 80 3f
       0.9999317 1.0005438 1.0000843 1.0008514
0003b0 ae 07 80 3f 6a e4 7f 3f ee c7 7f 3f 43 00 80 3f
       1.0002344 0.9995791 0.99914443 1.000008
0003c0 ee f1 7f 3f 0f 1e 80 3f af 07 80 3f c9 10 80 3f
       0.9997853 1.0009173 1.0002345 1.0005122
0003d0 c9 df 7f 3f 5c 04 80 3f d6 f4 7f 3f e4 0c 80 3f
       0.99950844 1.000133 0.99982965 1.0003934
0003e0 bd 07 80 3f 9b cf 7f 3f 99 0e 80 3f 83 f2 7f 3f
       1.0002362 0.99926156 1.0004455 0.9997942
0003f0 67 15 80 3f 22 bf 7f 3f 1f fd 7f 3f bc 07 80 3f
       1.0006531 0.9990102 0.9999561 1.000236

clf_net.1.bias f4 [256]
000000 83 9a 5a bb 82 6c 97 3a f3 f9 09 39 25 dc d9 39
       -0.0033356256 0.0011552724 0.00013158451 0.00041553486
000010 d7 57 71 3a 31 c7 e9 ba 2e f0 bf 3b 48 99 92 b8
       0.00092065096 -0.0017835853 0.005857489 -6.9903734e-05
000020 9a b8 ac ba 9c f9 87 ba 5b e8 5b 3a 78 bb 95 3a
       -0.0013177574 -0.0010374072 0.00083888107 0.0011423668
000030 b5 87 0c 3a 2e f3 7b 3a e4 63 a0 ba 5c 3c 27 39
       0.0005360798 0.0009611127 -0.0012236801 0.00015948847
000040 33 33 69 ba 53 05 03 b8 68 80 1a ba f8 a5 9d b9
       -0.0008895874 -3.1237792e-05 -0.0005893768 -0.0003006903
000050 f2 95 81 3a 48 70 48 ba 3b 76 91 b9 a6 97 d3 39
       0.0009886606 -0.0007646126 -0.00027744644 0.00040358043
000060 23 cd 65 ba 8a 21 86 3a 0f 94 ca ba f8 a6 11 39
       -0.00087662245 0.0010233384 -0.0015455502 0.00013890478
000070 c2 d9 96 b9 19 97 0a 3a 80 04 0a ba 9f 89 05 3b
       -0.00028772472 0.00052867975 -0.0005264953 0.0020376218
000080 bd 29 fb 39 79 42 92 ba 75 81 8c 37 27 d5 46 3a
       0.00047905548 -0.0011158726 1.6749584e-05 0.0007584863
000090 cd 5b 5d 3a 6d 2e ee 3a 03 4c 91 b9 67 dc 8f b9
       0.00084441603 0.0018171795 -0.00027713188 -0.00027439298
0000a0 b1 29 5a ba cd a1 f0 3a aa cf 10 ba 9d 5d d0 3a
       -0.00083222525 0.0018358767 -0.00055241084 0.001589704
0000b0 2c 24 e3 b8 59 94 14 3a eb 04 af b9 63 25 d9 ba
       -0.00010830941 0.00056678575 -0.00033382265 -0.0016566928
0000c0 92 d0 47 3a 95 db 53 39 fa 87 18 ba c9 dd cb 38
       0.0007622327 0.00020204329 -0.0005818602 9.721105e-05
0000d0 c9 6f c0 39 e0 e3 a9 3a 58 ab 9f ba b9 6c 22 3a
       0.0003670438 0.0012961589 -0.0012181802 0.00061960105
0000e0 64 a8 bb ba 40 f0 93 b9 5c 11 35 3b 98 f6 d4 38
       -0.0014317152 -0.00028217025 0.0027628755 0.000101548794
0000f0 65 f3 2c 3b d0 62 3d ba 03 cc 56 3a 9f 9e 5f ba
       0.0026390192 -0.0007224502 0.0008193852 -0.0008530411
000100 46 2f 08 ba 39 4f be ba bd ea b7 39 e7 ca 90 ba
       -0.00051950326 -0.001451946 0.00035079374 -0.0011046798
000110 ac ee f2 b9 41 ba 5d ba f3 6b a3 3a c0 bd 74 3a
       -0.0004633566 -0.0008458235 0.0012468084 0.0009336136
000120 0e 73 07 3a 85 4e 3a 39 66 74 b9 b9 64 f5 fb 39
       0.0005166986 0.00017767593 -0.00035372673 0.0004805728
000130 e0 c2 fa 38 e8 b7 94 ba 8c cc ef ba cd 8b c1 b8
       0.00011957227 -0.0011346312 -0.0018295213 -9.228997e-05
000140 3f 3c 4c 35 f1 29 61 ba 2e 23 26 ba 91 43 8f 3a
       7.608359e-07 -0.00085893186 -0.00063376396 0.001093017
000150 f2 80 c3 3a 03 52 b9 39 e3 39 08 b9 fd 60 17 3a
       0.0014915748 0.00035347053 -0.00012991535 0.0005774645
000160 3b 0f db ba 51 11 bd ba 7e 0d 02 3a 1e dd 89 b9
       -0.0016712913 -0.0014424716 0.0004961117 -0.0002629542
000170 b3 28 38 bb ea 98 36 3b 2d 9e 6d ba 9c bd 64 ba
       -0.002810043 0.002786214 -0.00090644025 -0.0008725764
000180 66 71 14 3b b4 a9 b4 39 1e 27 0e 3a ed d3 c4 b8
       0.0022650599 0.00034458714 0.0005422699 -9.3854826e-05
000190 27 31 a9 3a 76 e1 81 b9 33 52 7a 3a 64 08 20 b8
       0.0012908325 -0.0002477278 0.0009548992 -3.8154787e-05
0001a0 59 bf e2 b8 72 d2 0f b9 b0 63 f5 ba c8 21 e3 ba
       -0.00010812161 -0.0001371594 -0.0018721726 -0.0017328793
0001b0 a4 9e 00 3a b5 56 c2 3a 86 2b 67 ba 1a 8f 1f bb
       0.0004906452 0.0014826866 -0.0008818436 -0.002434677
0001c0 22 6e be b7 4d dc 8b 3a 47 b6 91 3a 2c ad fd ba
       -2.270105e-05 0.0010670513 0.0011116945 -0.0019353977
0001d0 a2 0c 03 ba c7 08 dd 3a 5c b2 cb b9 2f e4 04 3b
       -0.0004999136 0.0016863578 -0.00038852065 0.002027761
0001e0 67 4a 82 3b 30 0b 7b ba 75 ce b6 b9 70 cd cb b9
       0.0039761546 -0.0009576557 -0.00034867568 -0.0003887224
0001f0 19 31 4f ba a1 b2 6f b4 95 7d 8d ba 0a 69 f3 ba
       -0.00079037395 -2.2323594e-07 -0.0010794873 -0.0018570733
000200 55 66 5b ba ff 86 d4 39 67 94 fa 3a ab 50 8a 3a
       -0.00083694357 0.0004053637 0.0019117714 0.0010552605
000210 9d 78 71 ba 0d 6a 2b ba 0f a6 6c 39 62 2b 2b ba
       -0.0009211393 -0.0006538935 0.00022568576 -0.0006529597
000220 9f 85 6e 3a 4e f1 13 3a 91 d4 52 3a 1d 37 f2 ba
       0.00090988906 0.0005643562 0.0008042539 -0.001847956
000230 65 96 34 ba 21 53 58 ba 30 0e 24 3a 00 5c 13 ba
       -0.00068888656 -0.0008252133 0.00062582176 -0.0005621314
000240 17 d1 c9 ba a5 72 f1 3a b3 b3 07 ba 5a 56 04 3a
       -0.0015397397 0.0018421008 -0.00051766186 0.0005048268
000250 9e f2 1f ba d7 3b da 38 0e e0 1e 37 e2 2f a8 b9
       -0.00061015214 0.00010406196 9.469701e-06 -0.00032079133
000260 2f 43 b5 b9 e6 e0 e2 3a ed ef 17 ba 91 25 98 ba
       -0.00034573066 0.0017309457 -0.00057959446 -0.0011607875
000270 1f fc 3b 38 34 d7 6e 39 10 82 9a 3a 30 ac 49 ba
       4.481908e-05 0.00022777618 0.0011788029 -0.00076931994
000280 6c 81 87 b8 86 a4 e9 3a 91 4a 03 bb 04 b5 aa 3a
       -6.461408e-05 0.0017825521 -0.0020033459 0.0013023918
000290 19 83 eb 39 34 56 04 3a 8a e3 cf b9 b2 20 c0 ba
       0.00044920368 0.00050482457 -0.00039651647 -0.0014658181
0002a0 70 c0 14 ba e5 fa 07 38 da 0a bb 38 fe 1a 6c ba
       -0.00056744274 3.2420172e-05 8.918876e-05 -0.00090067077
0002b0 44 7f d2 ba 60 d2 95 b9 1f 35 9b b9 f1 8a 23 3a
       -0.0016059657 -0.00028576236 -0.00029603482 0.00062386604
0002c0 8e ad 68 ba 40 66 88 b9 22 2b a9 3a b0 61 cb ba
       -0.00088759593 -0.00026016124 0.0012906531 -0.0015516784
0002d0 38 09 0d ba e4 8f 7e ba 66 30 85 39 4f ad 9f ba
       -0.0005380097 -0.00097107724 0.00025403796 -0.0012182387
0002e0 af 1f 3d 3a e2 63 c5 ba 1b e0 63 3a b6 84 66 ba
       0.0007214499 -0.0015059675 0.0008692757 -0.0008793579
0002f0 25 68 8e ba d6 8b 09 3a 88 14 e2 39 5b 1b 81 3a
       -0.0010864778 0.00052469724 0.00043121376 0.0009850072
000300 2a d2 cc b9 f7 02 ab b9 02 f6 cb ba 95 00 e7 3a
       -0.00039066497 -0.0003261787 -0.0015560987 0.0017624075
000310 a3 48 d8 b9 30 d2 3a ba 9f 70 ab 3a 1a ce fc 39
       -0.0004125285 -0.00071266573 0.0013079828 0.00048218743
000320 91 64 85 3a 86 0f 7b b9 0d c3 80 38 d6 b6 87 3a
       0.0010177066 -0.00023943008 6.139847e-05 0.0010354172
000330 32 b9 17 3b 46 f8 f9 ba 54 5e 6c 3a e3 78 e7 3a
       0.0023151156 -0.0019071184 0.00090167415 0.0017659928
000340 95 ad 2a ba d5 72 81 39 74 f9 04 ba 17 ec 1b ba
       -0.0006510851 0.00024690354 -0.0005072572 -0.0005947961
000350 6d 32 35 ba 75 d1 44 39 b6 76 4e 38 c1 77 9c 38
       -0.0006912116 0.00018770045 4.9224785e-05 7.4609656e-05
000360 11 30 83 38 58 87 01 bb d9 c6 4a bb 18 c1 96 ba
       6.25552e-05 -0.001976451 -0.0030941276 -0.0011501638
000370 b6 d7 47 3b b2 89 5a ba aa 1a d1 b9 82 a0 17 ba
       0.0030493564 -0.0008336558 -0.00039883453 -0.00057841104
000380 0f 23 e5 3a ed f4 e8 ba f3 a7 0f bb 79 16 9c ba
       0.0017481762 -0.0017773189 -0.0021920174 -0.0011908553
000390 4b 22 3c 3a 17 8e 4e b9 5a 7b 03 3a b5 9b bc 39
       0.0007176741 -0.00019698624 0.0005015634 0.00035974165
0003a0 80 e8 d8 ba 2d 88 66 b8 1b be 20 ba ea 78 4d b9
       -0.0016548783 -5.4963097e-05 -0.00061318435 -0.00019595367
0003b0 a0 46 01 3a a9 69 00 ba d1 57 7d b9 ab 0e 6d ba
       0.00049314834 -0.0004898557 -0.00024160674 -0.0009043018
0003c0 45 29 b9 ba 18 63 63 3b 3c c7 22 3b 77 d2 dd 39
       -0.0014126679 0.0034696516 0.0024837991 0.00042309213
0003d0 f5 b6 eb ba fc 56 39 3b 40 10 79 ba a2 95 df 39
       -0.0017983603 0.0028280606 -0.00095010176 0.0004264536
0003e0 d7 41 d0 ba 61 de e2 39 7f 6f b0 38 f1 94 5a bb
       -0.0015888762 0.00043271764 8.413102e-05 -0.0033352936
0003f0 13 cc 40 b9 bf 9f 23 3b 86 3c 8b ba 07 8d 70 3a
       -0.0001838657 0.0024967042 -0.0010622896 0.0009176288

clf_net.1.running_mean f4 [256]
000000 cf 25 c4 3e a3 9d 51 3f 45 53 81 be 4d 82 80 3e
       0.38310096 0.8188116 -0.25258842 0.25099412
000010 da b1 26 3f c3 e9 dc be 33 4b 46 bf 52 8e 2c 3d
       0.6511513 -0.43147096 -0.77458495 0.042127915
000020 a2 e8 f6 be e6 de 01 bf 48 63 90 be e6 ef 4e 3e
       -0.4822436 -0.5073074 -0.28200746 0.20208701
000030 e3 21 66 3e 5d 01 29 3e 89 06 4a 3e f6 6a bc 3d
       0.22473864 0.16504426 0.19729055 0.09200089
000040 2a 8b 00 bd f1 e4 75 3f 02 24 15 3f 12 7c 60 3e
       -0.031382717 0.9605246 0.5825807 0.21922329
000050 a0 94 b6 3e da 13 4d 3e 0f cc db be b7 d9 01 3d
       0.35660267 0.20027104 -0.42929122 0.03170177
000060 1c 0e 8a be 1a 8b 21 bf 65 3e a1 be a5 5d 99 3e
       -0.2696389 -0.6310288 -0.31492916 0.29954258
000070 53 b0 27 bf 68 04 ed be 10 6d 56 3e b2 a5 19 bf
       -0.65503424 -0.46292424 0.20940042 -0.60018456
000080 e1 7a 04 3f 2d 8a c0 be 33 89 f9 be da 2f 4f 3e
       0.5175 -0.3760542 -0.48737487 0.20233098
000090 c7 4c 80 3e a7 85 ae bd ce 16 1f bf 5f 14 e9 3e
       0.25058576 -0.08521586 -0.6214417 0.45523354
0000a0 1b 2e 50 3f 97 f1 de be 4f bb 16 be a2 95 64 3e
       0.8132035 -0.43543693 -0.1471989 0.22322705
0000b0 4e 80 d7 be a2 8f 11 be 46 7a a2 3e 6c 5d 28 3e
       -0.42090076 -0.14214948 0.31733912 0.16441888
0000c0 68 82 56 bf 37 2e e3 bd d1 a2 d6 3c c8 5b bf 3e
       -0.83792734 -0.11092799 0.026200684 0.3737471
0000d0 07 fb 5c 3e c4 e1 23 3f a1 69 a5 3e 19 20 d3 3d
       0.21580134 0.64016366 0.3230715 0.103088565
0000e0 31 9a 20 bf e0 2d 60 3e 8f a2 11 bf 5e 5f 03 3d
       -0.6273528 0.218925 -0.5688867 0.03207337
0000f0 0c af 32 bd ec c1 38 3f 02 34 4f bf ed 72 65 bd
       -0.04362397 0.721709 -0.8093873 -0.056017805
000100 a8 a5 e7 3e 05 bd be be 0c ed 35 be 91 6a c9 bd
       0.45243573 -0.37253585 -0.17766207 -0.09834779
000110 1a 82 93 3e c4 f7 f8 be 8c e0 26 bd 95 3a cd 3e
       0.28810197 -0.4862653 -0.04074149 0.40083757
000120 6d a7 c8 be 70 54 29 3e d9 2f 7f 3e 8b bb b5 3e
       -0.39190236 0.16536117 0.24920596 0.35494646
000130 a3 06 85 3d 04 43 93 3e be 55 d1 be 93 75 b1 bd
       0.064954065 0.28762066 -0.4088573 -0.08665004
000140 05 94 82 3e 86 d9 7e 3f 44 34 05 bf 10 ee 37 3f
       0.25503555 0.99550664 -0.52032876 0.7184763
000150 13 55 22 bf 1a 0c 39 3e 94 cc 22 3e 9d cd 33 3e
       -0.6341106 0.18071023 0.15898353 0.17558904
000160 4f a7 63 be c6 9d 1c 3f d8 16 5c 3f a8 97 93 3d
       -0.22231792 0.61178243 0.85972357 0.072066605
000170 6c 4d 0d bd b7 25 4b 3d 05 22 ee 3d fa ec 1b 3f
       -0.034497663 0.049596515 0.116275825 0.6090847
000180 53 35 52 3f 2f 41 19 be 26 7f cd 3e c5 d0 fd be
       0.82112616 -0.14966272 0.4013607 -0.4957334
000190 de a9 b3 3e bb c8 77 3e 07 55 a2 3e aa e6 41 bf
       0.35090536 0.24197666 0.31705496 -0.7574259
0001a0 b2 46 c0 bd 90 9f 07 3f d6 6a 6f 3d cb d5 3b bf
       -0.09388484 0.5297785 0.058451496 -0.733731
0001b0 b9 3d 48 3e 2a fe 64 be 7a e4 35 bf 7f 94 6a 3e
       0.19554795 -0.22362581 -0.7105175 0.2290821
0001c0 12 8f 36 3f 12 55 fc bd 93 6f 1c 3f b0 56 2d 3f
       0.7131206 -0.123209134 0.6110775 0.677104
0001d0 fb 92 10 be 97 6f 14 3f 4b 06 9d 3e 5c 48 30 bf
       -0.14118569 0.5798277 0.30668864 -0.6886041
0001e0 a8 c3 40 bf 6c ee fe bd b2 c1 c0 bd a4 12 84 3f
       -0.7529855 -0.12447819 -0.094119444 1.0318189
0001f0 84 8d 03 3e f8 42 96 3e bc 17 4f 3d ab 68 b8 3d
       0.12846953 0.29347968 0.050559744 0.09004339
000200 f5 68 c1 3d 0e 22 fd be 55 65 9f be 3c 6c 3e 3f
       0.09443847 -0.49440044 -0.31131998 0.743839
000210 ff 42 6a be 52 eb 4a be 70 d4 62 bf 12 95 4b be
       -0.2287712 -0.1981633 -0.88605404 -0.19881085
000220 41 0a 56 bf 60 d4 db bd 8c 51 f0 be e4 f5 8d 3e
       -0.83609396 -0.10733867 -0.46937215 0.27726662
000230 d9 c8 64 be 0c 25 1b bf ef 37 0f bf 90 e3 a0 be
       -0.22342242 -0.60603404 -0.5594472 -0.31423616
000240 f6 e2 34 bf 7d 37 2e 3f 95 a8 0e 3e ab d8 69 be
       -0.70658815 0.6805342 0.13931496 -0.22836559
000250 a2 12 07 3f e8 8c de 3e 59 5c 07 bf a6 7c 00 bf
       0.52762806 0.43466878 -0.52875286 -0.501902
000260 01 50 9d 3e 0c 52 10 3e 0c ed 93 3e 26 57 8b bd
       0.307251 0.14093798 0.2889179 -0.068037316
000270 01 dc a6 3e 46 5d 7a 3f 74 d8 03 ba 9e 71 8c be
       0.32589725 0.97798574 -0.00050295074 -0.27430433
000280 bc 06 e0 b8 a6 8e f0 be 46 89 fe 3d bb 31 70 3e
       -0.00010682407 -0.46983832 0.124285266 0.2345647
000290 09 72 a3 be fb bf b8 3e 40 8a b5 bd f0 28 01 3f
       -0.3192294 0.3608397 -0.0886426 0.5045309
0002a0 14 0b bf be 3b 1b 10 bf ae 17 e1 3d 4a fd d8 be
       -0.3731314 -0.5629155 0.10990845 -0.42380744
0002b0 b9 f3 4f bf 90 a0 06 3f fc 6e dd be 00 27 34 3f
       -0.81231266 0.5258875 -0.43248737 0.7037201
0002c0 8e 64 16 3f e3 ca c6 3e c6 d8 da bd df b2 17 3f
       0.58747184 0.38826665 -0.106858775 0.5925731
0002d0 18 07 61 3e f1 d9 c7 3e 19 9f 99 3e 92 41 0f 3f
       0.21975362 0.39033464 0.30004194 0.5595943
0002e0 c5 d3 43 3f 1e a0 18 3f 81 4e e0 bb f8 f0 99 be
       0.7649501 0.5961932 -0.006845296 -0.30066657
0002f0 2a 55 8e be ae 6c 83 be 98 3a 12 3f 79 19 48 3f
       -0.2779935 -0.25668854 0.57120657 0.7816387
000300 6d 3d 11 bf 68 d3 0a 3f d8 d8 0d bf a5 34 0f 3f
       -0.56734353 0.5422883 -0.55409 0.55939704
000310 98 70 54 be 92 6c 12 3f c7 1a e0 38 a7 0c b5 be
       -0.20746076 0.57196915 0.0001068614 -0.35361215
000320 42 fe e8 3e 0e 41 5a be c7 ba 81 be 64 d2 1b be
       0.45506483 -0.21313879 -0.25337812 -0.15216976
000330 bf 41 ca 3e 11 2f 86 be 45 8a ae 3d 3a 93 cb bd
       0.39503285 -0.26207784 0.085224666 -0.099401906
000340 3d 34 60 bd df 30 ff 3b aa 8a e7 be 08 56 8d be
       -0.05473732 0.0077878083 -0.4522298 -0.276047
000350 83 1d ba be 0b 77 73 bf ee 91 19 3f e5 54 46 3f
       -0.3635064 -0.9510352 0.59988296 0.7747329
000360 b6 ba 28 3d 93 2c 95 be 86 81 ec be 11 bb f9 bd
       0.041193686 -0.2913557 -0.4619257 -0.12193883
000370 75 ec 0e 3f 9e 34 50 3e d8 89 68 bb 55 76 b9 3e
       0.55829555 0.20332572 -0.0035482552 0.36223093
000380 68 31 5d 3f 19 41 a1 be a2 55 75 bf 2d cf 22 bc
       0.8640351 -0.31494978 -0.9583379 -0.00993709
000390 55 01 ac be fc ad 1b 3f b6 9b 1f bf 4e b8 ad 3e
       -0.33594766 0.60812354 -0.6234697 0.33929676
0003a0 98 4f 84 3e 10 67 01 3f 93 15 20 be eb 26 3f be
       0.25841975 0.50547886 -0.1563323 -0.1866719
0003b0 6c 13 64 3f f6 9d dc bd bc 9c 17 3f ce 08 94 bc
       0.89092135 -0.10772316 0.5922353 -0.018070605
0003c0 90 0b 28 bf 05 ad 28 3f 2e 37 e7 3e 12 f7 09 bf
       -0.6564264 0.65889007 0.45159286 -0.53892624
0003d0 a1 29 f2 bd 83 24 84 3e db 13 43 3e 14 f5 01 3f
       -0.11824346 0.25809106 0.19050543 0.50764585
0003e0 61 c8 01 bf bf 88 e0 be d2 f0 2d be 80 a4 93 3e
       -0.5069638 -0.4385433 -0.16986397 0.2883644
0003f0 34 98 8a be 5a 48 fe 3e cc 18 56 3f c1 eb c3 3e
       -0.27069247 0.49664575 0.8363159 0.38265803

clf_net.1.running_var f4 [256]
000000 ee d5 45 3d 09 4e db 3d 8e 33 d4 3c 9a fa 8c 3c
       0.048299722 0.107082434 0.02590349 0.01720934
000010 f3 f1 a1 3c 40 77 01 3c 82 82 46 3d 73 05 94 3d
       0.01976869 0.007901967 0.048464306 0.07227602
000020 e8 b6 35 3d ff c4 d4 3c 5f 96 9a 3d f0 b7 ec 3d
       0.044363886 0.025972841 0.07548212 0.11558521
000030 f8 2c 66 3b 38 3e a2 3d 05 06 94 3b 45 7c 0c 3d
       0.0035122018 0.079220235 0.004517319 0.0342982
000040 cf 47 cd 3b c9 0f 90 3c ae e5 ae 3d 99 e2 b8 3d
       0.0062646638 0.017585652 0.08539902 0.09027595
000050 93 98 d8 3c 3f 5d d0 3d 4b 3a 90 3c 4a 1a 08 3d
       0.02643994 0.10174035 0.017605921 0.033228196
000060 ff 7d 38 3d 96 6c 04 3b 37 5b b3 3d 3b fc d2 3d
       0.045042034 0.0020206324 0.08757632 0.103020154
000070 0d f4 d3 39 c7 9a dc 3d 0c bb d5 3d 70 7b 08 3c
       0.00040426888 0.10771709 0.10436067 0.008330211
000080 2f b9 9d 3c 2d 40 4f 3d b0 b5 a1 3d 0e db 41 3d
       0.019253341 0.050598312 0.07895982 0.047328047
000090 29 0d 86 3c fa d7 7a 3d 9d d9 ba 3d 56 79 05 3d
       0.016363697 0.061241128 0.09123538 0.032586418
0000a0 25 7b 8d 3d 30 fc 48 3c 6f 2e e8 3c 37 63 33 3c
       0.069082536 0.012267157 0.028342454 0.010948948
0000b0 c5 5b c6 3c 79 e1 60 3d 5b 6a a7 3c 80 d0 8f 3d
       0.024213681 0.054902527 0.020436456 0.0702219
0000c0 d2 e8 03 3d 99 5b e0 3b a6 83 c6 3c ea fd 01 3c
       0.032204457 0.006846857 0.024232697 0.007934073
0000d0 39 c0 d6 3d 9c 66 bb 3c cd 92 e5 3d 55 7f de 3c
       0.10485882 0.022876076 0.11209641 0.027160326
0000e0 56 79 ae 3d 0c a7 7d 3a ca 37 ea 3c ab 23 30 3d
       0.08519237 0.0009676076 0.028591055 0.043002766
0000f0 81 30 bb 3d df 4d dd 3c c8 55 f0 3d 62 90 9c 3c
       0.09140111 0.02701467 0.117351115 0.019111816
000100 a4 ee 85 3d 5e ca d9 3d 41 35 14 3d 4c 83 f4 3c
       0.06539658 0.106343016 0.0361836 0.029847763
000110 c4 5d 34 3c 23 4b 8f 3b 44 c2 30 3d f0 0d 8c 3d
       0.011008684 0.0043729707 0.043154016 0.06838596
000120 a4 78 2b 3d 7a f6 df 3c db ea 97 3c 0e 16 db 3c
       0.0418631 0.027339209 0.018544605 0.026743915
000130 0c 10 a9 3d e5 5b 92 3c 81 c2 01 3d 22 f3 90 3d
       0.08255014 0.017866084 0.031679634 0.07077624
000140 7f ca f7 3c ce 04 f7 3c 8e 0a bd 3c 3b 11 36 3d
       0.030247925 0.030153658 0.023076322 0.044450026
000150 9f c6 91 3b 81 84 fb 3c 19 ae 89 3c dd ef 35 3d
       0.0044487263 0.030702831 0.016806649 0.044418205
000160 97 2d 55 3c 20 b9 30 3d 5a 28 91 3d 41 e3 c8 3c
       0.013011358 0.0431453 0.070877746 0.024522426
000170 0c b9 6d 3d 21 61 12 3d 06 ea 96 3d 7b 1f 6b 3d
       0.058037803 0.03573716 0.07368855 0.05740307
000180 23 cb ad 3c c6 4a 40 3d 70 67 a0 3c 7a 40 d9 3c
       0.021215027 0.04694631 0.019580573 0.026520003
000190 e3 b3 25 3d 54 6a 8e 3d 46 de 6d 3c c3 78 be 3b
       0.040454756 0.06953874 0.014518326 0.0058127358
0001a0 c2 d8 9a 3c 0f 2d e2 3c 08 b2 65 3d 02 4e b1 3d
       0.018902186 0.027609376 0.056077987 0.08657457
0001b0 74 e6 ba 3b 41 3a 2f 3d d9 95 19 3d 92 20 b8 3d
       0.0057037417 0.042780165 0.03749642 0.08990587
0001c0 cc b3 ad 3d 25 f6 8c 3c 92 1c ff 3c 55 2d 7b 3d
       0.08481559 0.017207215 0.031141553 0.06132253
0001d0 98 ef d2 3d d5 87 e0 3c 82 31 01 3d 48 a1 af 3d
       0.10299605 0.02740852 0.031541355 0.08575684
0001e0 9d b2 4f 3d 1d c8 0a 3c be 83 e8 3b 3f ae bd 3c
       0.05070745 0.008470562 0.007095783 0.023154376
0001f0 7a 5d b0 3d 26 09 da 3c 10 8d 26 3d 8b 7f 1e 3d
       0.08611579 0.02661569 0.04066187 0.038695853
000200 ca 65 3f 3d 8f 20 d1 39 09 f3 8d 3c 33 c3 cd 3d
       0.046727933 0.00039887844 0.017327802 0.10046997
000210 ed 2b 2c 3d 0d 20 f1 3c f4 50 22 3d 7f 7e a2 3d
       0.04203408 0.029434228 0.039627984 0.079342835
000220 18 0f e2 3c 18 4c 66 3d 6c 76 2a 3d 0e e8 92 3d
       0.027595088 0.056224912 0.041616842 0.07173167
000230 74 dd 24 3d 16 84 01 3d 32 2a 4d 3c c3 f2 f1 3c
       0.040250257 0.031620108 0.012522267 0.029534703
000240 6a f2 9a 3c 88 07 09 3d 3c 11 1f 3d 48 3f 54 3d
       0.01891442 0.033454448 0.038834795 0.051818162
000250 e4 d7 c6 3d af e3 7c 3c e9 24 04 3d aa 4c c6 3d
       0.097091466 0.015435143 0.032261763 0.09682591
000260 f5 6e 8f 3c cb 42 cb 3d a1 c2 fc 3d 48 c6 9f 3d
       0.017508963 0.09924849 0.1234181 0.07801491
000270 e7 23 41 3c 2a 51 b2 3d 01 e3 46 3d 3b 44 f2 3d
       0.011788345 0.08706887 0.04855633 0.1182942
000280 c1 7d c5 3c 97 0b c6 3d 69 09 08 3e ca b8 cd 3d
       0.024107816 0.09670179 0.1328484 0.10045011
000290 62 1d 18 3a 70 bd 98 3c 6f d7 b8 3d 82 cb b4 3d
       0.0005802718 0.018645018 0.09025466 0.088278785
0002a0 8e ca 02 3e 01 08 c0 3a a2 0d 62 3c 95 ba 3a 3d
       0.12772581 0.0014650823 0.013797196 0.045588095
0002b0 3c 57 76 3d e8 f4 7a 3d ed 4f e0 3b c9 ff 1c 3c
       0.060141787 0.061268717 0.0068454654 0.009582468
0002c0 ed 19 b8 3c f3 bd a8 3c e7 84 94 3d 92 da bc 3c
       0.0224733 0.020598387 0.072519116 0.023053441
0002d0 21 ca e7 3a fd 15 fe 3d 00 d8 d4 3d 08 6d 73 3c
       0.001768414 0.12406538 0.10392761 0.014857538
0002e0 9a 53 71 3d b3 49 80 3d d3 8c 38 3d c5 a1 9a 3c
       0.05891762 0.06264057 0.045056175 0.018875966
0002f0 3a f1 8d 3d c4 cd 52 3d 05 20 84 3a 16 06 24 3d
       0.06930776 0.051465765 0.0010080343 0.040044867
000300 21 a2 be 3d c0 89 93 3c a0 63 39 3d 45 98 f0 3d
       0.093082674 0.01801002 0.045261025 0.11747793
000310 ef a3 26 3d 19 5d 4d 3c 15 0e ba 3d e7 8f 9f 3d
       0.040683683 0.012534403 0.09084717 0.07791119
000320 08 c0 42 3c 32 c2 71 3c e3 ee 04 3d 20 5f 01 3c
       0.011886604 0.014755772 0.032454383 0.007896215
000330 a1 db e7 3c ae 97 a1 3d b0 52 2d 3d d3 33 cf 3d
       0.02830297 0.07890259 0.042315185 0.101173066
000340 3f 9f 02 3d a1 7c 1a 3d c8 db f9 3c 21 11 ef 3c
       0.03189015 0.03771651 0.030500308 0.029182972
000350 93 52 7a 3d 6a e1 e0 3c ac ea ba 3c 8b ff 06 3d
       0.061113905 0.027451236 0.022816978 0.03295855
000360 a1 4d 15 3d 47 05 6f 3d 3b 9c 0d 3d 85 f2 41 3d
       0.036450986 0.058354642 0.03457282 0.047350425
000370 a3 a8 ac 3d 85 74 57 3b 34 3c 43 3d e0 c1 7c 3d
       0.084306024 0.0032875848 0.047664836 0.06170833
000380 fd cc 7b 3c f2 e7 51 3d 30 79 ff 3d a6 03 43 3d
       0.015368697 0.05124659 0.124742866 0.0476109
000390 b3 77 b8 3d e0 e0 7a 3d 8e 06 de 3d 16 71 a8 3d
       0.09007206 0.061249614 0.10841094 0.082246944
0003a0 62 64 db 3d 67 d7 bb 3b a4 29 9c 3c 65 e2 3b 3d
       0.10712506 0.005732465 0.019062825 0.045870204
0003b0 a3 43 36 3c 35 23 98 3d 66 62 d5 3b 20 e9 73 3d
       0.011124524 0.0742859 0.006511974 0.059548497
0003c0 39 7e 1a 3d 94 1e 6d 3d 29 96 6f 3d 62 59 cc 3c
       0.03771803 0.05789049 0.058492813 0.024944965
0003d0 b0 00 9e 3d 53 b3 dd 3d ef 57 d2 3a 62 b5 15 3a
       0.07714975 0.10825219 0.0016047935 0.0005710927
0003e0 92 c0 92 3c d3 2a 97 3c bd b7 35 3c e7 a7 b1 3d
       0.01791409 0.018453037 0.01109117 0.08674603
0003f0 ea b8 2c 3a e6 ed 64 3d 34 d4 8a 3c ec 43 cc 3d
       0.00065888336 0.05589094 0.01694689 0.099738926

clf_net.3.weight f4 [256, 256]
000000 76 0b 6e 3d 77 65 89 bc 22 38 0d bd 58 1a 9d 3b
       0.0581164 -0.016772015 -0.03447736 0.0047944
000010 ca f2 72 bc a2 0c 29 bc f4 cf 1b bd 23 fe 1b bd
       -0.014828393 -0.010317953 -0.038040116 -0.03808416
000020 5b 2c aa 3c 64 93 22 3d 21 aa 8e 3b 5c 72 ab bc
       0.020773103 0.039691344 0.004353777 -0.020928554
000030 7e 48 83 bc ff a5 c5 bc 39 9d 54 bd 9d 96 45 bd
       -0.016025778 -0.024127005 -0.05190775 -0.04823934
000040 14 66 00 3d 9f 2a 3d 3c 75 b6 39 3d 9a d8 41 3d
       0.03134735 0.011545806 0.04534002 0.047325708
000050 80 e7 28 3d 0c 03 b2 bc 41 5d 1d 3d 9f f0 f5 3c
       0.0412364 -0.021729968 0.038419012 0.030021964
000060 23 6c 5a bd 48 0e 9d 3c 2c 1a 55 3c 5c 39 82 bd
       -0.053325783 0.019171849 0.013006728 -0.06358597
000070 3f bf 22 bd 1c 17 51 bc ac 3c d9 bc cb 59 24 bc
       -0.039733168 -0.012761857 -0.026518188 -0.010031174
000080 4e ee e4 bc 15 85 30 bd 00 7b 3b 3d 2d e7 08 3d
       -0.027945664 -0.043095667 0.0457716 0.03342359
000090 93 c7 2d bd 67 90 79 bd 2f a6 a1 bb 46 4f 93 bc
       -0.042426657 -0.06092873 -0.0049331407 -0.017982136
0000a0 70 5f 39 3d 10 62 e0 3c d1 d0 a0 3c 43 a1 59 bd
       0.045257032 0.02739051 0.019630821 -0.053132307
0000b0 87 0f 5f 3d b6 ad 78 3d 5c 57 0e 3c 15 25 34 3d
       0.054458167 0.06071254 0.00868782 0.043980677
0000c0 fd cb 2c 3d a1 9f d7 bc 94 89 39 3d 58 99 24 3d
       0.042186726 -0.026321234 0.04529722 0.040185302
0000d0 f1 82 09 bd c7 de f2 bb 49 f3 28 3d f3 c6 03 3d
       -0.03357214 -0.007411811 0.04124764 0.032172155
0000e0 36 3f a4 bb 86 40 63 3d 68 c8 43 3d c5 2f 16 3d
       -0.005012418 0.055481456 0.047798544 0.03666665
0000f0 68 86 4d 3c 67 12 a1 3c 4c 34 f1 bb 05 40 09 3d
       0.012544252 0.019662095 -0.0073609706 0.03350832
000100 d4 81 c2 bc e9 63 6b bd 67 49 7d 3b a3 f4 3f 3d
       -0.023743547 -0.05746833 0.0038648488 0.046864163
000110 54 fa d3 3c b3 09 1d bc b0 9c be bc f8 32 4a 3d
       0.025876202 -0.009584832 -0.023268074 0.049365014
000120 10 2a db bc 2f 23 2f bd c4 16 b0 3c 13 a0 12 3d
       -0.026753455 -0.042758163 0.02149523 0.03579719
000130 f4 84 14 3d e8 25 e6 3c 99 90 fd bc 16 4d 97 3c
       0.036259606 0.028094247 -0.030952739 0.018469375
000140 b6 38 12 bc b4 fe 62 bd 6c 4f c4 3c f7 49 68 3c
       -0.008924654 -0.055418685 0.023963653 0.014177791
000150 3a 7b 1d 3d ee 38 07 bd 3a 70 51 3d cf 00 43 bd
       0.038447596 -0.033013277 0.05113242 -0.047608193
000160 b2 6a de bc 0c 6e d5 3c c6 e3 16 3d 20 21 f1 bc
       -0.027150486 0.026053451 0.036838315 -0.02943474
000170 1b 20 19 3d 37 c9 5b 3d e0 d6 21 3c ae 30 b0 bc
       0.037384134 0.05365869 0.00987789 -0.021507587
000180 9f a2 0a 3d 0d 17 4c 3c 68 c6 d8 bc f3 80 43 bd
       0.033846494 0.012456668 -0.026461795 -0.047730397
000190 fc 2f 72 3d 0b bc 08 3d 87 a0 5f bd c8 49 04 3d
       0.059127793 0.033382457 -0.05459645 0.032296926
0001a0 6f 73 7c bc 53 fb 15 3d 9c b4 a3 bb b9 e8 5e bd
       -0.015408381 0.036616635 -0.0049958955 -0.05442116
0001b0 e3 00 0d bd cd c8 64 bd 25 a1 35 bc ff 05 dd 3c
       -0.034424674 -0.05585556 -0.011085783 0.026980398
0001c0 49 dd a7 bc d4 c3 33 bd cb df 61 3b a0 ba b1 bb
       -0.02049126 -0.043887928 0.0034465666 -0.0054238588
0001d0 bc f5 41 3d 7c 98 6a bd c0 19 11 3d c1 de 2f 3c
       0.04735349 -0.057274327 0.035424948 0.010734261
0001e0 44 ad 7a bd c6 21 5d 3d 34 cb a5 bc ad 03 83 bc
       -0.061200395 0.053987287 -0.020238496 -0.015992964
0001f0 57 fd 0a 3d 2b 2a d4 3c d4 b6 4a bd 90 2e 1c 3c
       0.03393301 0.025899014 -0.049490765 0.009532586
000200 9d 98 3b bc 05 99 45 bd 84 b6 14 bd c5 8d 20 3d
       -0.01144996 -0.048241634 -0.036306873 0.039197702
000210 cc 69 33 bd b5 d6 58 3c 50 4a 30 bd de 14 1d bd
       -0.043802068 0.013234784 -0.04303962 -0.03834998
000220 d7 df 40 bd 96 31 b7 3c 8f 60 0f 3d db 7a 8c bc
       -0.04708847 0.022362512 0.035004195 -0.017148426
000230 a4 eb f7 3c bf 9b fa 3c 68 18 8a 3c a2 3d e0 bc
       0.03026373 0.030591844 0.016857341 -0.027373139
000240 08 64 e4 3c 64 88 76 3c e9 c2 61 bd 27 11 26 3d
       0.02787973 0.0150471665 -0.05511752 0.0405437
000250 fe 36 26 3d ce fc fd bc 5c 05 6f bd 1c 75 16 3c
       0.04057979 -0.031004336 -0.05835472 0.0091831945
000260 36 d0 d7 3c 94 2f 8d 3c f6 72 2b bd a2 91 42 3c
       0.0263444 0.017234601 -0.041857682 0.011875542
000270 fd 48 78 bd 60 6f 4c bc 7a fd 79 3d 7d 85 46 bd
       -0.060616482 -0.012477726 0.06103275 -0.048467148
000280 f1 43 03 3c 0b 63 4f 3a 3c 37 da bc bc 29 5a 3d
       0.008011804 0.0007911182 -0.026637666 0.053262457
000290 09 89 c8 bb 40 be 11 3d 98 e1 6a 3d a6 38 f6 bc
       -0.0061198515 0.035581827 0.05734405 -0.030056309
0002a0 d9 59 74 bd d6 b1 63 bd 24 3a 57 bd 18 a7 3c 3d
       -0.059655998 -0.05558952 -0.05254568 0.04605779
0002b0 cf 5f 28 3b f4 f0 a0 3c a7 42 72 bd 65 f6 08 3d
       0.0025691872 0.019646145 -0.059145596 0.033438105
0002c0 6b 31 3d bd 01 89 1b bd 67 9b 24 3d fe f4 0c bc
       -0.046189707 -0.037972454 0.040187266 -0.008603333
0002d0 66 7e d8 3b c5 33 74 3b d1 87 9b 3a a4 0d 56 3d
       0.0066068647 0.0037262302 0.0011866038 0.052259102
0002e0 77 0d 16 bd fd 0c 51 3d fa 29 77 3d 4a 88 0b bd
       -0.036633935 0.051037777 0.060342766 -0.034065522
0002f0 bd 87 16 3c 91 be 5e bd 97 15 9d bc 85 22 e9 3c
       0.009187636 -0.054380957 -0.019175334 0.028458843
000300 94 72 c4 bb c5 29 89 3c 51 51 1a 3d a2 a1 b0 b9
       -0.005995104 0.01674355 0.037675206 -0.00033689762
000310 4d dc 4a bd 52 3b bf bc 70 78 12 3d dd 2d 16 3d
       -0.0495265 -0.023343716 0.03575939 0.036664832
000320 11 f8 49 3d 15 4f 15 3d 43 36 28 bd f1 32 2e 3c
       0.04930884 0.03645237 -0.041067373 0.010632263
000330 5a fd 32 3d ef 3c c0 3c 8f 15 fe bb a4 d8 79 3d
       0.043698646 0.023466555 -0.007754035 0.06099762
000340 4f f2 9e ba 8d 39 47 bd 63 e3 21 bd b6 27 27 bd
       -0.0012126657 -0.04863887 -0.039523493 -0.040809356
000350 37 f8 e0 b9 dd 01 5e bd 62 ec 66 3d a0 fc 64 3d
       -0.00042909544 -0.054200996 0.056377776 0.055904984
000360 d7 25 f3 bc f5 3d 48 bd 9c 48 75 3d 26 35 5a 3d
       -0.02968113 -0.04888721 0.0598837 0.053273343
000370 aa 57 54 3c 1e 22 4a 3c a1 ce 6b bd 6f 2d 03 3a
       0.012960354 0.012337236 -0.057570104 0.00050040236
000380 7e cd 5b bd 8e b5 80 bd 91 f9 95 3c 46 a9 cb bc
       -0.05366277 -0.06284629 0.01830748 -0.02486099
000390 25 86 b8 bc 3f b6 6a 3d 72 2f 7b bd 6a 4c 7d bd
       -0.022524903 0.05730271 -0.061324544 -0.061840452
0003a0 08 86 78 3d 24 fd c8 3b f4 64 34 3d 9a a5 09 3d
       0.060674697 0.0061336923 0.04404159 0.033605196
0003b0 93 1a 1d bd ca 17 18 3d bf 90 54 bd b0 38 51 bd
       -0.03835542 0.037132062 -0.051895853 -0.051079452
0003c0 ff a4 a2 3c 10 9c 2f 3d 45 a1 16 3c 97 ad 0f 3c
       0.019854067 0.042873442 0.009193723 0.008769414
0003d0 58 c8 4a bb 13 f5 07 3d 47 96 15 bd 64 39 73 bd
       -0.0030942168 0.033192705 -0.03652027 -0.059380904
0003e0 56 eb 8c 3c 10 ec 45 bd ce fc 7c 3d 1b aa 25 3d
       0.01720206 -0.04832083 0.06176453 0.04044543
0003f0 c9 83 16 bd 90 68 ba 3c bf 5d 89 bc f4 10 de bc
       -0.036746774 0.022754937 -0.016768334 -0.027107693
