EE8591/Project/classification_models/Ripley/DNN/deepnn/training_models/net_2300.pt (torch, 282047 bytes, 14 tensors)

clf_net.0.weight f4 [256, 2]
000000 87 03 f2 3e 13 1b 7f be 5a 86 2f bf 92 a1 19 3f
       0.47268316 -0.24912672 -0.6856438 0.6001216
000010 0c a7 6c be 1f 32 ec be 7c 69 5d 3e 4f 48 f0 be
       -0.23110598 -0.4613199 0.2162227 -0.46930167
000020 b3 45 92 be 92 ed a3 3e b6 3d 2f 3e a9 c4 fa 3d
       -0.285688 0.3201719 0.17113385 0.12244541
000030 85 ea f2 3e f5 5e 6d be 0e be 0e 3f d2 58 0b 3e
       0.4744455 -0.23180754 0.5575875 0.13608101
000040 b7 ae c2 3e fc 55 c8 3e c6 7c af 3e 92 8d 1a bb
       0.38023922 0.391281 0.34274882 -0.0023582918
000050 37 9c 13 3f 9b 01 00 bf c9 08 27 bf fd 5f f2 be
       0.5766024 -0.5000245 -0.6524778 -0.47338858
000060 a4 fa f9 bd cd 0d d8 3d 18 71 1b 3f ef 8f 56 be
       -0.12206009 0.10549507 0.6071944 -0.20953344
000070 be 4e b0 3d 27 27 8d be 84 8e a1 be 77 45 25 3f
       0.08608769 -0.27568933 -0.31554043 0.6455912
000080 29 b8 a6 3d a6 40 b4 be d2 4a 2d be 47 38 0d 3f
       0.081405945 -0.35205573 -0.16923073 0.55164
000090 53 3f 21 bf 65 5f 28 3e 2c a4 24 bf 57 8a 81 3d
       -0.6298725 0.1644264 -0.64313006 0.06325214
0000a0 ed 41 78 be 88 4d 1f 3f 68 20 2e bf 5c 9a f0 3e
       -0.24243899 0.6222768 -0.680182 0.46992767
0000b0 66 c3 ef 3d 28 df 04 3f 28 4b 59 3e 1d 4d 20 3f
       0.11707191 0.5190301 0.21220076 0.62617666
0000c0 97 e1 e6 3e 82 3f a9 be 63 e5 b7 3d ed fc d7 bd
       0.45093986 -0.33056265 0.08979299 -0.10546289
0000d0 ea 82 21 bf 5c 45 de 3e 38 e4 2c bf c7 da a0 bd
       -0.63090384 0.43412292 -0.67535734 -0.078542285
0000e0 94 b9 ae 3b 69 81 b5 3d 10 fe 2e 3f b1 31 23 bf
       0.005332181 0.08862574 0.6835642 -0.637477
0000f0 8d 38 26 bf 2b f4 99 be 63 74 3b 3e 20 0d 5e be
       -0.6493004 -0.30069098 0.18306117 -0.21684694
000100 f7 39 61 be 43 e1 b4 be dd 11 bc be 3d d2 0a bf
       -0.21994768 -0.3532811 -0.3673238 -0.5422705
000110 a6 f8 fe be 23 59 0d bf dc 94 8e 3e 66 20 34 3f
       -0.4979908 -0.55214137 0.27847946 0.70361936
000120 27 ca 85 3e 0e 80 b5 3d 65 e5 da 3e eb b4 07 3f
       0.26130792 0.08862315 0.4275314 0.53010434
000130 15 6c 26 3f 2d ca a9 be da 76 bf be 9f e4 c2 bd
       0.6500867 -0.3316206 -0.37395364 -0.09516262
000140 cc 99 03 bf 56 f9 2f 3f 4a c0 64 be 69 95 8d 3e
       -0.5140655 0.6873983 -0.22338977 0.27653053
000150 4f d9 63 be e0 02 30 3f 9a ef ba bb 12 44 f3 be
       -0.22250865 0.68754387 -0.0057048323 -0.4751287
000160 c2 34 9c 3e 4e 50 d0 be a7 62 f9 3e bc 6b f0 be
       0.30509 -0.40686268 0.48708078 -0.46957195
000170 cd 8c ab 3d 02 99 18 3f 95 75 0f 3f 75 b9 11 3d
       0.08376465 0.5960847 0.5603879 0.035577256
000180 e6 66 b2 3e 4d a5 f5 be 71 0b c0 bd 4f d4 b9 3e
       0.3484413 -0.47977677 -0.09377182 0.3629479
000190 e3 7a 80 be 47 fe 10 3f cb 26 04 3e de d8 ac be
       -0.25093755 0.56637996 0.12905423 -0.33759207
0001a0 3a 78 30 3f 7e 44 fa be 6e 15 9e be 2c 2b ec bd
       0.6893345 -0.4888038 -0.30875725 -0.11531672
0001b0 10 df 28 bf 6d 42 c4 be f7 ac 95 be 64 11 0c 3f
       -0.65965366 -0.3833193 -0.29233524 0.54714036
0001c0 b4 19 21 3f c8 65 53 be 29 a4 86 3d 69 74 9f bd
       0.62929845 -0.20644295 0.0657428 -0.07785875
0001d0 1d b4 ba 3e 23 88 2d be fe b6 e0 3e 88 69 ac be
       0.3646554 -0.16946463 0.43889612 -0.33674264
0001e0 27 13 27 3f f1 37 84 be ab 80 a8 3e 9e 6a 24 3e
       0.652636 -0.2582393 0.32910666 0.16056296
0001f0 bb 4e 2b bf ed 1c d8 be b3 81 39 3e e1 50 11 bf
       -0.6691701 -0.4220957 0.18115883 -0.56764036
000200 16 a7 03 bf 77 7e 1c 3f b6 d7 20 3f f0 3e e3 3e
       -0.5142683 0.6113047 0.6282915 0.44383955
000210 12 05 c7 be 5d f8 0b be 0d b3 e5 bd f0 1f 33 bf
       -0.38871056 -0.13668962 -0.11215792 -0.6997061
000220 30 4c 02 be f6 32 e4 3e 34 0a 0a be f0 73 42 bd
       -0.12724376 0.4457013 -0.13480455 -0.047473848
000230 2f 30 c8 3e 3a e7 a5 3e 3f 22 05 3f 82 00 8b 3e
       0.3909926 0.32402974 0.5200538 0.27148825
000240 d0 16 b0 be fb 58 e8 be ef 45 ab be bf 68 11 be
       -0.34392405 -0.45380387 -0.33451793 -0.14200114
000250 5b d7 86 be 6e a3 38 be fe 86 8b 3e 7c 50 12 bf
       -0.26336178 -0.18031093 0.27251428 -0.5715406
000260 d6 a5 1e bf f4 0e 83 3e c1 1a 23 be 6f e1 e5 be
       -0.61971796 0.25597346 -0.15928175 -0.44898555
000270 d2 55 a2 be 84 9c af be e7 d8 f3 be a6 98 01 bf
       -0.317061 -0.342991 -0.4762642 -0.5062355
000280 98 fc 29 be 37 9e 27 bf 6f 59 19 3e f7 13 2e 3f
       -0.16600263 -0.6547579 0.14975522 0.67999214
000290 30 ae a5 3e 96 0d 67 be 87 e2 e1 3e 43 89 96 3d
       0.32359457 -0.22563776 0.4411814 0.07350399
0002a0 df 30 13 3e 1a d2 47 bd bd 02 40 3e b5 e4 20 3f
       0.14374112 -0.048784353 0.18751045 0.6284898
0002b0 c0 0e 8e be d1 c3 3b 3e 38 28 ad be 55 3c 06 bf
       -0.27745628 0.18336417 -0.33819747 -0.5243581
0002c0 c7 12 4d be 58 f0 6b be ed 86 d0 3e a8 a4 7a 3e
       -0.20026694 -0.23040903 0.4072794 0.24476874
0002d0 23 f2 11 bf 52 bc b4 3e e1 63 98 be 63 3f 6d be
       -0.57010096 0.35299927 -0.29763702 -0.23168711
0002e0 33 8c 00 3f ee f2 d0 3d 5f 1a cf 3e 98 bc 88 be
       0.5021393 0.10202585 0.40449807 -0.26706386
0002f0 f1 6d 01 bf a2 8c e2 be 69 35 f5 3e d5 6d 72 3e
       -0.5055838 -0.4424792 0.4789231 0.2367471
000300 8f b4 9b be b9 b3 8e 3e cc fc ed 3e 7b e0 8f be
       -0.30411193 0.27871493 0.4648193 -0.28100953
000310 5a 93 be bd 7f b8 14 bf c9 6a 39 be 53 d0 12 bf
       -0.09305449 -0.5809402 -0.18107142 -0.5734913
000320 1e 3d de 3e fa 6d 2e be 87 e7 10 bf 42 7f a6 3e
       0.43406004 -0.1703414 -0.5660328 0.32518965
000330 19 03 30 bc 4e e8 0b bf a7 79 1b 3e 7a 67 49 be
       -0.010742926 -0.54651344 0.15183125 -0.1966838
000340 9d 9c 6e 3e ef 9b f2 be 23 bc b1 be ef f2 81 bd
       0.2330193 -0.47384593 -0.3471385 -0.06345164
000350 e5 67 fd be 36 69 b6 bd cf 2a 22 3f de fb 98 be
       -0.49493328 -0.08906786 0.6334657 -0.2987966
000360 23 bd d6 bd 03 6c 95 3e 48 a4 e3 3e f9 52 87 be
       -0.10485294 0.2918397 0.44461274 -0.2643049
000370 68 e6 ae 3e 65 c3 23 bf 34 28 25 bf 52 1c ac 3e
       0.3416016 -0.63970023 -0.6451447 0.33615357
000380 2c a4 ff 3e b4 c1 21 3f 8e 73 6b 3e ae 24 dc be
       0.4992994 0.6318619 0.229933 -0.42996734
000390 78 20 90 3e c9 19 e3 3e 68 e6 e6 3e 11 7d e2 3e
       0.28149772 0.4435561 0.4509766 0.44236043
0003a0 c7 d7 2f 3f a0 05 dd be d9 21 b5 3e b6 53 c6 bc
       0.68688625 -0.43168354 0.35377386 -0.024209838
0003b0 f8 8e 21 3e d7 3d 2f 3f 95 45 21 3f f8 6a a7 be
       0.15777194 0.68453735 0.629968 -0.32698798
0003c0 77 96 f8 3e b0 c5 f0 bd 64 7a 41 be ae dc 3f 3e
       0.48552296 -0.11756456 -0.18894345 0.18736526
0003d0 20 ed 31 3d 63 d3 b2 3e 68 bd b0 bd ea 48 33 3f
       0.04343903 0.349269 -0.086298764 0.70033133
0003e0 a7 3e 1f 3f 5c 93 bc 3c fc bb ab 3e a4 15 b4 be
       0.62204975 0.023019485 0.33541858 -0.3517276
0003f0 f2 b4 b4 3e 96 71 d3 3e 57 d9 d5 3e e3 c4 9c be
       0.352943 0.41297597 0.4176738 -0.30618963

clf_net.0.bias f4 [256]
000000 0c f6 06 3f 44 c8 fa 3e ff e4 f3 bc 3c 31 fe 3e
       0.5271919 0.48980916 -0.02977228 0.49646938
000010 30 01 f5 3e c8 39 f9 be c0 85 23 bf 5d 99 9e bb
       0.47852468 -0.48676896 -0.6387596 -0.0048400597
000020 2c 3d 2a bf ed 98 fc be 93 59 f1 bb 8a 98 d4 3e
       -0.6649959 -0.49335423 -0.0073654144 0.41522628
000030 ec 7b 2c 3e 47 c9 96 3e 41 b4 ad 3e b5 07 7d be
       0.16844147 0.29450437 0.33926585 -0.24709971
000040 cc 80 19 3e 6f f7 2c 3f f3 0b f3 3e 9f 29 26 3e
       0.14990538 0.67565054 0.47470054 0.16226815
000050 8e 76 0a 3d 52 d7 81 bd 90 fb 2f bf c4 3a 8d be
       0.03380447 -0.06339897 -0.6874323 -0.27583897
000060 b9 e7 ae bd 4a 25 13 bf fc f1 0e bf 77 33 a0 3e
       -0.08540291 -0.57478774 -0.5583799 0.31289265
000070 9e 11 33 bf 68 65 eb bd dd c5 ab 3e 8b cf f7 be
       -0.69948757 -0.11493951 0.33549395 -0.4840053
000080 0e fc 2f 3f 30 8d ee bd 83 fd 69 be 47 76 11 be
       0.6874398 -0.11648023 -0.22850613 -0.14205275
000090 2e 4a 5f 3e e4 98 ac be b4 86 db be e9 4e fa 3e
       0.21805641 -0.33710396 -0.42876208 0.4888833
0000a0 2b f4 e4 3e 21 c1 15 bf c2 95 00 bf d3 b9 ec 3e
       0.44717535 -0.58497816 -0.5022851 0.46235523
0000b0 a6 d1 50 be 6d be e9 3d 9d 0d a8 3c 50 d5 2b 3e
       -0.20392475 0.11413274 0.020514304 0.16780591
0000c0 0f 36 15 bf eb d7 98 be 24 ee 89 be 3d 2f 0c 3f
       -0.5828561 -0.29852232 -0.269395 0.5475958
0000d0 71 6e fa 3e e6 03 30 3f 32 04 fb 3e b5 f0 3d be
       0.48912385 0.6875595 0.49026638 -0.18548854
0000e0 37 80 ff be 4b 60 86 3e 56 0b f0 be 35 da 5f 3e
       -0.49902508 0.2624534 -0.4688365 0.21860583
0000f0 9e f5 e6 3d 3c 4f 27 3f 52 6c 1f bf 57 e0 72 3e
       0.112773165 0.6535528 -0.6227466 0.23718391
000100 6e fd fd 3d d9 69 12 bf 4e ac fe bd f5 1d 7e 3e
       0.124018535 -0.5719276 -0.12435208 0.24816115
000110 e5 e4 6d 3d fb ef ef be 81 b2 41 be ae 0c 92 3e
       0.05807962 -0.46862778 -0.1891575 0.285253
000120 b5 59 36 be 57 8e 65 3e 62 d9 a8 3e 48 49 27 3f
       -0.17807658 0.2241758 0.3297835 0.65346193
000130 02 26 b5 bd 7d dd 01 3f fb 8a 7e be 90 8a 19 3e
       -0.0884514 0.5072859 -0.24857704 0.14994264
000140 5c 2e 14 3f e1 5e 28 3f d9 ba c9 be 48 0a 33 3f
       0.5788324 0.65769774 -0.39400366 0.6993756
000150 aa a6 1a bf 45 f6 03 be 6b 54 62 3d 43 b8 da 3e
       -0.6041056 -0.12886913 0.05525629 0.42718706
000160 ca 81 e9 bd 7f 58 01 3f 18 d6 28 3f 4a b0 35 3e
       -0.114017084 0.5052566 0.6595168 0.1774303
000170 cb 3e 88 bd 1e 6a 4d 3e 69 8e a3 3e 8c 47 02 3f
       -0.06652602 0.20060012 0.31944588 0.5089042
000180 24 2d 2b 3f d1 27 2d 3c 6e fc 30 3f 7b b6 5a be
       0.66865754 0.010568575 0.6913518 -0.21358673
000190 8e 77 e8 3e a9 ff 64 3d 0b 93 17 3f b0 d1 26 bf
       0.45403713 0.05590788 0.59208745 -0.6516371
0001a0 28 d6 1d 3e 13 5b 0c 3f cd f3 ac 3d 7e 0c 0f bf
       0.15413725 0.5482647 0.08444939 -0.55878437
0001b0 3f 11 3b 3d 96 7c 93 bd 30 7e bf be 44 55 0c 3d
       0.045670744 -0.07201497 -0.3740096 0.034261003
0001c0 e3 98 d3 3e f6 46 d1 3d e8 d1 cb 3e b2 a6 f1 3e
       0.4132758 0.10218613 0.39808583 0.4719749
0001d0 4e 7a d3 3d 81 23 1b 3f f8 d3 04 bd cb 91 ff be
       0.10326062 0.6060105 -0.03242871 -0.4991592
0001e0 78 79 2c bf 35 d8 66 be 12 d6 88 be e9 03 2d 3f
       -0.67372847 -0.22543414 -0.26725823 0.6758409
0001f0 32 6a 10 3e be f0 f7 3e ff a5 13 be cd 5b 85 3e
       0.1410301 0.4842586 -0.14418791 0.260466
000200 e4 30 91 3d bc 5d 08 bf ca 98 c0 be 19 a7 12 3f
       0.07089403 -0.5326803 -0.3761657 0.5728622
000210 9d 32 00 be 93 25 87 be ee 65 10 bf 29 e7 6b bc
       -0.12519307 -0.26395854 -0.5640553 -0.014398375
000220 69 28 0c bf 38 17 dc be e2 13 dc bd f4 ca 26 3e
       -0.5474916 -0.42986465 -0.1074598 0.16288358
000230 f2 51 01 3d a1 07 a3 be ed 29 27 bf 76 ba 4d 3d
       0.03157229 -0.31841758 -0.6529835 0.05022665
000240 de ab 13 bf f3 7b ff 3e 3f ee e4 3c 61 5c b0 be
       -0.57684124 0.49899253 0.027945636 -0.3444548
000250 57 0c ff 3e a4 45 15 3e 13 cb 07 bf f5 b6 c7 be
       0.49814102 0.14577347 -0.5304424 -0.39006773
000260 ac bf 00 3f 58 96 a5 bd 08 05 fe 3d bc f4 55 3e
       0.5029247 -0.080853164 0.124033034 0.2089414
000270 03 a0 00 3f 4a 43 33 3f 7d 7d 24 b9 53 21 bb be
       0.5024416 0.7002455 -0.00015687007 -0.36548862
000280 cb 36 71 3e f5 09 12 bf 47 1f 33 be a5 f6 3a bb
       0.23556058 -0.57046443 -0.174924 -0.002852836
000290 4d a7 a3 be 8a 32 2c 3d 52 50 46 3e 4e 85 32 3e
       -0.31963578 0.042040385 0.19366577 0.17433664
0002a0 d4 03 0d bf e5 54 f2 be 20 f8 c0 3e b3 ce 17 be
       -0.55083966 -0.47330394 0.37689304 -0.14824943
0002b0 a8 27 2d bf 17 54 d0 3e 35 ea 10 bf d7 35 1d 3f
       -0.67638636 0.40689155 -0.5660737 0.6141028
0002c0 13 d3 86 3e 8a 12 b5 3e e4 99 96 3d ef fd f7 3e
       0.26332912 0.35365707 0.07353571 0.48435923
0002d0 18 21 08 3e 71 83 96 3d 3c 01 2c 3f 22 39 04 3f
       0.13293874 0.07349289 0.67189384 0.5164968
0002e0 85 17 27 3f 6d f4 1e 3f f5 75 86 bd 3b 57 f6 bd
       0.6527026 0.62091714 -0.06565467 -0.12028357
0002f0 2c 55 ea be 40 96 8d be 03 1a 20 3f 76 28 f4 3e
       -0.45768106 -0.27653694 0.6253969 0.4768712
000300 69 7d c8 be 09 5f ba 3e 1b 8f c9 be 29 ab e4 3e
       -0.3915818 0.3640063 -0.39366993 0.44661835
000310 b9 33 e0 be c4 d1 1b 3f b4 62 c0 be 9f 9f fe be
       -0.4378946 0.6086695 -0.37575305 -0.49731156
000320 31 7d a8 3e 57 53 15 3d 09 32 81 3d 25 e1 7d be
       0.32908013 0.036456432 0.063083716 -0.24792917
000330 aa 16 1e 3f ce 6e e1 be 19 de 9c 3d 8b 62 19 be
       0.6175333 -0.4402985 0.07659549 -0.14978997
000340 1a 2c 81 3e 87 df b0 be c5 df 1b bf e7 38 da be
       0.2522896 -0.34545538 -0.6088832 -0.42621538
000350 3d 22 6e bd 45 33 30 bf 03 56 19 3f ee 1d f4 3e
       -0.05813812 -0.6882823 0.5989687 0.47679085
000360 e5 1f bc bd 44 90 ed bd ec 57 a0 be 25 b7 ae be
       -0.09185771 -0.11599782 -0.3131708 -0.34124103
000370 3d f7 dc 3e 6a 49 27 3e c6 ab 95 be c7 65 b3 3e
       0.43157378 0.16336599 -0.29232615 0.35038587
000380 c2 5f 34 3f 4d 12 86 bd 18 f7 22 bf 7d e8 6b 3d
       0.70458615 -0.06546459 -0.63658285 0.057594765
000390 7d 78 cb bd 97 fb 8c 3e a6 05 14 bf ba 03 c1 3e
       -0.09935091 0.27535698 -0.5782112 0.37698156
0003a0 12 32 03 bd d8 36 2c 3f 9c 90 a3 bd 2a 00 ea be
       -0.032030173 0.67271185 -0.079865664 -0.4570325
0003b0 b0 dc 32 3f 10 b4 99 be f3 28 d2 3e c7 89 e3 3d
       0.6986799 -0.3002019 0.41046867 0.11110263
0003c0 38 f8 c3 be 06 1c 19 3f b1 8c d7 3e 02 ab 34 bf
       -0.38275313 0.59808385 0.42099527 -0.7057344
0003d0 08 16 4e bd 49 72 2d 3e 6a 53 1c 3e a3 2a 10 3f
       -0.05031398 0.16938128 0.15266195 0.5631506
0003e0 48 06 c5 be d8 17 84 be b1 d4 be be f6 fb 76 3e
       -0.38481355 -0.2579944 -0.37271646 0.24119553
0003f0 39 47 8e be 30 c5 1d 3f c4 8c 2c 3f d9 d4 66 3e
       -0.27788714 0.6162901 0.6740229 0.22542132

clf_net.1.weight f4 [256]
000000 48 ba 7f 3f 45 00 80 3f 0b ab 7f 3f ac 14 80 3f
       0.9989362 1.0000082 0.99870366 1.0006309
000010 43 0d 80 3f 71 e6 7f 3f ef 11 80 3f fa d6 7f 3f
       1.0004047 0.99961 1.0005473 0.99937403
000020 42 db 7f 3f e6 1d 80 3f 02 e9 7f 3f 14 bc 7f 3f
       0.99943936 1.0009124 0.99964917 0.9989636
000030 2c c7 7f 3f 83 f3 7f 3f b8 6a 7f 3f f4 04 80 3f
       0.9991329 0.99980944 0.99772215 1.0001512
000040 96 00 80 3f 86 30 80 3f 77 32 80 3f 42 0a 80 3f
       1.0000179 1.0014808 1.0015401 1.000313
000050 20 24 80 3f 3a eb 7f 3f 25 a7 7f 3f bb db 7f 3f
       1.0011024 0.999683 0.9986442 0.9994466
000060 20 ee 7f 3f 73 04 80 3f 78 f6 7f 3f f9 0d 80 3f
       0.99972725 1.0001358 0.99985456 1.0004264
000070 31 d7 7f 3f ac 15 80 3f 8f cc 7f 3f 7b e8 7f 3f
       0.9993773 1.0006614 0.99921507 0.9996411
000080 32 17 80 3f 07 fa 7f 3f 06 fb 7f 3f 91 02 80 3f
       1.0007079 0.99990886 0.99992406 1.0000783
000090 15 12 80 3f 3e 0b 80 3f 19 ff 7f 3f e0 eb 7f 3f
       1.0005518 1.0003431 0.99998623 0.9996929
0000a0 5a 16 80 3f 2e 06 80 3f c8 9b 7f 3f d5 50 80 3f
       1.0006821 1.0001886 0.9984708 1.0024668
0000b0 b1 02 80 3f b9 eb 7f 3f 47 c7 7f 3f 46 07 80 3f
       1.0000821 0.9996906 0.9991345 1.000222
0000c0 92 85 7f 3f 40 1d 80 3f 2f 24 80 3f eb fd 7f 3f
       0.9981319 1.0008926 1.0011042 0.99996823
0000d0 ab fa 7f 3f 5a af 7f 3f ba ca 7f 3f cf 7a 7f 3f
       0.99991864 0.9987694 0.9991871 0.99796766
0000e0 ea 96 7f 3f d0 06 80 3f 18 0f 80 3f 39 08 80 3f
       0.9983965 1.0002079 1.0004606 1.0002509
0000f0 4a c8 7f 3f bf d4 7f 3f 15 ee 7f 3f b9 7e 7f 3f
       0.9991499 0.99934 0.9997266 0.9980274
000100 e1 cb 7f 3f da c6 7f 3f 07 30 80 3f 69 25 80 3f
       0.9992047 0.999128 1.0014657 1.0011417
000110 e8 05 80 3f 08 07 80 3f a5 f9 7f 3f 94 0d 80 3f
       1.0001802 1.0002146 0.999903 1.0004144
000120 54 83 7f 3f f9 fe 7f 3f ac dd 7f 3f dc 2a 80 3f
       0.99809766 0.9999843 0.9994762 1.001308
000130 b5 0a 80 3f 39 9d 7f 3f 99 2b 80 3f 4b ec 7f 3f
       1.0003268 0.9984928 1.0013305 0.9996993
000140 24 dd 7f 3f 68 9b 7f 3f 29 0d 80 3f 51 17 80 3f
       0.9994681 0.99846506 1.0004016 1.0007116
000150 67 29 80 3f 79 0d 80 3f 99 00 80 3f 9e bb 7f 3f
       1.0012635 1.0004112 1.0000182 0.99895656
000160 09 27 80 3f 48 10 80 3f 6b 1c 80 3f 04 b1 7f 3f
       1.0011913 1.0004969 1.0008672 0.9987948
000170 5c 0b 80 3f e0 0b 80 3f 35 30 80 3f 33 04 80 3f
       1.0003467 1.0003624 1.0014712 1.0001281
000180 9e c5 7f 3f 0e fe 7f 3f 8b c0 7f 3f ab f7 7f 3f
       0.99910915 0.9999703 0.9990317 0.99987286
000190 38 09 80 3f 18 ea 7f 3f a9 29 80 3f 87 eb 7f 3f
       1.0002813 0.99966574 1.0012714 0.9996876
0001a0 09 8f 7f 3f 2f 10 80 3f 6c ec 7f 3f 7a fb 7f 3f
       0.9982763 1.0004939 0.99970126 0.999931
0001b0 22 99 7f 3f eb b5 7f 3f 34 d6 7f 3f b3 28 80 3f
       0.9984304 0.9988696 0.99936223 1.001242
0001c0 a2 a7 7f 3f 01 10 80 3f 78 02 80 3f 10 0f 80 3f
       0.9986516 1.0004884 1.0000753 1.0004597
0001d0 cf 05 80 3f 2d 03 80 3f 8b da 7f 3f 2e c9 7f 3f
       1.0001773 1.0000969 0.99942845 0.9991635
0001e0 07 2f 80 3f 51 af 7f 3f 00 90 7f 3f 81 0d 80 3f
       1.0014352 0.99876887 0.998291 1.0004121
0001f0 92 f2 7f 3f 38 d5 7f 3f bd ad 7f 3f 4c f5 7f 3f
       0.9997951 0.9993472 0.9987448 0.9998367
000200 bb 49 80 3f 74 a9 7f 3f 7c 23 80 3f 45 1c 80 3f
       1.0022501 0.9986794 1.0010829 1.0008627
000210 72 28 80 3f 40 da 7f 3f 9d ed 7f 3f 75 29 80 3f
       1.0012343 0.999424 0.99971944 1.0012652
000220 fc 0f 80 3f c3 d8 7f 3f 91 d6 7f 3f 52 fb 7f 3f
       1.0004878 0.9994013 0.9993678 0.9999286
000230 75 0c 80 3f ba 0d 80 3f 82 e2 7f 3f 90 c8 7f 3f
       1.0003802 1.0004189 0.99955 0.9991541
000240 3f 00 80 3f ee e9 7f 3f a9 ef 7f 3f 9e 13 80 3f
       1.0000075 0.99966323 0.9997507 1.0005987
000250 36 0f 80 3f 5d 06 80 3f a9 ee 7f 3f 46 12 80 3f
       1.0004642 1.0001942 0.9997354 1.0005577
000260 c5 0e 80 3f dd 19 80 3f 29 f7 7f 3f 8d 2d 80 3f
       1.0004507 1.0007893 0.9998651 1.0013901
000270 46 1f 80 3f ae 10 80 3f b6 bd 7f 3f 9f 24 80 3f
       1.0009544 1.000509 0.9989885 1.0011176
000280 eb ef 7f 3f a6 3e 80 3f 47 b2 7f 3f 0f 0d 80 3f
       0.9997546 1.0019119 0.99881405 1.0003985
000290 7b d2 7f 3f aa dc 7f 3f 19 e4 7f 3f 53 15 80 3f
       0.9993054 0.9994608 0.99957424 1.0006508
0002a0 a7 9c 7f 3f 42 01 80 3f c1 e9 7f 3f 0b f0 7f 3f
       0.9984841 1.0000384 0.99966055 0.9997565
0002b0 f3 24 80 3f 27 0b 80 3f 03 be 7f 3f d0 19 80 3f
       1.0011276 1.0003403 0.9989931 1.0007877
0002c0 23 ff 7f 3f 59 e3 7f 3f c0 0b 80 3f 96 d6 7f 3f
       0.9999868 0.9995628 1.0003586 0.9993681
0002d0 d4 04 80 3f fa e3 7f 3f a8 b7 7f 3f 97 17 80 3f
       1.0001473 0.9995724 0.9988961 1.0007199
0002e0 f5 fc 7f 3f 5c a7 7f 3f 3f b5 7f 3f 00 a0 7f 3f
       0.99995357 0.99864745 0.99885935 0.99853516
0002f0 dd 14 80 3f e2 0b 80 3f e0 15 80 3f fe b6 7f 3f
       1.0006367 1.0003626 1.0006676 0.998886
000300 9e 28 80 3f 50 c7 7f 3f 3f f9 7f 3f a6 1a 80 3f
       1.0012395 0.999135 0.99989694 1.0008132
000310 c0 f5 7f 3f d1 00 80 3f 38 13 80 3f 99 c4 7f 3f
       0.9998436 1.0000249 1.0005865 0.9990936
000320 91 ea 7f 3f 2d f1 7f 3f e6 bd 7f 3f 6f 06 80 3f
       0.99967295 0.9997738 0.9989914 1.0001963
000330 a7 1b 80 3f a9 a8 7f 3f 30 fb 7f 3f ef 1c 80 3f
       1.0008439 0.9986673 0.99992657 1.000883
000340 ef 0a 80 3f 72 19 80 3f c3 f8 7f 3f 9a d1 7f 3f
       1.0003337 1.0007765 0.99988955 0.999292
000350 39 92 7f 3f ba 0b 80 3f 6e 14 80 3f 5f b2 7f 3f
       0.99832493 1.0003579 1.0006235 0.9988155
000360 f0 10 80 3f 29 5b 80 3f d4 03 80 3f 57 09 80 3f
       1.0005169 1.002782 1.0001168 1.000285
000370 f5 25 80 3f b4 26 80 3f 21 12 80 3f b2 18 80 3f
       1.0011584 1.0011811 1.0005533 1.0007536
000380 5a 08 80 3f 9a b2 7f 3f fc 1f 80 3f 11 17 80 3f
       1.0002549 0.998819 1.0009761 1.0007039
000390 29 ab 7f 3f b5 31 80 3f 36 a7 7f 3f f5 26 80 3f
       0.99870545 1.0015169 0.9986452 1.0011889
0003a0 26 0f 80 3f e5 2e 80 3f 98 c8 7f 3f c3 25 80 3f
       1.0004623 1.0014311 0.99915457 1.0011524
0003b0 22 f0 7f 3f fd d4 7f 3f 72 d3 7f 3f 15 ee 7f 3f
       0.9997579 0.9993437 0.99932015 0.9997266
0003c0 65 da 7f 3f 4c 3e 80 3f 31 2c 80 3f a8 22 80 3f
       0.9994262 1.0019011 1.0013486 1.0010576
0003d0 12 e2 7f 3f b3 00 80 3f 94 f0 7f 3f a8 25 80 3f
       0.9995433 1.0000213 0.9997647 1.0011492
0003e0 a9 23 80 3f ad c3 7f 3f 09 29 80 3f 45 d0 7f 3f
       1.0010883 0.9990795 1.0012523 0.9992717
0003f0 9c 29 80 3f 24 c6 7f 3f c5 07 80 3f dc 09 80 3f
       1.0012698 0.99911714 1.0002371 1.0003009

clf_net.1.bias f4 [256]
000000 22 a7 07 bc 2a d1 be 3b c9 99 87 3b 95 a6 10 3b
       -0.008279594 0.005823274 0.0041382057 0.0022071947
000010 5d 3f 7d 3b 90 6a 66 bb 2f 34 92 3c 61 ae d0 3a
       0.0038642504 -0.003515873 0.017847149 0.001592111
000020 33 0b a6 bb 9b e6 75 bb 88 54 35 3b 38 41 95 3b
       -0.005067253 -0.0037521485 0.0027668793 0.004554894
000030 8e b6 1f 3b fc 6d 19 3b 5f 46 ab bb b8 68 10 bb
       0.0024370286 0.0023411503 -0.0052268947 -0.0022035073
000040 17 a1 b3 bb 82 2f b5 b9 42 2a 48 bb e8 2b 77 ba
       -0.00548185 -0.00034558406 -0.0030542766 -0.0009428845
000050 4e 46 14 3b 0a 2e 3d bb 7a b4 9e bb 42 82 25 3a
       0.0022624913 -0.0028866553 -0.004843292 0.00063136604
000060 c6 c9 7d bb 03 d7 dd 3a 27 4a 7b bb d4 ba 88 3a
       -0.0038725003 0.001692504 -0.0038343759 0.0010431656
000070 db 2e 2c bb db bf 64 b9 74 73 bb ba 00 44 c1 3b
       -0.0026273045 -0.00021815246 -0.0014301375 0.005897999
000080 38 0c f4 3a 3a c7 82 bb 49 e6 23 ba 9a 84 8b 3b
       0.0018619364 -0.003991035 -0.00062522717 0.0042577507
000090 d6 7b 3a 3b 4e 4e 21 3c e8 74 72 bb 4d db e9 ba
       0.002845516 0.009845329 -0.003699595 -0.0017841846
0000a0 b4 1a 15 bb aa 20 b0 3b 70 88 cb b9 dc 20 9a 3b
       -0.0022751512 0.0053749876 -0.0003882083 0.004703624
0000b0 6a 00 db b9 da cd 23 3b a9 ce bb b9 23 54 bb bb
       -0.00041771244 0.0024994523 -0.00035821393 -0.005716817
0000c0 10 74 d4 3a b8 30 31 3b 1d 46 8e ba 1f 8d 2b bb
       0.0016208906 0.0027037095 -0.0010854636 -0.0026176644
0000d0 f5 c9 27 3b 79 97 99 3b 9b 68 94 bb 56 71 61 39
       0.0025602554 0.0046872464 -0.0045290715 0.00021499893
0000e0 91 0f a3 bb 0e aa 09 bb 60 31 17 3c 40 bb 4b ba
       -0.004976221 -0.0021005902 0.0092280805 -0.0007771738
0000f0 09 e0 23 3c b5 8d f9 ba 20 0c 76 3b e4 0a ee ba
       0.010002145 -0.0019039424 0.0037543848 -0.0018161205
000100 b3 af af ba b6 55 69 bb f7 07 07 3b 80 f8 ec bb
       -0.0013403803 -0.0035604066 0.0020604113 -0.007231772
000110 1f 15 c3 39 96 44 87 bb 14 9d b8 3b d7 7e 80 3b
       0.00037209035 -0.004128049 0.0056339595 0.0039213705
000120 4e ef 9c 3b 56 0e 18 3a 79 50 62 bb 48 01 c3 3a
       0.0047892695 0.0005800476 -0.0034532829 0.0014877701
000130 2f f4 89 3a 4d 1d ad bb 4f 93 c1 bb 9a 2b c3 3a
       0.0010525043 -0.005283034 -0.005907453 0.0014890314
000140 4d e4 52 3b 0f 68 48 bb 24 59 4a bb 6e 14 2b 3b
       0.0032179535 -0.0030579602 -0.0030875886 0.0026104706
000150 38 e1 99 3b 25 98 a6 ba a9 15 23 3b e9 bc 1d 3a
       0.0046960376 -0.0012710138 0.0024884737 0.00060172245
000160 6e b3 bb bb ae e8 42 bb 86 62 56 ba 38 31 a8 ba
       -0.005728177 -0.0029740739 -0.0008178133 -0.0012832051
000170 8d bd df bb 1a 8e b5 3b 7a 27 9d bb d7 bc 4f bb
       -0.006828016 0.0055406215 -0.0047959657 -0.003169825
000180 42 78 ea 3b 08 0d 43 3b 14 95 e7 3a 0f 74 ba 39
       0.007155449 0.0029762406 0.001766833 0.00035563155
000190 a6 8c 92 3b 73 78 75 ba c6 64 63 37 1f 51 3d b9
       0.004472333 -0.00093639566 1.35537175e-05 -0.00018054665
0001a0 e9 25 9f 38 45 48 c7 b9 55 a5 4c bb 2e 08 e4 bb
       7.588772e-05 -0.00038010083 -0.0031226475 -0.006958983
0001b0 11 95 37 3a 51 9f c1 3b c1 9b 1f ba 1d 8d 03 bc
       0.00070031086 0.0059088846 -0.0006088578 -0.0080292495
0001c0 a0 94 66 3b 8c da 0b 3b f3 0a a0 3b dc 95 d1 bb
       0.0035183802 0.002133998 0.0048841177 -0.0063960385
0001d0 d9 d2 be ba 74 de 61 3b 27 51 c4 bb 1f 6d d2 3b
       -0.0014558687 0.0034464868 -0.0059911194 0.0064216997
0001e0 e8 01 31 3c a8 ff 0c ba 7a fe 70 ba 1d ec 00 bb
       0.010803677 -0.0005378672 -0.00091931934 -0.0019671984
0001f0 f9 82 a3 ba d7 a4 81 3a a9 1c 4d bb 32 2e cf bb
       -0.0012474946 0.0009891045 -0.00312976 -0.0063226456
000200 e9 7f d9 ba 48 e3 a6 3a 62 b9 d8 3b 68 20 07 3b
       -0.0016593906 0.001273253 0.006613896 0.002061868
000210 5f 79 34 bb 32 0d c0 ba 5d 1a dd b7 8e 2e 0b b9
       -0.0027538163 -0.001465237 -2.635753e-05 -0.00013273416
000220 fa 5b fd 3a 70 cf ab b9 f9 dc 0c 3b 8f b7 b2 bb
       0.0019329779 -0.00032770215 0.0021494015 -0.005454011
000230 32 22 7b bb b4 e2 06 bb a5 06 bf 3b 52 56 66 ba
       -0.0038319943 -0.0020581903 0.0058296495 -0.00087866664
000240 e3 56 d1 bb d1 b7 b6 3b 8f 50 5f 3a cd 65 19 3a
       -0.0063885315 0.005576112 0.0008518779 0.00058516563
000250 2e 61 27 bb a3 a9 8b 3a f4 5f b6 b9 58 1e 42 39
       -0.0025540101 0.0010655414 -0.00034785236 0.00018512586
000260 3f 72 da 39 4b b5 ce 3b df 51 17 ba 0e 8d e6 bb
       0.0004166532 0.006308233 -0.00057723926 -0.007035858
000270 7f 84 0e 3a 41 c4 0b ba 06 1e b8 3b 1e 30 60 bb
       0.00054366136 -0.00053316733 0.0056188134 -0.0034208368
000280 15 d7 45 3b f6 a3 b5 3b 52 96 0a bc df 44 c1 3b
       0.0030188013 0.0055432273 -0.008458691 0.0058981027
000290 9b 1a 97 3a 48 08 49 ba d0 5c b6 ba bc 91 16 bb
       0.0011528315 -0.00076687755 -0.0013913158 -0.0022975048
0002a0 be de 88 ba 02 49 5f b9 70 74 f0 b7 a0 45 07 bb
       -0.0010442359 -0.00021294135 -2.866445e-05 -0.0020640865
0002b0 19 2c c0 bb 78 8c c1 b9 36 b1 02 b9 61 03 91 3b
       -0.005864632 -0.00036916486 -0.00012463782 0.0044254516
0002c0 14 08 ad bb ec e1 c6 ba 55 d9 96 3b 79 53 3b bb
       -0.005280504 -0.0015173531 0.0046035447 -0.002858369
0002d0 38 9a 76 ba 69 6d 39 bb e7 d0 0c 3a 34 9a 29 bb
       -0.00094071357 -0.0028293973 0.0005371705 -0.0025879266
0002e0 86 4a 24 3b e9 f2 ae bb 4b 58 84 3b 4d 45 70 bb
       0.0025068833 -0.0053390157 0.0040388457 -0.00366624
0002f0 45 a0 95 bb db 9b 2c 3a 0f fc a4 3a 4b 80 69 3b
       -0.0045662248 0.00065845036 0.0012587326 0.0035629447
000300 35 30 54 bb 4c b3 03 3a b8 a4 e2 bb 85 c1 ae 3b
       -0.0032377366 0.0005023971 -0.0069166087 0.005333128
000310 74 a4 f0 ba 4f de 81 bb c2 e3 75 3b 00 8d a9 3a
       -0.0018359558 -0.003963269 0.0037519787 0.0012935698
000320 14 eb 24 3b ca a4 dc b9 09 0f 3f 3b 93 aa 81 3b
       0.0025164532 -0.00042084447 0.0029153249 0.0039571016
000330 9d fb c7 3b 6d ee aa bb f6 80 e2 3a e5 44 bb 3b
       0.0061029927 -0.005216411 0.0017280865 0.005715
000340 74 c0 fd ba cb 12 27 3a a0 c3 e9 ba 06 b8 f3 ba
       -0.0019359724 0.0006373345 -0.001783479 -0.0018594272
000350 5d 1e 26 bb 19 91 12 3a d1 5f be 3a 45 dd 78 39
       -0.0025347688 0.0005591079 0.0014524405 0.00023733552
000360 c7 e5 70 39 69 55 f6 bb 58 13 1f bc 99 98 4b bb
       0.00022973782 -0.007517506 -0.009709202 -0.0031066297
000370 a8 ae 18 3c b1 39 1d 39 b4 40 8e ba c5 5b 20 bb
       0.009318985 0.00014994178 -0.0010853023 -0.0024468761
000380 e7 0e b6 3b 13 6f 95 bb 8c f1 08 bc a1 f9 8f bb
       0.0055559757 -0.00456036 -0.0083583705 -0.0043937718
000390 6d 70 55 3b 83 23 90 ba 56 17 e0 39 08 5d c8 ba
       0.0032568232 -0.0010996911 0.00042741996 -0.0015286515
0003a0 94 22 be bb 13 5a 06 bb 71 58 4d ba 26 77 20 bb
       -0.005802462 -0.0020500466 -0.0007833308 -0.002448508
0003b0 fe 2a 33 3a 88 23 c4 ba 38 f2 26 3a a9 95 39 39
       0.00068347144 -0.0014964202 0.0006368491 0.00017698728
0003c0 de e7 a9 bb 18 ec 30 3c 88 f7 23 3c 33 d7 4b 3b
       -0.0051851114 0.010798477 0.0100077465 0.003110361
0003d0 56 d2 ac bb 28 5d 07 3c db 91 c8 bb 3e 7f f1 3a
       -0.0052740974 0.008261956 -0.006120903 0.0018424762
0003e0 09 00 db bb c7 35 71 3b 8c a9 e9 38 eb df 0f bc
       -0.006683354 0.0036805735 0.00011141886 -0.008781414
0003f0 2e 49 c4 b8 59 e5 f7 3b d5 4a c2 bb 5e 18 cf 3a
       -9.359639e-05 0.007565182 -0.005929331 0.0015800109

clf_net.1.running_mean f4 [256]
000000 e1 39 c4 3e 2c a6 51 3f 17 b4 81 be 23 c6 80 3e
       0.38325408 0.81894183 -0.2533271 0.25151166
000010 b4 a8 26 3f cc 06 dd be 07 27 46 bf e3 73 2c 3d
       0.6510117 -0.43169248 -0.774033 0.042102706
000020 dc 0d f7 be 94 02 02 bf 1b 49 90 be e9 c9 4e 3e
       -0.4825276 -0.50785184 -0.28180775 0.2019421
000030 a3 c7 67 3e 74 44 29 3e 4e ae 49 3e 2e 82 b9 3d
       0.22634749 0.16530019 0.19695398 0.09058033
000040 9a a2 fb bc 96 d5 75 3f ec 00 15 3f ee 62 60 3e
       -0.030717183 0.9602903 0.5820453 0.21912739
000050 95 ba b6 3e 6f b1 4c 3e a6 56 dc be b6 46 01 3d
       0.35689226 0.1998956 -0.43034858 0.031561576
000060 a1 01 8a be 90 a5 21 bf 11 4e a1 be 0c 5c 99 3e
       -0.26954368 -0.63143253 -0.31504872 0.2995304
000070 ac af 27 bf d3 f6 ec be 08 29 56 3e 10 b5 19 bf
       -0.6550243 -0.46282062 0.2091409 -0.60041904
000080 39 95 04 3f 43 49 c0 be d6 97 f9 be 3d a6 4e 3e
       0.51790196 -0.37555894 -0.48748654 0.20180602
000090 69 51 81 3e 0a 23 b1 bd 28 05 1f bf ea 2e e9 3e
       0.25257424 -0.08649261 -0.6211724 0.45543605
0000a0 7e 4a 50 3f e1 b1 df be be 99 16 be d9 6e 64 3e
       0.81363666 -0.43690398 -0.14707085 0.2230791
0000b0 4e 7b d7 be 0b e2 10 be a1 ad a2 3e 8e e9 27 3e
       -0.42086262 -0.14148729 0.31773093 0.16397688
0000c0 1b 96 56 bf 9e 37 e5 bd 5f b7 d3 3c a1 ad be 3e
       -0.8382279 -0.11192249 0.025844274 0.37241843
0000d0 3f 24 5d 3e 3b 34 24 3f 6e 34 a5 3e db 33 d0 3d
       0.21595858 0.641422 0.32266563 0.10166141
0000e0 bc a5 20 bf 2e ef 61 3e 01 84 11 bf 6e 55 02 3d
       -0.6275289 0.22063896 -0.56842047 0.031819753
0000f0 99 16 2f bd 9a c1 38 3f 07 3d 4f bf 44 50 65 bd
       -0.04274616 0.7217041 -0.80952495 -0.05598475
000100 fd 7d e7 3e 38 c5 be be b7 6e 36 be 2e 2a cd bd
       0.4521331 -0.3725984 -0.17815672 -0.10017811
000110 f1 4b 93 3e 8d 82 f9 be 59 fc 27 bd 12 c6 cd 3e
       0.28768876 -0.48732415 -0.04101214 0.40190178
000120 b0 73 c9 be af 8f 29 3e b6 1b 7f 3e f2 a5 b5 3e
       -0.39346075 0.16558717 0.24912915 0.3547817
000130 8a 64 84 3d 02 06 93 3e 90 7c d1 be d7 a3 b1 bd
       0.06464489 0.2871552 -0.40915346 -0.08673828
000140 28 ad 82 3e 2f a1 7e 3f fd 32 05 bf 84 23 38 3f
       0.25522733 0.99464697 -0.52030927 0.7192919
000150 a5 5e 22 bf f1 fe 38 3e 57 44 22 3e 2d 3a 34 3e
       -0.63425666 0.18066002 0.15846382 0.17600317
000160 30 b7 63 be 5a e1 1c 3f 79 0e 5c 3f e4 e0 93 3d
       -0.22237849 0.6128136 0.85959584 0.07220629
000170 96 ba 0d bd 03 e7 4d 3d bf a8 ed 3d 58 11 1c 3f
       -0.03460177 0.050269138 0.116044514 0.60963964
000180 6a 2a 52 3f 9e b6 18 be cf e3 cd 3e 53 c4 fd be
       0.8209597 -0.14913413 0.40212867 -0.49563846
000190 f1 df b3 3e f5 9c 77 3e 8a 50 a2 3e 36 b5 41 bf
       0.3513179 0.24180968 0.3170207 -0.7566713
0001a0 76 09 c0 bd 51 9e 07 3f 37 bb 70 3d a8 e7 3b bf
       -0.093768045 0.52975947 0.058772292 -0.73400354
0001b0 96 92 49 3e 28 da 63 be 0b b1 35 bf 7c 40 6a 3e
       0.19684824 -0.22251189 -0.7097327 0.22876161
0001c0 5a 5f 36 3f 7b e0 fc bd 65 59 1c 3f 00 6d 2d 3f
       0.71239245 -0.12347504 0.61073905 0.67744446
0001d0 64 66 10 be 53 7f 14 3f df ed 9c 3e 37 3e 30 bf
       -0.14101559 0.5800678 0.3065023 -0.6884493
0001e0 b9 78 40 bf ef 3d fd bd b9 3e be bd 6f 1f 84 3f
       -0.7518421 -0.123653285 -0.09289307 1.0322093
0001f0 b9 8e 03 3e f1 7e 96 3e dd ee 4d 3d ce 1e b8 3d
       0.12847413 0.29393724 0.050276626 0.089902505
000200 ad 69 c1 3d 3c 06 fd be c2 3a 9f be 65 7e 3e 3f
       0.09443984 -0.4941882 -0.31099516 0.7441161
000210 ba 96 6a be a5 b9 4a be 0e ea 62 bf b1 ae 4b be
       -0.2290906 -0.1979738 -0.8863839 -0.19890858
000220 d4 f8 55 bf 2d c6 db bd 1d 65 f0 be 55 e9 8d 3e
       -0.83582807 -0.107311584 -0.46952143 0.2771708
000230 6f c4 64 be c9 f6 1a bf c4 a4 0f bf 3e f4 a0 be
       -0.22340558 -0.60532814 -0.5611079 -0.31436342
000240 d5 fa 34 bf 41 3c 2e 3f 71 e6 0d 3e b5 3b 69 be
       -0.7069524 0.6806069 0.13857438 -0.22776683
000250 5c ee 06 3f 42 84 de 3e e8 86 07 bf 47 6c 00 bf
       0.5270746 0.4346028 -0.52940226 -0.5016522
000260 f8 0f 9d 3e 0f b8 10 3e fe eb 93 3e a8 d2 8c bd
       0.30676246 0.14132713 0.28890985 -0.06876117
000270 e7 9e a6 3e 9e 4e 7a 3f e7 98 b6 3a 84 85 8c be
       0.32543108 0.9777621 0.0013931066 -0.27445614
000280 ed 30 84 ba 08 82 f0 be 64 1e ff 3d 34 f6 6f 3e
       -0.0010085382 -0.46974206 0.124569684 0.23433763
000290 74 6a a1 be 70 d4 b8 3e 59 56 b5 bd af 32 01 3f
       -0.3152653 0.36099577 -0.0885436 0.5046796
0002a0 c1 e9 be be 69 1e 10 bf f1 99 e1 3d 21 fd d8 be
       -0.37287715 -0.562964 0.1101569 -0.42380622
0002b0 63 ee 4f bf c5 bb 06 3f b6 5d dd be 40 87 34 3f
       -0.81223124 0.52630264 -0.43235558 0.70518875
0002c0 86 4e 16 3f c5 53 c7 3e 7f a9 d9 bd b0 62 17 3f
       0.5871357 0.389311 -0.10628032 0.5913496
0002d0 f2 09 60 3e 11 35 c8 3e 93 97 99 3e 93 2e 0f 3f
       0.21878794 0.39102986 0.29998454 0.5593044
0002e0 5c c4 43 3f a2 a3 18 3f 39 32 dc bb 22 ad 99 be
       0.76471496 0.59624684 -0.006719854 -0.30014902
0002f0 aa 74 8e be fc 65 83 be 8a 7a 12 3f 53 34 48 3f
       -0.27823383 -0.25663745 0.5721823 0.7820484
000300 07 62 11 bf 8b ce 0a 3f e1 d3 0d bf 2f 4d 0f 3f
       -0.567902 0.5422141 -0.55401427 0.5597715
000310 4e 33 54 be 94 53 12 3f 7c 7a 24 b9 22 17 b5 be
       -0.20722696 0.5715878 -0.00015685888 -0.3536921
000320 32 af e8 3e cb 1a 5b be 3c 6f 81 be a9 14 1b be
       0.45446163 -0.2139694 -0.25280178 -0.151446
000330 70 a5 c9 3e 7b 25 86 be 81 93 ae 3d e2 3d cb bd
       0.3938403 -0.2620047 0.08524228 -0.099239126
000340 b8 e2 64 bd 24 31 0b 3c 9b 94 e7 be 8e 48 8d be
       -0.05588028 0.008495603 -0.45230564 -0.27594417
000350 2e 19 ba be 32 64 73 bf 8e ae 19 3f 47 66 46 3f
       -0.36347336 -0.9507476 0.60031974 0.7749981
000360 ee cb 2c 3d a9 38 95 be 10 c6 ec be a3 a0 f9 bd
       0.04218667 -0.2914479 -0.4624486 -0.12188842
000370 00 fa 0e 3f 21 f2 4f 3e f3 44 53 bb c8 50 b9 3e
       0.5585022 0.20307209 -0.0032237142 0.36194444
000380 63 d8 5c 3f 5b 23 a1 be 93 45 75 bf 35 1b 35 bc
       0.8626768 -0.31472287 -0.95809287 -0.01105385
000390 f8 20 ac be 8d c1 1b 3f 40 be 1f bf 0f 80 ad 3e
       -0.33618903 0.6084221 -0.62399673 0.33886763
0003a0 03 8e 84 3e 89 3e 01 3f d2 56 1f be 2f 55 3e be
       0.25889596 0.50486046 -0.15560463 -0.18587182
0003b0 fb d2 64 3f 3c fe db bd e8 57 17 3f 73 05 92 bc
       0.8938443 -0.10741851 0.5911851 -0.017824864
0003c0 0d eb 27 bf fe ea 28 3f b5 c6 e7 3e 59 2d 0a bf
       -0.65593034 0.6598357 0.4526879 -0.53975445
0003d0 36 f5 f2 bd 79 54 84 3e 8d fe 45 3e 6c f4 01 3f
       -0.118631765 0.25845698 0.19335385 0.50763583
0003e0 32 01 02 bf 74 a0 e0 be b7 d5 2d be 6a bd 93 3e
       -0.50783074 -0.43872416 -0.16976057 0.2885545
0003f0 0e 5e 88 be 05 68 fe 3e e9 39 56 3f 41 b2 c3 3e
       -0.26634258 0.49688736 0.83682114 0.38221934

clf_net.1.running_var f4 [256]
000000 bd 1b 45 3d 41 49 da 3d e9 0e d3 3c 74 48 8e 3c
       0.048122156 0.10658503 0.025763946 0.017368533
000010 92 a0 a1 3c 48 a1 01 3c a9 16 46 3d 56 a1 93 3d
       0.019729886 0.007911988 0.048361454 0.07208507
000020 3b 19 36 3d 64 eb d3 3c 68 1b 9a 3d 00 76 ec 3d
       0.044457655 0.025869079 0.075247586 0.11545944
000030 cb e8 5c 3b 5b a9 a1 3d ba 52 92 3b 5a f6 0e 3d
       0.0033708091 0.0789363 0.004465428 0.034902908
000040 4a b8 d2 3b 1e 14 91 3c 09 5c ae 3d cb 36 b8 3d
       0.0064306604 0.017709788 0.08513648 0.08994826
000050 78 c0 d7 3c 5d c0 cf 3d ef 84 94 3c 34 19 09 3d
       0.026336893 0.10144112 0.018129794 0.0334713
000060 65 ce 37 3d 3b e7 01 3b 32 ab b2 3d 80 54 d2 3d
       0.044874568 0.0019821662 0.08724059 0.10270023
000070 d1 7b d2 39 ae d2 db 3d 4c 41 d5 3d c7 66 07 3c
       0.00040146572 0.10733543 0.10412845 0.00826425
000080 02 ea 9e 3c 60 6e 50 3d 87 c2 a1 3d 5c d7 43 3d
       0.019398693 0.05088651 0.07898431 0.047812805
000090 4e 0d 85 3c 5d ff 7c 3d c9 31 ba 3d 5a 28 05 3d
       0.016241696 0.06176697 0.09091527 0.032509185
0000a0 5b 9c 8c 3d 1d 2a 4d 3c cc 27 e8 3c a1 ec 33 3c
       0.0686576 0.012522248 0.02833929 0.01098171
0000b0 18 d8 c5 3c 95 f1 60 3d 43 42 a7 3c ce 54 8f 3d
       0.024150893 0.05491789 0.020417338 0.06998597
0000c0 02 19 03 3d 08 75 e8 3b 93 9b c7 3c f7 57 fa 3b
       0.03200627 0.0070940293 0.024366176 0.0076398808
0000d0 7d f4 d5 3d 83 9d bb 3c 17 15 e5 3d da a6 e2 3c
       0.10447023 0.022902256 0.11185663 0.027667452
0000e0 80 ae ad 3d 4b 96 8b 3a 71 c0 e9 3c b0 20 2f 3d
       0.08480549 0.0010649649 0.028534146 0.042755783
0000f0 86 cb ba 3d b1 ed dc 3c ab fe ef 3d 3e fa 9c 3c
       0.0912085 0.026968809 0.11718496 0.019162294
000100 c2 be 85 3d 24 a6 d9 3d 83 bc 13 3d 9a 87 ee 3c
       0.06530525 0.10627392 0.03606845 0.029117394
000110 78 c9 36 3c 73 2a 8e 3b f9 ed 30 3d da 7f 8b 3d
       0.011156432 0.0043385564 0.0431957 0.06811495
000120 0e d7 29 3d 95 a9 df 3c 7f b6 97 3c 17 69 da 3c
       0.041464858 0.027302543 0.018519638 0.026661439
000130 6a 7b a8 3d da ea 91 3c d2 95 01 3d c4 fb 90 3d
       0.08226664 0.017812181 0.03163702 0.070792705
000140 e8 25 fa 3c 3a 3d fc 3c c0 42 bc 3c 03 77 35 3d
       0.030535653 0.030790914 0.022981048 0.04430295
000150 6f fe 90 3b 9d 32 fd 3c 82 b3 89 3c c3 f7 36 3d
       0.004424862 0.030907923 0.016809229 0.044669878
000160 6e 3e 55 3c 1c e6 2f 3d e9 9a 90 3d ac f2 c8 3c
       0.013015373 0.04294406 0.07060797 0.024529777
000170 21 12 6d 3d 6d 53 12 3d eb c3 96 3d f7 6c 6a 3d
       0.057878617 0.035724092 0.07361587 0.057232823
000180 d5 60 ad 3c c7 f1 3f 3d 0f 5e a4 3c 71 d0 da 3c
       0.021164337 0.046861436 0.020064382 0.02671072
000190 c6 3f 25 3d a2 e3 8d 3d 77 97 6f 3c e3 60 c1 3b
       0.040344022 0.06928183 0.014623514 0.0059014424
0001a0 4f 06 9b 3c c7 85 e1 3c a6 11 65 3d 0d 68 b0 3d
       0.018923907 0.02752961 0.055925034 0.08613596
0001b0 f0 d4 b2 3b e7 6e 2f 3d 8d ce 1a 3d 43 83 b7 3d
       0.005457513 0.042830374 0.03779464 0.08960583
0001c0 60 91 ae 3d 13 1e 8c 3c ba 48 00 3d 56 dd 7a 3d
       0.08523822 0.017104184 0.031319357 0.06124624
0001d0 e2 24 d2 3d b8 ca df 3c 3f 73 02 3d c5 f4 ae 3d
       0.10260941 0.027318344 0.03184819 0.0854278
0001e0 de 65 4f 3d 24 5c 08 3c e2 b3 df 3b 49 be bd 3c
       0.050634257 0.008322749 0.0068268636 0.023162024
0001f0 e3 c5 af 3d f3 2e da 3c b7 09 27 3d 1e b0 1d 3d
       0.08582666 0.026633715 0.04078075 0.038498037
000200 b6 b8 3e 3d 65 ec c6 39 54 87 8d 3c a4 bf cc 3d
       0.046562873 0.0003794163 0.017276444 0.0999749
000210 3a c4 2b 3d a5 fd ef 3c a2 69 21 3d 19 59 a2 3d
       0.041935183 0.029295752 0.03940738 0.0792715
000220 bb 97 e2 3c a3 83 65 3d f6 fe 29 3d 20 b1 92 3d
       0.027660241 0.05603374 0.041502915 0.0716269
000230 89 50 24 3d 94 5b 02 3d dd ac 50 3c 6b f7 f1 3c
       0.040115867 0.031825617 0.012736526 0.029536923
000240 a5 c3 99 3c 00 64 08 3d 2f 5a 1f 3d 74 98 53 3d
       0.018770048 0.033298492 0.038904365 0.051659063
000250 01 34 c6 3d d3 72 7e 3c 5b b5 03 3d e9 fc c5 3d
       0.09677888 0.015530306 0.032155376 0.096673794
000260 28 ec 8e 3c 7f 22 ca 3d e6 63 fc 3d 60 8d 9e 3d
       0.017446592 0.09869861 0.123237416 0.07741809
000270 04 32 40 3c b7 be b1 3d c8 4b 46 3d 39 bd f1 3d
       0.011730675 0.08678954 0.048412114 0.118036695
000280 49 e3 c3 3c fa 9a c5 3d 7d f4 07 3e 66 d9 cd 3d
       0.023912089 0.096487 0.13276859 0.10051231
000290 a9 84 13 3a c5 2f 99 3c ae 25 b8 3d 98 f3 b3 3d
       0.0005627373 0.018699536 0.08991562 0.08786696
0002a0 bc 8d 02 3e 4b 8a c0 3a 0e 38 64 3c 13 17 3a 3d
       0.1274938 0.0014689652 0.01392938 0.04543216
0002b0 7b 22 76 3d ff 54 7a 3d 46 17 df 3b 9b 58 19 3c
       0.060091477 0.061116215 0.0068081943 0.009359504
0002c0 87 f3 ba 3c cb f5 a7 3c 5e 2d 94 3d b6 8b bd 3c
       0.022821201 0.020502945 0.072352156 0.023137908
0002d0 8a 23 f6 3a e3 a4 fd 3d 40 f9 d3 3d 33 36 73 3c
       0.0018778902 0.12384965 0.10350275 0.014844465
0002e0 e3 1a 71 3d 67 af 7f 3d e4 c8 37 3d db 24 9b 3c
       0.05886353 0.062423136 0.04486932 0.018938472
0002f0 f6 73 8d 3d 8d 10 52 3d ab 62 8d 3a 85 06 24 3d
       0.069068834 0.051285315 0.0010786852 0.04004528
000300 6a 88 bd 3d 11 32 93 3c 7e 70 39 3d 6f fc ef 3d
       0.092545345 0.01796821 0.045273297 0.1171807
000310 e5 ae 26 3d f4 33 4c 3c ef aa b9 3d 8c eb 9e 3d
       0.040694136 0.012463558 0.09065806 0.07759771
000320 ba b3 43 3c 52 77 6e 3c 4a cb 06 3d 94 9a fe 3b
       0.011944706 0.014554815 0.032908715 0.007769892
000330 f1 25 e4 3c c9 db a0 3d d0 bd 2c 3d 94 9e ce 3d
       0.027850123 0.07854421 0.042173207 0.1008884
000340 20 49 01 3d b9 09 19 3d c1 29 fa 3c 41 08 ef 3c
       0.031563878 0.037362788 0.030537488 0.02917874
000350 c0 0b 7b 3d a8 36 e1 3c 87 54 ba 3c 59 3c 07 3d
       0.061290503 0.027491882 0.022745384 0.033016536
000360 c0 e5 13 3d 2a e0 6e 3d da 8e 0c 3d 69 17 41 3d
       0.03610778 0.05831925 0.03431592 0.047141466
000370 3a 4f ac 3d ab 85 57 3b 8b 51 43 3d 19 ef 7b 3d
       0.08413549 0.0032886069 0.047685187 0.06150732
000380 09 b8 7f 3c fc 9d 52 3d 9b e3 ff 3d a4 32 42 3d
       0.015607842 0.051420197 0.12494584 0.047411576
000390 74 53 b8 3d f7 83 79 3d 63 25 dd 3d a4 c8 a7 3d
       0.090002924 0.060916867 0.107981466 0.08192566
0003a0 f1 11 da 3d 6b fd b7 3b 5c 23 9c 3c ad 2c 3b 3d
       0.10647953 0.0056149266 0.01905983 0.045696903
0003b0 78 dc 29 3c ae ec 97 3d 8f a0 dd 3b 05 0f 73 3d
       0.010367505 0.0741819 0.006763525 0.059340496
0003c0 b1 da 1b 3d c7 42 6c 3d d7 c0 6e 3d fb 3b ce 3c
       0.038050357 0.05768087 0.058289375 0.025175085
0003d0 93 50 9d 3d 19 1b dd 3d 03 5d be 3a 3c 72 15 3a
       0.07681384 0.10796184 0.0014523569 0.0005700921
0003e0 41 ef 90 3c 9c 47 97 3c 11 79 36 3c 16 fa b0 3d
       0.01769221 0.018466763 0.011137263 0.0864145
0003f0 ce fc 1f 3a 97 c9 64 3d d7 44 8a 3c 6e 9a cb 3d
       0.00061030395 0.055856314 0.016878529 0.099415645

clf_net.3.weight f4 [256, 256]
000000 ff 6c 6b 3d 44 75 8b bc c2 eb 0f bd 1f fb 2b 3b
       0.057476994 -0.01702369 -0.035136946 0.002624221
000010 10 fe 75 bc 4f e5 1b bc 88 75 1e bd a3 16 1b bd
       -0.0150141865 -0.009515121 -0.038686305 -0.037863385
000020 15 b2 b3 3c 83 4f 22 3d 57 9f 5a 3b c8 90 b1 bc
       0.021935502 0.03962661 0.0033359134 -0.021675482
000030 0c 81 85 bc 25 66 c9 bc 89 46 5f bd a0 0b 46 bd
       -0.016296886 -0.02458484 -0.054510627 -0.04835093
000040 77 e5 ea 3c 01 65 3c 3c a7 b7 37 3d 07 96 3f 3d
       0.02867387 0.011498691 0.04485288 0.046773937
000050 15 58 28 3d 07 ae b4 bc e4 f7 26 3d 83 31 04 3d
       0.041099627 -0.022055639 0.04076375 0.03227378
000060 5a fd 5d bd 52 2a 92 3c c2 b1 4f 3c 17 85 83 bd
       -0.054196693 0.017842446 0.012676658 -0.06421869
000070 48 0c 1b bd eb c8 62 bc ba 26 df bc 1a 18 3a bc
       -0.03785351 -0.013841848 -0.027240146 -0.011358285
000080 4f 9e ea bc 61 6d 33 bd 8a 6b 38 3d f5 f9 11 3d
       -0.02863994 -0.043805484 0.045024432 0.03563877
000090 56 74 2c bd aa d8 73 bd 50 64 b6 bb a4 dd 98 bc
       -0.042103134 -0.0595328 -0.0055661574 -0.018660374
0000a0 b3 be 38 3d 4e 23 df 3c d9 20 a0 3c 38 f6 61 bd
       0.04510374 0.027238514 0.019546913 -0.055166453
0000b0 2f 15 59 3d b5 1b 74 3d ec bc 30 3c 2c 38 34 3d
       0.052998718 0.059596736 0.01078723 0.043998882
0000c0 b7 ab 26 3d 97 30 d6 bc a7 04 39 3d 19 e3 1a 3d
       0.040691104 -0.026146216 0.045170452 0.037814233
0000d0 d2 03 0d bd ed e3 04 bc c0 ea 25 3d b5 58 03 3d
       -0.03442747 -0.008110982 0.04050708 0.03206702
0000e0 ee 2b b2 bb 76 90 5d 3d b2 4e 41 3d ce 75 12 3d
       -0.0054373657 0.054092847 0.04719419 0.03575688
0000f0 b8 e3 44 3c 7c 5d a5 3c ef b2 04 bc 25 2d fd 3c
       0.012017183 0.020186178 -0.008099302 0.030905316
000100 a3 f6 c3 bc af 27 68 bd 89 8d 4f 3b 6d f5 3a 3d
       -0.023921316 -0.05667847 0.0031670055 0.045644213
000110 a8 24 d4 3c f4 8e 28 bc 28 12 b7 bc a0 7a 4c 3d
       0.025896385 -0.010287989 -0.022347525 0.04992163
000120 56 0f e1 bc f2 0f 32 bd 2c f1 a9 3c de 05 0a 3d
       -0.027473133 -0.043472238 0.020744883 0.033697
000130 ec ca 12 3d f7 d0 df 3c ce e1 01 bd f7 23 91 3c
       0.035838053 0.027321322 -0.031709485 0.017717345
000140 78 f2 20 bc d7 66 59 bd 1a 79 bd 3c 32 4c 6a 3c
       -0.009823434 -0.05307659 0.023129035 0.014300393
000150 fa a3 1b 3d f9 87 fb bc c0 16 50 3d 30 de 45 bd
       0.037998177 -0.030704485 0.050802946 -0.048307598
000160 ef 87 e4 bc cd d5 da 3c 0b 78 15 3d a3 56 f7 bc
       -0.02789685 0.026713276 0.036491435 -0.030192679
000170 8f e0 19 3d 76 73 58 3d aa 41 15 3c c9 d5 ab bc
       0.03756767 0.052844487 0.009109894 -0.020975964
000180 38 ad 09 3d 83 e1 3f 3c b4 8f e3 bc cc f1 46 bd
       0.03361246 0.011711481 -0.027778484 -0.04857044
000190 1e 14 70 3d 6f 3e 07 3d 07 c4 67 bd 90 d3 fc 3c
       0.058612935 0.033018526 -0.05658343 0.0308626
0001a0 46 05 8f bc 22 4b 13 3d d7 64 b9 bb 6d 4b 61 bd
       -0.01745857 0.035960324 -0.005657773 -0.055003572
0001b0 42 95 0d bd 35 d2 67 bd 9e 41 55 bc 56 c6 d9 3c
       -0.03456617 -0.056596953 -0.013016133 0.026583832
0001c0 2d 39 9c bc 4a 9f 3b bd 95 f5 a8 3b 41 8a 8d bb
       -0.019070232 -0.045806207 0.005156229 -0.0043194597
0001d0 f5 d4 3e 3d f4 34 6b bd 3a cb 1a 3d df 17 25 3c
       0.04658981 -0.057423547 0.03779147 0.010076492
0001e0 ce 26 7c bd c3 2e 5c 3d 3d 85 94 bc f6 2b 7b bc
       -0.061560445 0.053755533 -0.01812994 -0.015330305
0001f0 40 e9 0a 3d d9 5f ca 3c 65 4d 45 bd 98 fe 0d 3c
       0.03391385 0.024703907 -0.048169512 0.008666657
000200 be 2f 45 bc d0 21 46 bd 9d 2c 12 bd c6 d8 1e 3d
       -0.012035308 -0.04837209 -0.035687078 0.03878095
000210 8f 72 36 bd be fb 50 3c 7e 81 37 bd f2 2e 20 bd
       -0.044542845 0.0127553325 -0.044801228 -0.03910727
000220 bd d3 48 bd 69 e9 b5 3c f5 29 07 3d 3f 04 88 bc
       -0.049030054 0.022206025 0.032998998 -0.016603587
000230 b5 36 ed 3c e3 4d ec 3c e3 00 93 3c e0 96 f5 bc
       0.02895675 0.028845733 0.017944759 -0.02997917
000240 4a a2 dc 3c f9 5d 72 3c 3f d0 5e bd de ba 28 3d
       0.026932854 0.014792913 -0.054397818 0.041193835
000250 f5 cb 23 3d c9 e3 f9 bc 8a e3 6e bd 69 ba 0a 3c
       0.03998943 -0.030504124 -0.058322467 0.008467295
000260 63 60 d2 3c 34 4b 8a 3c 78 02 29 bd 27 31 32 3c
       0.025680726 0.016881563 -0.04126212 0.010875977
000270 99 67 7b bd cb 11 51 bc 26 11 7a 3d 69 26 45 bd
       -0.061378095 -0.01276059 0.06105151 -0.048132334
000280 df 2a f0 3b 0e ce 9b 3a 04 44 d1 bc 0e 24 5e 3d
       0.0073293294 0.0011886971 -0.025545128 0.054233603
000290 bc ac db bb 9a 7c 16 3d 41 fe 66 3d 87 1e f8 bc
       -0.006703941 0.036739923 0.05639482 -0.030287994
0002a0 df c1 71 bd f2 2a 6e bd d9 39 62 bd 63 34 37 3d
       -0.05902278 -0.058146425 -0.05523095 0.044727694
0002b0 93 72 ee 3a e7 f3 a5 3c 37 ba 72 bd c0 cc 07 3d
       0.0018192105 0.020257903 -0.05925962 0.03315425
0002c0 aa 22 35 bd 32 45 1a bd 09 d5 21 3d e7 fe 12 bc
       -0.04422251 -0.037663646 0.039509807 -0.008971906
0002d0 5f 74 d4 3b 96 f7 a1 3b da 7c de 36 b0 de 57 3d
       0.006483599 0.0049428446 6.63065e-06 0.052702606
0002e0 dd ab 13 bd 5c c0 50 3d 28 13 75 3d 9f 0f 11 bd
       -0.036052573 0.0509647 0.059832722 -0.035415288
0002f0 b5 54 10 3c bb 26 61 bd 5c a2 ab bc f9 f7 fa 3c
       0.008809258 -0.054968577 -0.020951442 0.03063582
000300 f2 36 d7 bb 47 d0 87 3c ad 2a 17 3d 4a 53 8e 38
       -0.0065678293 0.016578807 0.036905933 6.7866014e-05
000310 68 43 44 bd 80 cd c1 bc 02 bc 11 3d a1 6d 14 3d
       -0.047915846 -0.02365756 0.03557969 0.036237363
000320 f0 1d 49 3d b7 d8 0f 3d b3 af 2b bd 66 72 2a 3c
       0.049100816 0.035118785 -0.041915607 0.010403251
000330 ce 48 2d 3d 4d fb bc 3c 84 e5 08 bc 70 a5 7a 3d
       0.04230576 0.023069048 -0.008355502 0.06119293
000340 68 7c 06 bb 58 b2 47 bd e7 f2 1c bd 17 53 22 bd
       -0.002052093 -0.048754066 -0.038317587 -0.039630022
000350 1b e6 92 ba 4c 04 65 bd e5 0c 67 3d e2 23 6e 3d
       -0.0011207493 -0.0559123 0.05640878 0.05813969
000360 90 23 f6 bc ba 66 4b bd 69 0a 72 3d 18 1f 59 3d
       -0.030046254 -0.049658515 0.05909196 0.05300817
000370 09 35 5d 3c de 1b 44 3c b8 fe 63 bd c6 70 e0 b8
       0.013501414 0.011969535 -0.05566284 -0.00010702158
000380 bd 7d 5c bd 24 2e 82 bd 9e c5 8f 3c 84 7d d1 bc
       -0.05383085 -0.06356457 0.017550286 -0.025572546
000390 d8 bd be bc d2 0b 6a 3d 80 b1 7b bd 74 c5 7d bd
       -0.023283884 0.05714018 -0.061448574 -0.061955884
0003a0 85 41 77 3d f8 de 8f 3b 93 29 32 3d be 0f 11 3d
       0.06036522 0.0043905936 0.04349668 0.035415404
0003b0 4a 6b 13 bd d3 d9 1b 3d 21 08 54 bd 6a 5d 53 bd
       -0.03599099 0.03804953 -0.051765565 -0.05160276
0003c0 89 4a 9d 3c 7d da 30 3d b9 29 19 3c c5 9e 27 3c
       0.01920058 0.043177117 0.009348326 0.010230725
0003d0 0f 71 59 bb 2c 4b 09 3d 16 27 10 bd 97 5e 7d bd
       -0.003317896 0.033518955 -0.035193525 -0.061857786
0003e0 59 65 85 3c b0 aa 48 bd 8b 52 83 3d 36 4d 23 3d
       0.016283678 -0.048990905 0.06412228 0.039868556
0003f0 36 bc 14 bd b0 73 b4 3c 2c 8f 75 bc 4e 9d e1 bc
       -0.036312304 0.02202782 -0.014987748 -0.027540829
