EE8591/Project/regression_models/Life_Expectancy/DNN/deepnn/training_models/net_900.pt (torch, 13632 bytes, 7 tensors)

clf_net.0.weight f4 [256, 4]
0.23864087 -0.19404614 -0.10579816 -0.43449453 -0.34352696 -0.013465635 0.12908141 -0.047796216
-0.42803562 -0.007909435 0.359429 -0.3025891 -0.45812276 -0.11786723 0.34905535 0.059689295
-0.2671104 -0.21552546 0.43944392 0.25459024 0.60067195 -0.3128072 -0.116286784 -0.10359904
-0.06144615 -0.26260895 -0.061516818 0.22612305 0.18936533 -0.32966128 0.21430768 0.5010686
0.41369873 0.30333328 0.36185175 -0.30319414 0.0049914955 -0.14954041 -0.07894408 -0.12828723
0.222788 -0.1883106 -0.30410928 -0.3130129 -0.26202258 -0.2514848 0.4785233 -0.07738514
0.3471487 -0.53253293 0.2825562 -0.48179638 0.06991706 0.24833336 0.47114322 0.02863206
-0.44115368 0.4259358 0.07920099 -0.1384876 -0.12643453 -0.27224228 -0.23926072 -0.4067358
-0.032168414 -0.29184923 0.1697793 -0.119779676 0.2726874 -0.05197881 -0.079095915 0.46617928
-0.18517663 0.2666732 0.31870675 0.39504993 -0.19648775 0.06975133 0.045999467 0.26320282
-0.14869377 -0.2476723 0.3415866 0.2571468 -0.15678781 0.2548467 0.19670552 0.3482802
-0.21631873 0.16890201 0.17918009 -0.25048247 0.15621541 0.14298882 0.4496172 0.35689238
0.16913418 -0.15821277 -0.013776383 -0.29908255 0.40187466 -0.35763103 0.36606535 -0.3843465
-0.3389943 -0.1888129 -0.44062915 -0.36246696 -0.16830845 -0.19448115 -0.15992871 -0.22446123
0.45323262 -0.17489676 0.045889225 -0.2419372 -0.34439543 0.20185408 0.12755847 -0.08177643
-0.2828333 0.29988563 0.023410141 0.49261117 0.13062763 -0.50088817 0.14101563 -0.4655253
0.25515178 -0.32964227 0.052003417 -0.4943453 0.18442596 -0.5439251 0.09286994 0.022310369
0.012283021 0.5018262 -0.37865016 0.044044767 0.116836876 -0.382769 -0.0036436277 0.10944729
0.3769706 0.048311308 0.54358053 0.24608497 -0.3966525 -0.19898164 -0.27213395 -0.23336847
-0.093246564 0.16318798 0.14678161 0.22553945 0.35535228 -0.3466147 0.036583584 -0.118010275
0.37441233 0.19272178 0.033072423 -0.019162154 0.12563929 -0.11346586 -0.012420275 -0.22695772
0.046734482 0.13864754 -0.4717462 -0.08777264 -0.561133 0.34678376 0.15829857 -0.05051227
-0.61493206 0.36697507 0.45964545 -0.37077904 0.31492248 0.33444923 -0.15481567 -0.2433378
-0.014337125 -0.23974282 0.5007368 0.36798933 -0.3088014 -0.33153844 0.11349028 0.209607
0.18091181 0.13442582 -0.46500033 0.11474566 -0.12895717 0.28649145 0.12014603 0.3208117
0.010103301 0.44362682 -0.22685908 -0.14070472 0.12997341 0.27511454 0.020486075 0.22131607
-0.34807715 -0.3315448 -0.29794776 0.28128865 0.24550924 -0.1912568 0.63980937 0.36578485
-0.5673255 -0.37322113 -0.30279708 -0.16902894 -0.16419856 -0.18687679 0.4125562 -0.002038261
-0.5517211 -0.1418533 -0.036824293 0.30127427 -0.35683605 -0.24282609 0.34731287 0.33561733
-0.08020743 -0.21375573 -0.26423126 -0.43945998 -0.44863123 -0.31795877 -0.21657594 -0.11897994
-0.3376421 0.17403004 -0.5223628 -0.3554153 -0.18254468 0.10367932 -0.4315212 -0.27784666
-0.2280558 0.09950402 0.049953423 0.36879456 0.20276144 0.009098393 -0.4894498 0.24547078
00000000: 465e 743e 08b4 46be b5ac d8bd 1176 debe
00000010: c4e2 afbe f79e 5cbc eb2d 043e f7c5 43bd
00000020: 7c27 dbbe 9396 01bc 1407 b83e f5ec 9abe
00000030: 118f eabe 6064 f1bd 62b7 b23e c37c 743d
00000040: b2c2 88be b5b2 5cbe cbfe e03e a759 823e
00000050: a3c5 193f 4428 a0be c427 eebd bc2b d4bd
00000060: f5ae 7bbd ae74 86be 0ff9 7bbd cd8c 673e
00000070: fce8 413e 5dc9 a8be 7973 5b3e 0846 003f
00000080: 52d0 d33e 804e 9b3e a244 b93e 433c 9bbe
00000090: b38f a33b 1f21 19be 6fad a1bd ba5d 03be
000000a0: 8a22 643e 7ed4 40be 36b4 9bbe 3a43 a0be
000000b0: d327 86be 9ec2 80be 0201 f53e 1a7c 9ebd
000000c0: 79bd b13e 1454 08bf 35ab 903e 04ae f6be
000000d0: ad30 8f3d 1a4b 7e3e af39 f13e c88d ea3c
000000e0: e5de e1be 4214 da3e 2134 a23d b2cf 0dbe
000000f0: 0e78 01be 5763 8bbe c300 75be ad3f d0be
00000100: 07c3 03bd 436d 95be a0da 2d3e 0c4f f5bd
00000110: af9d 8b3e bce7 54bd 0afd a1bd 0daf ee3e
00000120: f19e 3dbe 6489 883e 882d a33e fc43 ca3e
00000130: 1634 49be c9d9 8e3d f069 3c3d 85c2 863e
00000140: 2e43 18be cf9d 7dbe 70e4 ae3e bfa8 833e
00000150: fc8c 20be 447b 823e 2c6d 493e c851 b23e
00000160: a882 5dbe a6f4 2c3e fc7a 373e 3d3f 80be
00000170: eff6 1f3e a96b 123e 3a34 e63e 99ba b63e
00000180: 8331 2d3e 8702 22be 57b6 61bc 5921 99be
00000190: 84c2 cd3e 6a1b b7be eb6c bb3e 10c9 c4be
000001a0: a990 adbe 2b58 41be 259a e1be 4595 b9be
000001b0: 0d59 2cbe 1126 47be 5ac4 23be 2ad9 65be
000001c0: 1b0e e83e 2318 33be 57f6 3b3d 63be 77be
000001d0: 9954 b0be d6b2 4e3e b09e 023e 677a a7bd
000001e0: 87cf 90be 9c8a 993e a0c6 bf3c 8837 fc3e
000001f0: 40c3 053e 353a 00bf 6766 103e 5559 eebe
00000200: 41a3 823e dfc6 a8be 8901 553d d41a fdbe
00000210: 29da 3c3e ad3e 0bbf 9832 be3d 3cc4 b63c
00000220: b93e 493c af77 003f 6fde c1be 4968 343d
00000230: 2c48 ef3d 4cfa c3be eec9 6ebb e725 e03d
00000240: 4a02 c13e 14e2 453d 1828 0b3f b3fd 7b3e
00000250: 0916 cbbe d8c1 4bbe 2455 8bbe 25f8 6ebe
00000260: 0ef8 bebd c01a 273e eb4d 163e d0f3 663e
00000270: bcf0 b53e 7b77 b1be abd8 153d 5faf f1bd
00000280: f9b2 bf3e dc58 453e f376 073d f3f9 9cbc
00000290: 96a7 003e ca60 e8bd 697e 4bbc 9b67 68be
000002a0: a86c 3f3d 9ff9 0d3e b888 f1be 24c2 b3bd
000002b0: 6aa6 0fbf a48d b13e 0519 223e f4e5 4ebd
000002c0: 306c 1dbf 28e4 bb3e a656 eb3e c0d6 bdbe
000002d0: 853d a13e ee3c ab3e 0088 1ebe 8b2d 79be
000002e0: 43e6 6abc 247f 75be 4930 003f 1969 bc3e
000002f0: 381b 9ebe 68bf a9be 986d e83d 38a3 563e
00000300: f240 393e eca6 093e 8614 eebe c6ff ea3d
00000310: 590d 04be 02af 923e 1f0f f63d 6e41 a43e
00000320: 5188 253c 0e23 e33e bf4d 68be e614 10be
00000330: c017 053e d0db 8c3e 6ad2 a73c aea0 623e
00000340: 2b37 b2be 3dc0 a9be 9c8c 98be 1105 903e
00000350: c666 7b3e d3d8 43be 8cca 233f 2748 bb3e
00000360: 3e3c 11bf d716 bfbe 3808 9bbe ec15 2dbe
00000370: ab23 28be a15c 3fbe 913a d33e 5894 05bb
00000380: 983d 0dbf fe41 11be 12d5 16bd 9f40 9a3e
00000390: 37b3 b6be 67a7 78be fed2 b13e 09d6 ab3e
000003a0: cb43 a4bd c8e2 5abe 5249 87be e600 e1be
000003b0: feb2 e5be 7ecb a2be 15c6 5dbe c1ab f3bd
000003c0: 6ddf acbe ee34 323e 92b9 05bf fff8 b5be
000003d0: feec 3abe d355 d43d 59f0 dcbe eb41 8ebe
000003e0: 7687 69be c3c8 cb3d f69b 4c3d a4d2 bc3e
000003f0: b2a0 4f3e 6d11 153c 2a99 fabe b15c 7b3e

clf_net.0.bias f4 [256]
0.012286896 -0.42411587 0.008934319 -0.17091951 -0.5390693 0.107117675 -0.27454633 -0.24001028
0.020433309 -0.5597996 0.023647029 0.011883819 -0.4046097 -0.5966084 -0.13788927 -0.56535435
-0.28477457 0.054424703 -0.5187634 -0.21590647 -0.50404185 -0.365267 -0.6098416 -0.47334507
0.16697204 -0.6991498 -0.45250994 -0.17814094 -0.43134212 0.2040999 -0.12632945 -0.12099138
0.20428766 -0.3184272 -0.29486483 -0.4449375 -0.31724244 -0.1914614 -0.43416464 -0.22000666
0.29853103 -0.28586107 -0.20332864 -0.2620523 -0.15805896 0.13431321 -0.15477845 -0.604338
-0.44924182 -0.314888 -0.0008542437 0.26864296 0.21701448 0.13400914 -0.15614912 -0.2933268
-0.43813393 -0.101484194 -0.28181306 -0.6046565 -0.33233184 0.3394909 -0.32053712 -0.066039175
-0.6368384 -0.411746 0.25091636 -0.2165712 0.22954078 0.26075643 -0.12817787 0.1216579
-0.4652964 0.3008536 -0.49630928 -0.3616446 -0.41930982 -0.4201782 -0.59172267 -0.71536815
-0.58327246 -0.29395032 -0.069255866 0.16632657 0.3359942 -0.63858706 0.023350578 -0.17239079
-0.5619294 -0.31616938 0.09334285 -0.09441435 -0.50098735 -0.31995818 -0.29169753 -0.4221353
0.20723955 -0.47367543 -0.07637246 -0.18615575 -0.5170183 0.20320253 -0.13244233 0.042887323
-0.14835739 0.0015590956 -0.0041944124 -0.10692957 -0.3730681 -0.1043683 0.18175901 -0.02247808
-0.5229871 0.04633711 -0.60483587 0.019762807 0.004614358 -0.12356366 -0.1730207 -0.26859275
0.15652575 -0.005482612 0.24906658 0.05279325 -0.0075703165 -0.06567982 -0.078833535 -0.25309953
0.4043152 -0.18569048 -0.53021294 -0.094974756 -0.27461436 0.06209825 -0.6347976 -0.20908259
-0.0012523993 -0.22924824 -0.58552736 -0.64782697 0.25412405 0.33575353 -0.46440202 -0.49941033
0.11741706 -0.6372165 0.042556528 0.05019754 -0.6419564 -0.12689613 -0.13671434 0.038395822
0.07147063 0.1208873 -0.04934421 -0.074545264 0.119581155 -0.22031401 -0.6369345 0.30946088
0.18957241 -0.37874568 -0.4984146 -0.141177 -0.013882567 -0.13536875 -0.11938315 -0.51386696
-0.5109935 0.06523243 0.25394756 -0.071994565 -0.3070644 0.24549684 -0.47809058 -0.119516246
-0.3388305 -0.37790388 -0.63784003 -0.11753495 -0.3186076 0.2598996 0.190851 -0.33683127
-0.7090648 -0.2906444 -0.073861755 -0.6474309 -0.2838623 -0.021637969 -0.36894578 -0.49434072
0.21487972 -0.34768033 -0.6403823 -0.39840412 -0.2907025 -0.14550413 -0.099303864 0.026368212
0.24115056 -0.08629499 -0.3358503 -0.25715518 -0.16360532 0.12977271 -0.07918385 -0.33533674
-0.57930505 0.10749699 -0.39686978 -0.59670085 -0.41558048 0.28745425 -0.32130337 -0.16008803
0.059763532 -0.44974586 0.29041713 -0.34218314 -0.4512192 -0.007962549 -0.521695 -0.3635356
0.22901297 -0.13686973 -0.102231055 0.0847722 -0.13120738 -0.4797331 0.15465231 0.1457794
-0.53016645 -0.32681245 0.074184775 0.07907854 -0.44468674 -0.37258336 -0.08850758 -0.32067978
0.24073623 -0.039723933 -0.46108377 0.07747714 -0.4511134 -0.11046481 -0.4200443 -0.009490842
-0.31487125 0.25176153 -0.09516829 -0.39201644 -0.036201 -0.35060284 -0.508005 0.22572583
00000000: fa4e 493c b725 d9be 4061 123c 8605 2fbe
00000010: 7200 0abf 8360 db3d 5691 8cbe 41c5 75be
00000020: c163 a73c 074f 0fbf 6ab7 c13c 59b4 423c
00000030: 0129 cfbe 54bb 18bf d832 0dbe 10bb 10bf
00000040: f9cd 91be 70ec 5e3d aecd 04bf 9616 5dbe
00000050: e308 01bf 4704 bbbe 941e 1cbf 495a f2be
00000060: b8fa 2a3e 7bfb 32bf 62af e7be 946a 36be
00000070: e0d8 dcbe 90ff 503e 825c 01be 54ca f7bd
00000080: c930 513e e408 a3be 86f8 96be d9ce e3be
00000090: 9a6d a2be 750e 44be d44a debe 6d49 61be
000000a0: 0fd9 983e 625c 92be 6235 50be b82b 86be
000000b0: 35da 21be 6789 093e 3e7e 1ebe e5b5 1abf
000000c0: 0603 e6be 0039 a1be 53ef 5fba 928b 893e
000000d0: 0b39 5e3e b139 093e 8ee5 1fbe ee2e 96be
000000e0: 1753 e0be f2d6 cfbd cd49 90be c5ca 1abf
000000f0: 6627 aabe c0d1 ad3e 711d a4be 8c3f 87bd
00000100: d707 23bf 5fd0 d2be 1c78 803e d7c4 5dbe
00000110: bd0c 6b3e de81 853e 0f41 03be c727 f93d
00000120: 543b eebe 7c09 9a3e 401c febe 7b29 b9be
00000130: c7af d6be 9921 d7be 237b 17bf 5e22 37bf
00000140: 5851 15bf a880 96be 05d6 8dbd 8351 2a3e
00000150: 6f07 ac3e 717a 23bf b649 bf3c 3687 30be
00000160: 9bda 0fbf f4e0 a1be 892a bf3d 505c c1bd
00000170: b540 00bf 8fd1 a3be 6159 95be 1e22 d8be
00000180: 9b36 543e 9685 f2be 2a69 9cbd 9d9f 3ebe
00000190: 505b 04bf 5314 503e f69e 07be 9eaa 2f3d
000001a0: 00eb 17be 915a cc3a 4871 89bb e4fd dabd
000001b0: c802 bfbe 0cbf d5bd 091f 3a3e f323 b8bc
000001c0: 7ce2 05bf fbcb 3d3d 86d6 1abf 9ce5 a13c
000001d0: 0a34 973b f20e fdbd 572c 31be fd84 89be
000001e0: 4948 203e 7ca7 b3bb 4f0b 7f3e bc3d 583d
000001f0: 6b10 f8bb 2483 86bd 7a73 a1bd 4396 81be
00000200: 6702 cf3e a525 3ebe 09bc 07bf 2082 c2bd
00000210: 419a 8cbe bc5a 7e3d 1882 22bf bf19 56be
00000220: 8c27 a4ba 0dc0 6abe 1fe5 15bf fdd7 25bf
00000230: 8c1c 823e e3e7 ab3e 1ac6 edbe b6b2 ffbe
00000240: 5b78 f03d 9f20 23bf c14f 2e3d f09b 4d3d
00000250: 4157 24bf 0ff1 01be d8fe 0bbe f044 1d3d
00000260: 325f 923d c393 f73d 281d 4abd 30ab 98bd
00000270: f7e6 f43d ff99 61be 240e 23bf a871 9e3e
00000280: 451f 423e f4ea c1be 3330 ffbe b490 10be
00000290: b573 63bc 1b9e 0abe 277f f4bd c98c 03bf
000002a0: 78d0 02bf 9598 853d 6a05 823e e371 93bd
000002b0: 8c37 9dbe 8663 7b3e 4ac8 f4be efc4 f4bd
000002c0: 317b adbe 9e7c c1be 7c49 23bf 2ab6 f0bd
000002d0: 8920 a3be 8f11 853e 726e 433e 2675 acbe
000002e0: 4585 35bf 58cf 94be d544 97bd 08be 25bf
000002f0: 6656 91be 1c42 b1bc 76e6 bcbe 3a1a fdbe
00000300: 6e09 5c3e 2803 b2be 18f0 23bf a0fb cbbe
00000310: f5d6 94be 09ff 14be d35f cbbd 2602 d83c
00000320: 2cf0 763e 6dbb b0bd 92f4 abbe d8a9 83be
00000330: 2788 27be 23e3 043e 242b a2bd 42b1 abbe
00000340: 564d 14bf 6227 dc3d 8432 cbbe 63c1 18bf
00000350: f7c6 d4be 342d 933e e081 a4be 1eee 23be
00000360: 9bca 743d 1745 e6be 8eb1 943e a132 afbe
00000370: 3406 e7be 5a75 02bc ce8d 05bf 5721 babe
00000380: 6082 6a3e 9427 0cbe 845e d1bd 0c9d ad3d
00000390: 3a5b 06be 949f f5be 2d5d 1e3e 3247 153e
000003a0: fdb8 07bf f653 a7be 30ee 973d eef3 a13d
000003b0: fbad e3be 3fc3 bebe 7643 b5bd 2430 a4be
000003c0: 8f83 763e 90b5 22bd 2c13 ecbe 56ac 9e3d
000003d0: 56f8 e6be 603b e2bd 0c10 d7be 7a7f 1bbc
000003e0: ce36 a1be e3e6 803e 98e7 c2bd 61b6 c8be
000003f0: 8047 14bd 3782 b3be 9e0c 02bf ac24 673e

clf_net.1.weight f4 [256]
1.2990749 1.1840364 1.190231 1.1760888 1.1008554 1.2846853 1.0326841 1.0957206
1.0856329 1.1812729 1.221853 1.1860912 1.1646996 1.1510807 1.2300107 1.1009822
1.1834611 1.1757479 1.2150161 1.1597801 1.0521702 1.2393061 1.1768026 1.1705424
1.330008 1.2122849 1.1722066 1.1697046 1.2861716 1.2292354 1.3068181 1.2203898
1.3955016 1.2105321 1.1020552 1.0787692 1.1965231 1.1808044 1.1388503 1.1432884
1.1538253 1.3442434 1.2001374 1.2232732 1.2261587 1.2797971 1.0954833 1.2010775
1.1948014 1.2536607 1.1652387 1.0605162 1.1292132 1.1685007 1.1827691 1.1730846
1.1999792 1.2034675 1.2272489 1.1756108 1.1661578 1.1950147 1.3100638 1.2028892
1.2253373 1.2105374 1.0597652 1.1431738 1.2641698 1.2250233 1.0796646 1.1824749
1.176681 1.1821274 1.2804701 1.2443324 1.1980226 1.0893228 1.1718204 1.1786755
1.161199 1.1635047 1.2633047 1.2375412 1.2177588 1.0489569 1.1625717 1.2801603
1.2625227 1.2113792 1.093943 1.1056044 1.171747 1.2305043 1.2100818 1.191172
1.1888607 1.2022338 1.1785862 1.0924001 1.1992803 1.1355059 1.1716677 1.2140541
1.20652 1.2529066 1.2264028 1.2095507 1.2408524 1.1435682 1.1498947 1.327004
1.2808679 1.2771808 1.1838436 1.2225358 1.185642 1.0788835 1.1418929 1.3102742
1.184694 1.1284555 1.2011063 1.2669058 1.1742108 1.2667156 1.2013602 1.2218983
1.35412 1.1703155 1.0688031 1.2178813 1.3055338 1.2262161 1.1913666 1.309272
1.1767998 1.2128737 1.1793331 1.3070704 1.2663832 1.1516645 1.1662718 1.1590042
1.2285739 1.1618825 1.1573108 1.2167032 1.1900905 1.077653 1.2162849 1.1737745
1.2507881 1.2397 1.1514004 1.2749702 1.1113523 1.1742172 1.1779592 1.2834826
1.2339641 1.258103 1.1560851 1.2098974 1.2484248 1.2121648 1.2131453 1.2143295
1.2866021 1.2990044 1.2401397 1.2798235 1.2080531 1.2249871 1.2200387 1.1818225
1.1786506 1.2514769 1.1654867 1.2031415 1.2209413 1.1696446 1.1928514 1.0562658
1.1950009 1.2131313 1.1621178 1.1551607 1.1441356 1.1699245 1.1890919 1.2534809
1.2250854 1.2213215 1.2676355 1.2112124 1.2333478 1.2654815 1.2156146 1.1747923
1.2664096 1.1499143 1.0616716 1.2021098 1.250242 1.0989234 1.0676682 1.2020646
1.2328523 1.154738 1.1564683 1.1787977 1.2398795 1.3278736 1.114113 1.1540804
1.1828059 1.1680628 1.1923751 1.2106923 1.167627 1.2082353 1.1968462 1.232552
1.1777887 1.171555 1.2223299 1.1782435 1.2090126 1.1585528 1.1737734 1.1550995
1.1733915 1.037822 1.2126852 1.3265411 1.1614461 1.183185 1.044824 1.235057
1.1025913 1.1737845 1.1301113 1.1429247 1.2041683 1.1530279 1.2939777 1.1627892
1.149645 1.0691702 1.1689813 1.1775348 1.0498661 1.2482204 1.1551963 1.1744173
00000000: 1648 a63f 818e 973f 7d59 983f 148a 963f
00000010: d4e8 8c3f 9170 a43f fe2e 843f 9340 8c3f
00000020: 05f6 8a3f f333 973f ae65 9c3f d6d1 973f
00000030: e014 953f 9d56 933f fe70 9d3f fcec 8c3f
00000040: a77b 973f e87e 963f a685 9b3f ad73 943f
00000050: 83ad 863f 95a1 9e3f 78a1 963f 55d4 953f
00000060: b43d aa3f 272c 9b3f de0a 963f e1b8 953f
00000070: 45a1 a43f 9657 9d3f d145 a73f bc35 9c3f
00000080: cc9f b23f b7f2 9a3f 2510 8d3f 1c15 8a3f
00000090: ab27 993f 9924 973f d9c5 913f 4657 923f
000000a0: 8cb0 933f 2b10 ac3f 1a9e 993f 3794 9c3f
000000b0: c5f2 9c3f 64d0 a33f cc38 8c3f e8bc 993f
000000c0: 41ef 983f f477 a03f 8b26 953f ffbe 873f
000000d0: 0f8a 903f 6e91 953f fa64 973f a327 963f
000000e0: eb98 993f 390b 9a3f 7e16 9d3f 6a7a 963f
000000f0: a944 953f 3ef6 983f 2cb0 a73f 46f8 993f
00000100: dad7 9c3f e4f2 9a3f 63a6 873f 8553 923f
00000110: 51d0 a13f 90cd 9c3f 7332 8a3f 565b 973f
00000120: 7c9d 963f f34f 973f 72e6 a33f 4946 9f3f
00000130: ce58 993f ee6e 8b3f 36fe 953f d7de 963f
00000140: 2ba2 943f b9ed 943f f8b3 a13f c067 9e3f
00000150: 85df 9b3f 3844 863f 26cf 943f 4bdc a33f
00000160: 589a a13f 790e 9b3f 5306 8c3f 7284 8d3f
00000170: cefb 953f 2a81 9d3f f6e3 9a3f 5378 983f
00000180: 962c 983f cce2 993f eadb 963f c4d3 8b3f
00000190: 0482 993f 4258 913f 35f9 953f 2066 9b3f
000001a0: 3f6f 9a3f 3e5f a03f c4fa 9c3f 8fd2 9a3f
000001b0: 40d4 9e3f 7160 923f c02f 933f 44db a93f
000001c0: 7bf3 a33f a97a a33f 3088 973f 0e7c 9c3f
000001d0: 1ec3 973f db18 8a3f 8c29 923f 11b7 a73f
000001e0: 0ea4 973f 3b71 903f dabd 993f f829 a23f
000001f0: 8a4c 963f bd23 a23f 2cc6 993f 2a67 9c3f
00000200: ce53 ad3f e6cc 953f 8ace 883f 89e3 9b3f
00000210: bb1b a73f a6f4 9c3f b37e 983f 3a96 a73f
00000220: 60a1 963f 723f 9b3f 63f4 963f 154e a73f
00000230: d818 a23f be69 933f 6548 953f 405a 943f
00000240: e941 9d3f 91b8 943f c322 943f eebc 9b3f
00000250: e354 983f 89f0 893f 39af 9b3f 3e3e 963f
00000260: d319 a03f 7dae 9e3f 1761 933f 3932 a33f
00000270: cb40 8e3f c04c 963f 5ec7 963f 2849 a43f
00000280: 89f2 9d3f 8509 a13f 99fa 933f ebdd 9a3f
00000290: 62cc 9f3f 3728 9b3f 5848 9b3f 266f 9b3f
000002a0: 61af a43f c745 a63f e6bc 9e3f 42d1 a33f
000002b0: 7ca1 9a3f 61cc 9c3f 3a2a 9c3f f645 973f
000002c0: 06de 963f 6530 a03f ab2e 953f 8a00 9a3f
000002d0: ce47 9c3f eab6 953f 5baf 983f b833 873f
000002e0: caf5 983f e347 9b3f 47c0 943f 4edc 933f
000002f0: 0973 923f 16c0 953f 2a34 983f 1072 a03f
00000300: 99cf 9c3f 4354 9c3f e141 a23f 0209 9b3f
00000310: 57de 9d3f 4cfb a13f 4299 9b3f 985f 963f
00000320: b619 a23f 6430 933f dbe4 873f bcde 993f
00000330: ee07 a03f 86a9 8c3f 5aa9 883f 41dd 993f
00000340: 1bce 9d3f 74ce 933f 2707 943f d8e2 963f
00000350: 5fb4 9e3f c3f7 a93f 419b 8e3f e8b8 933f
00000360: 2f66 973f 1583 953f bf9f 983f f7f7 9a3f
00000370: cd74 953f 74a7 9a3f 4232 993f 44c4 9d3f
00000380: c8c1 963f 84f5 953f 4e75 9c3f afd0 963f
00000390: edc0 9a3f 754b 943f 353e 963f 4dda 933f
000003a0: b131 963f 5ad7 843f 4539 9b3f 19cc a93f
000003b0: 44aa 943f 9b72 973f cbbc 853f 5916 9e3f
000003c0: b621 8d3f 923e 963f 7da7 903f 5b4b 923f
000003d0: 3022 9a3f 6b96 933f 10a1 a53f 47d6 943f
000003e0: 9127 933f 92da 883f 2ea1 953f 76b9 963f
000003f0: 0362 863f b0c5 9f3f 79dd 933f 4e53 963f

clf_net.1.bias f4 [256]
0.62061983 0.6587476 0.61468416 0.6814071 0.68460464 0.80128986 0.74068236 0.80176795
0.66830623 0.64222383 0.6815813 0.72861755 0.5911577 0.6681813 0.7123935 0.6510609
0.6371784 0.83200765 0.69615316 0.63213295 0.6806002 0.70744455 0.62566847 0.69988596
0.54622906 0.63853544 0.6789763 0.6262609 0.8870245 0.67983615 0.65614086 0.66583705
0.63327855 0.80010587 0.7351153 0.7711851 0.73669183 0.6994628 0.6532327 0.7635576
0.762228 0.60835415 0.7579019 0.605915 0.6698404 0.7667398 0.7276538 0.6596997
0.76626337 0.6796229 0.71883214 0.70889467 0.7446744 0.6391047 0.7244466 0.6460807
0.7654375 0.73226446 0.60722125 0.7147029 0.6884753 0.64804316 0.74908006 0.7749762
0.58951926 0.60109824 0.64539397 0.73627853 0.68084174 0.70651925 0.7431217 0.7687712
0.71349293 0.72196984 0.7744908 0.74568844 0.7017756 0.69546866 0.6309964 0.61393845
0.6679541 0.7312629 0.70898783 0.687958 0.6937379 0.61373377 0.81692964 0.6575881
0.704866 0.8051001 0.670663 0.6453048 0.694404 0.7662922 0.69842917 0.7694855
0.70863414 0.71710855 0.8733606 0.7687646 0.7303116 0.6995915 0.7371903 0.66716117
0.64081645 0.73600376 0.6672615 0.8028147 0.58128875 0.71319854 0.63188463 0.72148263
0.784525 0.68134236 0.6935902 0.69370127 0.69366395 0.7370693 0.6891219 0.7947287
0.6979662 0.6456813 0.6726456 0.6509916 0.84366584 0.73074 0.74502224 0.8029369
0.6890341 0.67250913 0.6440596 0.63622415 0.57641834 0.6322941 0.62104297 0.7249029
0.64885294 0.6931255 0.6553381 0.6241055 0.68135774 0.6651968 0.7342451 0.6159977
0.7450993 0.6337471 0.6564645 0.65469193 0.70885175 0.86351544 0.81441927 0.77710617
0.7827637 0.56417495 0.6960508 0.7422681 0.67033064 0.7531386 0.7152659 0.61812973
0.80342245 0.6984873 0.66007537 0.84325755 0.70782393 0.6545321 0.67414516 0.56467
0.65628034 0.6514883 0.6127191 0.69647664 0.695747 0.7278462 0.80371577 0.6997447
0.72600687 0.77131677 0.68889064 0.62018174 0.714445 0.7551391 0.6840408 0.67400646
0.73819196 0.69216835 0.70097214 0.6368812 0.68262994 0.7095069 0.7381526 0.66162115
0.80141354 0.81953543 0.7515271 0.7047283 0.74086535 0.67845625 0.6972496 0.6315716
0.6937032 0.6857098 0.67296636 0.6270046 0.716539 0.6530975 0.712909 0.76103824
0.7377858 0.76298976 0.7552196 0.69915867 0.6796279 0.6689196 0.6949703 0.66924196
0.82974046 0.6050286 0.70647067 0.71240366 0.6742047 0.6945559 0.70767355 0.63794494
0.7198036 0.589606 0.7302787 0.7371065 0.62058645 0.72361386 0.6948094 0.6287489
0.69162345 0.80038786 0.6062453 0.7330442 0.6988824 0.6501546 0.65554166 0.6740655
0.6468531 0.6398375 0.7155793 0.6877425 0.8338073 0.71556944 0.65836453 0.6836857
0.6175247 0.6045348 0.63433534 0.78114206 0.84206265 0.70550734 0.6804493 0.77582884
00000000: f1e0 1e3f afa3 283f f15b 1d3f b270 2e3f
00000010: 4042 2f3f 5521 4d3f 5c9d 3d3f aa40 4d3f
00000020: 1e16 2b3f c868 243f 1d7c 2e3f ae86 3a3f
00000030: 1c56 173f ee0d 2b3f 6c5f 363f edab 263f
00000040: 201e 233f 74fe 543f 1837 323f 77d3 213f
00000050: d13b 2e3f 161b 353f cf2b 203f ba2b 333f
00000060: abd5 0b3f 0f77 233f 64d1 2d3f a252 203f
00000070: 0a14 633f be09 2e3f d9f8 273f 4c74 2a3f
00000080: 8b1e 223f bdd3 4c3f 8430 3c3f 636c 453f
00000090: d697 3c3f fe0f 333f 423a 273f 8378 433f
000000a0: 6021 433f 19bd 1b3f dc05 423f 3f1d 1b3f
000000b0: a97a 2b3f 0f49 443f 8547 3a3f 14e2 283f
000000c0: d629 443f c4fb 2d3f 6205 383f 1f7a 353f
000000d0: fba2 3e3f 5e9c 233f 5575 393f 8b65 253f
000000e0: b6f3 433f af75 3b3f da72 1b3f c5f6 363f
000000f0: eb3f 303f 28e6 253f b6c3 3f3f d764 463f
00000100: bcea 163f 93e1 193f 8a38 253f c07c 3c3f
00000110: a54b 2e3f 72de 343f 393d 3e3f 30ce 443f
00000120: 79a7 363f 04d3 383f 0745 463f 70e5 3e3f
00000130: 91a7 333f 3c0a 323f fb88 213f 122b 1d3f
00000140: 0aff 2a3f 0c34 3b3f 3a80 353f 041e 303f
00000150: cf98 313f a81d 1d3f 4d22 513f b257 283f
00000160: 1972 343f 0a1b 4e3f 92b0 2b3f b232 253f
00000170: 76c4 313f ba2b 443f 41cc 323f 00fd 443f
00000180: 0c69 353f 6d94 373f 8f94 5f3f c2cd 443f
00000190: b3f5 3a3f 6e18 333f 81b8 3c3f 13cb 2a3f
000001a0: 8c0c 243f be6a 3c3f a6d1 2a3f 4485 4d3f
000001b0: 57cf 143f 2e94 363f 31c3 213f 16b3 383f
000001c0: a1d6 483f 746c 2e3f 218f 313f 6896 313f
000001d0: f693 313f 93b0 3c3f 4b6a 303f 5773 4b3f
000001e0: eaad 323f 5f4b 253f 8132 2c3f 63a7 263f
000001f0: 7cfa 573f c711 3b3f c7b9 3e3f 468d 4d3f
00000200: 8a64 303f 8f29 2c3f 17e1 243f 96df 223f
00000210: 2790 133f 07de 213f acfc 1e3f 3d93 393f
00000220: 3a1b 263f ac70 313f 3dc4 273f 61c5 1f3f
00000230: 766d 2e3f 564a 2a3f 7df7 3b3f 06b2 1d3f
00000240: d4be 3e3f 403d 223f 0f0e 283f e499 273f
00000250: 4f77 353f 590f 5d3f c87d 503f 6ef0 463f
00000260: 3463 483f c56d 103f 6330 323f 4805 3e3f
00000270: ca9a 2b3f b1cd 403f ab1b 373f c03d 1e3f
00000280: 18ad 4d3f 10d0 323f b3fa 283f badf 573f
00000290: f333 353f 6a8f 273f c794 2c3f 378e 103f
000002a0: fd01 283f f0c7 263f 29db 1c3f 4b4c 323f
000002b0: 7a1c 323f 2154 3a3f 51c0 4d3f 7822 333f
000002c0: 96db 393f 0475 453f 235b 303f 3bc4 1e3f
000002d0: dee5 363f cc50 413f 4c1d 2f3f b08b 2c3f
000002e0: 26fa 3c3f f231 313f e972 333f a50a 233f
000002f0: d6c0 2e3f 3fa2 353f 92f7 3c3f 0160 293f
00000300: 7029 4d3f 13cd 513f 1464 403f 1369 343f
00000310: 5aa9 3d3f 4faf 2d3f f37e 323f adae 213f
00000320: 8896 313f ad8a 2f3f 8647 2c3f 6083 203f
00000330: 1a6f 373f 6631 273f 3481 363f 67d3 423f
00000340: 88df 3c3f 4c53 433f 1256 413f 10fc 323f
00000350: 18fc 2d3f 513e 2b3f 93e9 313f 7153 2b3f
00000360: df69 543f 28e3 1a3f 43db 343f 1660 363f
00000370: ae98 2c3f 6ace 313f 182a 353f 5c50 233f
00000380: 0c45 383f 6bf0 163f 8bf3 3a3f 03b3 3c3f
00000390: c1de 1e3f c23e 393f 07df 313f b0f5 203f
000003a0: 3c0e 313f 38e6 4c3f e432 1b3f c9a8 3b3f
000003b0: f5e9 323f 8870 263f 94d1 273f 8e8f 2c3f
000003c0: 2a98 253f 64cc 233f 3430 373f e40f 303f
000003d0: 6574 553f 8f2f 373f 948a 283f 0706 2f3f
000003e0: 1916 1e3f cbc2 1a3f cd63 223f edf8 473f
000003f0: 6b91 573f 219c 343f ed31 2e3f b89c 463f

clf_net.1.running_mean f4 [256]
0.013528965 -0.41823396 0.019979361 -0.16377422 -0.53406024 0.10187894 -0.2772437 -0.24408163
0.024172092 -0.5596474 0.022253815 0.020435665 -0.39953712 -0.5928305 -0.13131794 -0.56273216
-0.28098541 0.045959532 -0.5177371 -0.2177043 -0.5011775 -0.36342874 -0.60318255 -0.47165158
0.16830069 -0.69590026 -0.45030507 -0.1755131 -0.43225107 0.21017906 -0.12808356 -0.11707604
0.20932633 -0.31904292 -0.29946846 -0.44648528 -0.31713897 -0.18717088 -0.4350257 -0.22225888
0.29677922 -0.2854414 -0.20845227 -0.2543113 -0.14407293 0.13273379 -0.15252517 -0.6029776
-0.4566413 -0.31275192 -0.0017960817 0.26633215 0.21464472 0.13690144 -0.153081 -0.2890305
-0.4358076 -0.09881705 -0.28020614 -0.6011518 -0.3310393 0.33870783 -0.32390353 -0.07574402
-0.6318839 -0.40852147 0.25465262 -0.21525545 0.23127338 0.25362673 -0.12793826 0.12302772
-0.46085635 0.3024477 -0.49778828 -0.3681055 -0.42467526 -0.4159804 -0.58611685 -0.7123964
-0.5818614 -0.29308894 -0.072224066 0.17207521 0.34913653 -0.62926716 0.015310275 -0.17208032
-0.5572343 -0.32714412 0.09576859 -0.09314859 -0.4999671 -0.3242101 -0.2902703 -0.4238398
0.21140076 -0.4709362 -0.08355339 -0.19145752 -0.5163126 0.20391347 -0.14243996 0.054355256
-0.13920763 -0.00032729472 0.0066590225 -0.11018252 -0.37200195 -0.10065467 0.18844742 -0.019017689
-0.52687883 0.048680395 -0.6052496 0.02629595 0.006474191 -0.12568974 -0.16807465 -0.26525304
0.1509577 0.0008189073 0.2558254 0.055296205 -0.015240652 -0.069824725 -0.0832154 -0.25692427
0.40182468 -0.17858586 -0.5298352 -0.098362245 -0.27273685 0.06275332 -0.625596 -0.2088882
-0.0038634038 -0.22822537 -0.58029723 -0.65169585 0.25476164 0.3280168 -0.46864066 -0.49778572
0.113857806 -0.63060933 0.045209482 0.05366932 -0.64119995 -0.13293444 -0.14075364 0.03943817
0.06236664 0.12177976 -0.044412658 -0.073954076 0.12627213 -0.2172447 -0.6339176 0.311777
0.18157057 -0.37731552 -0.49988902 -0.14894141 -0.00215412 -0.13292614 -0.12094627 -0.51266193
-0.5109998 0.06707084 0.25704262 -0.073137 -0.30264795 0.2437575 -0.48531651 -0.124955684
-0.3394068 -0.38326475 -0.6335102 -0.11471876 -0.3166662 0.2524349 0.19083273 -0.3392737
-0.7118223 -0.28874436 -0.07470592 -0.63678795 -0.28280765 -0.016551947 -0.36464065 -0.49658063
0.21201597 -0.35408267 -0.64081484 -0.39284736 -0.29419512 -0.14120907 -0.09794679 0.03213364
0.24544448 -0.07890194 -0.33806303 -0.24758482 -0.16447042 0.13156442 -0.08403641 -0.33230573
-0.583752 0.102944985 -0.39170069 -0.59705436 -0.40865973 0.28532523 -0.31570593 -0.15680458
0.05330958 -0.4466073 0.29560408 -0.3434135 -0.44177166 -0.0010647536 -0.5268675 -0.36093137
0.22838816 -0.12963805 -0.10514091 0.08184034 -0.12078868 -0.476466 0.16217013 0.15056843
-0.5312062 -0.33334175 0.07429365 0.077447794 -0.4380807 -0.37236068 -0.08895353 -0.31801137
0.24245262 -0.03913506 -0.4639969 0.0866736 -0.45812258 -0.11564826 -0.41805452 -0.00870141
-0.30804324 0.25209543 -0.09191241 -0.40059268 -0.044989567 -0.34591824 -0.50965965 0.22303201
00000000: 98a8 5d3c c322 d6be c2ab a33c 6eb4 27be
00000010: 2cb8 08bf e8a5 d03d e3f2 8dbe 89f0 79be
00000020: 8d04 c63c 0d45 0fbf a24d b63c b268 a73c
00000030: 2190 ccbe bdc3 17bf 3678 06be 370f 10bf
00000040: 52dd 8fbe 1040 3c3d 6b8a 04bf e0ed 5ebe
00000050: 2b4d 00bf 5513 babe 2c6a 1abf 517c f1be
00000060: 0457 2c3e 8526 32bf 638e e6be b5b9 33be
00000070: 0350 ddbe 2e39 573e 5628 03be 90c5 efbd
00000080: a459 563e 9859 a3be ee53 99be b899 e4be
00000090: 0a60 a2be b9a9 3fbe b0bb debe d597 63be
000000a0: 72f3 973e 6025 92be 8374 55be 1735 82be
000000b0: db87 13be 5eeb 073e 8f2f 1cbe bd5c 1abf
000000c0: e3cc e9be 0521 a0be 806a ebba b05c 883e
000000d0: d3cb 5b3e e42f 0c3e 44c1 1cbe cefb 93be
000000e0: 2c22 dfbe 9860 cabd 2e77 8fbe 16e5 19bf
000000f0: fc7d a9be 1d6b ad3e afd6 a5be ae1f 9bbd
00000100: 25c3 21bf ba29 d1be d461 823e ed6b 5cbe
00000110: eed2 6c3e 5ddb 813e 3f02 03be f5f5 fb3d
00000120: 5df5 ebbe 6dda 9a3e 1bde febe 5378 bcbe
00000130: 096f d9be 62fb d4be c10b 16bf 9c5f 36bf
00000140: def4 14bf c10f 96be 36ea 93bd 7c34 303e
00000150: 06c2 b23e a717 21bf f3d7 7a3c d335 30be
00000160: e8a6 0ebf 6f7f a7be 5322 c43d b0c4 bebd
00000170: b0fb ffbe defe a5be 4f9e 94be 8801 d9be
00000180: 7179 583e 8d1e f1be 0a1e abbd 710d 44be
00000190: 102d 04bf b1ce 503e c8db 11be 9ea3 5e3d
000001a0: 728c 0ebe c198 abb9 ee33 da3b 5fa7 e1bd
000001b0: 0a77 bebe 0924 cebd 5cf8 403e fcca 9bbc
000001c0: 88e1 06bf 1865 473d a3f1 1abf 9b6a d73c
000001d0: 7325 d43b d0b4 00be c31b 2cbe 3fcf 87be
000001e0: a894 1a3e f0ab 563a 8cfb 823e 467e 623d
000001f0: edb3 79bc 4400 8fbd d66c aabd 948b 83be
00000200: f7bb cd3e 36df 36be 48a3 07bf 2572 c9bd
00000210: 2aa4 8bbe d084 803d 0f27 20bf cae6 55be
00000220: 2931 7dbb e9b3 69be 5c8e 14bf 8ad5 26bf
00000230: 1e70 823e d1f1 a73e abf1 efbe c5dd febe
00000240: 482e e93d 9d6f 21bf 942d 393d 5cd4 5b3d
00000250: ae25 24bf f71f 08be b921 10be eb89 213d
00000260: 2974 7f3d ab67 f93d 0cea 35bd 3c75 97bd
00000270: 7b4d 013e 6575 5ebe 6d48 22bf 3ca1 9f3e
00000280: a3ed 393e 802f c1be 74f1 ffbe 1984 18be
00000290: 232c 0dbb ca1d 08be aeb2 f7bd d03d 03bf
000002a0: e2d0 02bf 705c 893d 179b 833e dac8 95bd
000002b0: acf4 9abe 919b 793e 687b f8be c4e8 ffbd
000002c0: bac6 adbe 473b c4be b92d 22bf abf1 eabd
000002d0: 1222 a2be 263f 813e a869 433e 48b5 adbe
000002e0: fc39 36bf 4dd6 93be 6bff 98bd 8904 23bf
000002f0: 2acc 90be f397 87bc 2eb2 babe d13f febe
00000300: b71a 593e 534a b5be 710c 24bf 4a23 c9be
00000310: bea0 96be 1c99 10be 5498 c8bd 909e 033d
00000320: cc55 7b3e 5797 a1bd 9916 adbe e086 7dbe
00000330: ef6a 28be d3b8 063e 481b acbd fa23 aabe
00000340: c570 15bf d2d4 d23d fe8c c8be 8ed8 18bf
00000350: d93b d1be 2616 923e 35a4 a1be 6191 20be
00000360: 255b 5a3d b6a9 e4be 6b59 973e e5d3 afbe
00000370: e52f e2be 348f 8bba cae0 06bf ffcb b8be
00000380: 96de 693e d6bf 04be 1e54 d7bd e89b a73d
00000390: 0e60 f7bd 5af3 f3be ed0f 263e 9c2e 1a3e
000003a0: 21fd 07bf c5ab aabe 4527 983d f39c 9e3d
000003b0: 1d4c e0be 0fa6 bebe 452d b6bd 63d2 a2be
000003c0: 8045 783e 164c 20bd 0091 edbe ee81 b13d
000003d0: 0b8f eabe ffd8 ecbd 3e0b d6be 5c90 0ebc
000003e0: d8b7 9dbe a712 813e 933c bcbd 7c1a cdbe
000003f0: fb46 38bd 321c b1be 0e79 02bf 8162 643e

clf_net.1.running_var f4 [256]
0.09877446 0.21032582 0.8473785 0.35679075 0.23443362 0.6743702 0.19860238 0.7813635
0.34795678 0.031700492 0.22016211 0.32366928 0.15515326 0.3962772 0.9083994 0.25044283
0.04632772 0.65152496 0.26841843 0.029855387 0.17009489 0.15173836 0.47211114 0.3595703
0.03560321 0.12286798 0.47646376 0.12341463 0.13786584 0.42023125 0.10773579 0.13472983
0.093034826 0.42737585 0.18827811 0.31766528 0.4806849 0.3134837 0.071295835 0.2678034
0.10054997 0.020122794 0.20397988 0.93608665 2.3045275 0.13485342 0.37510195 0.11881532
0.32151324 0.113761105 0.23529868 0.084877126 0.32579368 0.63362205 0.4429543 0.19030356
0.12050491 0.20619091 0.2564232 0.26433837 0.6312592 0.31881872 0.052607913 0.5995786
0.6407687 0.31656083 0.28755337 0.30565792 0.23990561 0.43235505 0.31525052 0.048411246
0.15800591 0.2785754 0.039642446 0.1642544 0.17882368 0.19818476 0.19361131 0.41647312
0.1740993 0.025822345 0.18971242 0.2870096 1.6956552 1.1510975 0.43054652 0.11264047
0.4217799 1.2987282 0.27002382 0.05169008 0.34853464 0.051154137 0.08699269 0.1568713
0.69980985 0.06886846 0.90185606 0.26969254 0.20664407 0.2670119 0.4705538 1.0603919
0.76171386 0.1356107 1.5074329 0.48835036 0.107397355 0.4940593 0.30461532 0.039347053
0.22611924 0.05977785 0.17031114 0.12000165 0.17360164 0.020071179 0.05784511 0.060930956
0.3449693 0.5423921 0.33819687 0.08826349 1.1304497 0.106791 0.27554104 0.23598434
0.087937966 0.40671575 0.5204524 0.30771598 0.15189049 0.098647766 0.5056326 0.13519858
0.3872205 0.19261345 0.51521957 0.0931589 0.3557554 0.19585294 0.39041352 0.101070374
0.11563111 0.99602765 0.28928778 0.42543787 0.51111525 0.7580797 0.4360988 0.18288295
0.7802116 0.07989745 0.48945656 0.12305037 0.61022043 0.38138577 0.22759478 0.12389758
0.46444857 0.12740931 0.11560552 0.7185196 1.0721629 0.3621616 0.107001305 0.18758887
0.25174165 0.06726992 0.10789803 0.088900715 0.42937607 0.15876144 0.90916663 0.23347606
0.51136386 0.34171918 0.38044977 0.05592151 0.48732293 0.34830123 0.28979355 0.4806193
0.16673847 0.0959315 0.50175875 0.7220887 0.05559966 0.22636421 0.24709448 0.3334114
0.07220125 0.33254716 0.08566853 0.49989635 0.20716774 0.303602 0.27592817 0.3167903
0.23706771 1.342444 0.7507483 0.87601036 0.20512246 0.40317917 0.21619982 0.11350913
0.12967037 0.23183526 0.13519971 0.13601077 0.4085311 0.16382371 0.14761302 0.18608975
0.8626255 0.30596125 0.4085859 0.07522826 0.21506591 0.43779883 1.2106174 0.17830747
0.30423966 0.36768603 0.07507024 0.15174136 1.1709086 0.09632927 0.2625568 0.40098548
0.33037943 0.60442686 0.071165025 0.039046682 0.28251618 0.26038516 0.33186454 0.3701167
0.24339008 0.21256335 0.4436356 0.9575592 0.61956364 0.38273928 0.033718895 0.22563457
0.21547884 0.14097969 0.3125783 0.6475919 1.1153063 0.20359716 0.07961814 0.15099457
00000000: 444a ca3d a75f 573e cced 583f 47ad b63e
00000010: 5e0f 703e 87a3 2c3f 6c5e 4b3e 7007 483f
00000020: 6427 b23e 60d8 013d 2d72 613e fbb7 a53e
00000030: 7fe0 1e3e d8e4 ca3e dd8c 683f 0b3a 803e
00000040: 23c2 3d3d 57ca 263f 246e 893e 4993 f43c
00000050: 5b2d 2e3e 4d61 1b3e 8db8 f13e 9919 b83e
00000060: acd4 113d 35a2 fb3d 0ff3 f33e cfc0 fc3d
00000070: b42c 0d3e 8d28 d73e 95a4 dc3d 9ef6 093e
00000080: 0b89 be3d 02d1 da3e facb 403e 06a5 a23e
00000090: 551c f63e ef80 a03e 8d03 923d 871d 893e
000000a0: 25ed cd3d 8fd8 a43c 1ae0 503e 60a3 6f3f
000000b0: 617d 1340 0417 0a3e 5d0d c03e 7255 f33d
000000c0: 629d a43e 95fb e83d 23f2 703e 0fd4 ad3d
000000d0: 6ece a63e 0e35 223f e8ca e23e f0de 423e
000000e0: 47cb f63d b623 533e e749 833e 5c57 873e
000000f0: 349a 213f 353c a33e 657b 573d fc7d 193f
00000100: 6b09 243f 4314 a23e 323a 933e 327f 9c3e
00000110: d1a9 753e a45d dd3e 8468 a13e df4a 463d
00000120: 4dcc 213e 6fa1 8e3e 1e60 223d 4e32 283e
00000130: 8e1d 373e f2f0 4a3e 0b42 463e f73b d53e
00000140: 1647 323e 6289 d33c f943 423e ecf2 923e
00000150: 3b0b d93f 2a57 933f 9870 dc3e 0cb0 e63d
00000160: 89f3 d73e ba3c a63f 9040 8a3e fab8 533d
00000170: 2273 b23e 0087 513d 3929 b23d dfa2 203e
00000180: bd26 333f e80a 8d3d 0ae0 663f 2415 8a3e
00000190: 819a 533e c9b5 883e 6dec f03e ecba 873f
000001a0: aeff 423f 88dd 0a3e 90f3 c03f 0f09 fa3e
000001b0: 25f3 db3d 57f5 fc3e 8af6 9b3e 602a 213d
000001c0: cd8b 673e 9ed9 743d 0b66 2e3e 6dc3 f53d
000001d0: a1c4 313e 506c a43c feee 6c3d bd92 793d
000001e0: d19f b03e 35da 0a3f 2428 ad3e 7dc3 b43d
000001f0: 93b2 903f 3db5 da3d b713 8d3e e1a5 713e
00000200: d218 b43d 0c3d d03e 5e3c 053f f38c 9d3e
00000210: 2e89 1b3e d707 ca3d 2371 013f 7f71 0a3e
00000220: c441 c63e 763c 453e 6ee5 033f 18ca be3d
00000230: 9225 b63e ac8d 483e 48e4 c73e fcfd ce3d
00000240: 01d0 ec3d abfb 7e3f 871d 943e fed2 d93e
00000250: 73d8 023f 8311 423f 5848 df3e ab45 3b3e
00000260: f3bb 473f 46a1 a33d 0d9a fa3e d501 fc3d
00000270: 6837 1c3f ff44 c33e 9b0e 693e 04be fd3d
00000280: 34cc ed3e 9677 023e 96c2 ec3d e7f0 373f
00000290: a23c 893f 3f6d b93e 8023 db3d 4c17 403e
000002a0: 48e4 803e d0c4 893d a4f9 dc3d 9411 b63d
000002b0: 2ed7 db3e 5c92 223e 25bf 683f 5914 6f3e
000002c0: bee8 023f d1f5 ae3e 50ca c23e f40d 653d
000002d0: 6482 f93e 8a54 b23e d25f 943e bc13 f63e
000002e0: 7dbd 2a3e bc77 c43d 4373 003f ceda 383f
000002f0: 78bc 633d 05cc 673e 5606 7d3e e6b4 aa3e
00000300: 40de 933d 9f43 aa3e fb72 af3d 6af2 ff3e
00000310: c823 543e b971 9b3e 7546 8d3e 5732 a23e
00000320: e1c1 723e 34d5 ab3f 0a31 403f 3742 603f
00000330: 9f0b 523e 806d ce3e 7c63 5d3e 7a77 e83d
00000340: 4fc8 043e 3966 6d3e cb71 0a3e 6846 0b3e
00000350: fd2a d13e 67c1 273e de27 173e 508e 3e3e
00000360: 06d5 5c3f f4a6 9c3e 2c32 d13e 4611 9a3d
00000370: 3d3a 5c3e 2b27 e03e 83f5 9a3f 3c96 363e
00000380: 4dc5 9b3e 5841 bc3e 6dbe 993d 1662 1b3e
00000390: 55e0 953f 4848 c53d d86d 863e f84d cd3e
000003a0: 7e27 a93e b8bb 1a3f f8be 913d 6aef 1f3d
000003b0: f6a5 903e 3451 853e 26ea a93e f07f bd3e
000003c0: 403b 793e 35aa 593e 3524 e33e 9a22 753f
000003d0: b99b 1e3f 67f6 c33e d31c 0a3d c00c 673e
000003e0: 7ca6 5c3e fb5c 103e 430a a03e 95c8 253f
000003f0: 5bc2 8e3f c67b 503e d60e a33d 529e 1a3e

clf_net.3.weight f4 [1, 256]
0.31158775 0.31742474 0.3465572 0.28197876 0.24875563 0.3510911 0.24873832 0.27294824
0.30445856 0.310799 0.35956872 0.30274105 0.25347784 0.30706114 0.3227118 0.24141045
0.3671738 0.32887715 0.2995964 0.2609202 0.23117724 0.31278318 0.34456953 0.27011785
0.37566006 0.35723463 0.2759884 0.3341038 0.37100822 0.34112507 0.38396764 0.29730877
0.35861796 0.35266596 0.2765189 0.2674666 0.29187226 0.29145542 0.25496376 0.28474882
0.2887242 0.32859215 0.3075272 0.37429786 0.33287284 0.3571599 0.2525333 0.38288143
0.34873703 0.3463992 0.31847832 0.23317426 0.3545404 0.33732843 0.29472634 0.3421642
0.32658538 0.3084697 0.3639091 0.28942966 0.3009713 0.32502633 0.37450984 0.3554201
0.36008093 0.35310757 0.22112215 0.30188677 0.3289008 0.35941148 0.2685467 0.3148118
0.30191267 0.28819892 0.35105503 0.40072763 0.34582657 0.2491008 0.3018713 0.34336373
0.2694795 0.29165646 0.36011913 0.33083805 0.31092903 0.22421817 0.3382803 0.3239391
0.3319396 0.34602493 0.2317782 0.22222547 0.3248748 0.32266632 0.33460474 0.30218825
0.3095774 0.31347382 0.3344301 0.26803517 0.29558885 0.27055812 0.3358337 0.29993227
0.3260088 0.37982184 0.32005316 0.32144174 0.3632625 0.2885626 0.32304665 0.36649346
0.36404318 0.32182434 0.338486 0.3074174 0.29879853 0.26598185 0.273658 0.3897105
0.33331528 0.31556794 0.29401773 0.3480574 0.32154253 0.3267353 0.34085432 0.3212215
0.41985995 0.28812736 0.22095466 0.3669681 0.39525318 0.364654 0.34288862 0.36164716
0.33862832 0.2929209 0.2843715 0.4089266 0.35164344 0.34010786 0.3120529 0.2583607
0.36413768 0.31200284 0.2632567 0.2926559 0.29717895 0.30187082 0.3300855 0.29306892
0.3758093 0.2725443 0.2755289 0.33000496 0.30524316 0.29633066 0.29844287 0.35748935
0.33600086 0.40399292 0.33836102 0.34095928 0.32206404 0.3312915 0.35859743 0.3536967
0.33189088 0.33145767 0.3445927 0.32751128 0.2872809 0.34576565 0.324797 0.3465828
0.3022025 0.38006032 0.27637464 0.27034026 0.31987846 0.31700316 0.31327343 0.2252198
0.33896562 0.31523803 0.2712452 0.2950853 0.3343224 0.2852447 0.30373013 0.3240096
0.33347496 0.33333212 0.36450058 0.31219646 0.3363387 0.33326524 0.30410364 0.35305393
0.3367806 0.2843513 0.22327083 0.33261213 0.3150363 0.25233182 0.25812596 0.3281655
0.3388864 0.28998473 0.3047052 0.2749387 0.31626925 0.4460547 0.2765147 0.33128744
0.3169307 0.3427469 0.32741404 0.31079867 0.3082282 0.2990823 0.36915186 0.36410248
0.27372515 0.34331262 0.30882466 0.2950134 0.3492316 0.2910461 0.31981778 0.35051307
0.32763088 0.2567442 0.34546775 0.35615197 0.32501462 0.32847318 0.21887827 0.30687493
0.2549445 0.32780418 0.25582236 0.28210372 0.32766998 0.27439258 0.34541932 0.27343202
0.3265616 0.20737845 0.30699313 0.3523567 0.27724147 0.32563505 0.34745997 0.2975446
00000000: 6e88 9f3e 7f85 a23e f26f b13e 855f 903e
00000010: ccb9 7e3e 36c2 b33e 42b5 7e3e dfbf 8b3e
00000020: fee1 9b3e 0c21 9f3e 6419 b83e e000 9b3e
00000030: d9c7 813e 1e37 9d3e 7b3a a53e 4d34 773e
00000040: 34fe bb3e 9662 a83e b364 993e 5597 853e
00000050: bab9 6c3e 1e25 a03e 6b6b b03e e34c 8a3e
00000060: 8456 c03e 75e7 b63e 5a4e 8d3e a70f ab3e
00000070: caf4 bd3e f2a7 ae3e 6897 c43e db38 983e
00000080: c69c b73e a290 b43e e393 8d3e 62f1 883e
00000090: 4870 953e a539 953e 9c8a 823e 99ca 913e
000000a0: a9d3 933e 3b3d a83e 3574 9d3e f8a3 bf3e
000000b0: 4f6e aa3e aadd b63e 0b4c 813e 0909 c43e
000000c0: a98d b23e 3c5b b13e 970f a33e 3cc5 6e3e
000000d0: 5286 b53e 50b6 ac3e 5fe6 963e 2530 af3e
000000e0: 3336 a73e beef 9d3e 4b52 ba3e 2030 943e
000000f0: e918 9a3e da69 a63e c1bf bf3e a0f9 b53e
00000100: 875c b83e 84ca b43e d86d 623e e790 9a3e
00000110: b065 a83e c804 b83e f47e 893e 032f a13e
00000120: 4c94 9a3e cf8e 933e 7cbd b33e 2c2c cd3e
00000130: 2e10 b13e 4814 7f3e e08e 9a3e 5fcd af3e
00000140: 38f9 893e ff53 953e 8961 b83e 9b63 a93e
00000150: 1732 9f3e 7399 653e 1333 ad3e 59db a53e
00000160: fdf3 a93e 2e2a b13e 4457 6d3e 138f 633e
00000170: fd55 a63e 8534 a53e 5051 ab3e 6bb8 9a3e
00000180: ee80 9e3e a47f a03e 6c3a ab3e e83b 893e
00000190: 6c57 973e 9886 8a3e 65f2 ab3e b990 993e
000001a0: a0ea a63e 0278 c23e 02de a33e 0394 a43e
000001b0: 8bfd b93e 7abe 933e 5f66 a53e 08a5 bb3e
000001c0: de63 ba3e 29c6 a43e 094e ad3e d065 9d3e
000001d0: 1ffc 983e c62e 883e e71c 8c3e 2288 c73e
000001e0: 4da8 aa3e 1f92 a13e 7e89 963e 9434 b23e
000001f0: 39a1 a43e d949 a73e 7584 ae3e 2577 a43e
00000200: e2f7 d63e 6e85 933e f041 623e 3ee3 bb3e
00000210: a05e ca3e eeb3 ba3e 198f af3e d129 b93e
00000220: b160 ad3e baf9 953e 2499 913e d45e d13e
00000230: 9c0a b43e 9e22 ae3e 66c5 9f3e db47 843e
00000240: 4170 ba3e d6be 9f3e 95c9 863e fed6 953e
00000250: d727 983e d08e 9a3e f700 a93e 210d 963e
00000260: 146a c03e ed8a 8b3e 2012 8d3e 69f6 a83e
00000270: d548 9c3e a7b8 973e 81cd 983e d808 b73e
00000280: 4e08 ac3e 29d8 ce3e a83d ad3e 3792 ae3e
00000290: 94e5 a43e 0a9f a93e 159a b73e bc17 b53e
000002a0: 9aed a93e d2b4 a93e 746e b03e 8faf a73e
000002b0: 7b16 933e 3208 b13e cb4b a63e 4d73 b13e
000002c0: 49ba 9a3e 4497 c23e fa80 8d3e 0a6a 8a3e
000002d0: 1cc7 a33e 3d4e a23e 6065 a03e 05a0 663e
000002e0: e78c ad3e e166 a13e a7e0 8a3e 6c15 973e
000002f0: 4e2c ab3e 980b 923e 8482 9b3e 96e4 a53e
00000300: 3bbd aa3e 82aa aa3e d29f ba3e 37d8 9f3e
00000310: 9634 ac3e bea1 aa3e 79b3 9b3e 7cc3 b43e
00000320: 826e ac3e 7e96 913e 1ca1 643e 234c aa3e
00000330: 704c a13e a331 813e 1629 843e 4f05 a83e
00000340: 8582 ad3e e178 943e 5202 9c3e c4c4 8c3e
00000350: 0bee a13e 4861 e43e 5693 8d3e 829e a93e
00000360: be44 a23e 867c af3e d0a2 a73e 0121 9f3e
00000370: 16d0 9d3e 5121 993e 7901 bd3e a46b ba3e
00000380: b425 8c3e acc6 af3e 441e 9e3e ff0b 973e
00000390: 7cce b23e ff03 953e 28bf a33e 7376 b33e
000003a0: 3cbf a73e fa73 833e 26e1 b03e 8d59 b63e
000003b0: 5168 a63e a32d a83e a021 603e b61e 9d3e
000003c0: 1688 823e f3d5 a73e 26fb 823e e66f 903e
000003d0: 5cc4 a73e 2f7d 8c3e cdda b03e 48ff 8b3e
000003e0: 1533 a73e 045b 543e 342e 9d3e 1968 b43e
000003f0: 98f2 8d3e a3b9 a63e 46e6 b13e c457 983e
