EE8591/Project/regression_models/Life_Expectancy/DNN/deepnn/training_models/net_4100.pt (torch, 13632 bytes, 7 tensors)

clf_net.0.weight f4 [256, 4]
0	0x3e8a84c5	0.2705442
1	0xbe68aa4b	-0.22721212
2	0xbd912841	-0.07087756
3	0xbed52de2	-0.41636568
4	0xbeab4428	-0.33450437
5	0x3de687cf	0.11256372
6	0x3e0d19b3	0.13779335
7	0xbbf703fe	-0.0075383177
8	0xbee281ac	-0.44239557
9	0x3dd2c913	0.10292258
10	0x3eb774b4	0.35831225
11	0xbe933b23	-0.28756055
12	0xbee3ce64	-0.444934
13	0xbe73323f	-0.23749636
14	0x3e9bfe36	0.30467385
15	0x3de40aed	0.111348964
16	0xbe9b2115	-0.30298677
17	0xbe8095aa	-0.25114185
18	0x3ed1191c	0.4083947
19	0x3e64f365	0.22358473
20	0x3f13cc01	0.5773316
21	0xbec56519	-0.38553694
22	0xbdd8ed38	-0.10592121
23	0xbd8f28a8	-0.069901764
24	0xbe181dab	-0.14855067
25	0xbe895592	-0.26823097
26	0x3caf96cc	0.02143421
27	0x3e6540f7	0.22388063
28	0x3d77f008	0.060531646
29	0xbe6bbb0f	-0.23020576
30	0x3eac47ce	0.33648533
31	0x3f08b282	0.5339738
32	0x3ecacb81	0.39608386
33	0x3e9973c8	0.29971147
34	0x3ebce17e	0.36890787
35	0xbeaaa77b	-0.33330902
36	0xbd1d6327	-0.038424637
37	0xbe09d1bd	-0.13458915
38	0xbe3a38f6	-0.18185791
39	0xbddd1398	-0.10794753
40	0x3e52f0f2	0.20599726
41	0xbe592ae0	-0.21207762
42	0xbef2563a	-0.4733141
43	0xbe89347f	-0.26797864
44	0xbe6ca96b	-0.23111503
45	0xbec30c28	-0.38095212
46	0x3edc327e	0.43007272
47	0x3c661a4c	0.014044356
48	0x3eb98546	0.36234492
49	0xbf1c3042	-0.61011136
50	0x3e9bc087	0.30420324
51	0xbecaf784	-0.39641964
52	0xbcfcdbd1	-0.030866535
53	0x3ea4062f	0.32035968
54	0x3edeffcf	0.4355454
55	0xbc58e54d	-0.013238263
56	0xbebd6a6e	-0.36995262
57	0x3f03c129	0.51466614
58	0x3da89100	0.082307816
59	0xbdc44850	-0.09584105
60	0xbdd9a1b3	-0.10626545
61	0xbea276dc	-0.31731308
62	0xbe68389a	-0.22677842
63	0xbeccc5f5	-0.3999478
64	0xbcd7f113	-0.02636007
65	0xbe983b10	-0.2973256
66	0x3e6207d2	0.22073296
67	0xbdb059c1	-0.08610869
68	0x3ebcf099	0.3690231
69	0x3d1b195d	0.037865985
70	0x3d563f85	0.05230667
71	0x3ed1f3da	0.41006356
72	0xbe2c3e0a	-0.16820541
73	0x3e99d0c8	0.300421
74	0x3e8b30cb	0.27185664
75	0x3ed1f93e	0.4101047
76	0xbe816d2c	-0.25278604
77	0x3d92b2c3	0.07163002
78	0x3a166a9c	0.0005737932
79	0x3e74d647	0.23909865
80	0xbe07e91f	-0.13272522
81	0xbe99dd0e	-0.30051464
82	0x3e930177	0.28712055
83	0x3e9a7608	0.30168176
84	0xbe2bd88d	-0.16781826
85	0x3e8611dc	0.261855
86	0x3e301830	0.17196727
87	0x3eb8f59e	0.3612489
88	0xbe5a026c	-0.21289986
89	0x3e50508e	0.20343229
90	0x3e42d60d	0.19026966
91	0xbe6ba9f0	-0.23014045
92	0x3e1bc164	0.15210491
93	0x3e5f3448	0.21797287
94	0x3ee821dc	0.45338333
95	0x3ea72406	0.3264467
96	0x3e198022	0.14990285
97	0xbe4a8d0d	-0.19780369
98	0x3d4b5d64	0.04964961
99	0xbe9bf077	-0.30456898
100	0x3edfeacb	0.4373382
101	0xbe8e7f30	-0.2783141
102	0x3ee15fb1	0.4401832
103	0xbeab3a63	-0.33442983
104	0xbeb6baa2	-0.35689265
105	0xbe060577	-0.13088022
106	0xbee1f743	-0.44133958
107	0xbec66a7c	-0.38753116
108	0xbe3b921b	-0.18317454
109	0xbe3dd1f9	-0.1853713
110	0xbe19c0b9	-0.15014924
111	0xbe826489	-0.25467327
112	0x3ef28eaa	0.4737447
113	0xbe1aadfb	-0.15105431
114	0x3d62ce72	0.055372663
115	0xbe89468e	-0.2681164
116	0xbea4d158	-0.32190967
117	0x3e7878af	0.24264787
118	0x3e17594a	0.14780155
119	0xbda284c9	-0.07935483
120	0xbe92adc9	-0.28648213
121	0x3e8d2b1b	0.2757195
122	0x3d68c48e	0.056828074
123	0x3f038e80	0.5138931
124	0x3e046e58	0.12932718
125	0xbef79391	-0.48354772
126	0x3e413c32	0.18870619
127	0xbef4c272	-0.478046
128	0x3e5bec29	0.21476807
129	0xbebf087f	-0.3731117
130	0x3d9aa70b	0.07551392
131	0xbefea2a0	-0.49733448
132	0x3e341401	0.17585756
133	0xbeffcf36	-0.49962777
134	0x3e50038e	0.20313856
135	0xbd2446a5	-0.040106434
136	0xbccae893	-0.024769103
137	0x3f0ff50d	0.5623329
138	0xbea84b91	-0.32870153
139	0x3c7267a3	0.014795217
140	0x3de9a6dd	0.1140878
141	0xbec8c723	-0.3921443
142	0x3dd9c3dc	0.1063306
143	0x3db7d535	0.08976213
144	0x3ec29368	0.38003087
145	0x3dcb4d5c	0.099268645
146	0x3f0e1c7e	0.55512226
147	0x3e65f359	0.22456111
148	0xbeece2f7	-0.4626691
149	0xbe22d34f	-0.1590092
150	0xbe85677a	-0.2605551
151	0xbe514c2b	-0.20439212
152	0xbdd066b9	-0.10175843
153	0x3e33f985	0.17575653
154	0x3e27cb03	0.16386037
155	0x3e6eefe1	0.23333694
156	0x3eacc113	0.33741054
157	0xbeaafc1d	-0.33395472
158	0x3e020f4f	0.12701152
159	0xbe1c7659	-0.15279521
160	0x3eb90dd4	0.36143363
161	0x3e6b6585	0.22987945
162	0x3d4d5e1c	0.050138578
163	0xbc2ef640	-0.010678828
164	0x3e146d7c	0.1449489
165	0xbdd804e1	-0.105478056
166	0x3da9ab68	0.08284646
167	0xbe697fcf	-0.22802661
168	0x3c829635	0.015940765
169	0x3e843a94	0.25825942
170	0xbecf6129	-0.40503815
171	0xbdcda695	-0.100415386
172	0xbf0a8ed4	-0.5412419
173	0x3ebceb70	0.36898375
174	0x3e4ba564	0.1988731
175	0xbbc2474a	-0.0059289085
176	0xbf1b82c5	-0.60746413
177	0x3ec8f5af	0.39249942
178	0x3eeb34b5	0.4593865
179	0xbebdcb79	-0.370693
180	0x3e988f24	0.29796708
181	0x3ed13ee9	0.4086831
182	0xbe2fcce4	-0.17168003
183	0xbe3f0be2	-0.18656877
184	0x3d102734	0.035193637
185	0xbe849a92	-0.25899178
186	0x3ee42f7e	0.44567484
187	0x3ee885d8	0.45414615
188	0xbea355ef	-0.319015
189	0xbe9451d1	-0.2896867
190	0x3e0b2d1d	0.13591428
191	0x3e8498fd	0.2589797
192	0x3e13af70	0.14422393
193	0x3e81cd4c	0.25351942
194	0xbee8fdd9	-0.4550617
195	0x3cecd57d	0.028910393
196	0xbd893432	-0.066994086
197	0x3e870f8a	0.26379043
198	0xbc1c4187	-0.009537107
199	0x3ec65ae6	0.38741225
200	0x3b78e052	0.0037975502
201	0x3ed2d6dc	0.4117955
202	0xbe904301	-0.2817612
203	0xbe17d728	-0.1482817
204	0x3e0d0780	0.13772392
205	0x3e97a6ba	0.2961939
206	0xbdbd5aa8	-0.09245807
207	0x3e41359e	0.1886811
208	0xbeed291c	-0.46320426
209	0xbe3b52fd	-0.18293376
210	0xbe90e2ec	-0.28298128
211	0x3e3c6cff	0.18400954
212	0x3e839b69	0.25704506
213	0xbe6653fe	-0.22492978
214	0x3f1f9671	0.6233893
215	0x3ec64296	0.38722676
216	0xbf1d860b	-0.6153266
217	0xbea0ec35	-0.31430212
218	0xbe95280e	-0.29132122
219	0xbe49f6fa	-0.1972312
220	0xbe376957	-0.17911278
221	0xbe9afd27	-0.30271265
222	0x3e9df229	0.30848816
223	0x3c8acf69	0.016944604
224	0xbf0756f8	-0.5286708
225	0xbd489d92	-0.048978396
226	0x3ce1ab55	0.027547518
227	0x3ebeccbe	0.3726558
228	0xbee44fc0	-0.44592094
229	0xbe5bc6ca	-0.21462551
230	0x3ea23401	0.316803
231	0x3e86d566	0.26334685
232	0xbdf133d1	-0.11777461
233	0xbe521d8d	-0.20519085
234	0xbe7998f9	-0.2437476
235	0xbeec13f0	-0.4610896
236	0xbf00b538	-0.5027652
237	0xbe81ea9f	-0.25374314
238	0xbe509be5	-0.20371969
239	0xbe1cbce0	-0.15306425
240	0xbeae972b	-0.34099707
241	0x3eca1462	0.39468676
242	0xbeef51ac	-0.46741998
243	0xbe424fec	-0.189758
244	0xbe70af0e	-0.23504278
245	0x3e6f45b2	0.2336643
246	0xbec9730f	-0.39345595
247	0xbe68be57	-0.22728859
248	0xbe9667da	-0.29376107
249	0x3e0ea0a9	0.13928474
250	0xbbaa6249	-0.005199705
251	0x3ea5cc48	0.32382417
252	0x3e5e61ec	0.21717042
253	0xbc9e5b12	-0.019330535
254	0xbeff75c6	-0.49894542
255	0x3e78221f	0.24231766

clf_net.0.bias f4 [256]
0	0xbd58a4a2	-0.05289138
1	0xbf237c2e	-0.6386136
2	0xbe077d9c	-0.1323151
3	0xbe8e168c	-0.27751577
4	0xbf1c2d05	-0.61006194
5	0xbe489487	-0.19587909
6	0xbeaa559a	-0.33268434
7	0xbeab5d58	-0.33469653
8	0xbe4d3756	-0.2004064
9	0xbf0e4419	-0.5557266
10	0xbe4d8174	-0.20068914
11	0xbdfdd73d	-0.12394569
12	0xbee17583	-0.44034967
13	0xbf4f64a5	-0.81012946
14	0xbedd8fd0	-0.43273783
15	0xbf119814	-0.5687268
16	0xbe9aa665	-0.30205074
17	0xbdd18cb1	-0.10231913
18	0xbf13cc10	-0.5773325
19	0xbe3f8f58	-0.18707025
20	0xbf1773c3	-0.59161013
21	0xbeb73c1c	-0.35788047
22	0xbf36a5f0	-0.7134695
23	0xbeecd135	-0.46253362
24	0x3e161731	0.14657284
25	0xbf4ea8b0	-0.80726147
26	0xbee4d7c1	-0.44695857
27	0xbe881bec	-0.26583803
28	0xbefd4abd	-0.49471083
29	0x3dc3b7e7	0.09556561
30	0xbc12ee7c	-0.008967992
31	0xbd8993b3	-0.067176245
32	0x3e3a96df	0.18221615
33	0xbeb32894	-0.34991896
34	0xbeb32a5f	-0.34993264
35	0xbf117a78	-0.568275
36	0xbebcfabf	-0.36910054
37	0xbe5fccd7	-0.21855484
38	0xbf02399a	-0.50869143
39	0xbe9ec50e	-0.31009716
40	0x3e7f4de0	0.2493205
41	0xbe8627d5	-0.26202264
42	0xbe980ba3	-0.29696378
43	0xbf0014fd	-0.50032026
44	0xbe9e3ba6	-0.30904883
45	0x3dada99f	0.08479618
46	0xbe1ad10e	-0.1511881
47	0xbf0bfd35	-0.5468324
48	0xbf19dfe6	-0.60107267
49	0xbe4307a5	-0.19045885
50	0xbe024e38	-0.1272515
51	0x3ea2b40b	0.31777987
52	0x3d1b5cd4	0.037930325
53	0x3d0fadef	0.035077985
54	0xbe18935e	-0.14899966
55	0xbec0a06f	-0.376224
56	0xbefb4705	-0.4907762
57	0xbe1b2883	-0.15152173
58	0xbe64c38d	-0.22340222
59	0xbf1cf114	-0.61305356
60	0xbeb00989	-0.34382275
61	0x3e9e16d9	0.30876806
62	0xbe99ff18	-0.30077434
63	0xbeac9f84	-0.3371545
64	0xbf59fd57	-0.8515219
65	0xbf11d9b9	-0.56972843
66	0x3e769f01	0.24084093
67	0xbee3f330	-0.44521475
68	0x3e3aa63a	0.18227473
69	0xbc9a3d15	-0.018827954
70	0xbe95822e	-0.29200882
71	0xbd04c617	-0.032415476
72	0xbf0a187b	-0.53943604
73	0x3e671966	0.22568282
74	0xbf056a60	-0.5211544
75	0xbf1cc4bb	-0.61237687
76	0xbed8e9d5	-0.423659
77	0xbecbcb30	-0.39803457
78	0xbf3c2589	-0.73494774
79	0xbf509002	-0.8146974
80	0xbf15b11d	-0.5847338
81	0xbebfe1d9	-0.37476996
82	0xbdbdab23	-0.09261157
83	0x3cd9308b	0.026512405
84	0x3e5b4928	0.21414626
85	0xbf5a1164	-0.85182786
86	0xbea00b74	-0.31258738
87	0xbebee223	-0.37281904
88	0xbf3b0a33	-0.7306244
89	0xbeedc950	-0.46442652
90	0x3d4f736a	0.050647177
91	0xbe020380	-0.12696648
92	0xbf025c60	-0.50922203
93	0xbe9e752b	-0.30948767
94	0xbf076490	-0.5288782
95	0xbf0a4947	-0.5401806
96	0xbd79c9e1	-0.060983542
97	0xbee6d121	-0.45081428
98	0xbe6a0d8e	-0.22856733
99	0xbe24d9b5	-0.16098674
100	0xbf11609c	-0.5678804
101	0x3d375d22	0.044766553
102	0xbe8bf522	-0.2733546
103	0xbe011104	-0.12604147
104	0xbeca8e25	-0.39561573
105	0xbe3d7a94	-0.18503791
106	0xbe6cf708	-0.2314111
107	0xbe2904ff	-0.16505812
108	0xbea61f4d	-0.32445756
109	0xbe6f86b6	-0.23391232
110	0x3e203bb2	0.15647772
111	0xbe2d7add	-0.169414
112	0xbf0e3297	-0.55545944
113	0xbdbcff43	-0.09228375
114	0xbf232c07	-0.63739055
115	0x3cb9ad24	0.022665568
116	0xbd5b5233	-0.05354519
117	0xbe60a60c	-0.21938342
118	0xbe6adc18	-0.22935522
119	0xbed266e2	-0.41094118
120	0x3e2fe4b2	0.17177084
121	0xbdbea94e	-0.09309636
122	0x3d5a9786	0.05336716
123	0xbd08f79e	-0.03343927
124	0xbe9d32c6	-0.307028
125	0xbdbacf14	-0.09121528
126	0xbe47ea9e	-0.19523093
127	0xbecbd17c	-0.3980826
128	0x3ef4fcb1	0.47849038
129	0xbeb9d2a3	-0.36293516
130	0xbf0e835b	-0.5566918
131	0xbdc266e2	-0.094922796
132	0xbe6ed491	-0.23323275
133	0x3deb3ca7	0.11486178
134	0xbf5e4f7a	-0.8684002
135	0xbe67a0cc	-0.22619933
136	0xbd81441d	-0.0631182
137	0xbe846d6d	-0.25864735
138	0xbf579545	-0.8421214
139	0xbf193ca0	-0.5985813
140	0x3e735625	0.2376333
141	0x3ea3122a	0.31849796
142	0xbf092277	-0.53568214
143	0xbef19899	-0.47186735
144	0xbe109f33	-0.1412323
145	0xbf552a86	-0.8326801
146	0x3dac3f76	0.08410542
147	0xbe037735	-0.12838443
148	0xbf1ec006	-0.62011755
149	0xbe6a5d4c	-0.22887152
150	0xbe9a21e7	-0.3010399
151	0x3c6f9a62	0.01462421
152	0xbd543db7	-0.05181667
153	0x3e0794d1	0.13240363
154	0xbe6aa199	-0.22913207
155	0xbe386874	-0.18008596
156	0xbc52847a	-0.012848968
157	0xbe44d53b	-0.19221966
158	0xbf441c89	-0.7660604
159	0x3ece18e7	0.40253374
160	0xbd9100e3	-0.07080247
161	0xbeea4a8f	-0.4576001
162	0xbee803e9	-0.45315483
163	0xbeb8cd39	-0.36094072
164	0xbe89b57c	-0.26896274
165	0xbe5fc1fb	-0.21851341
166	0xbeb1f68d	-0.34758416
167	0xbf1aea6b	-0.60513943
168	0xbf2d20d4	-0.67628217
169	0x3e00a365	0.1256233
170	0x3e543f12	0.20727184
171	0xbde13c53	-0.10997834
172	0xbed86ed1	-0.42272046
173	0x3e2d48eb	0.16922347
174	0xbf1b63ea	-0.6069933
175	0xbe92a093	-0.28638133
176	0xbea25943	-0.31708726
177	0xbf0236ae	-0.50864685
178	0xbf349a8f	-0.7054834
179	0xbe0908b6	-0.13382229
180	0xbf1d4d2c	-0.6144588
181	0x3d563795	0.0522991
182	0x3e24d432	0.16096571
183	0xbed2a922	-0.41144663
184	0xbf41c7c8	-0.75695467
185	0xbeb8cd87	-0.36094305
186	0xbdccf45a	-0.10007544
187	0xbf3ec6d1	-0.7452212
188	0xbefdaba3	-0.4954501
189	0xbe03dd0d	-0.12877293
190	0xbee201f9	-0.4414213
191	0xbf214683	-0.6299822
192	0x3e63aec4	0.22234637
193	0xbeed01d0	-0.46290445
194	0xbf0ba0f5	-0.54542476
195	0xbf358d91	-0.7091914
196	0xbe9feff3	-0.31237754
197	0xbed2d147	-0.4117529
198	0xbe53ac28	-0.20671141
199	0xbd99b54d	-0.075052835
200	0x3cf79ef3	0.03022716
201	0xbe9ef20d	-0.31044045
202	0xbee7e598	-0.45292354
203	0xbef91be3	-0.48654088
204	0xbe643e2f	-0.22289346
205	0x3d88b5bc	0.06675288
206	0xbe0a5cb4	-0.13511926
207	0xbeefdf55	-0.46850076
208	0xbf2fb18e	-0.686303
209	0xbe3524cf	-0.17689823
210	0xbf0600f2	-0.5234519
211	0xbf122718	-0.570909
212	0xbf42718c	-0.7595451
213	0x3e9a6518	0.30155253
214	0xbe94edd3	-0.29087695
215	0xbe5b1ee0	-0.21398497
216	0xbe28b380	-0.16474724
217	0xbf076e3b	-0.52902573
218	0x3e10fdd0	0.14159322
219	0xbefefa89	-0.49800518
220	0xbf04f5ea	-0.51937735
221	0xbe9b6af8	-0.30355048
222	0xbf2782c6	-0.6543392
223	0xbee196d1	-0.44060376
224	0x3e9851ff	0.29750058
225	0xbe9943ef	-0.29934642
226	0xbdedc572	-0.11609925
227	0x3db9d890	0.09074509
228	0xbe9705e2	-0.29496676
229	0xbed9e805	-0.4255983
230	0xbda625e4	-0.08112696
231	0xbde2da24	-0.11076763
232	0xbf005c13	-0.50140494
233	0xbedad257	-0.42738602
234	0x3d5964a8	0.05307451
235	0x3c30baf0	0.010786757
236	0xbef47373	-0.4774433
237	0xbedae410	-0.42752123
238	0xbe41edc1	-0.18938352
239	0xbf06950b	-0.5257117
240	0x3e34b6c3	0.17647843
241	0xbd66477d	-0.05622052
242	0xbed83f5d	-0.42235842
243	0xbe0e406d	-0.13891764
244	0xbf135715	-0.5755475
245	0xbe1571e8	-0.14594233
246	0xbf0adafd	-0.542404
247	0xbe28924e	-0.16462061
248	0xbe8c46f0	-0.2739787
249	0x3e7230c1	0.2365141
250	0xbe1c9143	-0.15289788
251	0xbf14ac3d	-0.58075315
252	0xbe6baad3	-0.23014383
253	0xbeedf28c	-0.4647411
254	0xbf00d5ab	-0.5032603
255	0x3e706051	0.23474242

clf_net.1.weight f4 [256]
0	0x3f1522d6	0.5825628
1	0x3f227cbf	0.634716
2	0x3f030c2c	0.5119045
3	0x3f177c7a	0.5917431
4	0x3f21e94b	0.632466
5	0x3f5666c2	0.83750546
6	0x3f28c117	0.6591963
7	0x3f28a233	0.65872496
8	0x3f09b1af	0.5378675
9	0x3f5000bb	0.81251115
10	0x3f6bb8d6	0.9207891
11	0x3f2ffd08	0.6874547
12	0x3f42b7ac	0.7606151
13	0x3f0baa3f	0.5455665
14	0x3f11eca4	0.5700171
15	0x3f085633	0.5325653
16	0x3f4d2532	0.8013488
17	0x3f3dc367	0.74126285
18	0x3f2013ae	0.6253003
19	0x3f30b7ca	0.6903044
20	0x3f091def	0.535613
21	0x3f2a62de	0.6655711
22	0x3f017bde	0.5057963
23	0x3f230cbe	0.6369132
24	0x3f4d690d	0.8023842
25	0x3f26a3d5	0.6509374
26	0x3f1a0756	0.60167444
27	0x3f47af90	0.7800226
28	0x3f5dcfd7	0.86645263
29	0x3f0ed574	0.55794454
30	0x3f6ae6e7	0.9175858
31	0x3f4a093b	0.78920335
32	0x3f65dc5a	0.89789355
33	0x3f6f362d	0.9344204
34	0x3f26f7c7	0.6522183
35	0x3f54abd7	0.83074707
36	0x3f250d29	0.64473206
37	0x3f28a96c	0.6588352
38	0x3f14fa95	0.5819486
39	0x3f5fb4ea	0.8738543
40	0x3f256cdb	0.64619225
41	0x3f572f43	0.8405649
42	0x3f2dbfb2	0.6787063
43	0x3f49abce	0.7877778
44	0x3f0d3221	0.55154616
45	0x3f467fad	0.7753857
46	0x3f1aa68c	0.6041038
47	0x3f410156	0.75392663
48	0x3f2fc8a8	0.6866555
49	0x3f593d7f	0.8485946
50	0x3f31f9c3	0.6952173
51	0x3f22c51f	0.6358203
52	0x3f2209e3	0.63296336
53	0x3f11ce3e	0.56955326
54	0x3f1e4db7	0.61837333
55	0x3f25fd5f	0.6483974
56	0x3f2f538e	0.6848687
57	0x3f29a64b	0.6626937
58	0x3f40f719	0.7537704
59	0x3f20135e	0.6252955
60	0x3f33c585	0.70223266
61	0x3f4c27fe	0.79748523
62	0x3f5c73c8	0.8611417
63	0x3f4e33d1	0.80547816
64	0x3f2ff0df	0.68726915
65	0x3f082914	0.5318768
66	0x3f0895f6	0.5335382
67	0x3f1cbcbb	0.6122548
68	0x3f362a43	0.71158236
69	0x3f8da7ce	1.1066835
70	0x3f1a9673	0.6038582
71	0x3f343613	0.7039501
72	0x3f195a62	0.5990354
73	0x3f23c247	0.6396832
74	0x3f7e580f	0.99353117
75	0x3f32c895	0.69837314
76	0x3f2e8259	0.68167645
77	0x3f1a8bb9	0.6036945
78	0x3f0518a4	0.51990724
79	0x3f0689f2	0.5255424
80	0x3f10381c	0.56335616
81	0x3f20587b	0.6263501
82	0x3f269e75	0.65085536
83	0x3f10147a	0.56281245
84	0x3f1305fd	0.5743101
85	0x3f069a79	0.52579457
86	0x3f2517ad	0.6448925
87	0x3f5d0548	0.86336184
88	0x3f2e41d3	0.6806919
89	0x3f606a4a	0.87662184
90	0x3f177199	0.5915771
91	0x3f17e624	0.5933554
92	0x3f1f1a62	0.6214963
93	0x3f2db66d	0.67856485
94	0x3f301695	0.6878446
95	0x3f582370	0.84429073
96	0x3f16e647	0.58945125
97	0x3f3cff23	0.7382681
98	0x3f443f66	0.7665924
99	0x3f3787c0	0.71691513
100	0x3f1eaee7	0.6198563
101	0x3f49195a	0.7855431
102	0x3f298656	0.66220605
103	0x3f11cc78	0.5695262
104	0x3f0a3469	0.5398622
105	0x3f753870	0.9578924
106	0x3f0d3034	0.5515168
107	0x3f8249f9	1.0178825
108	0x3f32e764	0.69884324
109	0x3f13970b	0.5765235
110	0x3f25290a	0.64515746
111	0x3f70a8fe	0.9400786
112	0x3f47db31	0.78068835
113	0x3f7cee05	0.9880069
114	0x3f473621	0.7781697
115	0x3f5fd10c	0.87428355
116	0x3f135164	0.5754607
117	0x3f2e8951	0.6817828
118	0x3f488e24	0.7834189
119	0x3f42adb0	0.76046276
120	0x3f233554	0.6375325
121	0x3f06b798	0.5262389
122	0x3f13004a	0.57422316
123	0x3f122c82	0.57099164
124	0x3f48997f	0.78359216
125	0x3f2d8f53	0.6779682
126	0x3f665cf2	0.89985573
127	0x3f55d46a	0.83527243
128	0x3f7a9d95	0.978967
129	0x3f0d3bde	0.55169475
130	0x3f0d14d6	0.5510992
131	0x3f1cb6d5	0.6121648
132	0x3f3501bc	0.7070577
133	0x3f337e2e	0.7011441
134	0x3f09be94	0.53806424
135	0x3f1e00b4	0.6171982
136	0x3f197d22	0.5995656
137	0x3f4d1268	0.8010621
138	0x3f09031d	0.53520375
139	0x3f6b62ec	0.9194782
140	0x3f55c5a2	0.8350469
141	0x3f13eb95	0.57781345
142	0x3f2bdddb	0.671354
143	0x3f074d8e	0.52852714
144	0x3f811bc8	1.0086603
145	0x3f019b01	0.5062714
146	0x3f0efe40	0.55856705
147	0x3f2250b6	0.63404405
148	0x3f1c2dd6	0.6100744
149	0x3f30bf25	0.69041663
150	0x3f71d272	0.9446174
151	0x3f27a241	0.65481955
152	0x3f88032b	1.0625967
153	0x3f2fe7d1	0.687131
154	0x3f4e3154	0.8054402
155	0x3f6c2df9	0.9225765
156	0x3f09a600	0.5376892
157	0x3f1e738e	0.6189507
158	0x3f15bdb9	0.5849262
159	0x3f8a5c98	1.0809507
160	0x3f41d2f8	0.7571254
161	0x3f25dcf0	0.6479025
162	0x3f163233	0.5867035
163	0x3f5d4127	0.8642754
164	0x3f17625f	0.5913448
165	0x3f43ce2e	0.7648648
166	0x3f6a9d42	0.91646206
167	0x3f41c066	0.756842
168	0x3f36dbcc	0.71429133
169	0x3f3d127b	0.73856324
170	0x3f35cfab	0.7102
171	0x3f510fd1	0.8166476
172	0x3f190403	0.59771746
173	0x3f265444	0.6497233
174	0x3f4c5b67	0.7982697
175	0x3f2d7920	0.6776295
176	0x3f1f611c	0.6225755
177	0x3f883513	1.0641197
178	0x3f1aa1be	0.6040305
179	0x3f6befd7	0.9216284
180	0x3f15fa0f	0.58584684
181	0x3f20f891	0.6287928
182	0x3f188484	0.595772
183	0x3f154424	0.583071
184	0x3f396f58	0.7243552
185	0x3f16b1c1	0.5886498
186	0x3f19170c	0.5980079
187	0x3f045fb3	0.51708525
188	0x3f1836ad	0.5945843
189	0x3f15fe33	0.58591
190	0x3f23f393	0.6404354
191	0x3f5967a8	0.8492379
192	0x3f421417	0.75811905
193	0x3f486607	0.7828068
194	0x3f3a2674	0.72714925
195	0x3f129b3c	0.5726812
196	0x3f222a8c	0.6334617
197	0x3f45eb95	0.77312595
198	0x3f1956f5	0.5989831
199	0x3f3c580a	0.73571837
200	0x3f4b1494	0.79328275
201	0x3f107aff	0.5643768
202	0x3f2f485e	0.684698
203	0x3f061e10	0.5238962
204	0x3f43744d	0.76349336
205	0x3f0f44e6	0.55964506
206	0x3f1c6f69	0.611075
207	0x3f37b533	0.71760863
208	0x3f277050	0.6540575
209	0x3f382daf	0.7194471
210	0x3f169762	0.5882474
211	0x3f20c717	0.62803787
212	0x3f11a325	0.56889564
213	0x3f4cc8c5	0.7999385
214	0x3f4a18e9	0.7894426
215	0x3f0f5393	0.559869
216	0x3f49e755	0.7886861
217	0x3f480c4d	0.7814377
218	0x3f14980e	0.5804452
219	0x3f18799f	0.5956058
220	0x3f411895	0.75428134
221	0x3f147f7a	0.58007014
222	0x3f76cf69	0.9641023
223	0x3f3e6b45	0.7438243
224	0x3f26677c	0.65001655
225	0x3efd0a19	0.49421766
226	0x3f349aae	0.7054852
227	0x3f18b00c	0.59643626
228	0x3f14ed1b	0.58174294
229	0x3f24bc82	0.6435014
230	0x3f1398ff	0.5765533
231	0x3f070583	0.52742785
232	0x3f19f69f	0.6014194
233	0x3f2ad122	0.6672536
234	0x3f36becb	0.71384877
235	0x3f5ec5f3	0.87020797
236	0x3f36c0f9	0.713882
237	0x3f4d3a17	0.80166763
238	0x3f224f4a	0.63402236
239	0x3f11d9cd	0.5697296
240	0x3f0c80d4	0.54884076
241	0x3f116a30	0.56802654
242	0x3f2550c7	0.6457638
243	0x3f127aed	0.5721882
244	0x3f604ef5	0.8762048
245	0x3f224475	0.6338571
246	0x3f4f42f0	0.80961514
247	0x3f17471d	0.59092885
248	0x3f31330b	0.6921851
249	0x3f09a9b0	0.5377455
250	0x3f48b405	0.7839969
251	0x3f4e4fd3	0.8059055
252	0x3f2bf1dd	0.6716593
253	0x3f132c7f	0.5748977
254	0x3f1a6cc7	0.6032223
255	0x3f36961b	0.7132279

clf_net.1.bias f4 [256]
0	0x3f8b45b8	1.0880651
1	0x3f7502e1	0.9570752
2	0x3f82caa1	1.0218087
3	0x3f92c24e	1.1465547
4	0x3f8826ae	1.0636804
5	0x3f99e293	1.202227
6	0x3f8947fd	1.0725094
7	0x3f9b213d	1.2119519
8	0x3f864f01	1.049286
9	0x3f78b6e3	0.97154063
10	0x3f7ee39d	0.9956606
11	0x3f901799	1.1257201
12	0x3f67fd90	0.9062128
13	0x3f8b4f80	1.0883636
14	0x3f921bdf	1.1414756
15	0x3f847de6	1.0350921
16	0x3f6d8883	0.92786425
17	0x3f9bad43	1.216225
18	0x3f97acf1	1.1849653
19	0x3f88f315	1.0699183
20	0x3f8cbb87	1.0994729
21	0x3f939b7d	1.1531826
22	0x3f8154cb	1.0104002
23	0x3f97344c	1.1812835
24	0x3f4945cd	0.7862213
25	0x3f7dd61d	0.99154836
26	0x3f857bdf	1.0428427
27	0x3f564c6d	0.83710366
28	0x3fad51a1	1.3540536
29	0x3f872676	1.0558612
30	0x3f72a658	0.9478507
31	0x3f72a1f9	0.947784
32	0x3f6a11b5	0.9143327
33	0x3f8cd1b8	1.1001501
34	0x3f8fd4f2	1.1236861
35	0x3f841578	1.0319052
36	0x3f9bf3de	1.2183797
37	0x3f81abe8	1.0130587
38	0x3f8f59a8	1.1199236
39	0x3f862f41	1.0483171
40	0x3f9e8797	1.2385129
41	0x3f740789	0.95324
42	0x3fa0e8fc	1.2571101
43	0x3f4f5564	0.8098967
44	0x3f8d2c3b	1.1029123
45	0x3f8baf2f	1.0912837
46	0x3f967b0c	1.1756301
47	0x3f79e713	0.97618216
48	0x3f9a5740	1.2057877
49	0x3f7aa619	0.97909695
50	0x3f8dbb5c	1.1072803
51	0x3f989534	1.1920533
52	0x3f9a4710	1.2052937
53	0x3f8910f5	1.07083
54	0x3f8d089e	1.1018255
55	0x3f802e7f	1.001419
56	0x3f9eed08	1.2416086
57	0x3f946e89	1.1596233
58	0x3f5bd0d5	0.8586553
59	0x3f8961fb	1.0733026
60	0x3f8304b3	1.0235809
61	0x3f6d20ac	0.9262798
62	0x3f95a865	1.1692015
63	0x3f8ba26b	1.0908941
64	0x3f684ca2	0.9074193
65	0x3f85d8f4	1.0456834
66	0x3f819b8c	1.0125594
67	0x3f9c0a17	1.2190579
68	0x3f7fb7ab	0.9988963
69	0x3f47cd92	0.7804805
70	0x3f948b3b	1.160499
71	0x3f9bbbdd	1.2166706
72	0x3f8cdd4a	1.1005032
73	0x3f8f96e8	1.1217928
74	0x3f857c34	1.0428529
75	0x3fa9aac4	1.3255239
76	0x3f9731b6	1.1812046
77	0x3f89fee2	1.0780909
78	0x3f83d991	1.0300771
79	0x3f846b34	1.0345216
80	0x3f874ff6	1.0571277
81	0x3f93564a	1.1510708
82	0x3f920303	1.1407169
83	0x3f90bc32	1.1307433
84	0x3f932e5c	1.1498523
85	0x3f86ad1e	1.0521581
86	0x3f96b0de	1.1772726
87	0x3f8033eb	1.0015844
88	0x3f867006	1.0502937
89	0x3f8b65f2	1.0890486
90	0x3f8dd975	1.1081988
91	0x3f8f7ea5	1.1210524
92	0x3f8ae310	1.0850544
93	0x3fa6b652	1.302439
94	0x3f93b24d	1.1538788
95	0x3f8ba7e7	1.0910615
96	0x3f95d988	1.170701
97	0x3f964b17	1.1741666
98	0x3f9ded16	1.2337978
99	0x3f906d75	1.1283404
100	0x3f97f23c	1.1870799
101	0x3f810903	1.0080875
102	0x3f945ec1	1.1591417
103	0x3f91ea37	1.1399602
104	0x3f8a5b31	1.080908
105	0x3f7b3de3	0.98141307
106	0x3f8d24b0	1.1026821
107	0x3f818bb3	1.0120758
108	0x3f5727f1	0.8404532
109	0x3f93160f	1.1491107
110	0x3f6873dd	0.90801793
111	0x3f8f339e	1.1187627
112	0x3fa1c4ef	1.2638224
113	0x3f825351	1.0181676
114	0x3f79a969	0.97524124
115	0x3f6ca71c	0.9244249
116	0x3f8fac49	1.1224452
117	0x3fa64a9d	1.299152
118	0x3f70beac	0.9404094
119	0x3fa384b1	1.2774869
120	0x3f972e40	1.1810989
121	0x3f86bc16	1.0526149
122	0x3f93960e	1.1530168
123	0x3f8f2b6b	1.1185125
124	0x3f98afb4	1.192862
125	0x3fa0ac10	1.2552509
126	0x3f87a8ce	1.059839
127	0x3f948eca	1.1606076
128	0x3f7f25d6	0.9966711
129	0x3f8be1c7	1.0928277
130	0x3f8578a3	1.042744
131	0x3f8b6ae1	1.0891992
132	0x3f5eef9e	0.87084377
133	0x3f848669	1.0353519
134	0x3f8752d0	1.0572147
135	0x3f93263c	1.1496043
136	0x3f8b73a1	1.0894662
137	0x3f8beb5c	1.0931201
138	0x3f87efa7	1.0620011
139	0x3f67994b	0.9046828
140	0x3f886db7	1.0658482
141	0x3f8d8107	1.1055001
142	0x3f95771a	1.1676972
143	0x3f85f918	1.0466642
144	0x3f5fcf03	0.8742525
145	0x3f8181e2	1.0117762
146	0x3f8724e9	1.0558139
147	0x3f84a075	1.0361468
148	0x3f8bd19f	1.0923346
149	0x3fa1c2c0	1.2637558
150	0x3f892767	1.071515
151	0x3f9f4af2	1.2444746
152	0x3f691991	0.91054636
153	0x3f715ad6	0.9427923
154	0x3f7977e8	0.9744859
155	0x3f8cd634	1.100287
156	0x3f8a02f4	1.0782151
157	0x3f98795b	1.1912035
158	0x3f92b28b	1.1460737
159	0x3f39a838	0.72522306
160	0x3f9953d6	1.197871
161	0x3f8b2c7e	1.0872953
162	0x3f8d45a3	1.1036876
163	0x3f91f401	1.1402589
164	0x3f97030d	1.1797806
165	0x3f704c5c	0.93866515
166	0x3f8042c2	1.0020373
167	0x3f6707f2	0.902465
168	0x3f73ac4e	0.9518479
169	0x3f74cbba	0.9562336
170	0x3f6bf52e	0.9217099
171	0x3f8f6633	1.1203064
172	0x3f97116b	1.180219
173	0x3f9073e8	1.1285372
174	0x3f98555e	1.1901052
175	0x3f8dbdca	1.1073544
176	0x3f985c31	1.1903135
177	0x3f65afdd	0.8972147
178	0x3f86894c	1.051065
179	0x3f6a1f90	0.9145441
180	0x3f959189	1.1685039
181	0x3f98ccd0	1.1937504
182	0x3f8f6ddc	1.1205401
183	0x3f8e110e	1.1098955
184	0x3f9385e1	1.1525232
185	0x3f939e1a	1.1532624
186	0x3f8ea477	1.1143941
187	0x3f808fa5	1.0043837
188	0x3f902be6	1.1263397
189	0x3f955ef4	1.1669602
190	0x3f916b55	1.136088
191	0x3f83259e	1.0245855
192	0x3fa43eb9	1.2831641
193	0x3f99050d	1.1954666
194	0x3f8a5f8c	1.0810409
195	0x3f92632a	1.1436512
196	0x3f9c56c6	1.2213981
197	0x3f737c36	0.95111406
198	0x3f949ddc	1.1610675
199	0x3f71c56e	0.9444188
200	0x3f729ca2	0.9477025
201	0x3f90a26c	1.1299567
202	0x3f80a2b3	1.0049652
203	0x3f8624ea	1.0480015
204	0x3f950bc2	1.1644213
205	0x3f8f482c	1.11939
206	0x3f8f5983	1.1199192
207	0x3f98a54d	1.1925446
208	0x3f915504	1.135407
209	0x3f93dcd1	1.1551763
210	0x3f9494a4	1.1607862
211	0x3f8bc615	1.0919825
212	0x3f91d4ae	1.139303
213	0x3f80009a	1.0000184
214	0x3f83fc18	1.0311308
215	0x3f89cbdb	1.0765337
216	0x3f978a4c	1.183908
217	0x3f4dfeb5	0.8046678
218	0x3f93db6a	1.1551335
219	0x3f969114	1.1763024
220	0x3f6fbaa9	0.93644196
221	0x3f948c64	1.1605344
222	0x3f65a8c7	0.8971066
223	0x3f7621be	0.96145236
224	0x3f9af01a	1.2104523
225	0x3f7c9965	0.9867156
226	0x3f9be309	1.2178661
227	0x3f93556f	1.1510447
228	0x3f78e628	0.9722619
229	0x3f8f74a2	1.1207469
230	0x3f933e88	1.1503458
231	0x3f86b6f9	1.0524589
232	0x3f901486	1.1256263
233	0x3f9261c6	1.1436088
234	0x3f6396ea	0.8890215
235	0x3f8f4c3d	1.1195141
236	0x3f8717a8	1.0554094
237	0x3f6fb61a	0.9363724
238	0x3f84d954	1.0378823
239	0x3f90ea24	1.1321454
240	0x3f8c87df	1.0978965
241	0x3f870e4b	1.0551237
242	0x3f9b0c9f	1.2113227
243	0x3f9261bc	1.1436076
244	0x3f90f00a	1.1323254
245	0x3f99c0ee	1.2012002
246	0x3f822abe	1.0169294
247	0x3f93f9f5	1.1560656
248	0x3f6486e6	0.8926834
249	0x3f84555c	1.033855
250	0x3f57ea70	0.843421
251	0x3f8a9044	1.0825276
252	0x3f9a8d67	1.2074403
253	0x3f93ce54	1.1547341
254	0x3f92d86c	1.1472297
255	0x3fa17a86	1.2615516

clf_net.1.running_mean f4 [256]
0	0xbd60ca33	-0.054880332
1	0xbf24894d	-0.64272004
2	0xbe0e5344	-0.13898951
3	0xbe8f6234	-0.2800461
4	0xbf1bb1a4	-0.60817933
5	0xbe4098e7	-0.18808328
6	0xbea8b48e	-0.32950252
7	0xbea73908	-0.326607
8	0xbe4be429	-0.19911255
9	0xbf0fa0f8	-0.56104994
10	0xbe4df175	-0.2011164
11	0xbe00b9b7	-0.12570845
12	0xbee06f42	-0.43834883
13	0xbf4f76be	-0.8104056
14	0xbee16e42	-0.44029433
15	0xbf12d594	-0.57357144
16	0xbe9ac714	-0.3023001
17	0xbdbe3461	-0.09287334
18	0xbf12e888	-0.57386065
19	0xbe3f42ad	-0.18677779
20	0xbf16a98a	-0.58852446
21	0xbeb58719	-0.35454634
22	0xbf37f5d9	-0.7185951
23	0xbee861fc	-0.45387256
24	0x3e141514	0.14461166
25	0xbf4dbce5	-0.80366355
26	0xbee9ce0f	-0.45665023
27	0xbe8aac74	-0.27084696
28	0xbefc14d9	-0.49234655
29	0x3db9baa1	0.090688
30	0xbbc3f961	-0.005980656
31	0xbd8e9110	-0.06961262
32	0x3e378a2c	0.17923802
33	0xbeb159ac	-0.34638727
34	0xbeb4cc1a	-0.35311967
35	0xbf109f88	-0.56493425
36	0xbeb918fd	-0.36151877
37	0xbe685b87	-0.22691165
38	0xbf01cb25	-0.507006
39	0xbe9d696e	-0.307445
40	0x3e81217f	0.25220868
41	0xbe8603b2	-0.26174694
42	0xbe9883d2	-0.2978807
43	0xbf01de4b	-0.5072982
44	0xbea47f1d	-0.3212823
45	0x3dace83d	0.084427334
46	0xbe12d272	-0.14338091
47	0xbf0bd2f3	-0.5461876
48	0xbf1a4661	-0.6026364
49	0xbe3fd1fa	-0.18732443
50	0xbe05d8f7	-0.13071047
51	0x3ea459f3	0.32099876
52	0x3d0b9dce	0.03408604
53	0x3d3a16f0	0.04543203
54	0xbe2329ab	-0.15933864
55	0xbec1a043	-0.37817582
56	0xbefbba79	-0.49165705
57	0xbe1b8d79	-0.15190686
58	0xbe6d66e2	-0.23183778
59	0xbf1ed88e	-0.62049186
60	0xbeb3bb53	-0.35103855
61	0x3e9b2016	0.30297917
62	0xbe9a6235	-0.3015305
63	0xbea8f317	-0.32997963
64	0xbf5b7a94	-0.85733914
65	0xbf1151af	-0.56765264
66	0x3e6edbdd	0.23326059
67	0xbee4f0fc	-0.44715106
68	0x3e36ce2f	0.1785209
69	0xbc378a8c	-0.011202466
70	0xbe956505	-0.29178634
71	0xbcf43ee1	-0.02981514
72	0xbf0af964	-0.5428679
73	0x3e6132bb	0.21992008
74	0xbf056551	-0.5210772
75	0xbf1cd1df	-0.6125774
76	0xbed5e581	-0.4177666
77	0xbec9f388	-0.39443612
78	0xbf3d9bb7	-0.74065727
79	0xbf502b44	-0.8131602
80	0xbf1718ac	-0.5902202
81	0xbec05e69	-0.3757203
82	0xbdbef54e	-0.09324132
83	0x3cbc8a91	0.023015292
84	0x3e50e418	0.20399511
85	0xbf5c5e4d	-0.8608139
86	0xbe9f0bc8	-0.31063676
87	0xbebf19ac	-0.37324274
88	0xbf3c0201	-0.7344056
89	0xbee8ef2f	-0.45494983
90	0x3d700142	0.05859495
91	0xbe01299b	-0.12613527
92	0xbf00babd	-0.5028494
93	0xbe9e4cb8	-0.30917907
94	0xbf07cc79	-0.53046376
95	0xbf096e4f	-0.5368394
96	0xbd89cb3c	-0.06728217
97	0xbee587dc	-0.44830215
98	0xbe68abf4	-0.22721845
99	0xbe21f6fa	-0.1581687
100	0xbf0fa055	-0.5610402
101	0x3d1f3e42	0.038877733
102	0xbe8a8aa5	-0.27058902
103	0xbe0878eb	-0.13327377
104	0xbeccc8d4	-0.3999697
105	0xbe3ce8b5	-0.18448146
106	0xbe7635d3	-0.2404397
107	0xbe25fc07	-0.16209422
108	0xbea8160d	-0.32829323
109	0xbe6f7f19	-0.23388328
110	0x3e1c6a40	0.15274906
111	0xbe2fb113	-0.17157392
112	0xbf0f4892	-0.5597011
113	0xbdbbe662	-0.091748014
114	0xbf23d8c0	-0.6400261
115	0x3ca79008	0.020454422
116	0xbd645240	-0.055742502
117	0xbe5bb82c	-0.21456975
118	0xbe6a8d4e	-0.22905466
119	0xbed1e842	-0.4099751
120	0x3e37b26a	0.17939153
121	0xbdbcd6df	-0.09220671
122	0x3d4e63cc	0.050388142
123	0xbd1a19f2	-0.0376224
124	0xbe993626	-0.29924124
125	0xbdb8046f	-0.08985221
126	0xbe4985c8	-0.1967994
127	0xbec93667	-0.39299318
128	0x3ef658ac	0.48114526
129	0xbebd6757	-0.36992905
130	0xbf107e1b	-0.5644242
131	0xbdb1c022	-0.086792246
132	0xbe749547	-0.2388507
133	0x3df1845b	0.11792823
134	0xbf5ed7f5	-0.87048274
135	0xbe67ec72	-0.2264879
136	0xbd6619a8	-0.05617681
137	0xbe84b96c	-0.25922716
138	0xbf5867af	-0.8453321
139	0xbf187eb9	-0.59568363
140	0x3e71d8fb	0.23617928
141	0x3ea4a787	0.32159063
142	0xbf0789ff	-0.5294494
143	0xbef3a246	-0.47584742
144	0xbe10439e	-0.14088294
145	0xbf577b76	-0.8417276
146	0x3d9dd409	0.07706458
147	0xbe052248	-0.13001359
148	0xbf208f5f	-0.62718767
149	0xbe7111f1	-0.23542
150	0xbe97d9e7	-0.29658434
151	0x3cb075f3	0.021540618
152	0xbd31d85f	-0.04341924
153	0x3e066deb	0.13127868
154	0xbe6f2794	-0.23354942
155	0xbe39be93	-0.18139105
156	0xbc635e7d	-0.013877508
157	0xbe3c1ab5	-0.18369563
158	0xbf42771a	-0.75962985
159	0x3ecde3cb	0.40212855
160	0xbd88067c	-0.06641862
161	0xbeea07c5	-0.45709053
162	0xbee591e3	-0.44837865
163	0xbeb52a2c	-0.35383737
164	0xbe8e85df	-0.2783651
165	0xbe6670ab	-0.22503917
166	0xbeb2e129	-0.3493741
167	0xbf1af4c7	-0.6052975
168	0xbf2ddfcb	-0.67919606
169	0x3dfbbb12	0.1229154
170	0x3e509e31	0.20372845
171	0xbdd81e62	-0.1055267
172	0xbed634a7	-0.41837046
173	0x3e2d1629	0.16902985
174	0xbf194cac	-0.59882617
175	0xbe90b39e	-0.28262037
176	0xbe9db663	-0.30803213
177	0xbf00d958	-0.5033164
178	0xbf371c77	-0.7152781
179	0xbe08a4ae	-0.1334407
180	0xbf1df9a0	-0.6170902
181	0x3d55ef2e	0.052230053
182	0x3e28361a	0.16426888
183	0xbece5eaf	-0.40306613
184	0xbf42e221	-0.76126295
185	0xbeb790fb	-0.358528
186	0xbdd8ab71	-0.10579575
187	0xbf4190b4	-0.75611424
188	0xbefbe977	-0.49201557
189	0xbe0352b2	-0.12824515
190	0xbee553fd	-0.4479064
191	0xbf21aaac	-0.6315105
192	0x3e6490be	0.2232084
193	0xbeea9302	-0.45815283
194	0xbf0b0258	-0.5430045
195	0xbf36f697	-0.71470016
196	0xbe9f7907	-0.31147024
197	0xbed40b81	-0.41415027
198	0xbe4fb74a	-0.20284763
199	0xbd9692fb	-0.07352253
200	0x3cd86b00	0.02641821
201	0xbea3bdb1	-0.3198066
202	0xbee39d95	-0.44456163
203	0xbefc1147	-0.49231932
204	0xbe67212c	-0.22571248
205	0x3d7d6214	0.061861113
206	0xbe0c20e2	-0.13684419
207	0xbef19cc4	-0.47189915
208	0xbf2fd5c1	-0.6868554
209	0xbe303913	-0.17209272
210	0xbf07293c	-0.52797294
211	0xbf137457	-0.57599396
212	0xbf4356dd	-0.7630442
213	0x3e9aaff0	0.30212355
214	0xbe94be78	-0.29051566
215	0xbe5ce23e	-0.2157068
216	0xbe1eb8ea	-0.15500227
217	0xbf09deb8	-0.53855467
218	0x3e12a4a7	0.14320622
219	0xbefebe8d	-0.49754754
220	0xbf0523bd	-0.5200766
221	0xbe9df152	-0.30848175
222	0xbf254fb0	-0.6457472
223	0xbee0e29a	-0.43922883
224	0x3e9cfc1e	0.306611
225	0xbe9cb9c3	-0.30610475
226	0xbded4674	-0.115857035
227	0x3dbb5212	0.09146513
228	0xbe9ae1dc	-0.30250442
229	0xbedba624	-0.42900193
230	0xbda35f99	-0.07977218
231	0xbdecc742	-0.11561443
232	0xbefc7d11	-0.49314168
233	0xbed97d80	-0.4247856
234	0x3d499038	0.049209803
235	0x3c40df59	0.011772
236	0xbef38e5d	-0.47569552
237	0xbede60a0	-0.43433094
238	0xbe46ba2a	-0.19406953
239	0xbf06d8c4	-0.5267451
240	0x3e307aab	0.17234294
241	0xbd53163b	-0.051534873
242	0xbed2cfaf	-0.41174075
243	0xbe15e37e	-0.14637563
244	0xbf118d35	-0.5685609
245	0xbe194267	-0.14966737
246	0xbf0aefc8	-0.5427213
247	0xbe268a6b	-0.1626374
248	0xbe8d72fb	-0.27626786
249	0x3e79849b	0.24366991
250	0xbe24443d	-0.16041656
251	0xbf131a5c	-0.57462096
252	0xbe6a1967	-0.22861253
253	0xbeefefc3	-0.4686261
254	0xbf001140	-0.5002632
255	0x3e761162	0.24030069

clf_net.1.running_var f4 [256]
0	0x3dc342b9	0.09534211
1	0x3e876d9b	0.2645081
2	0x3f830ed8	1.0238905
3	0x3e837da8	0.25681806
4	0x3e68de7b	0.2274112
5	0x3f4898d9	0.78358227
6	0x3e0a2b4e	0.13493082
7	0x3ef9a89a	0.48761445
8	0x3ec74cb3	0.38925704
9	0x3d879aeb	0.06621345
10	0x3ee2d32e	0.44301742
11	0x3e742fc9	0.23846354
12	0x3e84be5c	0.25926483
13	0x3f0af422	0.5427877
14	0x3f62ff90	0.8867121
15	0x3e663e88	0.22484791
16	0x3d88f605	0.066875495
17	0x3f01c0ef	0.5068502
18	0x3e753d84	0.23949248
19	0x3ce14a53	0.02750126
20	0x3e4ab0f7	0.19794069
21	0x3e108c18	0.14115942
22	0x3f0028e6	0.50062406
23	0x3ea78fd9	0.32726935
24	0x3d0e541c	0.03474818
25	0x3e0e8a07	0.13919841
26	0x3edfc68b	0.43706164
27	0x3e0319fc	0.12802881
28	0x3dfbf528	0.12302619
29	0x3eeba801	0.46026614
30	0x3df4267b	0.11921402
31	0x3e1ad257	0.15119301
32	0x3de34a7c	0.11098191
33	0x3e8c6e8a	0.27428085
34	0x3e877f72	0.2646442
35	0x3e846562	0.258586
36	0x3ececaf8	0.40389228
37	0x3e9a024a	0.3007987
38	0x3dad7dd5	0.08471266
39	0x3e3500fc	0.17676157
40	0x3dd8ade3	0.10580041
41	0x3c7b46bd	0.01533669
42	0x3e1b1c1c	0.15147442
43	0x3f6e85a3	0.93172663
44	0x401909e3	2.3912284
45	0x3e393c14	0.18089324
46	0x3ed59bfc	0.4172057
47	0x3e0526c4	0.13003069
48	0x3e63fe50	0.22264981
49	0x3da68791	0.08131326
50	0x3e6066ae	0.21914169
51	0x3db0e55f	0.08637499
52	0x3e2a0abb	0.16605656
53	0x3f111af3	0.56681746
54	0x3ee83942	0.45356184
55	0x3e058dcf	0.13042377
56	0x3de60937	0.11232226
57	0x3e6822e2	0.22669557
58	0x3e7d0740	0.24709797
59	0x3e949668	0.29021
60	0x3ef8c3f6	0.48587006
61	0x3e984d1d	0.29746333
62	0x3d37d589	0.044881377
63	0x3f30a3f9	0.690002
64	0x3f297b3b	0.6620366
65	0x3ed9fa44	0.4257375
66	0x3e9524cb	0.29129633
67	0x3ed9b9fd	0.4252471
68	0x3e987d3f	0.29783055
69	0x3f106339	0.564014
70	0x3f054fa1	0.5207463
71	0x3d84a494	0.06476703
72	0x3e4fff86	0.20312318
73	0x3e5b7b76	0.21433815
74	0x3d12fa73	0.03588338
75	0x3e21f9a8	0.15817893
76	0x3e36ecfa	0.17863837
77	0x3e2802f6	0.1640738
78	0x3e77a59c	0.24184269
79	0x3f0a690d	0.54066545
80	0x3e26a4a9	0.1627375
81	0x3ce2c143	0.027680045
82	0x3e65e60d	0.22451039
83	0x3ea72a42	0.32649428
84	0x3fe46e6e	1.78462
85	0x3f997b0e	1.1990678
86	0x3eee7908	0.46576715
87	0x3e715d7a	0.23570815
88	0x3ed84cf7	0.4224622
89	0x3fae8673	1.3634781
90	0x3e8e1974	0.27753794
91	0x3d945472	0.07242669
92	0x3ea432b6	0.3206994
93	0x3d5c88e9	0.053841505
94	0x3d986899	0.074418254
95	0x3e0b5303	0.13605885
96	0x3f328e1b	0.69748086
97	0x3dafc029	0.085815735
98	0x3f5cce27	0.86252064
99	0x3ea4bee5	0.3217689
100	0x3e38b0e9	0.18036236
101	0x3e51f11c	0.20502132
102	0x3e864903	0.2622758
103	0x3fa06551	1.2530919
104	0x3f5a615e	0.8530482
105	0x3dc90658	0.09815663
106	0x3fcd67b6	1.6047275
107	0x3ec38e60	0.3819456
108	0x3dc6976e	0.09696852
109	0x3f2c5070	0.6731024
110	0x3eab92a0	0.33510303
111	0x3d38bb05	0.04510023
112	0x3e81eff0	0.2537837
113	0x3d81fe3a	0.06347318
114	0x3e47a8f0	0.19498038
115	0x3e0968d7	0.134189
116	0x3e3b0635	0.18264087
117	0x3d074c4b	0.033031743
118	0x3d9d73a8	0.07688075
119	0x3d9cca60	0.076557875
120	0x3ea9abae	0.33138794
121	0x3f1af2b0	0.6052656
122	0x3ec21f84	0.3791467
123	0x3db8fffe	0.09033202
124	0x3f99b542	1.200844
125	0x3dd31833	0.1030735
126	0x3e60780e	0.21920797
127	0x3e9d3883	0.30707178
128	0x3df61a87	0.120167784
129	0x3ec4f917	0.3847129
130	0x3ecb4b94	0.397061
131	0x3e98e5a9	0.29862717
132	0x3e0f9954	0.14023334
133	0x3dba3e9b	0.09093972
134	0x3f164626	0.5870079
135	0x3e11586b	0.14193885
136	0x3eb9d358	0.36294055
137	0x3eac7f64	0.3369094
138	0x3edb00c7	0.4277403
139	0x3dee4600	0.11634445
140	0x3f23c694	0.6397488
141	0x3e1a3d97	0.15062557
142	0x3e8ef0c3	0.27918062
143	0x3dba0107	0.09082227
144	0x3e3d2ec8	0.18474877
145	0x3f62d6fc	0.8860929
146	0x3e82d922	0.25556284
147	0x3ed70e17	0.42002937
148	0x3ed4c86a	0.41559154
149	0x3ee65679	0.44987848
150	0x3eddbb42	0.4330693
151	0x3e3aeb38	0.18253791
152	0x3f6dba7f	0.92862695
153	0x3dd9b5e8	0.10630399
154	0x3df6d4ed	0.12052331
155	0x3e8fdc58	0.28097796
156	0x3f3a984c	0.72888637
157	0x3ece98e3	0.40351018
158	0x3e5ecc8a	0.21757713
159	0x3e2a6a82	0.16642192
160	0x3ec67986	0.3876459
161	0x3e20f744	0.15719324
162	0x3dde0247	0.10840278
163	0x3f427453	0.75958747
164	0x3f9b5e6e	1.2138193
165	0x3ebd4ee7	0.3697426
166	0x3e747c3e	0.2387552
167	0x3dd1cead	0.102444984
168	0x3e51c26c	0.20484322
169	0x3d6ee452	0.058323212
170	0x3dcb57ba	0.09928842
171	0x3de261bb	0.11053797
172	0x3f0bf4c9	0.5467039
173	0x3e3d682d	0.18496771
174	0x3f8042fd	1.0020443
175	0x3e333d60	0.17503881
176	0x3ef2e724	0.4744197
177	0x3eeb6a15	0.45979372
178	0x3eb9801b	0.3623055
179	0x3e116421	0.14198352
180	0x3eda7667	0.4266846
181	0x3e90ccdc	0.28281295
182	0x3e7dd871	0.24789597
183	0x3ee3637e	0.44411844
184	0x3e2bdf5f	0.16784428
185	0x3dc549c2	0.09633209
186	0x3ecdba3d	0.4018115
187	0x3f2b9ab6	0.67032945
188	0x3d2055d7	0.039144363
189	0x3eafbff5	0.3432614
190	0x3ea40f47	0.32042906
191	0x3f0aa099	0.541513
192	0x3de04d77	0.10952275
193	0x3ed838f2	0.42230946
194	0x3db82bd0	0.089927316
195	0x3f046e52	0.51730835
196	0x3e82a7bf	0.25518605
197	0x3e9c7088	0.30554605
198	0x3e780b8c	0.24223155
199	0x3ea349f0	0.31892347
200	0x3e7a4396	0.24439844
201	0x3fad97e9	1.3561984
202	0x3f2130a6	0.62964857
203	0x3f73e19b	0.9526612
204	0x3e7e231a	0.24818078
205	0x3ec7c245	0.39015403
206	0x3e6b3778	0.22970378
207	0x3dfd399a	0.12364502
208	0x3e334af8	0.17509067
209	0x3ea18f0d	0.31554452
210	0x3e83459e	0.2563905
211	0x3e09c51e	0.134541
212	0x3ef527e4	0.47881997
213	0x3e49f492	0.19722202
214	0x3e38d5fb	0.18050377
215	0x3e628035	0.2211922
216	0x3f52ba10	0.8231516
217	0x3e981823	0.29705915
218	0x3efdb434	0.49551547
219	0x3dd0bd92	0.10192408
220	0x3e745614	0.23860961
221	0x3f16ab2f	0.58854955
222	0x3f96a5ee	1.1769388
223	0x3e86a08a	0.26294357
224	0x3e91fbd0	0.2851243
225	0x3f041c61	0.516058
226	0x3e0e3df8	0.13890827
227	0x3e3902fe	0.18067548
228	0x3f9eaa9d	1.2395817
229	0x3dc5419b	0.09631654
230	0x3ea7e9e2	0.32795626
231	0x3f03d24f	0.5149278
232	0x3eb04c59	0.3443325
233	0x3f23f460	0.6404476
234	0x3d8d8fe8	0.069122136
235	0x3d227047	0.039657857
236	0x3e547307	0.20747004
237	0x3e3ce7db	0.18447821
238	0x3e932130	0.28736258
239	0x3ebaf9e6	0.36518782
240	0x3e5d274b	0.2159702
241	0x3e364832	0.17800978
242	0x3ee49b90	0.44649935
243	0x3f7f71cb	0.9978301
244	0x3f28d563	0.659506
245	0x3eac781c	0.33685386
246	0x3d90428f	0.07043945
247	0x3e6de5b2	0.23232153
248	0x3e5e70f0	0.2172277
249	0x3e06a827	0.13150083
250	0x3e8967e2	0.2683707
251	0x3f337e9c	0.70115066
252	0x3f838e7e	1.027786
253	0x3e6e3a74	0.23264486
254	0x3da835e0	0.08213401
255	0x3e1e262f	0.15444253

clf_net.3.weight f4 [1, 256]
0	0x3e1da456	0.1539472
1	0x3e4245c5	0.18971927
2	0x3e74638e	0.23866102
3	0x3e7abf0b	0.2448694
4	0x3e595a4c	0.21225852
5	0x3e85ed37	0.26157543
6	0x3e600e4c	0.21880454
7	0x3e8250fa	0.25452405
8	0x3e931337	0.28725597
9	0x3e88e394	0.26736128
10	0x3ea259df	0.3170919
11	0x3e8aa71d	0.27080622
12	0x3e285c2e	0.16441414
13	0x3e837386	0.25674075
14	0x3e835f05	0.25658432
15	0x3e2b377d	0.16720386
16	0x3ea2c4a9	0.31790665
17	0x3e8b052d	0.27152386
18	0x3e6644bc	0.22487158
19	0x3e4e7f6b	0.20165794
20	0x3e4e0315	0.20118363
21	0x3e5d9280	0.21637917
22	0x3e76eb99	0.24113311
23	0x3e5dae38	0.2164849
24	0x3e1bb391	0.15205218
25	0x3e808179	0.2509878
26	0x3e31c193	0.17358999
27	0x3e546525	0.20741709
28	0x3eae0f06	0.33995837
29	0x3e6aeacc	0.2294113
30	0x3e884476	0.26614732
31	0x3e4cdd34	0.20006257
32	0x3e3bd033	0.1834114
33	0x3ead093d	0.3379611
34	0x3e8bd20b	0.27308688
35	0x3e6a7e22	0.22899678
36	0x3e75c2ac	0.24000043
37	0x3e4826df	0.19546078
38	0x3e3aa863	0.18228297
39	0x3e6d08b8	0.23147857
40	0x3e8fd521	0.28092292
41	0x3e3a4ecf	0.18194126
42	0x3ea4132c	0.32045877
43	0x3e6708bc	0.22561926
44	0x3e81e8a9	0.25372818
45	0x3e831673	0.25603065
46	0x3e7012bf	0.23444651
47	0x3ea88bd6	0.32919186
48	0x3ea5fbda	0.3241871
49	0x3e7309af	0.23734163
50	0x3ea1bbdc	0.31588638
51	0x3e806564	0.25077355
52	0x3ebfb595	0.37443224
53	0x3e73db14	0.2381404
54	0x3e6585a1	0.22414257
55	0x3e8bd1d7	0.27308533
56	0x3eb1fb20	0.34761906
57	0x3e89c3ab	0.26907095
58	0x3e50fc2a	0.20408693
59	0x3e576831	0.2103584
60	0x3e7aaa0c	0.2447893
61	0x3e6ce7d6	0.23135313
62	0x3e9bdcff	0.30442044
63	0x3e8b9a69	0.27266243
64	0x3e645be4	0.22300678
65	0x3e6b9d02	0.23009112
66	0x3e205cc8	0.15660393
67	0x3eab3eb5	0.3344628
68	0x3e53d286	0.20685777
69	0x3e954b54	0.29159033
70	0x3e94b27a	0.29042417
71	0x3ea0e4c5	0.31424537
72	0x3e73e663	0.23818354
73	0x3e711a42	0.23545173
74	0x3e9a0b2e	0.30086654
75	0x3eedf785	0.46477905
76	0x3e98b9dc	0.298293
77	0x3e4c21c2	0.19934753
78	0x3e52b7ea	0.2057797
79	0x3e6ee7fa	0.2333068
80	0x3e2d9297	0.16950451
81	0x3e8a107a	0.26965696
82	0x3e97e81c	0.29669273
83	0x3e81a258	0.2531917
84	0x3e86370c	0.26213872
85	0x3e5d45d9	0.21608676
86	0x3e8c75e0	0.2743368
87	0x3e6fcae1	0.23417236
88	0x3e61b53b	0.2204179
89	0x3e89b7ca	0.26898032
90	0x3e3a352c	0.18184346
91	0x3e28bfdd	0.1647944
92	0x3e80856f	0.25101802
93	0x3e9d796c	0.307567
94	0x3ea041eb	0.3130029
95	0x3e6769a2	0.2259889
96	0x3e97f8ee	0.29682106
97	0x3ea06d06	0.31333178
98	0x3e9900d9	0.2988346
99	0x3e53cb43	0.20683007
100	0x3e6dcdad	0.2322299
101	0x3e78c0c9	0.24292292
102	0x3e95e220	0.29274082
103	0x3e795489	0.24348654
104	0x3e7cdc07	0.24693309
105	0x3e92ab0f	0.28646132
106	0x3e756c36	0.2396706
107	0x3e89705d	0.2684354
108	0x3e30aa9d	0.17252584
109	0x3e8ff2c6	0.2811491
110	0x3e4be743	0.19912438
111	0x3eab4c32	0.3345657
112	0x3ec62e6c	0.38707292
113	0x3e9488b4	0.29010546
114	0x3e8fa9b0	0.2805915
115	0x3e681572	0.2266443
116	0x3e7f53bd	0.24934287
117	0x3ebd2d66	0.369487
118	0x3e5bc26c	0.21460885
119	0x3eb92897	0.3616378
120	0x3e94abcd	0.29037324
121	0x3e88c81b	0.26715168
122	0x3e7dc9ff	0.24784087
123	0x3e6e260a	0.23256698
124	0x3e8696d5	0.2628695
125	0x3e85ddea	0.2614587
126	0x3ea2448e	0.31692928
127	0x3e732c15	0.23747285
128	0x3e9b8826	0.3037731
129	0x3e6b2b73	0.22965793
130	0x3e364e80	0.17803383
131	0x3e80f4e2	0.2518683
132	0x3e301c1e	0.17198226
133	0x3e838576	0.2568776
134	0x3e82471e	0.25444883
135	0x3e82d6c2	0.25554472
136	0x3e82b043	0.25525102
137	0x3e69eed6	0.22845015
138	0x3e445463	0.19172816
139	0x3e8eabec	0.2786554
140	0x3e8b1254	0.2716242
141	0x3e9a4f8d	0.30138817
142	0x3e82b620	0.25529575
143	0x3e2514a4	0.16121155
144	0x3e85918d	0.2608761
145	0x3e5902eb	0.2119252
146	0x3e251828	0.16122496
147	0x3e34d80f	0.17660545
148	0x3e625787	0.22103702
149	0x3ea3667f	0.31914136
150	0x3e89eb42	0.269373
151	0x3e88ca0d	0.26716653
152	0x3e934377	0.2876241
153	0x3dbe2e17	0.09286135
154	0x3e6e4f2f	0.23272394
155	0x3e8f8d0d	0.280373
156	0x3e91a6f3	0.28447685
157	0x3e80c571	0.25150636
158	0x3e677765	0.22604139
159	0x3e8d9001	0.2764893
160	0x3e8605c1	0.26176265
161	0x3ea0d207	0.31410238
162	0x3e8aeb08	0.2713244
163	0x3e8aea58	0.27131915
164	0x3e87b174	0.26502573
165	0x3e5f9104	0.21832663
166	0x3eaa33e0	0.33242702
167	0x3e8e606b	0.27807936
168	0x3e363589	0.1779386
169	0x3e24b59b	0.16084902
170	0x3e45c3ad	0.19312926
171	0x3e76eacb	0.24113004
172	0x3e61dcf0	0.22056937
173	0x3e95a089	0.2922404
174	0x3e802b9c	0.2503327
175	0x3e8ae383	0.27126703
176	0x3e7f6c21	0.24943592
177	0x3e940968	0.28913426
178	0x3e3cfabd	0.18455024
179	0x3e5ec310	0.21754098
180	0x3e8e1418	0.27749705
181	0x3e9e9f00	0.30980682
182	0x3e679a97	0.22617565
183	0x3e524335	0.2053345
184	0x3eaf413d	0.3422946
185	0x3e7331bc	0.23749441
186	0x3e64589a	0.22299424
187	0x3e3c7f0e	0.18407843
188	0x3e946dcb	0.28990015
189	0x3e7d6861	0.24746849
190	0x3e83ea4b	0.2576469
191	0x3e875537	0.264322
192	0x3eab26c6	0.3342802
193	0x3e7e8ec1	0.24859144
194	0x3e86b81f	0.26312348
195	0x3e805447	0.250643
196	0x3e9a18e6	0.3009712
197	0x3e52e9ae	0.20596954
198	0x3e6f0d17	0.23344837
199	0x3e90fa29	0.28315857
200	0x3e52d309	0.20588316
201	0x3e808347	0.25100157
202	0x3e2599a9	0.16171898
203	0x3e754c70	0.2395494
204	0x3e8b8d8c	0.2725643
205	0x3e8222b2	0.25417095
206	0x3e8b072f	0.27153918
207	0x3ea9d49d	0.33170024
208	0x3e9604e6	0.29300612
209	0x3e58ae9b	0.21160357
210	0x3e8f403b	0.2797869
211	0x3e56fd45	0.20995052
212	0x3e7b5243	0.24543099
213	0x3ea21355	0.31655374
214	0x3e8dc517	0.2768943
215	0x3e8cddbe	0.27512926
216	0x3e835b77	0.2565572
217	0x3e552cfc	0.20817941
218	0x3e90b28e	0.28261226
219	0x3e7ba09c	0.24572986
220	0x3e666e77	0.22503076
221	0x3e7aa774	0.24477941
222	0x3e951483	0.29117212
223	0x3e8f5f06	0.28002185
224	0x3e62dca6	0.22154483
225	0x3e68ffc4	0.22753817
226	0x3e808337	0.2510011
227	0x3e7e2c9d	0.24821706
228	0x3e64844b	0.22316091
229	0x3e84fd1c	0.25974357
230	0x3e9b5ea1	0.30345634
231	0x3e999808	0.29998803
232	0x3e83ab8a	0.2571681
233	0x3e64a19a	0.22327271
234	0x3e443fe0	0.19164991
235	0x3e844a86	0.25838107
236	0x3e90b776	0.2826497
237	0x3e873d05	0.26413742
238	0x3e63acfa	0.22233954
239	0x3e6cd9d7	0.23129974
240	0x3e7c9a5a	0.24668255
241	0x3e631481	0.2217579
242	0x3e6ba13c	0.23010725
243	0x3e882dda	0.26597482
244	0x3e85700e	0.26062053
245	0x3e8f5558	0.279948
246	0x3e5e9021	0.21734668
247	0x3e58e0a6	0.21179447
248	0x3e64bbbf	0.22337244
249	0x3e03b38d	0.12861462
250	0x3e3bec35	0.18351825
251	0x3e8e03ec	0.27737367
252	0x3e87ac85	0.2649881
253	0x3e812953	0.2522684
254	0x3e9c2591	0.3049741
255	0x3e974908	0.29547906
