EE8591/Project/regression_models/Life_Expectancy/DNN/deepnn/training_models/net_500.pt (torch, 13632 bytes, 7 tensors)

clf_net.0.weight f4 [256, 4]
000000 4a 24 6d 3e 6a e4 48 be c3 1d 21 be 01 37 d9 be
       0.23158374 -0.19618383 -0.1573401 -0.42424777
000010 36 64 ad be 3e d6 4e bd f2 1d 99 3d 53 6f 07 be
       -0.33865517 -0.050497286 0.07476415 -0.1322606
000020 c7 be b4 be d1 0d c0 bc 25 ec bc 3e 5a df b3 be
       -0.35301802 -0.023444088 0.36898914 -0.3513134
000030 8e a4 de be 78 e9 d3 bd 44 8f c2 3e d9 a1 20 3d
       -0.4348492 -0.10347265 0.37999928 0.03921685
000040 07 bb 55 be 4b e7 45 be 60 1c fa 3e e5 14 91 3e
       -0.20872127 -0.19326513 0.48849773 0.28336254
000050 0f cb 18 3f 27 c9 9a be db fa f7 bd 7c 2c fd bd
       0.5968484 -0.30231592 -0.12108394 -0.12362
000060 f0 c6 6e bd 57 44 79 be 80 32 75 bd 1e 36 71 3e
       -0.05829519 -0.24342476 -0.059862614 0.235558
000070 3b d1 3b 3e 9f 94 96 be 81 18 8b 3e 7b 0d f2 3e
       0.18341534 -0.29410264 0.27167132 0.4727591
000080 16 e0 e0 3e b7 3d 8a 3e c3 5a bf 3e e5 3a 8e be
       0.43920964 0.2700021 0.37373933 -0.27779308
000090 4d 99 6a bc 81 3f 27 be 80 85 2f bd 01 00 f6 bd
       -0.014318776 -0.16332819 -0.042851925 -0.120117195
0000a0 ea 4b 6a 3e f7 bb 3e be 64 99 b3 be 02 99 94 be
       0.22880521 -0.1862639 -0.35077965 -0.29022986
0000b0 57 34 8f be 70 69 55 be 72 11 f3 3e 7b 18 f6 bd
       -0.2796962 -0.20841002 0.47474247 -0.12016388
0000c0 d9 16 bb 3e 1c 8f 00 bf 16 6e 90 3e 39 56 fa be
       0.3654087 -0.5021837 0.2820899 -0.48893908
0000d0 65 96 d3 3d 82 e9 81 3e 75 26 e4 3e f7 0e 0a ba
       0.1033142 0.25373465 0.4456059 -0.0005266512
0000e0 cc da e7 be f9 14 c8 3e 5b 5b 73 3d 93 ff 56 be
       -0.45284116 0.390785 0.059413295 -0.20995931
0000f0 0f c6 63 be 29 25 85 be 8d 66 24 be 4f d3 de be
       -0.22243522 -0.26004913 -0.16054745 -0.4352059
000100 19 04 3f bd a9 5b 96 be 6f 7a 0d 3e dd 1f 0b be
       -0.046634767 -0.29366806 0.13816236 -0.13586374
000110 7f c1 86 3e 07 76 83 bd 95 5e 44 bd 9a f7 f5 3e
       0.263195 -0.06418996 -0.047941763 0.48040468
000120 c8 86 39 be 56 ed 83 3e 39 4a d3 3e 8e 03 bd 3e
       -0.18117821 0.2576701 0.41267565 0.36916775
000130 c6 e8 37 be cb 9f 7c 3d cd 95 25 3e c1 0b 80 3e
       -0.1795989 0.061675828 0.16170426 0.25008968
000140 75 12 0a be df 18 5c be 52 8d bf 3e 7b e5 82 3e
       -0.13483603 -0.21493863 0.37412506 0.25565705
000150 88 c2 f7 bd 35 81 89 3e 7b 4f 89 3e 34 21 a9 3e
       -0.12097651 0.2685639 0.2681845 0.33033144
000160 a7 de 41 be 25 14 f2 3d b1 dd 53 3e 96 85 8a be
       -0.18932591 0.118202485 0.20690037 -0.27055043
000170 88 eb 11 3e 7c fc 0d 3e 62 80 ff 3e 6b 48 a0 3e
       0.14250004 0.13865846 0.49902636 0.3130525
000180 22 34 31 3e a3 e4 1d be ca b3 d7 bc 78 b7 95 be
       0.17305043 -0.15419249 -0.026330847 -0.29241538
000190 d5 76 d0 3e 5e d3 b9 be ee cb b7 3e 82 47 c1 be
       0.40715662 -0.36294073 0.35897774 -0.3774987
0001a0 05 21 b3 be 05 9d 46 be c0 52 df be 1a 38 b3 be
       -0.3498613 -0.19395836 -0.4361782 -0.3500374
0001b0 e1 17 3c be 8d fc 4a be 66 19 12 be 47 26 5d be
       -0.18368484 -0.19822903 -0.14267501 -0.21596633
0001c0 74 bf ec 3e c3 e5 17 be 0e f5 6c 3d 2d 3e 78 be
       0.46239817 -0.14833741 0.05785089 -0.24242468
0001d0 86 1f a4 be 83 d9 3e 3e a9 6e 1c 3e 9a 77 e5 bd
       -0.320553 0.18637662 0.15276588 -0.11204453
0001e0 00 50 87 be 9e c5 9d 3e 4e 17 0a 3e 38 fa f7 3e
       -0.26428223 0.30814832 0.13485453 0.4843309
0001f0 a3 3c e8 3d 38 6c 08 bf 59 64 ba 3d fc 2e e6 be
       0.113396905 -0.5329013 0.09101171 -0.4495772
000200 4f 6c 83 3e a4 cd ad be 89 26 49 3d 21 58 f8 be
       0.2566857 -0.33945954 0.049109016 -0.48504737
000210 d7 42 57 3e 08 a5 05 bf ca dc a5 3d 76 8f 8a 3d
       0.21021591 -0.5220494 0.08098753 0.06765644
000220 bf 92 5e 3c d2 dc 05 3f 37 3b b3 be 9f a1 6e 3d
       0.013584792 0.5229007 -0.35006115 0.058259603
000230 1b 90 ee 3d 29 c2 bb be 7b ea 75 3a b0 34 03 3e
       0.1164858 -0.3667157 0.00093809486 0.12813067
000240 03 3e c4 3e 18 72 de 3c ef 5b 0b 3f 2d 67 6b 3e
       0.3832856 0.027154014 0.54437155 0.22988577
000250 94 47 d9 be 12 2b 42 be ab eb 68 be 52 2e 8b be
       -0.42437422 -0.18961743 -0.2274615 -0.27183777
000260 83 83 63 bd d7 47 30 3e 20 3c 4b 3e 9c 81 57 3e
       -0.05554534 0.17214905 0.19847155 0.21045536
000270 da 09 b8 3e db 7b b2 be c5 f7 55 3d 62 cf b3 bd
       0.35945016 -0.3486012 0.052238245 -0.087797895
000280 07 2c be 3e 11 c8 40 3e 5c da 16 3d 9a f3 1b bd
       0.37142965 0.1882632 0.036829337 -0.038074113
000290 4f c8 03 3e bf 45 dc bd ba 45 b8 bc f3 31 61 be
       0.1286938 -0.107554905 -0.022494186 -0.2199171
0002a0 59 94 be 3b 7c 4f 04 3e 7b 97 e6 be 4f 9c 18 be
       0.0058160243 0.12920946 -0.45037445 -0.14903377
0002b0 e2 be 0d bf f5 14 a9 3e c2 13 3e 3e 1c 6b 68 bd
       -0.5536939 0.330238 0.18562225 -0.056742772
0002c0 09 64 10 bf 9b bc b4 3e 9e 36 ff 3e 67 e9 c5 be
       -0.5640264 0.35300145 0.49846357 -0.38654634
0002d0 ba 44 a5 3e 0a e1 a6 3e 76 ca 1a be 6c d2 71 be
       0.32278997 0.32593566 -0.15116295 -0.23615426
0002e0 8b bc 63 3b 7c 0e 68 be 5c be 01 3f 00 87 ba 3e
       0.0034749832 -0.22661775 0.5068109 0.36431122
0002f0 69 4d 4b be 04 97 bd be eb 99 33 3d 07 e7 98 3e
       -0.19853748 -0.37029278 0.04384796 0.2986376
000300 e0 b7 34 3e f1 4f f3 3d 38 19 f4 be 73 11 ca 3d
       0.17648268 0.11880482 -0.4767549 0.098666094
000310 75 82 aa bd e6 55 96 3e eb 4a 4b 3e f0 10 9e 3e
       -0.08325664 0.2936241 0.19852798 0.30872297
000320 fe 12 3b bd 55 4a cc 3e 80 9f 70 be 2a ab 74 be
       -0.04567241 0.3990046 -0.23498344 -0.23893419
000330 5d e5 15 3e 3e 77 8c 3e c4 92 6a 3d 6a 1c 4b 3e
       0.14638276 0.27434725 0.057268873 0.19835058
000340 58 7c a1 be 10 e9 c7 be cb d1 96 be ee d2 95 3e
       -0.3154018 -0.39045 -0.29456934 0.2926249
000350 30 a3 8e 3e 55 07 5d be 4d 41 1d 3f d6 9f c2 3e
       0.27858877 -0.21584828 0.61427766 0.3801257
000360 42 98 10 bf 90 39 bd be 3a 13 99 be 19 31 3f be
       -0.56482327 -0.3695798 -0.2989748 -0.18671073
000370 96 30 e8 bd 25 57 17 be 7d b8 fb 3e 79 e2 c9 3c
       -0.11337392 -0.14779337 0.4916419 0.024644123
000380 9e 61 0f bf 32 16 2e be 6a ae 80 bd 31 e6 87 3e
       -0.56008327 -0.17000654 -0.06283267 0.2654281
000390 b2 e4 9a be 78 bc 71 be e0 3c c8 3e 90 ae bc 3e
       -0.30252606 -0.23607051 0.39108944 0.3685193
0003a0 a3 0f df bd 98 3c 53 be 2d 10 88 be f7 4c dd be
       -0.10891654 -0.20628583 -0.2657484 -0.43222782
0003b0 59 e5 e5 be 8c 84 9d be fe 5a 5a be 8e 08 11 be
       -0.4490154 -0.30765188 -0.21323773 -0.1416342
0003c0 58 09 a9 be 97 73 45 3e 18 a1 f4 be 8f ba f0 be
       -0.3301494 0.19282375 -0.47779155 -0.47017333
0003d0 f6 1c 22 be d4 75 e2 3d e7 43 de be 7a 8c 90 be
       -0.1583136 0.1105763 -0.4341118 -0.28232175
0003e0 a9 ea 76 be a5 99 df 3d df 11 4b 3d 48 39 b4 3e
       -0.24112953 0.10917977 0.04957759 0.35199952
0003f0 84 3b 3c 3e dc d4 83 3d 34 de 01 bf 7c fa 5e 3e
       0.18382078 0.06437084 -0.5072968 0.2177524

clf_net.0.bias f4 [256]
000000 35 18 4f 3d e6 6a bf be 55 28 15 3d b1 aa 0f be
       0.050560195 -0.37386245 0.036415417 -0.14029957
000010 fe 1c 06 bf 36 00 19 3e 0c d4 8c be b7 19 66 be
       -0.5238799 0.14941487 -0.2750553 -0.22470747
000020 13 44 f3 3c cb 2d 03 bf 77 93 55 3d bb a1 a6 3c
       0.029695546 -0.5124175 0.052142587 0.020340791
000030 00 72 c9 be ee dc 10 bf 52 ed db bd 89 dc 0d bf
       -0.39344788 -0.5658711 -0.10738625 -0.55414635
000040 05 d2 57 be 66 ea 9e 3d 4b 92 eb be f5 26 83 be
       -0.2107621 0.07759552 -0.4601005 -0.2561566
000050 1a 21 ea be 74 9d bd be 07 14 20 bf 2f 18 eb be
       -0.4572838 -0.3703419 -0.6253056 -0.45916888
000060 c3 49 22 3e d3 ec 1c bf f0 fb e7 be 0e 8f 20 be
       0.1584845 -0.61298865 -0.453094 -0.15679571
000070 53 34 d5 be ee 2b 43 3e 87 78 0e be 08 22 a7 bd
       -0.41641483 0.19059727 -0.13913165 -0.08160788
000080 aa 4e 55 3e 7a 9a be be d3 02 89 be 4e 15 e6 be
       0.20830789 -0.3722723 -0.26759967 -0.4493813
000090 2c 8d 99 be b1 7c 1b be ae a0 e6 be 36 b6 53 be
       -0.29990518 -0.15184285 -0.45044464 -0.20674977
0000a0 e5 66 ab 3e 76 7c 6b be 71 dc 0c be 10 46 43 be
       0.3347694 -0.22996697 -0.13755967 -0.19069695
0000b0 6f ba 0f be c6 e2 29 3e 8b b0 bf bd 81 ae 08 bf
       -0.14035963 0.16590413 -0.09359845 -0.5339127
0000c0 3f 8e d9 be 7a 29 89 be eb 9b 7b 3d 7a c1 96 3e
       -0.42491338 -0.26789457 0.06142799 0.29444486
0000d0 55 d2 8a 3e da 64 30 3e a1 96 dc bd 40 26 8f be
       0.27113596 0.17225972 -0.10770918 -0.2795887
0000e0 5f a0 cd be 6b 5e 57 bd 63 fb 80 be 42 0f 0e bf
       -0.40161416 -0.05258028 -0.25191793 -0.5549203
0000f0 a0 4f 86 be 28 53 ab 3e 7e ff 8d be 47 6c bf bd
       -0.26232624 0.3346188 -0.27733988 -0.09346824
000100 d8 ab 1e bf 8e 5f ba be ec 94 aa 3e 24 19 3c be
       -0.6198096 -0.36401027 0.33316743 -0.18368965
000110 55 49 92 3e 9e 3b 8d 3e ef 6b a6 bd 26 de 2c 3e
       0.28571573 0.27584547 -0.081260554 0.16881618
000120 83 63 f0 be e2 59 b2 3e a5 7a f2 be f4 bb b8 be
       -0.4695092 0.348342 -0.47359195 -0.36080897
000130 94 e5 cc be 78 91 d0 be 5c 40 0e bf 37 ed 29 bf
       -0.40018904 -0.40735984 -0.55566955 -0.66377586
000140 01 b0 10 bf d6 f9 84 be d7 f5 5e bd 0d 00 48 3e
       -0.5651856 -0.2597186 -0.05443367 0.1953127
000150 8e 60 a8 3e 83 e0 1a bf 55 73 89 3d 73 3f 30 be
       0.32886165 -0.6049883 0.06711451 -0.17211704
000160 6d ad 03 bf e5 ea 9f be dd 7c 1c 3e ed fe 71 bc
       -0.514365 -0.31233898 0.15282007 -0.014770252
000170 04 16 f6 be 12 c0 b9 be bf 08 8d be e7 92 c6 be
       -0.48063672 -0.3627935 -0.27545735 -0.38783953
000180 a1 a7 83 3e ee 21 fc be c4 a0 a7 bd cf 4b 46 be
       0.25713828 -0.49244636 -0.081849605 -0.19364856
000190 f6 19 f7 be 75 cd 77 3e 91 95 e6 bd 80 83 64 3d
       -0.48261994 0.2419947 -0.11258996 0.05578947
0001a0 87 e1 f9 bd 59 e4 4e 3d 73 02 16 bc 25 fa 98 bd
       -0.12201219 0.050510738 -0.009155857 -0.07469586
0001b0 2f 78 b1 be 3a c0 ac bd 92 ef 2b 3e d4 b3 4d bb
       -0.34662005 -0.08435102 0.16790608 -0.0031387703
0001c0 ac 83 01 bf 5a 81 8b 3d 19 cc 11 bf 49 bd 0c 3d
       -0.5059154 0.06811781 -0.56952053 0.034360204
0001d0 87 55 25 3a fc f0 f9 bd 15 a2 33 be 00 02 5e be
       0.0006306995 -0.12204167 -0.17542298 -0.2168045
0001e0 ad 49 51 3e e8 7a 2b 3d 2b 4a 8d 3e f3 c3 c2 3d
       0.20438261 0.04186526 0.27595648 0.095100306
0001f0 52 17 88 3c 9f cd 65 bd f0 d4 5f bd 5f f9 82 be
       0.016612682 -0.0561043 -0.054646432 -0.2558088
000200 3b ae b5 3e 04 b1 36 be 6e 6a f9 be 11 d8 f0 bd
       0.3548449 -0.17840964 -0.48714012 -0.117599614
000210 33 2e 72 be 25 b0 e9 3d ef 0d 19 bf 1d 7b 59 be
       -0.23650436 0.1141055 -0.59786886 -0.2123837
000220 59 06 0f 3d 37 3c 2f be 8e b9 0f bf ea da 14 bf
       0.034918163 -0.17112814 -0.5614251 -0.58146536
000230 8f f9 63 3e b3 19 b4 3e 97 20 da be 57 e3 f2 be
       0.22263168 0.35175857 -0.4260299 -0.47439072
000240 12 42 01 3e a3 42 1d bf ab 5e 81 3d 2f 43 60 3d
       0.1262286 -0.61429805 0.063168846 0.05475157
000250 0d 8c 18 bf aa b0 f7 bd 3f 3f c3 bd 16 2c ec 3d
       -0.595887 -0.12094243 -0.095335476 0.11531846
000260 4f 5b e6 3d b2 e0 f7 3d 20 f1 98 bc d8 82 7f bd
       0.112478845 0.12103404 -0.018669665 -0.06238064
000270 5f be fb 3d 50 96 3f be 0e 49 13 bf 57 6c 81 3e
       0.1229217 -0.18709683 -0.5753335 0.2527797
000280 b6 96 70 3e 6a a2 8b be de 47 f5 be e9 c5 de bd
       0.23494992 -0.2727235 -0.47906393 -0.10877592
000290 9d 55 32 3d fa 9c e5 bd 1f 2c 36 bd 2b a0 04 bf
       0.04353868 -0.112115815 -0.04447567 -0.51806897
0002a0 df f6 f1 be 8c e9 b0 3d cc 09 7e 3e a9 05 f7 bc
       -0.4725866 0.086382955 0.24808425 -0.030154066
0002b0 ae bd 86 be 78 fa a7 3e b4 35 ef be 88 74 0a be
       -0.2631659 0.3280828 -0.4672066 -0.13521016
0002c0 97 64 9a be 11 2e c9 be 02 46 16 bf 3d 95 98 bd
       -0.3015487 -0.39292958 -0.58700573 -0.0745034
0002d0 8a b4 94 be fc 24 97 3e f7 bb 47 3e e5 63 a4 be
       -0.2904399 0.29520404 0.19505297 -0.32107463
0002e0 0e 5d 1c bf e2 9d 8d be c5 fd 69 bd c2 7b 1e bf
       -0.6107949 -0.27659518 -0.05712678 -0.6190759
0002f0 47 89 77 be 0f d6 38 3c 5e bb 98 be a5 1f e5 be
       -0.24173461 0.011281504 -0.2983045 -0.44750705
000300 86 b2 74 3e 22 27 a9 be 46 9a 1c bf bb 5e b3 be
       0.23896226 -0.33037668 -0.611729 -0.3503321
000310 99 5f 9a be 3e 9e 29 be bf 85 32 bd 33 bc 95 3d
       -0.3015106 -0.16564271 -0.04358458 0.07311287
000320 d7 74 86 3e 69 8d 82 bd 42 9c aa be 4a 66 5f be
       0.26261017 -0.06374628 -0.3332234 -0.21816364
000330 4a 79 00 be ab a8 e8 3d 51 18 93 bd 3f 97 89 be
       -0.12546268 0.11360296 -0.07182372 -0.26873204
000340 c4 7b 0b bf 1a c0 2b 3e 56 d7 c5 be 7b d0 11 bf
       -0.54485726 0.167725 -0.3864085 -0.5695874
000350 f2 cd da be 42 07 b3 3e 3a ca 93 be b2 2d 04 be
       -0.4273525 0.34966475 -0.28865224 -0.12908056
000360 a1 66 1c 3e 2a 6c e4 be 5a 99 8b 3e 5e d3 a5 be
       0.15273525 -0.44613773 0.27265435 -0.32387823
000370 18 fb e2 be 6e a6 71 3c 3c b0 f3 be 6d 83 a8 be
       -0.44332194 0.014749153 -0.47595394 -0.3291277
000380 59 53 7f 3e 64 06 ab bd 34 ad 91 bd 21 6b c6 3d
       0.24934138 -0.08350828 -0.07113114 0.09688402
000390 ef 7e d7 bd f2 e2 01 bf c3 cc 26 3e 5d 81 25 3e
       -0.105222575 -0.50736916 0.16289048 0.1616263
0003a0 e8 84 01 bf 5f ac 9b be 45 b0 d2 3d 0c b7 ae 3d
       -0.50593424 -0.30404946 0.10287527 0.08531007
0003b0 90 7d b7 be 50 aa b8 be 03 de 55 bd 85 03 9f be
       -0.35837984 -0.36067438 -0.05221368 -0.31057373
0003c0 23 f8 79 3e 45 e7 ad bc 22 1c f8 be 4d 8b da 3d
       0.24411063 -0.021228442 -0.48458964 0.10671101
0003d0 d4 27 d3 be a9 f2 b7 bd 57 47 df be 5b 01 d2 3c
       -0.41241324 -0.089818306 -0.43609115 0.025635412
0003e0 7b 89 84 be 49 21 88 3e 2e 36 21 bd 12 74 b2 be
       -0.2588614 0.26587895 -0.03935831 -0.3485418
0003f0 46 99 a0 bb 82 ac a2 be bb c3 fd be b7 1c 90 3e
       -0.004901084 -0.31772238 -0.49563393 0.28146908

clf_net.1.weight f4 [256]
000000 3c 35 b1 3f d2 72 a8 3f 70 b0 a9 3f c1 bf a8 3f
       1.3844371 1.316004 1.325697 1.3183519
000010 66 c9 a2 3f 4a 94 b4 3f e8 66 9a 3f 54 ab a4 3f
       1.2717712 1.4107754 1.2062654 1.2864785
000020 f8 81 a4 3f 89 85 a8 3f 0b 2e ad 3f 9b 68 ac 3f
       1.2852163 1.3165752 1.3529676 1.3469423
000030 91 31 a5 3f f4 96 a8 3f 47 da ad 3f c6 4a a0 3f
       1.2905751 1.3171067 1.3582238 1.2522819
000040 46 ce a5 3f 3f f7 ab 3f 65 f8 ab 3f 02 c3 a1 3f
       1.2953575 1.3434829 1.3435179 1.2637637
000050 9e f3 9d 3f c8 0e ae 3f 1d 11 a8 3f 75 47 a9 3f
       1.2339971 1.3598261 1.3130223 1.3224932
000060 3a 0e b2 3f 1c 0d ac 3f 04 21 a9 3f af ba a7 3f
       1.3910592 1.3441501 1.32132 1.3103846
000070 b8 ff b6 3f 65 4d ae 3f 3c 64 b0 3f ff 04 ab 3f
       1.4296789 1.3617369 1.3780589 1.33609
000080 4b 20 bb 3f 1b 22 ae 3f 34 d6 a1 3f f8 50 9f 3f
       1.461923 1.3604158 1.2643495 1.2446585
000090 e1 03 ad 3f b0 71 aa 3f 65 20 a2 3f 5d 99 a4 3f
       1.3516809 1.3315945 1.2666136 1.2859303
0000a0 7d 4a a9 3f d1 d2 b5 3f 1e 6e ae 3f 87 c5 ab 3f
       1.3225857 1.4204961 1.3627355 1.3419656
0000b0 b5 d2 ae 3f 04 51 b1 3f 6b 45 a3 3f e7 97 a5 3f
       1.3658053 1.3852849 1.275556 1.2936982
0000c0 b0 a0 ad 3f 0b 6e ae 3f 90 9c a8 3f 29 e7 9a 3f
       1.3564663 1.3627332 1.3172779 1.2101794
0000d0 13 3e a5 3f 78 a9 a7 3f 71 6a ab 3f f4 cf a8 3f
       1.2909569 1.3098593 1.3391858 1.3188462
0000e0 50 16 ab 3f a5 fd ad 3f 4b 47 ac 3f e2 68 aa 3f
       1.3366184 1.3593031 1.3459257 1.3313258
0000f0 b3 15 a9 3f f1 88 ab 3f 2d bc b1 3f 38 62 ad 3f
       1.3209747 1.3401166 1.3885552 1.3545599
000100 14 b1 aa 3f 0c e4 aa 3f d0 2c 9c 3f 54 79 a6 3f
       1.333529 1.3350844 1.2201176 1.3005776
000110 88 82 b0 3f 54 76 ac 3f 72 cc a3 3f 93 a1 a9 3f
       1.3789835 1.3473611 1.2796767 1.3252434
000120 c8 f0 a9 3f d8 64 ab 3f 6d f2 b4 3f b3 10 ad 3f
       1.3276606 1.339015 1.4136482 1.3520721
000130 6d 14 a9 3f bf 20 a2 3f ca 6e a9 3f 0a 68 a8 3f
       1.3209358 1.2666243 1.3236935 1.315675
000140 de df a6 3f ed ad a8 3f 3c fd ae 3f 86 4a b0 3f
       1.3037069 1.3178078 1.3671031 1.3772743
000150 af 6f af 3f f5 a9 9a 3f ad 86 ab 3f 8d ee b0 3f
       1.3705958 1.2083117 1.3400475 1.38228
000160 ae e6 b1 3f 72 f6 ad 3f e7 66 a1 3f 49 e3 9e 3f
       1.3898523 1.3590834 1.2609528 1.2413112
000170 e9 86 aa 3f bc cc a8 3f 92 56 ac 3f 87 79 a9 3f
       1.3322421 1.318748 1.3463919 1.3240212
000180 53 ee aa 3f 8c 75 a9 3f 29 44 ad 3f fe fb 9d 3f
       1.3353981 1.3238997 1.3536426 1.2342527
000190 80 f1 ad 3f cb 41 a5 3f e4 76 a9 3f e3 f2 ad 3f
       1.3589325 1.2910703 1.3239408 1.3589748
0001a0 f4 60 ac 3f 89 1b b1 3f 35 98 ae 3f fc 18 ad 3f
       1.3467088 1.3836528 1.36402 1.352325
0001b0 83 bd ab 3f 45 d6 a9 3f 46 0f a5 3f 53 ea b6 3f
       1.3417209 1.3268515 1.2895286 1.429026
0001c0 2c 47 b1 3f 20 4e b1 3f c8 3f a8 3f 9b 8f ab 3f
       1.3849845 1.3851967 1.3144464 1.34032
0001d0 55 87 ab 3f 0e 12 9b 3f 5f b7 a3 3f 38 05 b6 3f
       1.3400675 1.2114885 1.2790335 1.4220343
0001e0 13 36 a9 3f 0b 43 a6 3f 2a 04 ac 3f 75 f2 ae 3f
       1.3219627 1.298921 1.3438771 1.3667742
0001f0 c3 06 ab 3f e8 08 ac 3f 52 8c ad 3f e5 6d ad 3f
       1.3361439 1.3440218 1.3558447 1.3549162
000200 ac fe b4 3f c9 64 aa 3f a6 6f 9d 3f 07 25 ab 3f
       1.414022 1.3312007 1.2299697 1.3370675
000210 36 d3 b0 3f d2 88 ac 3f b5 0a a9 3f 74 03 b6 3f
       1.3814456 1.3479254 1.3206393 1.4219804
000220 dc a7 a8 3f 7b aa aa 3f bf 07 a8 3f a1 24 af 3f
       1.3176227 1.3333277 1.3127364 1.3683053
000230 1d f9 af 3f 29 af a6 3f 4e fe a9 3f 14 f0 a2 3f
       1.3747898 1.3022205 1.3280733 1.2729516
000240 c2 7e ae 3f 8d 21 a7 3f 26 3e a6 3f 04 3f ab 3f
       1.3632433 1.3057114 1.2987716 1.3378606
000250 dd da ab 3f 82 86 a2 3f 9c a1 ae 3f 96 76 ac 3f
       1.3426167 1.2697299 1.3643069 1.347369
000260 3e d9 b0 3f 99 71 a8 3f 2c c8 a7 3f 34 17 b3 3f
       1.3816297 1.3159667 1.3107963 1.3991456
000270 03 82 a5 3f b3 f0 ac 3f b1 e6 ab 3f a6 90 ac 3f
       1.2930301 1.3510956 1.3429776 1.3481643
000280 c7 8b b0 3f af 62 ad 3f 31 4a a7 3f f7 c5 ae 3f
       1.3792657 1.3545741 1.3069516 1.3654164
000290 e2 ba b1 3f 0c 90 ac 3f 10 f4 ab 3f 73 a0 a8 3f
       1.3885157 1.348146 1.3433857 1.3173965
0002a0 54 3f b2 3f 3c f9 b1 3f e9 31 ac 3f 0b 53 ad 3f
       1.3925576 1.3904185 1.3452731 1.3540968
0002b0 c2 32 ad 3f b8 78 ac 3f e7 0b ad 3f 24 eb a8 3f
       1.3531115 1.347434 1.3519257 1.3196759
0002c0 0a 67 ab 3f e7 b3 b0 3f 58 a0 a8 3f ed d7 a9 3f
       1.339082 1.3804902 1.3173933 1.326902
0002d0 74 78 ac 3f f5 10 ac 3f f4 4f ac 3f 9d fd 9c 3f
       1.3474259 1.3442675 1.34619 1.2264897
0002e0 9f 75 aa 3f c6 2b ad 3f ae 6a aa 3f 8c 50 a7 3f
       1.3317145 1.3528984 1.3313806 1.3071456
0002f0 e2 d8 a7 3f 82 d1 aa 3f 38 a8 ab 3f 3b 17 b0 3f
       1.3113062 1.3345187 1.3410711 1.3757089
000300 f6 13 ad 3f 56 93 ae 3f bd 47 b1 3f 0b ae ac 3f
       1.3521717 1.3638713 1.3850018 1.3490614
000310 81 51 ac 3f 80 a9 b1 3f f7 34 ad 3f c5 fb a8 3f
       1.3462373 1.3879852 1.3531789 1.3201834
000320 7d 85 b2 3f 5e bb a4 3f 04 95 9c 3f 6e 62 ab 3f
       1.3946987 1.286968 1.2232976 1.3389413
000330 c2 d0 af 3f de 94 9d 3f 00 cf 9d 3f 8f e2 ab 3f
       1.3735583 1.2311056 1.2328796 1.3428515
000340 c3 38 b0 3f 63 84 a6 3f 36 9b a9 3f e4 12 ab 3f
       1.3767322 1.3009151 1.3250492 1.336514
000350 4f 27 b1 3f 15 b7 b5 3f 4f f4 9f 3f 25 a6 a6 3f
       1.3840121 1.4196497 1.2496432 1.3019453
000360 89 72 ac 3f 49 09 a6 3f cf 03 ac 3f 07 a7 ad 3f
       1.3472453 1.2971584 1.3438662 1.3566598
000370 db 9e a7 3f 26 f5 ac 3f 4f 1f aa 3f 71 85 aa 3f
       1.3095354 1.3512313 1.3290805 1.3321973
000380 ae 65 a9 3f 4a c3 a7 3f 3f 13 a7 3f 80 18 ab 3f
       1.3234155 1.3106472 1.3052748 1.3366852
000390 02 66 ab 3f f5 47 a8 3f 4e 68 aa 3f 77 df a5 3f
       1.3390505 1.314696 1.3313081 1.2958821
0003a0 9d a5 aa 3f d2 fd 9b 3f ae 20 aa 3f a3 4f b3 3f
       1.3331791 1.2186835 1.3291223 1.4008678
0003b0 c6 07 aa 3f c9 7e a9 3f 23 06 9a 3f ed 7e ad 3f
       1.3283622 1.3241817 1.2033123 1.355436
0003c0 c9 85 9f 3f e1 1c a9 3f f4 5e a3 3f 23 4b a5 3f
       1.2462703 1.3211938 1.2763352 1.2913555
0003d0 8a 64 ae 3f aa 0e a9 3f cc d3 b1 3f 43 53 a6 3f
       1.3624432 1.32076 1.389276 1.299416
0003e0 a4 bd a4 3f 47 83 9c 3f 8c f7 a7 3f f8 1d aa 3f
       1.2870374 1.2227563 1.312242 1.3290396
0003f0 01 82 9e 3f dd 8d b1 3f 7a d7 a6 3f bd 91 a9 3f
       1.2383424 1.3871418 1.3034508 1.3247601

clf_net.1.bias f4 [256]
000000 7e 0f 08 3f 82 b5 0b 3f 25 8e 03 3f 10 5a 0c 3f
       0.5314864 0.54573834 0.5138877 0.54824924
000010 7d 3e 05 3f e8 49 1f 3f 2c e3 0b 3f 0c 45 19 3f
       0.52048475 0.62222147 0.5464351 0.5987098
000020 fb 3a 0c 3f 23 21 0a 3f 27 77 0b 3f d2 a7 14 3f
       0.547775 0.5395681 0.5447869 0.58068573
000030 1d e7 f5 3e 6f 75 0d 3f 5b 42 18 3f 21 a9 08 3f
       0.48027888 0.55257314 0.5947625 0.5338307
000040 b4 90 04 3f aa 9c 21 3f 57 2e 0d 3f 48 2d f8 3e
       0.517833 0.63129675 0.55148834 0.48472047
000050 08 d7 ff 3e 6d 84 11 3f 7f 58 06 3f ef b0 0d 3f
       0.49968743 0.5684269 0.52478784 0.55348104
000060 06 fb f9 3e 2f 1f 07 3f ca 56 0d 3f 55 61 06 3f
       0.48824328 0.5278196 0.55210555 0.52492267
000070 f2 62 24 3f da 04 11 3f ee 30 09 3f 78 fd 0f 3f
       0.6421348 0.5664803 0.53590286 0.5624614
000080 3b 3b 0b 3f c0 1d 1f 3f 68 da 0d 3f 2d 99 0f 3f
       0.54387254 0.6215477 0.55411386 0.560931
000090 e4 22 17 3f bc 89 16 3f 27 3b 01 3f 23 43 0d 3f
       0.59037614 0.58803916 0.50480884 0.5518057
0000a0 7b 54 1a 3f 8c e1 07 3f 62 59 17 3f b3 b3 00 3f
       0.60285157 0.5307853 0.5912076 0.502742
0000b0 c8 05 0f 3f 19 a2 1c 3f 8a 1d 0c 3f 9d a4 09 3f
       0.55868196 0.6118484 0.54732573 0.53766805
0000c0 33 73 19 3f d7 9c 0f 3f a3 c9 13 3f ed af 03 3f
       0.59941405 0.56098694 0.5772955 0.51440316
0000d0 6d dc 10 3f eb 3e 06 3f 80 6c 1a 3f 2b d7 06 3f
       0.56586343 0.52439755 0.6032181 0.5267207
0000e0 cb 09 19 3f 12 73 14 3f f0 35 03 3f e1 2d 18 3f
       0.5978057 0.57988083 0.5125418 0.59445006
0000f0 fc 47 11 3f 4a 9f 08 3f 43 1f 18 3f ab 26 19 3f
       0.56750464 0.53368056 0.594227 0.5982463
000100 2b a7 00 3f ca 68 00 3f 2e a0 04 3f c2 53 12 3f
       0.5025508 0.50159895 0.51806915 0.57159054
000110 ec f0 12 3f eb e2 0f 3f c6 59 16 3f 84 a5 16 3f
       0.5739887 0.56205624 0.58730733 0.58846307
000120 f0 3b 17 3f 69 83 14 3f 35 70 1e 3f 4e 68 12 3f
       0.5907583 0.58013016 0.61889964 0.57190406
000130 1f 2c 0f 3f c5 15 0b 3f 5a 48 09 3f c2 d8 03 3f
       0.559267 0.5433009 0.53626025 0.5150262
000140 7d 05 0b 3f af 6b 19 3f 48 09 14 3f c1 33 12 3f
       0.5430525 0.5992994 0.5782666 0.5711022
000150 f6 17 14 3f cc 59 f4 3e d4 25 20 3f ba f7 0e 3f
       0.5784906 0.4772476 0.6255772 0.5584675
000160 09 11 16 3f 81 83 1e 3f 4e e0 00 3f bc 5f fd 3e
       0.58619744 0.6191941 0.5034226 0.49487102
000170 6c 17 0e 3f 53 24 13 3f ab 07 0f 3f e6 4d 18 3f
       0.5550449 0.574773 0.55871075 0.59493864
000180 d0 73 14 3f 86 9e 0e 3f 3f 43 28 3f 85 bd 0a 3f
       0.57989216 0.5571064 0.6572761 0.54195434
000190 b8 da 18 3f 97 70 0e 3f af 33 15 3f 05 a7 0d 3f
       0.5970874 0.5564055 0.5828199 0.55332977
0001a0 f1 a6 0a 3f f4 9e 15 3f 4e 53 0f 3f 43 d0 1b 3f
       0.5416098 0.5844567 0.5598649 0.6086466
0001b0 0b fb 00 3f db de 16 3f 93 35 07 3f 0a bb 14 3f
       0.5038306 0.589338 0.5281612 0.580979
0001c0 be f7 1d 3f c9 2e 09 3f 81 00 10 3f aa 15 14 3f
       0.6170615 0.53587013 0.5625077 0.57845557
0001d0 93 d9 14 3f 73 fb 05 3f a1 b0 0f 3f 96 ad 1d 3f
       0.5814449 0.52336806 0.5612889 0.61592996
0001e0 9b a7 0e 3f d0 b0 08 3f a1 da 0e 3f 76 26 0d 3f
       0.55724496 0.53394794 0.5580235 0.5513681
0001f0 6d 6c 20 3f 5d 2a 0a 3f 84 f3 15 3f 1b ef 19 3f
       0.62665445 0.5397089 0.585747 0.6013047
000200 a4 6e 0c 3f eb 2e 11 3f 95 d0 00 3f e6 8a 03 3f
       0.54856324 0.56712216 0.5031827 0.5138382
000210 6d ab ff 3e a3 a7 02 3f 34 d9 03 3f cd 3e 16 3f
       0.49935475 0.51037043 0.515033 0.58689576
000220 56 c1 06 3f f2 e5 0a 3f 41 cf 05 3f 1f 68 02 3f
       0.5263876 0.5425712 0.5226937 0.50940126
000230 24 27 0f 3f a0 cc 09 3f db d0 14 3f de fb 00 3f
       0.559191 0.5382786 0.5813119 0.5038432
000240 d2 22 18 3f c3 cc 07 3f ed 6d 06 3f 7b c9 09 3f
       0.5942813 0.53046817 0.52511483 0.5382306
000250 9b 0f 16 3f a6 5d 1e 3f 08 82 20 3f b6 89 1c 3f
       0.5861756 0.61861646 0.6269841 0.6114763
000260 9f 9f 1b 3f a5 94 f2 3e 95 1e 12 3f 88 4f 1a 3f
       0.6079044 0.47379032 0.57077914 0.60277605
000270 5a ac 0d 3f a0 99 17 3f ad d2 15 3f 2d 42 05 3f
       0.5534111 0.5921879 0.5852459 0.520541
000280 63 55 22 3f e8 fa 0f 3f 35 be 07 3f c3 76 24 3f
       0.6341154 0.5624223 0.5302461 0.64243716
000290 b4 30 16 3f 3c 09 0c 3f 6a 05 09 3f 04 9c f8 3e
       0.58668065 0.5470159 0.53523886 0.4855653
0002a0 35 e0 0e 3f 58 f7 11 3f 6b cc 05 3f f1 76 05 3f
       0.5581086 0.5701804 0.5226504 0.52134615
0002b0 7c a0 11 3f 30 19 15 3f 43 a9 1c 3f 2d 8c 0f 3f
       0.56885505 0.5824156 0.6119577 0.56073266
0002c0 12 53 16 3f a4 1c 19 3f 27 31 11 3f 14 d2 02 3f
       0.58720505 0.5980933 0.56715626 0.51101804
0002d0 2b 36 16 3f 20 ce 18 3f 83 55 0f 3f 7e ad 02 3f
       0.58676404 0.5968952 0.55989856 0.5104598
0002e0 82 a9 15 3f f2 f2 12 3f e7 44 11 3f b1 a8 0b 3f
       0.58461773 0.57401955 0.5674576 0.5455428
0002f0 8a 27 0a 3f 50 89 10 3f 55 19 1b 3f 50 c7 0d 3f
       0.5396658 0.5645952 0.6058553 0.5538225
000300 08 53 1f 3f ec 68 21 3f 11 29 1a 3f 51 bd 13 3f
       0.6223607 0.63050723 0.6021891 0.5771075
000310 2a 9c 0b 3f f9 a4 11 3f a1 e6 13 3f 8e da 02 3f
       0.5453516 0.56892353 0.57773787 0.5111474
000320 b7 65 13 3f fb 48 0d 3f da 76 03 3f 88 7e 07 3f
       0.5757708 0.55189484 0.5135323 0.52927446
000330 b0 c2 17 3f ee f7 01 3f 74 3f 07 3f ea c4 1a 3f
       0.59281445 0.50768936 0.52831197 0.60456717
000340 86 7d 19 3f c9 39 11 3f bc cc 18 3f 08 9a 11 3f
       0.5995716 0.567288 0.596874 0.5687566
000350 fb 74 12 3f 5e ce 09 3f 25 96 03 3f e9 d0 0b 3f
       0.5720975 0.53830516 0.5140098 0.54615647
000360 29 2f 22 3f 3d 73 02 3f a0 b3 13 3f a1 e2 16 3f
       0.6335321 0.5095709 0.5769596 0.5893956
000370 d6 87 0f 3f ed 40 11 3f ec 8a 0e 3f ad b4 06 3f
       0.56066644 0.56739694 0.5568073 0.5261944
000380 c2 88 10 3f 01 ea fe 3e 64 70 07 3f 6d 19 19 3f
       0.56458676 0.49787906 0.5290587 0.5980442
000390 1e 38 05 3f e7 35 16 3f 7a a7 11 3f 2b 7a 03 3f
       0.52038753 0.58676 0.56896174 0.5135829
0003a0 09 a0 0c 3f c5 73 0c 3f 75 df 02 3f d0 5b 16 3f
       0.54931694 0.5486415 0.5112222 0.58733845
0003b0 15 85 0e 3f 5c 21 09 3f 57 ed fb 3e 08 08 10 3f
       0.5567182 0.5356653 0.49204513 0.56262255
0003c0 29 d4 01 3f 7c e3 06 3f ae 77 08 3f b2 8c 0e 3f
       0.50714356 0.52690864 0.53307617 0.55683434
0003d0 b6 2c 24 3f 6d 7c 0e 3f b4 6b 10 3f 11 63 0c 3f
       0.64130723 0.5565861 0.5641434 0.54838663
0003e0 74 40 04 3f 88 88 ed 3e dd d4 09 3f 01 bb 18 3f
       0.5166085 0.46393228 0.5384043 0.59660345
0003f0 ae da 15 3f 71 d8 15 3f 1b 1d 0b 3f 08 89 16 3f
       0.58536804 0.5853339 0.54341286 0.58802843

clf_net.1.running_mean f4 [256]
000000 86 fe 3a 3d 33 b5 bd be ea 08 2d 3d 56 38 0b be
       0.04565289 -0.37052307 0.04224483 -0.13595709
000010 f7 d1 05 bf 8a 17 13 3e 2f 12 8f be 0c f3 68 be
       -0.52273506 0.14364448 -0.2794356 -0.22748965
000020 40 e2 13 3d 2e d3 03 bf e8 e5 43 3d 6b af c4 3c
       0.03610444 -0.5149411 0.047826678 0.024009427
000030 75 f6 ca be 55 ab 0e bf cb 2a ca bd b2 4d 0e bf
       -0.39641157 -0.5573018 -0.09871443 -0.55587304
000040 7a 34 58 be 7c 08 99 3d 90 f4 e6 be 27 fd 81 be
       -0.21113768 0.074723214 -0.4510846 -0.25388452
000050 4c d9 ea be 95 04 bb be 04 f7 1e bf 01 5d e8 be
       -0.4586891 -0.36526933 -0.62095666 -0.45383456
000060 5a 44 21 3e c0 b6 1c bf fd 39 ea be 3e 79 23 be
       0.1574873 -0.61216354 -0.45747367 -0.15964219
000070 81 2b d5 be a6 2a 48 3e 90 51 0a be 57 37 b1 bd
       -0.41634753 0.19547519 -0.13507676 -0.08653133
000080 e1 3d 51 3e 8e d9 c3 be 43 52 88 be 08 29 ea be
       0.20433761 -0.3825192 -0.2662526 -0.4573443
000090 05 05 97 be e7 09 1e be a5 ae e4 be 85 7d 58 be
       -0.29496017 -0.15433465 -0.44664493 -0.21141632
0000a0 b7 28 ad 3e 22 ba 6d be 36 e1 0e be 16 ea 3a be
       0.33820125 -0.23215535 -0.13953099 -0.18253359
0000b0 c4 80 01 be 88 79 2c 3e f0 d3 bc bd a7 b8 09 bf
       -0.12646776 0.16843235 -0.09220111 -0.5379738
0000c0 7c 51 db be ff 93 85 be 06 e7 87 3d 74 2c 98 3e
       -0.42835605 -0.26089475 0.06635861 0.29721415
0000d0 46 6e 87 3e 1f d9 32 3e 9e 46 e7 bd 8b 24 8d be
       0.2645132 0.17465638 -0.11292766 -0.27566943
0000e0 33 10 cf be b6 cb 4c bd 57 c0 82 be a8 d5 0e bf
       -0.40442047 -0.04999896 -0.2553737 -0.55794764
0000f0 0c 1b 86 be fb 89 aa 3e 91 62 8e be 69 d4 ca bd
       -0.2619251 0.33308396 -0.27809575 -0.09903795
000100 a4 43 1c bf 80 64 b7 be 00 42 a8 3e b5 49 36 be
       -0.6104071 -0.35818863 0.32862854 -0.17801555
000110 74 43 93 3e e4 b3 8a 3e c6 99 8f bd 84 6e 2b 3e
       0.287624 0.2709037 -0.07011752 0.16741377
000120 7f 46 f2 be b8 a0 b1 3e 76 ab f0 be 3c 36 b9 be
       -0.4731941 0.3469293 -0.47005814 -0.3617419
000130 0d bd cb be 13 4a d0 be e1 27 0e bf 5e c2 27 bf
       -0.39792672 -0.40681514 -0.555296 -0.65530956
000140 5d 35 11 bf 77 ed 84 be 89 bb 63 bd 12 99 4b 3e
       -0.5672205 -0.2596242 -0.05559877 0.1988261
000150 a1 21 ae 3e dc 3a 18 bf 50 ad 7e 3d 18 1f 34 be
       0.34010032 -0.5946481 0.062177002 -0.17589986
000160 4d 39 02 bf 7b fa a4 be 3d 72 1d 3e 92 9c 64 bc
       -0.50868684 -0.3222235 0.1537561 -0.013953345
000170 d6 a6 f5 be 37 e2 b8 be f6 24 8c be 7a 2c c8 be
       -0.47978848 -0.36110088 -0.2737195 -0.39096433
000180 54 7f 88 3e c6 ba fb be 2a 50 bd bd 0c 33 4b be
       0.26659644 -0.49165934 -0.09243806 -0.19843692
000190 fe ae f5 be e6 0f 76 3e 84 6f e9 bd 31 3b 84 3d
       -0.4798507 0.24029502 -0.11398223 0.06456602
0001a0 5d 51 e6 bd 13 7b 43 3d e7 8a 30 3b f6 b0 a7 bd
       -0.112459876 0.047724795 0.002693826 -0.081880495
0001b0 11 0b b4 be 42 da 99 bd 73 81 28 3e e9 37 5d bb
       -0.35164693 -0.075123325 0.16455631 -0.003375525
0001c0 d7 ed 00 bf 4e e7 8b 3d b2 00 11 bf 9b 8b f9 3c
       -0.50362915 0.06831227 -0.56641686 0.030462077
0001d0 f8 5f 90 bb d0 f1 fa bd 44 05 34 be 25 08 5f be
       -0.0044059716 -0.12253153 -0.17580134 -0.2178045
0001e0 79 f0 55 3e bd e9 4b 3d 1f d5 8f 3e 50 5d bb 3d
       0.20892514 0.049783457 0.28092286 0.09148657
0001f0 a1 6a c8 3b be 4d 5b bd dd da 75 bd d5 48 86 be
       0.006116227 -0.053540938 -0.060023177 -0.2622744
000200 35 88 b6 3e 7f 74 34 be 1a 74 f9 be b0 04 e5 bd
       0.35650793 -0.17622565 -0.4872139 -0.11182535
000210 09 6f 76 be 7c 0c ef 3d fa c6 17 bf 0d e9 53 be
       -0.24065794 0.11672303 -0.5928799 -0.2069437
000220 8e e3 23 3d a9 56 34 be ad 63 0e bf fc 89 13 bf
       0.040011935 -0.17611183 -0.55620843 -0.5763242
000230 da e3 5c 3e 6a 8f b3 3e ec fc d9 be a4 11 f4 be
       0.21571293 0.35070354 -0.42575777 -0.4766971
000240 e7 d9 fc 3d f6 93 1b bf 59 44 74 3d ba 65 7d 3d
       0.12346249 -0.60772645 0.059635494 0.061864592
000250 86 2a 19 bf 17 4b 06 be 27 5a cf bd 29 ac f2 3d
       -0.5983051 -0.13114582 -0.10124617 0.11849243
000260 3b 77 d4 3d a9 2c f8 3d 24 38 7d bc df f9 86 bd
       0.10374304 0.12117893 -0.0154552795 -0.06590628
000270 ff a4 06 3e 92 67 3e be b0 6b 13 bf f1 d5 81 3e
       0.13148879 -0.18594196 -0.57586193 0.25358537
000280 0c 61 6c 3e 73 5f 87 be 89 80 f4 be 02 dc ee bd
       0.23083895 -0.2644001 -0.47754315 -0.11663057
000290 c9 e3 52 3d 0d 01 ec bd 71 34 3f bd c5 f5 03 bf
       0.051486764 -0.11523638 -0.04668087 -0.5154689
0002a0 94 07 f0 be f8 45 ae 3d c2 99 7b 3e a1 ac e1 bc
       -0.46880782 0.08509439 0.24570373 -0.027548136
0002b0 5b b6 82 be e0 1b aa 3e 82 c4 f3 be ac 60 0b be
       -0.2552975 0.33224392 -0.4761086 -0.13611096
0002c0 68 36 9a be 4a 4a cb be 6a 40 17 bf e9 c5 9b bd
       -0.30119634 -0.39705116 -0.59082663 -0.07606108
0002d0 44 59 91 be 55 a6 96 3e 6f 88 4a 3e a6 7c 9f be
       -0.28388417 0.29423776 0.19778608 -0.31149787
0002e0 b7 8d 1b bf 6d 03 8b be b0 71 6e bd f7 b6 1e bf
       -0.60763115 -0.2715105 -0.05821389 -0.6199793
0002f0 15 57 79 be 15 77 77 3c 78 0e 9b be e4 ca e6 be
       -0.24349625 0.015104075 -0.30284476 -0.45076668
000300 b3 a0 79 3e fc 5e ab be f5 e8 1a bf 12 db b0 be
       0.24377708 -0.33470905 -0.60511714 -0.34542137
000310 01 d1 98 be dc e5 24 be 9d d8 14 bd 4a b6 94 3d
       -0.29846957 -0.1610331 -0.03633939 0.072613314
000320 7a ea 88 3e 5f a1 5b bd 8e 2b ab be f8 35 55 be
       0.2674139 -0.053620692 -0.33431667 -0.20821369
000330 f7 fd 04 be ea fc f5 3d e3 bd 88 bd c4 27 8b be
       -0.12987505 0.1201113 -0.06676843 -0.27178776
000340 7a 70 0a bf 8b 51 2a 3e 53 a6 c4 be b3 22 12 bf
       -0.54077876 0.16632669 -0.38408145 -0.57084197
000350 1f ab d8 be 14 d8 b4 3e ba 47 94 be 6f d0 07 be
       -0.42318055 0.35321105 -0.28960973 -0.13263105
000360 81 8a 15 3e ef f2 e5 be a0 cc 8e 3e 8e d7 a3 be
       0.14603616 -0.44911906 0.2789049 -0.32000393
000370 a6 99 e4 be 70 2c a2 3c b5 2f f8 be c2 b9 a8 be
       -0.44648474 0.01979658 -0.48473898 -0.32954222
000380 11 18 82 3e 22 3c a3 bd db e8 8d bd 73 17 cb 3d
       0.25408986 -0.07970454 -0.06929179 0.09916582
000390 ef 07 bf bd 4c 5f 02 bf 08 5a 2c 3e 4f b3 2c 3e
       -0.09327685 -0.5092666 0.16831219 0.16865276
0003a0 dc ad 00 bf 75 33 a0 be 43 46 cf 3d b0 2e b1 3d
       -0.5026529 -0.3128926 0.10120823 0.08651483
0003b0 9c bc b7 be c4 c8 b8 be 4a 7e 57 bd c6 91 9c be
       -0.35886085 -0.36090672 -0.052610673 -0.30579966
0003c0 eb f8 7f 3e 98 59 9a bc b1 ad f5 be 8e 59 ef 3d
       0.24997298 -0.01884155 -0.4798408 0.11687003
0003d0 22 e3 d5 be ef 02 bb bd 70 cb e0 be ff 9e 06 3d
       -0.4177485 -0.09131419 -0.4390521 0.032866474
0003e0 42 e9 85 be b4 03 89 3e a1 6c 23 bd 08 26 b6 be
       -0.26154524 0.26760638 -0.03989852 -0.3557589
0003f0 bd e6 8a bc b7 84 a0 be d3 36 fd be d4 b3 92 3e
       -0.016955728 -0.31351253 -0.4945589 0.28652823

clf_net.1.running_var f4 [256]
000000 b1 9b fd 3d 46 f5 6f 3e b0 75 4d 3f 20 67 d2 3e
       0.123832114 0.23433408 0.802577 0.41094303
000010 c5 7f 88 3e 1a 73 1d 3f 66 e0 3b 3e ed fa 1d 3f
       0.2665998 0.61503756 0.1834732 0.6171101
000020 77 66 9a 3e b7 a1 f0 3c 96 ce 89 3e f2 5a d4 3e
       0.301563 0.029373987 0.26915425 0.41475636
000030 8a 4e 25 3e ab 4d b1 3e 49 05 6e 3f 9f c8 a4 3e
       0.16143242 0.34629568 0.92976815 0.32184312
000040 28 1b 7c 3d e5 3f 23 3f 0a cd b0 3e d2 3c 7e 3d
       0.061549336 0.6376937 0.34531432 0.06206972
000050 a9 9a 32 3e 74 3e 4e 3e 3d 09 d8 3e e8 24 b2 3e
       0.1744181 0.20141011 0.42194548 0.34793782
000060 cc 00 21 3d 22 c3 fb 3d 2b 3c e7 3e d6 77 02 3e
       0.0393074 0.12293078 0.45163092 0.12741026
000070 0f d4 00 3e 93 81 d6 3e a1 da 2c 3e 30 ad 4c 3e
       0.12580894 0.41895732 0.16880275 0.19987941
000080 4a 6a db 3d 0c 4a ed 3e ec 20 56 3e 09 12 9a 3e
       0.107136324 0.46345556 0.20910996 0.30091885
000090 03 c9 dc 3e 7d fb bb 3e 27 e4 bf 3d ef 33 8d 3e
       0.4312211 0.36715308 0.093696885 0.27578685
0000a0 6e 3d e0 3d d6 e6 b0 3c d5 74 3a 3e b7 5a 69 3f
       0.10949217 0.021594446 0.1820863 0.91154045
0000b0 bd 07 0d 40 ee 84 15 3e a6 cc b1 3e 10 09 71 3e
       2.2035973 0.1460149 0.34726447 0.23538613
0000c0 81 8b b0 3e 30 b2 24 3e 09 86 9a 3e ed e6 da 3d
       0.34481433 0.16083598 0.30180386 0.10688577
0000d0 8c b5 d2 3e d5 8d 1b 3f 61 b2 f5 3e a5 56 7b 3e
       0.41154134 0.60763294 0.47987655 0.24544771
0000e0 04 a4 17 3e 60 84 76 3e d7 00 87 3e 2c 46 97 3e
       0.14808661 0.24073935 0.26367828 0.29545724
0000f0 b3 a4 36 3f 2e 06 8d 3e 1d d8 4d 3d 0d 5c 06 3f
       0.7134506 0.27543777 0.05025493 0.5248421
000100 e0 ca 37 3f ce 1d 94 3e b2 91 a4 3e 40 57 a4 3e
       0.7179394 0.2892899 0.32142407 0.32097816
000110 b9 bc 7e 3e 7e 4f da 3e a8 39 a6 3e e0 5a 8b 3d
       0.2487668 0.42638773 0.32465863 0.068044424
000120 d4 43 44 3e 9e e9 77 3e 0a ad 20 3d d3 e9 1b 3e
       0.191665 0.24210212 0.039227523 0.15225916
000130 a9 e2 6c 3e 2d 90 32 3e 50 62 28 3e 91 7f ce 3e
       0.23133339 0.17437811 0.16443753 0.403317
000140 12 97 2f 3e 9c 45 06 3d 01 64 56 3e 44 2e 8f 3e
       0.17147473 0.03278123 0.20936586 0.27964985
000150 32 d3 ca 3f 0b 4f 84 3f f0 e5 cc 3e e2 f4 05 3e
       1.5845702 1.0336622 0.40019178 0.13081697
000160 b4 29 d1 3e 9d 3c a1 3f b7 57 7f 3e ad 6d 63 3d
       0.4085213 1.2596623 0.24935804 0.055524517
000170 29 1f ae 3e 29 ce 5f 3d 4c 11 fe 3d 54 32 1f 3e
       0.34008148 0.05463997 0.12405643 0.15546542
000180 49 e0 2d 3f 34 18 8b 3d fa 4a 61 3f 51 a7 85 3e
       0.67920357 0.06791726 0.8800503 0.26104215
000190 c4 75 32 3e 6d f7 78 3e 28 6a e6 3e 27 b8 85 3f
       0.17427737 0.24313135 0.45002866 1.0446824
0001a0 a5 54 3e 3f 81 b5 e2 3d fe 8d b7 3f db 65 ee 3e
       0.7434791 0.110697754 1.4340208 0.46562085
0001b0 92 74 12 3e 90 fc c3 3e 79 9d dd 3e 91 f3 15 3d
       0.1430228 0.38278627 0.43284205 0.036609236
0001c0 62 58 67 3e 27 71 79 3d 47 a9 72 3e 23 d3 33 3e
       0.22592309 0.060898926 0.23697387 0.17561011
0001d0 58 30 5a 3e 22 e3 91 3c 8f cf b5 3d 34 18 63 3d
       0.21307504 0.0178085 0.08877479 0.055443004
0001e0 74 84 cb 3e 81 e3 e1 3e 02 66 ae 3e f5 53 d7 3d
       0.3974949 0.44118884 0.340622 0.105140604
0001f0 15 32 8a 3f 3f 62 e7 3d 3a 74 86 3e b6 87 5c 3e
       1.0796534 0.11298036 0.2626055 0.21536145
000200 ac d3 c0 3d 08 ea d5 3e 5c 06 ef 3e 58 f1 ab 3e
       0.09415373 0.41780114 0.4668454 0.33582568
000210 16 41 41 3e ca 2d ef 3d c1 0c 0a 3f 13 ea 04 3e
       0.18872485 0.116786554 0.5392571 0.12979917
000220 fe 6e c5 3e de b4 60 3e 48 f5 fb 3e 77 36 fb 3d
       0.38561243 0.21943995 0.49210572 0.12266248
000230 c5 5a e4 3e f3 8c 60 3e c9 9a 96 3e 57 7a ef 3d
       0.44600502 0.21928768 0.29414967 0.11693256
000240 bd 97 be 3d 81 c3 7b 3f bc 72 95 3e c1 c6 fe 3e
       0.093062855 0.9834519 0.29189098 0.49761012
000250 9a c5 f7 3e 1e a1 3b 3f 69 28 d1 3e 5a b8 36 3e
       0.48392946 0.7329272 0.40851143 0.17843762
000260 59 9f 33 3f 2b 37 91 3d 9d 03 0d 3f e6 bc 22 3e
       0.7016502 0.070906006 0.5508364 0.15892372
000270 bb 31 08 3f cd ac b3 3e 0f 22 47 3e c4 b8 01 3e
       0.5320088 0.35092774 0.19446586 0.12668139
000280 3d ad d7 3e c5 7f 0d 3e ca f4 e4 3d 3e 11 36 3f
       0.42124358 0.13818271 0.11179502 0.7112006
000290 33 70 82 3f 53 49 b7 3e f0 23 00 3e 6d 03 48 3e
       1.019049 0.3579813 0.12513709 0.19532557
0002a0 49 a6 76 3e 46 57 b5 3d 4b 92 fc 3d b7 05 ba 3d
       0.2408687 0.08854537 0.12332591 0.09083121
0002b0 13 ca bb 3e c4 64 4a 3e ec 57 5a 3f 58 78 69 3e
       0.36677608 0.19765002 0.8529041 0.22799814
0002c0 c0 c4 00 3f 6c d9 96 3e 12 1f c5 3e 92 98 45 3d
       0.50300217 0.29462755 0.38500267 0.048241206
0002d0 26 70 ed 3e 65 cf c5 3e 34 5d 7f 3e 28 11 f8 3e
       0.46374625 0.38634792 0.24937898 0.4845059
0002e0 31 5e 41 3e e1 8c d5 3d 2b f4 e1 3e 8c fc 39 3f
       0.18883587 0.10427261 0.44131598 0.7265098
0002f0 2f 58 58 3d 91 93 3f 3e ce 2f 9e 3e 6a 50 a0 3e
       0.052818473 0.18708636 0.30895847 0.3131135
000300 cd 96 ac 3d 50 51 8d 3e 43 23 ae 3d 0a ab 02 3f
       0.084272005 0.276011 0.085028194 0.51042235
000310 aa 30 76 3e c3 ec 96 3e cd cd ae 3e ac a9 b2 3e
       0.24042001 0.2947751 0.3414139 0.34895074
000320 b7 6f 75 3e 96 13 ae 3f 3a 38 19 3f 32 d1 51 3f
       0.23968397 1.3599727 0.5985142 0.8195983
000330 c4 1b 5c 3e ea 28 ca 3e 97 33 74 3e c4 1c 16 3e
       0.21494967 0.3948434 0.23847805 0.1465941
000340 28 fd 0f 3e 46 d1 41 3e b8 bb 28 3e 90 ed db 3d
       0.14061415 0.18927488 0.16477859 0.10738671
000350 7d 85 c7 3e 12 92 46 3e 48 50 37 3e fc 86 73 3e
       0.3896903 0.19391659 0.17901719 0.23781961
000360 06 64 4e 3f 99 1f a9 3e 1b 62 e5 3e f6 13 a0 3d
       0.80621374 0.3303192 0.4480141 0.07816307
000370 93 03 ae 3e b5 f8 d5 3e 03 33 92 3f 60 bb 6a 3e
       0.33987102 0.4179131 1.1421818 0.2292304
000380 44 d0 92 3e a7 66 b7 3e ba c4 a4 3d c7 7b 59 3e
       0.2867452 0.35820505 0.08045335 0.21238624
000390 c1 1e 8e 3f 97 2f 08 3e d6 86 8a 3e ed f7 c4 3e
       1.1103135 0.13299404 0.27055997 0.38470402
0003a0 bd 91 99 3e 08 87 13 3f 27 aa a2 3d 77 93 11 3d
       0.29994002 0.57627916 0.0794261 0.035541024
0003b0 2a b7 8a 3e 71 c7 71 3e 13 99 9d 3e 16 b5 d2 3e
       0.27092868 0.23611237 0.3078085 0.41153783
0003c0 dc 2c 6d 3e c8 19 37 3e ae dc f6 3e a2 c3 66 3f
       0.23161644 0.17880929 0.4821524 0.9014226
0003d0 77 99 18 3f c9 0d b9 3e 1d 97 82 3d c6 f3 7f 3e
       0.5960917 0.3614333 0.06376479 0.24995336
0003e0 96 4f bd 3e df 1b fa 3d 96 c0 db 3e 81 37 20 3f
       0.36974782 0.12212347 0.4292037 0.6258469
0003f0 b9 5c 8a 3f ad 5b 56 3e 5d c2 af 3d bd 80 42 3e
       1.0809547 0.20933409 0.08581994 0.18994422

clf_net.3.weight f4 [1, 256]
000000 d2 87 a8 3e 60 69 af 3e f9 ce c1 3e 20 74 9c 3e
       0.32916123 0.34260082 0.3785322 0.30557346
000010 53 f8 8e 3e df 07 b8 3e 20 aa 87 3e 42 94 98 3e
       0.2792383 0.35943505 0.26496983 0.29800612
000020 56 96 b5 3e 13 b1 af 3e 00 b7 c4 3e ea a7 a6 3e
       0.3546626 0.34314784 0.38420868 0.32549983
000030 b0 89 91 3e 5a bf b0 3e 75 27 ad 3e 88 b6 8d 3e
       0.2842536 0.3452099 0.33819166 0.27678323
000040 7e fe c1 3e 89 00 b0 3e c9 a3 a3 3e eb d9 8a 3e
       0.37889475 0.34375408 0.31960896 0.27119383
000050 cf 63 86 3e 1a 48 a8 3e cc b2 bf 3e a9 f1 9b 3e
       0.26248023 0.3286751 0.374411 0.3045781
000060 bd 4f c8 3e 5a d6 c4 3e 5f 66 9e 3e 18 ca be 3e
       0.39123335 0.38444787 0.30937478 0.3726356
000070 16 21 bd 3e 3a 0b b9 3e c9 64 c3 3e d1 70 a2 3e
       0.36939305 0.36141378 0.3816283 0.31726697
000080 23 de bb 3e 92 73 b9 3e 56 86 94 3e 43 9e 8f 3e
       0.36692914 0.36220986 0.2900874 0.28050432
000090 92 31 a6 3e 6c 4b a6 3e 4a 84 8d 3e 0e 77 96 3e
       0.32459694 0.32479417 0.2763999 0.29387707
0000a0 1d 50 a2 3e 41 5f b1 3e d6 95 a8 3e 10 2e cb 3e
       0.31701747 0.34642985 0.32926816 0.3968358
0000b0 c3 90 b7 3e e9 de b4 3e c9 85 91 3e 0f 01 c3 3e
       0.35852632 0.35326317 0.28422382 0.38086745
0000c0 af 9a bc 3e f5 d3 b9 3e 69 ac ac 3e bb 36 80 3e
       0.36836764 0.36294523 0.3372529 0.25041756
0000d0 a1 e6 ba 3e 39 a3 c0 3e 52 4a a7 3e 94 f8 bd 3e
       0.3650408 0.3762453 0.3267389 0.37103713
0000e0 8a 6d a8 3e e8 4d a9 3e 67 63 ca 3e 28 d0 a4 3e
       0.32896072 0.3306725 0.39528963 0.3219006
0000f0 17 eb aa 3e 15 c4 b9 3e d7 e4 bb 3e 7f 60 bd 3e
       0.33382484 0.3628241 0.36698028 0.36987683
000100 25 31 c5 3e b2 3f c6 3e 15 e8 84 3e 11 bd 9f 3e
       0.38514057 0.3872047 0.25958315 0.31198934
000110 83 be b0 3e 36 fd c0 3e 19 74 9a 3e c8 82 a3 3e
       0.3452035 0.37693185 0.301667 0.31935716
000120 07 2b a9 3e 33 e3 a2 3e 37 47 b9 3e c0 a6 c6 3e
       0.3304064 0.31813964 0.36187145 0.38799095
000130 d8 47 bb 3e 0f 79 92 3e cf f2 af 3e f8 b5 c2 3e
       0.3657825 0.28607985 0.34364936 0.38029456
000140 2a 0a 9a 3e 0c 4f a3 3e c1 97 ba 3e 68 9a b5 3e
       0.3008588 0.31896245 0.36443904 0.35469365
000150 24 3c ae 3e 13 1e 83 3e a0 e9 b1 3e 94 61 af 3e
       0.3403026 0.25608882 0.34748554 0.34254134
000160 1d a1 b2 3e 44 fc b5 3e eb a3 89 3e cd 51 83 3e
       0.34888545 0.35544026 0.26882872 0.25648347
000170 25 25 b6 3e 74 57 9e 3e a3 2f b4 3e 75 89 a0 3e
       0.35575214 0.30926096 0.35192594 0.3135487
000180 a0 e0 a7 3e af 6b a2 3e bd 92 ad 3e 9b e7 89 3e
       0.32788563 0.3172278 0.33901015 0.26934513
000190 5b a9 a8 3e e3 04 98 3e c8 dc b6 3e 62 51 a9 3e
       0.32941708 0.29691228 0.35715318 0.33069903
0001a0 f5 af b7 3e 5a 3d cb 3e c4 86 b1 3e 66 54 a9 3e
       0.35876432 0.39695245 0.3467313 0.33072203
0001b0 57 e7 c7 3e db f9 a7 3e 86 7d b6 3e f3 fe bd 3e
       0.39043686 0.32807812 0.35642642 0.37108573
0001c0 38 07 b4 3e bd 27 aa 3e f0 64 b4 3e d6 84 a4 3e
       0.35161757 0.33233443 0.3523326 0.32132596
0001d0 50 38 aa 3e 04 62 84 3e 92 a2 95 3e f6 c1 c2 3e
       0.33246088 0.2585603 0.29225594 0.38038605
0001e0 52 b0 b7 3e 0c 54 b7 3e d8 5e a5 3e fe b3 bb 3e
       0.3587671 0.3580631 0.32298923 0.3666076
0001f0 8e cc a7 3e 8c 3d a0 3e 49 dd ba 3e 95 ab a7 3e
       0.3277325 0.31296957 0.36496952 0.32748094
000200 de 68 d1 3e a2 7b a7 3e bf 58 84 3e c1 4a c9 3e
       0.4090032 0.32711512 0.25848958 0.39314845
000210 5a 7d d3 3e b8 49 c9 3e c8 f5 bd 3e 77 cc bc 3e
       0.41306573 0.39314055 0.3710158 0.36874744
000220 26 ad be 3e ca c8 9e 3e 1f f4 9b 3e 9b 22 cf 3e
       0.37241477 0.31012565 0.30459687 0.4045609
000230 c2 13 bd 3e 7f 27 be 3e f3 60 b1 3e 55 75 90 3e
       0.36929137 0.37139508 0.3464428 0.28214517
000240 6f 3b c2 3e b0 66 b1 3e c7 64 97 3e cf af a1 3e
       0.3793597 0.34648657 0.29569075 0.31579444
000250 f5 33 a8 3e 0c c6 99 3e 05 3d ae 3e a2 85 a6 3e
       0.3285214 0.3003391 0.3403093 0.3252383
000260 96 0d c4 3e 0c 9f 94 3e e8 e8 9d 3e 99 b8 b1 3e
       0.38291615 0.29027593 0.30841756 0.3471115
000270 12 d7 b1 3e b3 23 a7 3e ce fb ab 3e 40 2b b5 3e
       0.34734398 0.32644424 0.3359055 0.3538456
000280 08 68 b2 3e 57 15 ce 3e cf 45 bf 3e 50 27 b1 3e
       0.34844995 0.40250656 0.37357947 0.34600306
000290 87 75 b0 3e 0a 40 ba 3e 27 94 c3 3e fe 1a c2 3e
       0.34464666 0.36376983 0.3819897 0.37911218
0002a0 19 c5 b2 3e 17 9c b3 3e 42 21 bd 3e f6 05 a2 3e
       0.34916 0.35080025 0.36939436 0.31645173
0002b0 f4 65 a4 3e 24 29 b4 3e f4 3f a9 3e 56 fd bd 3e
       0.32109034 0.35187638 0.33056605 0.37107342
0002c0 66 36 ad 3e 6c 01 c7 3e f8 e1 9e 3e 6b da 9a 3e
       0.33830565 0.38868272 0.31031775 0.30244765
0002d0 f4 00 aa 3e 60 a1 ae 3e 6f fd b2 3e 88 14 85 3e
       0.33203852 0.34107494 0.3495898 0.25992227
0002e0 c8 8a b2 3e fa cc af 3e b3 00 9f 3e 17 67 ad 3e
       0.34871507 0.34336072 0.3105522 0.33867714
0002f0 57 2a c0 3e f5 74 a1 3e 86 83 a7 3e 63 f1 b2 3e
       0.37532303 0.31534544 0.32717532 0.34949788
000300 ce b8 aa 3e 80 10 af 3e ee eb bb 3e 32 8a a9 3e
       0.3334412 0.34192276 0.36703438 0.33113247
000310 dc 62 a8 3e 65 20 b4 3e 74 68 a8 3e e0 f5 c4 3e
       0.32887924 0.35180965 0.3289219 0.38468838
000320 8e d2 b5 3e 9b 4c 9a 3e 6b 18 84 3e 36 bd ba 3e
       0.35512203 0.3013657 0.2579988 0.3647248
000330 41 9d ab 3e 3a a3 88 3e 55 2f 8b 3e ac 3e ac 3e
       0.33518413 0.26687032 0.2718455 0.33641565
000340 7b 58 b5 3e 2f a7 9b 3e 05 9c a5 3e 48 b8 9f 3e
       0.35419068 0.30400988 0.32345596 0.31195283
000350 e1 90 b1 3e dd 77 e5 3e 8b ca 8d 3e fd 3d b8 3e
       0.34680846 0.4481801 0.2769359 0.35984793
000360 b8 c3 a9 3e a3 9a c0 3e b3 47 b4 3e a4 7b ad 3e
       0.33157134 0.37617978 0.35210952 0.33883393
000370 03 e8 ab 3e 8d 0c a6 3e b7 81 c6 3e ba 2a bf 3e
       0.33575448 0.3243145 0.3877084 0.37337285
000380 5a a3 9b 3e a0 bf c3 3e c4 44 97 3e 88 7c a5 3e
       0.30398065 0.38232136 0.29544652 0.32321572
000390 85 6d c1 3e e1 c9 a1 3e 0a 68 b1 3e 5c 1a c1 3e
       0.3777887 0.31599334 0.34649688 0.37715423
0003a0 95 77 b9 3e 9b 3e 86 3e 77 82 c0 3e f1 12 b2 3e
       0.36224046 0.2621964 0.37599537 0.34780076
0003b0 5d 28 b6 3e 7f 3c b8 3e a0 f7 7c 3e 5d 38 a7 3e
       0.3557767 0.35983655 0.24703836 0.3266019
0003c0 9e ad 8c 3e 3e e4 bb 3e 50 60 8f 3e f4 d5 9b 3e
       0.2747621 0.36697572 0.28003168 0.3043667
0003d0 14 74 ae 3e 0b c2 9b 3e 8c 1b bb 3e 1d f9 98 3e
       0.34072936 0.3042148 0.36544454 0.29877558
0003e0 3c 91 b8 3e 8c 11 80 3e 43 95 b0 3e 62 43 b9 3e
       0.36048305 0.25013387 0.34488878 0.36184222
0003f0 52 b4 8e 3e 9a c2 b1 3e 81 82 c2 3e 9b 7c 9f 3e
       0.27871948 0.34718782 0.37990192 0.31149754
