EE8591/Project/regression_models/Life_Expectancy/DNN/deepnn/training_models/net_1900.pt (torch, 13632 bytes, 7 tensors)

clf_net.0.weight f4 [256, 4]
000000 46 4c 7f 3e 15 b7 4e be cb 1b ab bd 38 7e dd be
       0.2493144 -0.20187028 -0.083549105 -0.4326036
000010 12 e5 bc be 25 f9 1f 3d a1 e4 f7 3d fd 06 a0 bc
       -0.36893517 0.039055962 0.121041544 -0.019534582
000020 c1 2e f4 be 59 6d 5a 3d 60 69 a4 3e 4b 61 9e be
       -0.4769192 0.05332694 0.32111645 -0.30933604
000030 f3 92 cd be 50 40 5b be ef 9b af 3e fd a2 10 3e
       -0.40151176 -0.21411252 0.34298655 0.14124675
000040 6e 0d 9d be ca e8 85 be 5b 27 b6 3e 8e 04 70 3e
       -0.3067431 -0.26154166 0.355769 0.23439237
000050 38 f9 19 3f 44 ef ac be 2a 60 bb bd 6d db a7 bd
       0.601459 -0.33776295 -0.09149201 -0.08196149
000060 03 0f 9b bd 3d 11 84 be b5 a0 30 bd cc a5 71 3e
       -0.07571223 -0.25794402 -0.043122012 0.23598403
000070 74 e6 0f 3e a3 09 b1 be 57 38 5d 3e f9 19 04 3f
       0.14052755 -0.34577665 0.21603523 0.5160213
000080 13 97 b8 3e c8 d0 a6 3e ce 89 b9 3e 5d c3 b3 be
       0.3605276 0.32581162 0.3623795 -0.35109988
000090 88 6f 3a 39 ff 87 fd bd 43 b9 00 be 07 cd 07 be
       0.00017779891 -0.12379455 -0.12570672 -0.13261805
0000a0 41 74 65 3e 4d 8c 42 be 88 9d b2 be bc a3 9a be
       0.22407629 -0.18998833 -0.34885812 -0.30203044
0000b0 75 6f 7f be 31 a5 aa be ad 9b e4 3e 4d ba fd 3a
       -0.24944861 -0.33329156 0.4465002 0.001935789
0000c0 b0 2d ae 3e 0d 25 0b bf 6f 93 9d 3e eb b2 ee be
       0.34019232 -0.5435341 0.30776545 -0.4662088
0000d0 c6 4c a4 3c a8 d6 74 3e b4 83 00 3f ab 1a 34 3c
       0.02005614 0.2391001 0.50200963 0.010992686
0000e0 ff f0 cc be 96 f8 f0 3e 70 b9 da 3d cc 86 ba bd
       -0.40027615 0.47064656 0.10679901 -0.09107742
0000f0 da 9b cf bd ce 49 8c be c9 b5 73 be 6a 7c d7 be
       -0.10137148 -0.27400059 -0.23799814 -0.42087108
000100 d1 0f d7 bc dc 84 93 be 56 78 56 3e 8a 90 a9 bd
       -0.026252659 -0.288123 0.20944342 -0.08279522
000110 22 3e 95 3e 02 0e 36 bd db 07 0b bd 94 3f f4 3e
       0.29148966 -0.044446953 -0.03394304 0.47704756
000120 63 59 53 be c4 ce 87 3e 25 c9 95 3e 4e a5 ca 3e
       -0.20639567 0.26524937 0.29255024 0.39579242
000130 81 0e 57 be 46 99 5e 3d 5d 84 35 3d 3f 72 88 3e
       -0.21001627 0.05434539 0.044315685 0.26649663
000140 e0 4e 16 be 68 60 94 be cc fa 9f 3e 4f 69 83 3e
       -0.14678526 -0.28979802 0.3124603 0.25666282
000150 f7 25 48 be 9e b6 81 3e 70 a8 ac 3d fa 49 b5 3e
       -0.19545732 0.25334638 0.084305644 0.35408002
000160 db dc 5e be 54 fa 47 3e bf 11 30 3e 75 44 73 be
       -0.21763937 0.19529086 0.1719427 -0.23756583
000170 6d 3e 37 3e 31 b7 0b 3e 2d f2 d7 3e ad df c2 3e
       0.17894907 0.136441 0.42176953 0.38061276
000180 d5 b4 1c 3e f7 50 3a be 7c c3 f8 3c c6 07 9b be
       0.15303357 -0.18194948 0.030366652 -0.30279368
000190 d1 a7 db 3e ef 80 a5 be fa 47 c8 3e f4 04 b8 be
       0.4290147 -0.3232493 0.39117414 -0.3594128
0001a0 b8 83 b0 be 0b 3c 44 be c6 38 e0 be 4a 6a b9 be
       -0.34475493 -0.1916353 -0.43793315 -0.36213905
0001b0 de af 32 be be b8 3f be 9d 43 20 be 3d 53 71 be
       -0.174499 -0.18722817 -0.15650792 -0.23566909
0001c0 d0 e3 ee 3e 0c a2 29 be e5 80 7b 3d 30 02 77 be
       0.46658182 -0.16565722 0.06140222 -0.24121928
0001d0 4a 16 aa be c1 f4 6f 3e 2b 1e fa 3d d5 34 93 bd
       -0.3322013 0.2343321 0.12212785 -0.07187811
0001e0 73 73 8f be f8 e8 96 3e da 12 c3 3c 46 8f 00 3f
       -0.28017768 0.29474616 0.0238127 0.5021862
0001f0 eb c7 2f 3e 31 b6 01 bf e2 6e 2e 3e 14 c1 e1 be
       0.17166106 -0.5066863 0.17034486 -0.4409262
000200 85 12 78 3e 3a d4 b2 be ae 4c 39 3d 6d 56 fd be
       0.24225815 -0.3492754 0.045239143 -0.4948
000210 04 72 33 3e a8 33 00 bf 25 63 36 3e 0e 39 33 bd
       0.17523962 -0.5007882 0.17811258 -0.043755583
000220 41 d5 1c bc 8f 14 07 3f e6 f5 b6 be e8 0d c7 3c
       -0.009572328 0.52765745 -0.3573448 0.024298623
000230 1f 12 0f 3e b0 f2 c0 be de b1 64 3d 92 44 c7 3d
       0.13971756 -0.37685156 0.05583369 0.097298756
000240 92 26 c1 3e 8f b3 85 3d d0 00 0c 3f ea 5b 76 3e
       0.3772474 0.06528389 0.5468874 0.240585
000250 51 3a d6 be f2 ed 42 be 3a ef 8b be c8 42 59 be
       -0.41841367 -0.19036081 -0.27330953 -0.21216881
000260 11 09 01 be 42 fb 17 3e 09 ae e9 3d 48 79 6d 3e
       -0.12601115 0.14841941 0.11410148 0.23190796
000270 d0 e6 ab 3e c8 09 b9 be 5c fd 2f 3d af e0 0f be
       0.33574533 -0.36140275 0.04296623 -0.14050554
000280 44 5c b8 3e 33 5d 59 3e 7e 6b 41 3d eb 99 f6 ba
       0.36007893 0.21226959 0.047221653 -0.0018814182
000290 2d 70 04 3e ab 36 e0 bd ab fa 41 3d 85 6e 6c be
       0.12933417 -0.10947927 0.047358196 -0.23089035
0002a0 9c c1 8e 3c 28 0d 40 3e 4f 5c e9 be aa bc a1 bd
       0.017426305 0.18755019 -0.45578238 -0.07897313
0002b0 2b 04 0c bf 2c 23 c0 3e 2d 50 1a 3e d7 95 4a bd
       -0.5469386 0.37526834 0.15069647 -0.049459305
0002c0 7e 5c 18 bf 77 47 d5 3e 43 7a e9 3e 55 63 b6 be
       -0.5951613 0.41656086 0.4560109 -0.3562266
0002d0 89 26 a0 3e 9b 15 b0 3e d2 b5 22 be 30 c4 79 be
       0.312794 0.34391484 -0.15889671 -0.24391246
0002e0 67 92 ee bb 12 d7 89 be 0a c3 f3 3e e7 de c6 3e
       -0.007280636 -0.26921898 0.4760974 0.38841936
0002f0 79 54 a6 be 5a 15 97 be 67 d7 00 3e 81 1e 6c 3e
       -0.32486323 -0.29508477 0.1258217 0.23058511
000300 22 2d d1 3d c7 5a 39 3e 36 d8 01 bf 5b b7 49 3d
       0.102136865 0.18101035 -0.50720537 0.049247127
000310 db 94 06 be ac 45 8a 3e 64 2b bb 3b 73 d2 b3 3e
       -0.13142721 0.2700628 0.0057119597 0.35121498
000320 fe a5 d0 3c 5d f4 d3 3e ab 07 91 be a3 cb d7 bd
       0.025469776 0.41397372 -0.28326163 -0.105368875
000330 a1 58 f4 3d 6d c6 8d 3e 95 7b a8 bc 79 78 6e 3e
       0.11930967 0.2769045 -0.020566741 0.23288144
000340 0a 69 de be b3 fd 6c be 5a 0e 8a be 0b f8 59 3e
       -0.43439513 -0.23143654 -0.26964074 0.21286027
000350 a2 5b 7d 3e 82 9a 43 be f0 2c 25 3f 1e 01 b7 3e
       0.24741986 -0.19101909 0.64521694 0.3574304
000360 47 1f 17 bf ab 19 b4 be 1e 04 98 be 7a 54 24 be
       -0.590321 -0.35175833 -0.2969064 -0.1604785
000370 a8 fc 2f be 36 97 89 be f6 6f a8 3e 7b 88 f7 3c
       -0.17186224 -0.26873177 0.3289792 0.030216446
000380 aa 81 0b bf 9c 14 ca bd f4 b7 b5 bc 67 7a aa 3e
       -0.54494727 -0.09867212 -0.022182442 0.3329651
000390 77 1a d3 be 78 12 73 be 6d 71 9f 3e c0 a0 93 3e
       -0.4123113 -0.23737514 0.31141225 0.2883358
0003a0 a5 98 93 bd f0 9a 67 be 0d e3 78 be e5 2a e7 be
       -0.07206849 -0.22617698 -0.24305363 -0.45149913
0003b0 a7 1b f3 be ae 47 96 be f2 0b 57 be 2e 03 e2 bd
       -0.47482035 -0.29351562 -0.2100065 -0.11035763
0003c0 b6 0d ac be ac 51 83 3e a7 ac 06 bf cb e7 80 be
       -0.3360421 0.25648248 -0.52607197 -0.25176844
0003d0 21 64 52 be 58 bf 1d 3e 55 48 d5 be 81 d9 87 be
       -0.20546009 0.15405023 -0.41656747 -0.2653313
0003e0 0d 77 7e be d0 b0 ef 3d d8 83 67 3d 0c 69 b5 3e
       -0.24850102 0.11703646 0.05652222 0.35431707
0003f0 68 15 67 3e 36 c5 8c 3c f3 85 f0 be 18 87 87 3e
       0.2256676 0.017183881 -0.46977195 0.26470256

clf_net.0.bias f4 [256]
000000 a2 46 37 bd 67 57 f4 be 2f 0b 9b bc 71 e9 80 be
       -0.044745095 -0.47722933 -0.018926231 -0.25178102
000010 63 eb 0e bf 30 e7 d6 3c 45 6c a6 be cf ce 99 be
       -0.5582792 0.026233286 -0.32504478 -0.30040595
000020 4d 1c b9 bc 77 24 15 bf 26 5a b1 bd 8c 0f 06 bd
       -0.022596503 -0.58258766 -0.086597726 -0.03272967
000030 06 9a d3 be e1 04 2b bf 8f fd 75 be 70 68 1e bf
       -0.41328448 -0.6680432 -0.24022506 -0.6187811
000040 86 02 9d be 57 8c cc 3b af 1b 0a bf a5 fb 79 be
       -0.30665988 0.0062423158 -0.5394849 -0.24412401
000050 e1 3d 12 bf 69 5d bd be 5b 32 21 bf 0d 02 ef be
       -0.5712567 -0.3698533 -0.6296746 -0.46681252
000060 27 b2 12 3e f7 e6 31 bf e1 41 ee be 12 83 60 be
       0.14325772 -0.6949305 -0.46534637 -0.21925
000070 00 ff e4 be 2c 34 47 3e a9 82 e0 bd 1d 15 23 be
       -0.447258 0.19453496 -0.109624214 -0.15926023
000080 b1 7b 2a 3e cb 24 a5 be 39 77 b5 be 28 5c fa be
       0.16648747 -0.32254633 -0.35442522 -0.48898435
000090 22 01 ad be 38 f8 74 be e5 6f e1 be 2b 86 87 be
       -0.33789927 -0.23922813 -0.4403068 -0.2646955
0000a0 f7 17 91 3e 95 48 9d be fe e5 8d be fa 7d 9f be
       0.28338596 -0.30719438 -0.27714533 -0.311508
0000b0 39 6a 56 be 56 24 1b 3e 2c 49 4d be e6 40 1d bf
       -0.20938958 0.1515058 -0.20047444 -0.6142715
0000c0 e4 42 03 bf 99 69 86 be 92 be 21 bd b7 97 66 3e
       -0.5127394 -0.2625244 -0.039488383 0.22518812
0000d0 2f 1b f6 3d 02 90 af 3d bb 80 43 be 9b 45 bc be
       0.120169036 0.08572389 -0.19092076 -0.36771855
0000e0 e5 32 02 bf 60 c1 c5 bd 75 e5 97 be af a2 1f bf
       -0.5085891 -0.09656024 -0.2966725 -0.6235761
0000f0 6d 48 c6 be 07 8f a5 3e fa 9e af be 52 e9 c0 bd
       -0.3872713 0.32335684 -0.34300977 -0.09419502
000100 ec db 37 bf 3a 38 d9 be 26 46 70 3e 44 76 8a be
       -0.7181995 -0.4242571 0.2346426 -0.27043355
000110 ec 2e 78 3e ce 48 5e 3e 5d 44 45 be ec 45 be 3d
       0.2423665 0.2170746 -0.1926436 0.0929068
000120 2d 5b 00 bf 3c fc 8a 3e 32 a9 03 bf 64 eb e3 be
       -0.50139123 0.27145565 -0.51430047 -0.44515526
000130 09 ed 02 bf ed ab d5 be 35 1c 1e bf 8a 11 43 bf
       -0.51142937 -0.4173273 -0.6176179 -0.7619864
000140 a3 5c 14 bf dc e8 b5 be 1d f3 90 bd fd 9b 3a 3e
       -0.5795385 -0.3552922 -0.0707762 0.18223567
000150 e9 f7 9a 3e 96 48 34 bf 5e 1f a2 bd 68 73 81 be
       0.30267265 -0.7042326 -0.07916139 -0.2528336
000160 b6 1b 13 bf 57 4f ad be 51 f3 9d 3c 9a 67 0f be
       -0.5746416 -0.33849594 0.019281061 -0.14004365
000170 11 99 08 bf e9 15 94 be 43 62 cd be 48 4f ef be
       -0.5335856 -0.28922966 -0.4011403 -0.46740174
000180 04 e0 1e 3e c6 e0 cc be ff 28 05 be 6d b2 47 be
       0.15515143 -0.4001524 -0.1300392 -0.19501658
000190 13 29 09 bf 44 9a 1c 3e be d6 46 be a6 d4 ab bb
       -0.535783 0.15293223 -0.19417855 -0.0052438555
0001a0 95 a2 5a be f9 2b a9 bd 31 d9 46 bd f5 d0 da bd
       -0.21351083 -0.0826034 -0.048546974 -0.10684387
0001b0 2a a4 c4 be 89 2c 02 be 0d d5 17 3e 6f e4 8f bd
       -0.38406497 -0.12712301 0.14827366 -0.07025992
0001c0 b1 9e 05 bf 8e 24 d2 3c 64 54 2a bf 0d ae 26 3c
       -0.5219527 0.025652196 -0.6653502 0.010173333
0001d0 b4 79 68 bd a5 fa de bd d9 ed 5d be eb d2 8d be
       -0.05675669 -0.108876504 -0.21672763 -0.2769998
0001e0 ac 26 c3 3d 11 f5 af bd 28 92 2b 3e de a4 4c bc
       0.095288604 -0.085916646 0.16754973 -0.012490479
0001f0 68 be ac bd b0 28 b3 bd a1 5f 0d be bf fc 9b be
       -0.084347546 -0.08747995 -0.13806011 -0.30466267
000200 93 a5 db 3e 63 80 72 be d8 95 15 bf 76 7e f9 bd
       0.4289976 -0.23681788 -0.5843177 -0.12182324
000210 54 de 86 be c4 fc 79 3d 34 ad 3e bf e6 88 80 be
       -0.26341498 0.06103207 -0.74483037 -0.25104445
000220 09 06 0d bd 6b a7 4c be eb 02 31 bf b9 3b 1e bf
       -0.034429584 -0.1998574 -0.6914508 -0.6180988
000230 af f9 98 3e 7f 71 96 3e 52 e5 01 bf 06 81 f9 be
       0.29877993 0.29383466 -0.5074054 -0.4873125
000240 94 7e 8e 3d 48 cc 2f bf 42 d1 c3 3c e6 7f 8b bb
       0.069577366 -0.68671083 0.023903493 -0.00425719
000250 fc bc 2c bf 37 75 17 be c2 ae 32 be 36 15 67 bd
       -0.6747587 -0.14790808 -0.17449477 -0.056416713
000260 62 fc 31 3b 20 65 fc 3d 9b 12 b7 bd ce b9 c6 bd
       0.0027158489 0.123239756 -0.089390956 -0.09703408
000270 48 0a 8a 3d 77 c2 5f be 42 95 3a bf 82 c6 a4 3e
       0.06740242 -0.21851526 -0.72884 0.321827
000280 9d b6 b2 3d e6 8a d4 be 96 c9 ef be 1f 00 74 be
       0.08726237 -0.4151222 -0.46833485 -0.23828171
000290 cd d5 72 bd 15 69 14 be 48 82 62 be 86 39 03 bf
       -0.059285928 -0.1449321 -0.22120011 -0.5125965
0002a0 de ca 16 bf f9 d1 68 3d 81 36 7c 3e 35 ba e8 bd
       -0.589033 0.05684087 0.24630167 -0.11363641
0002b0 8f 09 b5 be 3d b6 68 3e e5 43 03 bf 21 28 4a be
       -0.35358855 0.22725768 -0.51275474 -0.1974187
0002c0 6d 0d c4 be a1 6f c7 be 44 7e 34 bf bb e4 1e be
       -0.38291493 -0.38952354 -0.70505166 -0.15516941
0002d0 c4 cb de be 5d 91 23 3e 70 7d 28 3e 39 d0 c2 be
       -0.43514836 0.1597342 0.164541 -0.38049486
0002e0 65 5c 3c bf b2 09 a1 be aa 1a f3 bd 1e be 2c bf
       -0.7357848 -0.3145271 -0.1187032 -0.67477596
0002f0 1c 8d b6 be 62 bb 48 bd e9 b7 d8 be 49 b8 16 bf
       -0.35654533 -0.049006827 -0.42327812 -0.58874947
000300 27 e3 57 3e 4e 92 af be ff b6 24 bf 56 0a fe be
       0.21082745 -0.3429131 -0.6434173 -0.4961726
000310 dd 4a 8b be ac 60 6e be 96 19 ea bd 00 1b d1 bc
       -0.27205554 -0.23279065 -0.114306614 -0.02552557
000320 0e 61 4c 3e 97 ca 10 be 05 35 b9 be 61 55 a6 be
       0.19958898 -0.14139782 -0.36173263 -0.32487014
000330 26 70 57 be ed 3a 21 3e c6 7d fb bd ca ad b9 be
       -0.21038875 0.15745135 -0.12279849 -0.36265403
000340 53 64 18 bf a5 d1 17 3d a3 1a d6 be a3 d2 18 bf
       -0.5952808 0.037065167 -0.41817197 -0.59696406
000350 67 fe f2 be 68 1d a5 3e 27 b3 90 be ae d3 2f be
       -0.4745972 0.32248998 -0.28261682 -0.17170593
000360 cd ef 29 3c f6 24 f9 be c6 5b 65 3e f3 7e a8 be
       0.010372114 -0.4866101 0.2239829 -0.32909355
000370 04 3d 03 bf 2e 65 b7 bd fb 58 0b bf 77 66 d6 be
       -0.5126498 -0.08954845 -0.5443265 -0.4187505
000380 18 a0 71 3e 3e 84 31 be 52 59 14 be dd 92 98 3d
       0.23596227 -0.17335603 -0.14487198 0.07449887
000390 4a 5c 53 be bc ea fd be bc 38 b8 3d 49 f4 5d 3d
       -0.20640674 -0.4959315 0.08995196 0.054188047
0003a0 11 97 04 bf 01 00 bd be ac 7a 93 3d 8d e7 4b 3d
       -0.5179301 -0.36914065 0.07201132 0.04978137
0003b0 72 0a f8 be 2a 04 dc be 71 c8 08 be 87 99 d3 be
       -0.4844547 -0.42971927 -0.13357712 -0.4132807
0003c0 30 f9 5b 3e 06 30 17 bd 22 60 f3 be 60 53 b0 bb
       0.21481776 -0.036911033 -0.4753428 -0.005381033
0003d0 16 1b f6 be 39 2d 59 be 54 9a f5 be a2 e3 8e bd
       -0.4806754 -0.21208657 -0.47969306 -0.06977011
0003e0 d9 bc b4 be ad f0 65 3e f0 57 00 be 84 74 ed be
       -0.3530033 0.22455092 -0.12533545 -0.46377957
0003f0 4c ce 95 bd 82 31 d9 be cc a3 03 bf b6 c6 3a 3e
       -0.07314739 -0.42420584 -0.5142181 0.18239865

clf_net.1.weight f4 [256]
000000 45 4b 83 3f a4 10 68 3f 21 5d 5f 3f 3a 51 4b 3f
       1.0257345 0.9065039 0.8725148 0.79420817
000010 54 1c 4a 3f 82 9b 7d 3f 00 99 37 3f 70 93 4a 3f
       0.78949475 0.9906541 0.71717834 0.7913122
000020 6d c3 31 3f 61 06 5d 3f 08 28 6b 3f 9f e8 4d 3f
       0.6943882 0.8633786 0.9185796 0.80433077
000030 a0 1b 5a 3f a8 b1 4b 3f 0a ce 68 3f 65 db 4b 3f
       0.851984 0.79567957 0.9093939 0.79631644
000040 be 96 5f 3f c9 50 5d 3f e7 48 6b 3f f9 32 6d 3f
       0.8733939 0.86451393 0.91908115 0.92655903
000050 04 41 32 3f ce dc 73 3f 49 89 5f 3f 46 f3 56 3f
       0.69630456 0.95258796 0.87318856 0.83964956
000060 75 b2 90 3f 61 e5 6a 3f 09 24 60 3f 04 fd 67 3f
       1.1304461 0.91756254 0.87554985 0.90620446
000070 30 8c 81 3f ba 35 6c 3f 70 4e 8a 3f 55 11 6d 3f
       1.0120907 0.9226948 1.0805187 0.9260457
000080 7c 33 9a 3f f8 1e 71 3f ce 84 48 3f 44 e4 4d 3f
       1.2046962 0.9418788 0.78327644 0.8042643
000090 7c d2 5c 3f 47 d6 69 3f 62 c5 58 3f 46 29 60 3f
       0.86258674 0.91342586 0.8467618 0.8756298
0000a0 7b c0 49 3f 71 7f 8e 3f ce c3 61 3f 72 48 73 3f
       0.78809327 1.1132642 0.881894 0.9503242
0000b0 d6 e2 63 3f ec 6d 84 3f ac 77 3b 3f 60 2a 88 3f
       0.89018 1.0346045 0.7322948 1.0637932
0000c0 29 1b 5e 3f 2a 11 80 3f d2 e7 58 3f 8d 2c 39 3f
       0.86760193 1.0005238 0.8472873 0.72333604
0000d0 80 ae 4a 3f 7f 99 5c 3f 21 85 5f 3f 53 84 55 3f
       0.79172516 0.86171716 0.87312514 0.83405036
0000e0 7f 40 63 3f 1f 1b 62 3f 46 98 79 3f 04 d5 60 3f
       0.8877029 0.88322634 0.97497976 0.87825036
0000f0 90 ff 5c 3f d3 45 66 3f 22 63 8b 3f ca 18 67 3f
       0.8632746 0.89950293 1.0889628 0.902722
000100 c8 bc 70 3f de 84 69 3f 90 3b 41 3f cd f3 40 3f
       0.9403806 0.91218364 0.7548151 0.7537201
000110 87 12 7a 3f 29 b8 75 3f 5c 7e 34 3f 5d 3e 68 3f
       0.9768452 0.9598413 0.7050531 0.9072016
000120 12 20 59 3f 76 5c 5e 3f c5 97 7e 3f 35 5a 7c 3f
       0.8481456 0.86859834 0.9945033 0.98575145
000130 0c f7 59 3f 1d 83 46 3f 0e e0 61 3f 58 b6 5c 3f
       0.8514259 0.77543813 0.88232505 0.86215734
000140 92 1e 5b 3f 5f cf 5a 3f c2 2c 83 3f d9 40 66 3f
       0.8559352 0.85472673 1.0248034 0.899427
000150 da dc 5b 3f a4 f5 31 3f ff 9e 52 3f 4d b8 7c 3f
       0.8588387 0.6951544 0.8227386 0.9871872
000160 ee b9 73 3f 62 2c 6a 3f e4 dd 40 3f fe ed 49 3f
       0.9520558 0.9147397 0.7533858 0.7887877
000170 11 0c 53 3f 38 cb 75 3f f4 03 61 3f f6 a3 68 3f
       0.82440287 0.9601321 0.87896657 0.90875185
000180 cd e6 4e 3f c0 57 7a 3f cf 40 65 3f 21 3d 52 3f
       0.80820924 0.97790146 0.89552015 0.82124525
000190 23 05 5f 3f 6e b0 59 3f 95 19 56 3f 32 b1 59 3f
       0.87117213 0.85034835 0.83632785 0.85036004
0001a0 ea 1a 5f 3f 58 d1 75 3f 45 5b 63 3f b3 60 70 3f
       0.8715044 0.9602256 0.8881114 0.9389755
0001b0 7b 1b 84 3f 29 52 40 3f 3e d1 58 3f 14 ae 80 3f
       1.0320886 0.75125366 0.8469428 1.0053124
0001c0 65 ac 86 3f b7 0e 7f 3f f0 2b 77 3f fb e8 6d 3f
       1.0521361 0.9963183 0.9655142 0.92933625
0001d0 ff 44 55 3f 93 81 54 3f f4 20 55 3f f5 5f 82 3f
       0.83308405 0.83010215 0.8325341 1.0185534
0001e0 65 a8 56 3f 07 58 44 3f b0 44 5a 3f fe 72 7a 3f
       0.838507 0.7669682 0.8526106 0.97831714
0001f0 50 c3 63 3f 84 eb 81 3f 23 b1 64 3f 23 b7 71 3f
       0.889699 1.0149999 0.8933279 0.9442007
000200 c8 00 91 3f db 10 5e 3f 53 1e 42 3f 62 35 6f 3f
       1.1328363 0.8674447 0.7582752 0.9344083
000210 a5 2a 8b 3f d7 ea 73 3f c5 1c 59 3f 69 2d 83 3f
       1.0872389 0.9528021 0.84809524 1.0248233
000220 a7 f6 59 3f 89 c4 66 3f 20 d9 5e 3f 61 02 8a 3f
       0.85141987 0.9014364 0.87050056 1.0781976
000230 ad 19 77 3f a5 fb 4a 3f 42 08 52 3f 0a 8c 5c 3f
       0.96523553 0.7929023 0.8204385 0.8615118
000240 6e 8c 74 3f a1 b7 60 3f 64 5a 5b 3f 1f fe 6e 3f
       0.9552678 0.87780195 0.856848 0.9335651
000250 b8 e1 61 3f 25 9f 4c 3f 46 17 6f 3f b7 99 4f 3f
       0.88235044 0.79930335 0.9339489 0.81093925
000260 ac 6b 7d 3f 18 67 80 3f 0f b3 5c 3f e0 7c 75 3f
       0.9899242 1.0031462 0.8621072 0.9589367
000270 19 ae 39 3f 0b 6e 51 3f 31 cc 5d 3f e5 40 91 3f
       0.72531277 0.8180854 0.86639696 1.1347929
000280 da 11 6f 3f 07 26 81 3f 62 ca 51 3f 50 f7 6a 3f
       0.93386614 1.008973 0.81949437 0.9178362
000290 e1 cf 64 3f 67 b8 6c 3f 9b fe 67 3f 6f 88 78 3f
       0.893797 0.92468876 0.9062287 0.9708318
0002a0 84 2c 83 3f fc f9 89 3f 3f e2 7c 3f f1 4c 86 3f
       1.024796 1.0779414 0.98782724 1.0492231
0002b0 4d 0f 61 3f fc d7 7e 3f 1d a6 6f 3f 38 2a 5a 3f
       0.8791397 0.99548316 0.93612844 0.8522067
0002c0 89 68 58 3f 14 36 7e 3f 9a c7 5d 3f 4f 28 67 3f
       0.8453451 0.99301267 0.8663269 0.9029588
0002d0 63 08 66 3f c3 a6 4e 3f 1e a4 5f 3f 02 93 30 3f
       0.8985655 0.8072321 0.873598 0.68974316
0002e0 9f a5 77 3f 24 3d 62 3f 52 72 57 3f b1 80 5d 3f
       0.9673709 0.88374543 0.84158814 0.8652449
0002f0 69 0b 4c 3f 61 30 56 3f 75 cc 5b 3f 0f 06 70 3f
       0.7970491 0.8366757 0.8585885 0.93759245
000300 80 ee 6f 3f 3f e8 6f 3f 13 01 7c 3f c4 b0 60 3f
       0.937233 0.93713754 0.9843914 0.8776972
000310 bc 14 76 3f 40 bc 7d 3f 8e bd 5f 3f ba 87 57 3f
       0.9612539 0.9911537 0.8739861 0.8419148
000320 a4 cb 7e 3f a3 22 50 3f 6c dd 42 3f ce 07 5f 3f
       0.9952948 0.8130285 0.7611911 0.87121284
000330 cf 46 6d 3f 68 5c 3f 3f 65 43 3e 3f c8 d1 66 3f
       0.9268617 0.74750376 0.74321586 0.9016385
000340 cc 37 6a 3f 3c 8c 5d 3f 12 c5 46 3f f1 fa 5d 3f
       0.9149139 0.86542106 0.77644455 0.8671103
000350 a1 d2 63 3f 73 12 8b 3f f2 39 4e 3f 93 90 54 3f
       0.8899327 1.0865005 0.8055717 0.830331
000360 fa 61 64 3f 14 68 68 3f 71 a2 5b 3f 26 76 5f 3f
       0.89212 0.9078381 0.8579474 0.87289655
000370 77 0c 59 3f 54 eb 59 3f 58 c0 68 3f 35 65 85 3f
       0.84784645 0.8512471 0.90918493 1.0421511
000380 3d 55 5c 3f fa 4a 5a 3f 11 fe 75 3f 52 f3 5f 3f
       0.86067563 0.85270655 0.960908 0.8748065
000390 1a 4c 66 3f 7d f6 50 3f 0a bd 4e 3f c0 18 48 3f
       0.8995987 0.8162611 0.807572 0.78162766
0003a0 e0 f4 54 3f bd 5f 45 3f 17 55 74 3f 5a e0 8c 3f
       0.8318615 0.7709921 0.95442337 1.1005967
0003b0 01 c1 56 3f 7e 48 69 3f f6 43 48 3f a3 c3 67 3f
       0.8388825 0.9112624 0.782287 0.9053289
0003c0 67 d9 3d 3f 72 64 5e 3f 61 82 46 3f b4 68 48 3f
       0.74159855 0.8687202 0.7754269 0.78284764
0003d0 ed ae 68 3f a1 07 54 3f 86 07 81 3f cc 1d 56 3f
       0.90891916 0.8282414 1.0080421 0.83639216
0003e0 ea 2a 55 3f 44 20 44 3f 2e 0d 64 3f 48 79 5f 3f
       0.83268607 0.76611733 0.8908261 0.87294436
0003f0 82 25 49 3f 60 92 67 3f db 1e 50 3f c4 b4 53 3f
       0.7857286 0.90457726 0.8129708 0.826977

clf_net.1.bias f4 [256]
000000 d0 f1 56 3f 84 03 55 3f 01 78 50 3f 89 a2 82 3f
       0.83962727 0.8320849 0.8143311 1.0205852
000010 88 0f 7d 3f fb fa 8f 3f c0 33 85 3f 60 31 92 3f
       0.98851824 1.1248468 1.0406418 1.1421318
000020 73 2a 6b 3f fe dd 67 3f 52 80 7c 3f 90 ba 87 3f
       0.9186165 0.9057311 0.986333 1.0603809
000030 a1 2e 58 3f bf 2d 69 3f df cd 6f 3f 9d 79 60 3f
       0.8444615 0.9108543 0.9367351 0.8768557
000040 dc 24 64 3f 0e e3 95 3f 36 67 74 3f 3b 4c 65 3f
       0.8911874 1.1709917 0.9546999 0.89569443
000050 3e 66 82 3f ac fa 75 3f 6b 8d 50 3f dc 0f 84 3f
       1.0187452 0.9608562 0.81465787 1.031734
000060 cb 2f 26 3f 5d 8f 5b 3f 95 96 63 3f 2f 56 48 3f
       0.64916676 0.8576563 0.88901645 0.78256506
000070 1f c6 a1 3f 9d e5 60 3f 1f a2 64 3f e2 44 60 3f
       1.2638587 0.8785036 0.8930988 0.87605107
000080 a9 c9 45 3f 48 4e 8c 3f 08 c0 80 3f 5b b0 89 3f
       0.77260834 1.096139 1.0058603 1.0756944
000090 c9 70 88 3f 14 70 5f 3f d3 26 6a 3f 1c 0d 8b 3f
       1.0659419 0.8728039 0.9146549 1.0863376
0000a0 a7 c4 8f 3f 28 fb 44 3f 5c 2c 8e 3f 23 77 44 3f
       1.1231889 0.76945734 1.1107287 0.7674429
0000b0 11 e3 66 3f 6f e6 7d 3f f2 55 8b 3f 7b 11 53 3f
       0.90190226 0.9917974 1.0885603 0.8244855
0000c0 81 ef 89 3f 37 88 6c 3f 66 b1 78 3f 68 a5 8f 3f
       1.0776216 0.9239535 0.9714569 1.1222353
0000d0 79 58 8d 3f e9 1d 65 3f 89 18 72 3f c8 e4 67 3f
       1.1042625 0.89498764 0.9456869 0.9058347
0000e0 aa 99 8d 3f d8 44 85 3f d4 cd 41 3f f4 dc 6b 3f
       1.106252 1.0411634 0.75704694 0.9213402
0000f0 c9 62 6c 3f 0d 8f 5e 3f 5e d6 80 3f 65 09 88 3f
       0.92338234 0.8693703 1.006542 1.0627867
000100 c0 d5 45 3f b3 1b 50 3f 14 37 5e 3f 16 88 8b 3f
       0.7727928 0.81292266 0.8680279 1.0900905
000110 3a 16 60 3f b6 0a 74 3f 33 6e 86 3f 4a 99 8c 3f
       0.87533915 0.95328844 1.050238 1.098428
000120 8a 52 75 3f 9c 9e 7b 3f b0 ca 88 3f 11 42 90 3f
       0.9582907 0.98288894 1.0686855 1.1270162
000130 ca 00 88 3f d6 1c 79 3f b3 df 4c 3f ae 08 53 3f
       1.0625241 0.97309625 0.8002884 0.8243512
000140 21 d1 65 3f 98 31 82 3f a6 70 6d 3f ab f7 6c 3f
       0.8977223 1.0171385 0.9275001 0.9256541
000150 09 1b 74 3f ee 22 63 3f fb dc 8d 3f 8e 3d 6a 3f
       0.9535375 0.88725173 1.1083063 0.91500175
000160 5c 91 6a 3f 5d 04 8d 3f ea 91 80 3f c7 f6 7b 3f
       0.9162805 1.1016957 1.004453 0.9842343
000170 24 6e 7b 3f d8 7b 8b 3f 3b f2 83 3f 9f dd 8a 3f
       0.98214936 1.0897169 1.0308298 1.0848883
000180 c1 c0 7f 3f a8 be 82 3f 92 7a 96 3f 00 49 8b 3f
       0.99903494 1.0214434 1.1756155 1.0881653
000190 82 e5 82 3f 38 f4 71 3f 35 79 86 3f 4f c5 71 3f
       1.022629 0.94513273 1.050574 0.94441694
0001a0 ca 80 61 3f 98 86 81 3f c5 e9 68 3f 92 f9 8d 3f
       0.8808714 1.01192 0.90981704 1.1091788
0001b0 48 45 2f 3f 9e 5e 7f 3f 77 f0 51 3f 47 a8 8a 3f
       0.6846509 0.9975375 0.82007545 1.0832604
0001c0 59 04 8d 3f e4 1a 83 3f 16 3f 5e 3f 37 e8 68 3f
       1.1016952 1.0242581 0.8681501 0.9097933
0001d0 4b e9 74 3f 97 c7 96 3f eb d8 6c 3f bd 93 91 3f
       0.95668477 1.177966 0.9251849 1.1373211
0001e0 f9 f9 83 3f 61 26 63 3f a3 c0 74 3f f7 e4 64 3f
       1.0310661 0.88730437 0.9560644 0.8941187
0001f0 0c 45 93 3f 59 78 83 3f c3 2a 87 3f 75 57 8f 3f
       1.1505446 1.0271102 1.0559925 1.1198565
000200 a7 a5 71 3f 7c f1 5c 3f 67 fa 66 3f ab 0c 62 3f
       0.9439339 0.86305976 0.90225834 0.8830058
000210 93 6c 34 3f e5 b8 61 3f c3 8a 5f 3f b1 46 78 3f
       0.7047817 0.8817275 0.8732111 0.96982867
000220 a9 0e 6b 3f 74 63 83 3f 2c b0 61 3f c2 4c 5c 3f
       0.91819245 1.0264726 0.8815944 0.86054623
000230 6a 4a 7a 3f 3a 13 74 3f 16 66 8a 3f 53 7c 60 3f
       0.97769797 0.9534184 1.0812404 0.87689704
000240 54 4a 7c 3f 5a ff 4b 3f 25 a4 63 3f c7 3d 5d 3f
       0.98550916 0.7968651 0.8892234 0.8642239
000250 13 20 6e 3f 28 c8 9a 3f 22 6d 8e 3f 9a 55 91 3f
       0.9301769 1.2092333 1.1127055 1.1354249
000260 b6 1a 84 3f 2c 38 42 3f e2 79 68 3f 96 5b 88 3f
       1.0320652 0.7586696 0.9081098 1.065295
000270 78 91 6e 3f ea 30 89 3f 5d 60 7a 3f 8e 9e 43 3f
       0.9319072 1.0718052 0.9780329 0.7641381
000280 67 f9 8b 3f 12 14 70 3f d8 62 71 3f 85 64 92 3f
       1.0935487 0.93780625 0.9429145 1.1436926
000290 70 b2 78 3f 8c b9 57 3f 8f ef 7a 3f 4d c4 39 3f
       0.97147274 0.842675 0.9802179 0.72565156
0002a0 22 d0 53 3f cf d7 47 3f 42 17 4a 3f e0 22 7c 3f
       0.8273946 0.7806367 0.7894174 0.98490715
0002b0 a7 08 7a 3f a8 c0 6e 3f f8 aa 8f 3f f3 5e 80 3f
       0.9766945 0.9326272 1.122405 1.0028976
0002c0 df 4c 84 3f b4 42 82 3f 5d f5 66 3f 9e 3d 69 3f
       1.0335959 1.0176606 0.90218145 0.91109645
0002d0 c1 8c 74 3f 8d a2 88 3f cf 9b 73 3f 97 a8 83 3f
       0.95527273 1.0674607 0.9515962 1.0285825
0002e0 5a 48 80 3f ea 36 72 3f fc e3 74 3f 2e ac 4c 3f
       1.002208 0.9461504 0.95660377 0.79950225
0002f0 1f cc 7f 3f a4 de 7a 3f c2 74 80 3f 01 70 74 3f
       0.9992084 0.9799597 1.0035632 0.95483404
000300 9d cf 91 3f e6 8d 8f 3f a5 3c 7d 3f bf 6e 72 3f
       1.1391484 1.1215179 0.9892066 0.94700235
000310 f9 3a 89 3f b5 27 5a 3f f7 51 75 3f 5c 5e 65 3f
       1.0721122 0.8521684 0.95828193 0.89597106
000320 9b e6 5c 3f 3e e5 70 3f e5 20 7b 3f d3 f2 5a 3f
       0.86289376 0.94099796 0.9809707 0.8552677
000330 27 92 84 3f 3d 06 72 3f a9 8a 7e 3f 39 29 89 3f
       1.0357102 0.9454077 0.9943033 1.0715705
000340 42 dd 78 3f 6c d1 8a 3f 46 f2 85 3f 27 d9 73 3f
       0.9721261 1.084516 1.0464561 0.95253223
000350 fa 23 70 3f cc 80 6a 3f 28 02 83 3f 1d 7a 68 3f
       0.93804896 0.9160278 1.0235033 0.9081133
000360 58 a5 93 3f 19 d2 40 3f dc 07 75 3f 31 b7 79 3f
       1.1534834 0.75320584 0.9571512 0.9754515
000370 4d 4c 65 3f bb 5a 76 3f d9 3d 7b 3f 15 f1 4e 3f
       0.8956955 0.96232194 0.9814125 0.8083661
000380 e8 66 86 3f ff 37 47 3f ac fc 85 3f 6e af 81 3f
       1.0500154 0.7781982 1.0467734 1.0131662
000390 af d3 51 3f 0a ae 82 3f 1a f1 79 3f 57 10 63 3f
       0.8196363 1.0209363 0.97633517 0.8869681
0003a0 f5 d9 7b 3f 35 82 8d 3f ef 04 46 3f 2c 69 7d 3f
       0.9837945 1.1055361 0.7735128 0.98988605
0003b0 05 b0 78 3f fe 6e 59 3f 08 43 6d 3f 32 2f 6d 3f
       0.97143584 0.84934986 0.92680407 0.9265014
0003c0 8c b0 6d 3f 1f 4e 61 3f a4 38 8e 3f 10 74 76 3f
       0.92847514 0.8800983 1.1111035 0.9627085
0003d0 48 55 93 3f f4 b2 86 3f 68 59 65 3f a9 b9 75 3f
       1.1510401 1.0523362 0.8958955 0.9598642
0003e0 10 10 54 3f 80 01 63 3f c5 dc 4d 3f e7 06 8a 3f
       0.8283701 0.88674164 0.8041499 1.0783356
0003f0 5b 57 94 3f f0 2f 74 3f f5 ee 7e 3f bc 86 96 3f
       1.1589159 0.95385647 0.9958337 1.1759868

clf_net.1.running_mean f4 [256]
000000 56 6c 41 bd 35 e5 f3 be ac 9f 9f bc 1e 08 81 be
       -0.047222458 -0.4763581 -0.019485317 -0.25201505
000010 2b 18 0f bf 4a b9 c2 3c a4 74 a5 be 6b 32 9a be
       -0.5589625 0.023769993 -0.32315552 -0.3011659
000020 07 1b cb bc 50 22 15 bf 28 46 b1 bd 3f 80 06 bd
       -0.024793161 -0.5825548 -0.08655959 -0.03283715
000030 a2 c0 d5 be 26 23 2b bf 5c e8 74 be bd 7a 1e bf
       -0.4174853 -0.6685051 -0.23916763 -0.61906034
000040 ba 92 9d be 08 9a dc 3b 9d 56 0a bf c1 b8 77 be
       -0.30776006 0.006732229 -0.5403841 -0.24191572
000050 4e 87 12 bf 2f 90 bc be 85 28 21 bf f5 2b ef be
       -0.5723771 -0.36828753 -0.6295245 -0.46713224
000060 a2 14 11 3e 1a db 32 bf 37 fe ec be 3b 1a 5f be
       0.14168027 -0.6986557 -0.462877 -0.2178735
000070 18 2a e7 be 23 46 49 3e 68 2b e3 bd c0 04 26 be
       -0.45149302 0.19655661 -0.110922635 -0.1621275
000080 29 b9 27 3e da 50 a6 be 82 46 b3 be 59 1a fb be
       0.16379227 -0.3248356 -0.3501473 -0.4904354
000090 fa 02 ae be 2d 04 73 be 23 09 e1 be 7f 4c 88 be
       -0.33986646 -0.23732062 -0.43952283 -0.26620862
0000a0 15 be 90 3e 86 22 9e be 7d 9c 8d be 11 3a 9e be
       0.2827002 -0.30885714 -0.27658454 -0.30903676
0000b0 ff d0 55 be b8 24 1b 3e 37 94 4d be 58 f6 1c bf
       -0.20880507 0.15150726 -0.2007607 -0.6131339
0000c0 da a7 02 bf 80 a1 85 be 3c bc 19 bd ca 23 67 3e
       -0.5103737 -0.26099777 -0.03753303 0.22572246
0000d0 7a 69 fa 3d 09 cb aa 3d c0 36 42 be a1 0a bc be
       0.12227149 0.08339507 -0.18966198 -0.3672686
0000e0 15 94 01 bf fe f4 c1 bd cc 1e 98 be bb 48 1f bf
       -0.5061658 -0.09470557 -0.29710996 -0.6222035
0000f0 29 9c c5 be 7b dd a5 3e 0c 29 b0 be 7d e5 bc bd
       -0.38595703 0.3239554 -0.34406316 -0.09223459
000100 e6 7c 37 bf 47 95 d9 be 6d b0 6f 3e d2 c1 8a be
       -0.71674955 -0.42496702 0.23407145 -0.27100998
000110 21 bb 7a 3e 03 a4 5e 3e ef bf 45 be fe 9b b9 3d
       0.24485447 0.21742253 -0.19311498 0.09062956
000120 92 47 00 bf 79 3a 8c 3e 2c 3a 04 bf b5 68 e1 be
       -0.5010921 0.2738836 -0.51651263 -0.44025198
000130 13 87 02 bf 55 87 d6 be 42 66 1e bf 56 3b 43 bf
       -0.50987357 -0.41900125 -0.61874783 -0.76262414
000140 fc 92 14 bf 59 58 b5 be b0 f7 92 bd 89 fe 3a 3e
       -0.5803678 -0.35418966 -0.07176149 0.1826116
000150 fe 5d 9a 3e 8a 4b 34 bf 57 a7 9a bd a6 b8 81 be
       0.30149835 -0.70427763 -0.07551449 -0.25336188
000160 d2 7b 12 bf c1 95 ac be db db 95 3c cb a6 0d be
       -0.57220185 -0.33708003 0.018293312 -0.13833158
000170 4d ee 08 bf 80 f4 92 be d7 e3 cb be 6e 7c f0 be
       -0.5348862 -0.28702164 -0.39822266 -0.46969932
000180 80 72 1e 3e 7c 87 cc be 58 c8 02 be 58 eb 46 be
       0.15473366 -0.39947116 -0.12771738 -0.19425714
000190 92 8b 09 bf b9 03 20 3e 27 32 44 be e8 9d a5 bb
       -0.5372859 0.1562642 -0.19159757 -0.0050542243
0001a0 31 a1 5a be 9e 40 ab bd c3 89 42 bd f9 0d df bd
       -0.21350552 -0.08361934 -0.04749466 -0.10891337
0001b0 70 ab c5 be d0 37 03 be 90 aa 17 3e 26 9f 97 bd
       -0.3860736 -0.1281426 0.14811158 -0.07403402
0001c0 cd 76 04 bf 54 d8 ab 3c 0c 4d 2a bf cf 2a ed 3b
       -0.51743776 0.020977177 -0.66523814 0.007237769
0001d0 2a 34 69 bd 88 ab de bd 1e 48 5f be fd 88 8f be
       -0.056934513 -0.10872561 -0.21804854 -0.280342
0001e0 72 cb c4 3d 92 9c b4 bd 48 48 2b 3e eb ff 5a bc
       0.096091166 -0.08818926 0.16726792 -0.01336668
0001f0 4c 80 ae bd 8c 58 ac bd 02 b5 0a be 92 a2 9b be
       -0.085205644 -0.084153265 -0.13545612 -0.3039747
000200 7d e1 dc 3e da 56 73 be 0c 8a 15 bf a3 21 f9 bd
       0.43140784 -0.237636 -0.5841377 -0.12164619
000210 8f 07 88 be 68 96 82 3d 81 f6 3e bf 6f 69 81 be
       -0.26568267 0.06376344 -0.74594885 -0.25275752
000220 6e 02 19 bd 87 1a 4d be e2 58 30 bf a1 4f 1e bf
       -0.037355833 -0.2002965 -0.68885624 -0.61840254
000230 44 f8 97 3e f3 a3 96 3e aa b7 01 bf f7 30 fa be
       0.296816 0.29421958 -0.50670874 -0.48865482
000240 eb f1 8d 3d 6f 97 2f bf f7 26 c9 3c b1 45 a5 ba
       0.06930908 -0.68590444 0.024554713 -0.0012609271
000250 d1 66 2c bf 52 91 14 be 97 39 32 be bf 30 6e bd
       -0.67344385 -0.1450856 -0.17404781 -0.058151957
000260 13 f2 31 3b d5 b2 f7 3d 84 28 b1 bd ff 10 c4 bd
       0.0027152344 0.120946564 -0.08650306 -0.09573554
000270 87 eb 85 3d 85 82 61 be 68 d8 3a bf cc 14 a6 3e
       0.06539064 -0.22022445 -0.7298646 0.32437742
000280 ac a2 b2 3d 81 ec d4 be 6c 20 f0 be 9c 93 71 be
       0.087224334 -0.41586688 -0.46899736 -0.23591465
000290 ad cb 6e bd 14 2f 14 be e2 37 60 be b2 22 02 bf
       -0.05829971 -0.14471084 -0.21896318 -0.5083419
0002a0 ac 2f 16 bf 1a c1 62 3d ac 11 7b 3e a7 30 e4 bd
       -0.5866649 0.055359937 0.2451846 -0.11142092
0002b0 54 77 b5 be 71 6f 68 3e 77 a8 03 bf e6 2a 49 be
       -0.35442603 0.22698762 -0.5142893 -0.1964527
0002c0 cd b3 c5 be 1d 29 c8 be 62 59 34 bf 77 35 20 be
       -0.3861374 -0.39093867 -0.7044889 -0.15645395
0002d0 14 0c dd be fc 56 26 3e 53 66 28 3e f1 02 c4 be
       -0.43173277 0.1624412 0.16445284 -0.38283494
0002e0 ed ae 3b bf dd 10 a1 be 1c b4 ef bd 59 9a 2c bf
       -0.7331379 -0.31458178 -0.11704275 -0.67423016
0002f0 25 4c b7 be 21 35 4b bd 0c 66 d7 be 20 c0 16 bf
       -0.3580028 -0.049611215 -0.42070043 -0.5888691
000300 6a 12 59 3e 6f db af be 93 bb 24 bf b8 06 fd be
       0.2119843 -0.34347102 -0.64348716 -0.49419188
000310 00 9c 8b be 95 84 6c be 0c ba e8 bd 98 e8 d2 bc
       -0.27267456 -0.23097451 -0.113636106 -0.025745675
000320 5c b8 4d 3e 96 d7 0e be c8 dd ba be ab 7e a6 be
       0.20089859 -0.13949427 -0.3649733 -0.32518515
000330 9b 53 59 be ab b8 23 3e 93 7a f7 bd 44 ca b7 be
       -0.21223299 0.15988414 -0.12083926 -0.35896504
000340 e8 70 17 bf 17 c3 15 3d 28 90 d7 be fc dd 18 bf
       -0.59156656 0.036563005 -0.4210217 -0.5971372
000350 71 a7 f3 be d2 8d a4 3e 50 32 91 be b8 7e 2e be
       -0.47588685 0.3213945 -0.28358698 -0.17040527
000360 94 15 15 3c 15 66 f9 be 32 a9 64 3e 18 8f a8 be
       0.009099383 -0.48710695 0.22330168 -0.32921672
000370 ae bf 03 bf ad e9 b7 bd 98 90 0b bf a3 b6 d5 be
       -0.51464355 -0.08980117 -0.5451751 -0.41740903
000380 5a a1 71 3e cc 4f 32 be 0b d3 11 be 49 59 98 3d
       0.23596707 -0.17413253 -0.14240663 0.07438905
000390 1a e1 52 be 4e ee fd be 9c 27 b4 3d c8 8b 58 3d
       -0.20593682 -0.49595875 0.087966174 0.05286768
0003a0 e6 bb 04 bf 4b 6e bc be 12 e0 92 3d 1a 19 4c 3d
       -0.5184921 -0.36802897 0.07171644 0.049828626
0003b0 12 a8 f8 be 32 26 da be 8f a6 07 be 51 6a d2 be
       -0.48565727 -0.42607266 -0.13247131 -0.41096738
0003c0 3c cb 5d 3e 44 5b 21 bd 21 32 f3 be d7 b7 ad bb
       0.21659559 -0.03939368 -0.47499183 -0.0053014564
0003d0 f8 c6 f5 be d4 bc 57 be 70 54 f5 be ea f4 8e bd
       -0.48003364 -0.21068126 -0.47915983 -0.069803074
0003e0 67 03 b6 be c4 41 64 3e 8c 69 fc bd 91 67 ec be
       -0.3554947 0.22290713 -0.12324819 -0.46172765
0003f0 4a c5 8f bd 9f f7 d8 be cb 02 04 bf 71 0a 3c 3e
       -0.07020052 -0.4237642 -0.5156676 0.18363358

clf_net.1.running_var f4 [256]
000000 f5 64 ae 3d 44 1e 75 3e 02 42 7e 3f b1 05 71 3e
       0.0851535 0.23937327 0.9931947 0.23537327
000010 fd 0d 33 3e a8 75 2e 3f e9 e7 3b 3e 37 59 2b 3f
       0.17485805 0.6814828 0.18350185 0.66933006
000020 66 25 e9 3e 5e 56 30 3d 57 14 86 3e 93 d0 81 3e
       0.45536345 0.043051116 0.26187393 0.25354442
000030 2f 4b 32 3e b7 3e f5 3e e6 6c 57 3f 06 fc 80 3e
       0.17411493 0.4789941 0.8415054 0.2519228
000040 0e 4b 7c 3d 30 25 22 3f 0a 48 78 3e f4 84 c9 3c
       0.061595015 0.63337994 0.2424623 0.02459953
000050 a3 5e 1b 3e 1d 4d bd 3d 00 06 f3 3e d7 51 ab 3e
       0.1517282 0.09243224 0.47465515 0.33460876
000060 78 7b 08 3d cf db f1 3d 7b 8e e9 3e 74 39 0b 3e
       0.033320874 0.11809503 0.45616516 0.13596135
000070 ec 99 fc 3d 35 5c d4 3e 6f 42 da 3d 1c c1 23 3e
       0.12334046 0.41476598 0.106572025 0.15991634
000080 81 78 dc 3d c6 1e 87 3e 79 e6 5b 3e 98 b0 8c 3e
       0.10765172 0.26390666 0.21474637 0.2747848
000090 f7 ac dd 3e 8a d9 a1 3e 31 cb 5e 3d 41 81 6c 3e
       0.43296024 0.31611282 0.054392997 0.23096181
0000a0 2a 77 f6 3d 79 30 79 3c 10 0b 29 3e 88 99 6a 3f
       0.120344475 0.015209311 0.16508126 0.9164052
0000b0 a3 12 14 40 cd 69 16 3e a2 59 a4 3e ab eb f1 3d
       2.3136375 0.14688797 0.32099634 0.11812528
0000c0 b9 05 89 3e c3 f0 92 3d d3 e4 2f 3e 0e 75 d2 3d
       0.2676218 0.07174828 0.17177133 0.10276233
0000d0 3a b9 53 3e ce ad 04 3f 7a 8d fb 3e d7 5b 02 3e
       0.20676127 0.51827705 0.49131376 0.12730347
0000e0 af 6b e2 3d 87 4c 3e 3e 1d 73 79 3e f0 10 9a 3e
       0.11055695 0.1858388 0.24360318 0.30091047
0000f0 84 58 e3 3e e8 de 8b 3e 53 88 3a 3d 83 1e 24 3f
       0.4440347 0.273185 0.045540165 0.6410906
000100 3a 61 1e 3f 72 c8 b3 3e de f9 ac 3e cf 15 a1 3e
       0.61867106 0.35113865 0.33784384 0.3146195
000110 45 88 6d 3e 30 d5 f7 3e d6 fd d3 3e d4 93 31 3d
       0.23196514 0.48404837 0.414046 0.04335387
000120 32 61 38 3e 24 8a 6c 3e e7 8d fe 3c 78 46 30 3e
       0.18005827 0.23099571 0.031073524 0.17214382
000130 42 89 46 3e 5c 29 23 3e 47 82 93 3e dc ed fd 3e
       0.19388297 0.15933746 0.2881033 0.49595535
000140 0a 9f 26 3e 5e d5 8e 3c 85 e2 3e 3e 02 b8 98 3e
       0.16271606 0.017435726 0.18641098 0.29827887
000150 5b 21 de 3f 94 02 95 3f 62 ee e5 3e a5 0c e6 3d
       1.7353929 1.1641412 0.44908434 0.112328805
000160 0f 91 d5 3e b8 c0 a5 3f d2 18 61 3e 20 d2 30 3d
       0.41712233 1.2949438 0.21982124 0.04316914
000170 e9 5b 93 3e 6d f8 58 3d ca 37 9b 3d ae 61 1e 3e
       0.2878106 0.052971292 0.07579 0.1546695
000180 ce 24 28 3f 05 71 9a 3d 36 1a 61 3f bb 9d 93 3e
       0.6568116 0.07541088 0.8793062 0.28831276
000190 c5 3b 3b 3e 4d 0e 58 3e 94 17 fe 3e a5 14 96 3f
       0.18284519 0.21099205 0.49627364 1.172505
0001a0 d1 a7 4e 3f 41 1d ff 3d fa 7d c2 3f 5a c9 db 3e
       0.8072482 0.124567516 1.5194695 0.42927057
0001b0 23 d0 c5 3d a2 c8 1e 3f d7 22 bd 3e be da 12 3d
       0.096588396 0.6202489 0.36940643 0.03585314
0001c0 f3 13 4f 3e bf e8 5a 3d 76 4d 1f 3e 8b 68 19 3e
       0.20222454 0.05344462 0.15556893 0.14981286
0001d0 1b 2a 7d 3e f0 73 e7 3c 22 45 94 3d c9 69 58 3d
       0.24723093 0.028253525 0.072397485 0.05283526
0001e0 82 fe cc 3e 01 7c 1c 3f 62 c8 b3 3e b0 3e c7 3d
       0.40037924 0.61126715 0.35113817 0.097287536
0001f0 b2 2e 91 3f 2d c0 ef 3d b3 4a 7b 3e ae e1 7e 3e
       1.1342375 0.117065765 0.24540214 0.24890777
000200 c4 5b cc 3d 97 e7 bb 3e 1e fd df 3e b6 8f a4 3e
       0.099784404 0.36700127 0.437478 0.32140893
000210 85 61 03 3e 28 8e 76 3d 62 ce eb 3e d2 8e f3 3d
       0.1283017 0.060194165 0.46055895 0.11892475
000220 09 76 d4 3e d5 30 45 3e 41 4b f1 3e df 5b c5 3d
       0.41496304 0.19256909 0.47127727 0.09636664
000230 b0 b3 b9 3e 9c 7a 60 3e 9f fe db 3e 34 32 b8 3d
       0.36269903 0.21921772 0.42967698 0.089939505
000240 14 69 0e 3e 9c fb 65 3f 46 e0 8c 3e 4a 78 c6 3e
       0.13907272 0.8983705 0.27514857 0.38763648
000250 cb de e3 3e d8 e3 23 3f 94 33 d2 3e 96 51 38 3e
       0.44505915 0.64019537 0.41054976 0.17999873
000260 b3 0c 56 3f e2 81 80 3d 3c 9d ea 3d b6 61 02 3e
       0.8361313 0.06274773 0.11455771 0.12732586
000270 aa f4 2f 3f 82 8a a2 3e 6f 36 40 3e 31 f8 11 3e
       0.687327 0.31746298 0.18770765 0.14254834
000280 a0 ea 01 3f 1c d9 16 3e ca b5 05 3e 01 42 36 3f
       0.50748634 0.14731258 0.13057628 0.71194464
000290 5e cc 92 3f 76 9b b1 3e a9 c4 11 3e f9 87 e8 3d
       1.1468618 0.3468892 0.14235176 0.1135406
0002a0 e3 12 61 3e 8f 99 6f 3d 84 d8 be 3d 0e 31 af 3d
       0.21979861 0.058496054 0.09318641 0.08554278
0002b0 10 2c f0 3e 8a da 2b 3e a4 80 68 3f c4 2f 85 3e
       0.46908617 0.16782585 0.9082129 0.26013005
0002c0 50 2a cc 3e aa 7b bd 3e d3 55 cc 3e 7e bf b8 3d
       0.39876032 0.3700841 0.3990923 0.09020899
0002d0 4b 64 e0 3e 33 ca a9 3e 8c 8b 7c 3e e6 18 05 3f
       0.43826517 0.33162078 0.24662608 0.51991117
0002e0 6d 03 e2 3d b5 cd cc 3d dc c5 d5 3e 40 96 5e 3f
       0.1103581 0.10000173 0.41752517 0.86948013
0002f0 eb e3 3e 3d 92 2d 7d 3e ad ab 8f 3e 13 2f ae 3e
       0.04660408 0.24724415 0.28060666 0.3402029
000300 88 60 b8 3d 87 30 bf 3e 98 9d bd 3d c4 12 f5 3e
       0.09002787 0.3734171 0.09258574 0.4786588
000310 b8 10 7a 3e 37 9a 8b 3e 29 1d 5b 3e ad 53 93 3e
       0.2442044 0.27266094 0.21397842 0.28774777
000320 78 2c 68 3e 72 b1 a0 3f f1 57 3f 3f e6 13 65 3f
       0.22673213 1.2554152 0.7474356 0.8948349
000330 25 0a 5f 3e 9e 7a c0 3e 2c 79 5d 3e c4 89 cc 3d
       0.21781214 0.3759355 0.21628255 0.09987214
000340 3d 50 0d 3e c3 f8 8b 3e fd ce 15 3e 17 65 f3 3d
       0.1380014 0.27338228 0.14629741 0.11884516
000350 57 68 e6 3e d5 63 3f 3e 24 2e 32 3e 3e eb 56 3e
       0.4500148 0.18690427 0.17400414 0.20988175
000360 3d 90 4c 3f 91 9f 9a 3e 01 6c da 3e 9f d2 a8 3d
       0.7990759 0.30199865 0.42660525 0.08243298
000370 46 a6 83 3e b5 b1 00 3f 72 1f 94 3f 0c d0 43 3e
       0.25712794 0.5027116 1.1572096 0.19122332
000380 78 69 8f 3e 5f 6f fc 3e 35 1e ae 3d 89 31 23 3e
       0.28010154 0.4930372 0.08501855 0.15936865
000390 4f 75 98 3f 52 1d dd 3d 31 dd 9b 3e e4 41 d8 3e
       1.19108 0.10796608 0.30442193 0.4223777
0003a0 73 27 8b 3e a2 0a 1c 3f 6d 68 82 3d e0 cd 1d 3d
       0.27178535 0.60953724 0.06367574 0.038526416
0003b0 db a6 5a 3e 20 ce 59 3e e8 f9 75 3e c6 f3 be 3e
       0.21352713 0.21270037 0.24021113 0.3729536
0003c0 94 7e 56 3e d7 6d 3a 3e 31 fc fc 3e 2d 42 6e 3f
       0.20946723 0.18205963 0.49411157 0.93069726
0003d0 1e a2 1f 3f c1 c1 b5 3e 19 9e ee 3c da 02 71 3e
       0.62356746 0.35499385 0.029128121 0.23536244
0003e0 68 a7 74 3e 05 1d 00 3e e9 d7 8d 3e 10 28 2e 3f
       0.23891985 0.1251107 0.2770379 0.6802988
0003f0 28 23 8c 3f 0d 9c 4b 3e 2c d1 bf 3d ba 6c 37 3e
       1.0948229 0.19883747 0.09366068 0.1791257

clf_net.3.weight f4 [1, 256]
000000 a6 a8 65 3e 24 3d 79 3e fc c9 86 3e 1b 06 7c 3e
       0.22427616 0.2433973 0.26325977 0.24611704
000010 ad 11 6c 3e a2 49 9c 3e e3 f3 67 3e 57 80 8b 3e
       0.23053618 0.30524927 0.22651629 0.27246353
000020 1f 66 81 3e 2d b5 84 3e 06 3c a3 3e 76 c2 8f 3e
       0.25273225 0.25919476 0.31881732 0.2807805
000030 aa e3 38 3e 08 5f 79 3e 08 2d 87 3e 7c f7 36 3e
       0.18055597 0.24352658 0.26401544 0.17867845
000040 0f 3f aa 3e 62 7a 9f 3e 0c 22 6c 3e 16 dc 66 3e
       0.33251235 0.31148058 0.23059863 0.22544894
000050 1c 77 5a 3e 32 00 7f 3e 33 5a 8a 3e 1b 90 64 3e
       0.21334499 0.24902418 0.27021942 0.22320597
000060 0d 18 90 3e f4 e2 94 3e 11 51 4e 3e dd 8b 80 3e
       0.2814335 0.29079401 0.20148112 0.25106707
000070 34 c0 ba 3e 42 12 8b 3e 95 3a af 3e c7 8f 6d 3e
       0.36474764 0.27162367 0.34224382 0.23199378
000080 aa c6 92 3e 20 71 af 3e a0 11 7d 3e 11 11 81 3e
       0.28667194 0.34265995 0.24713755 0.25208333
000090 f4 79 7f 3e ad 25 67 3e 1b 16 40 3e b7 d3 85 3e
       0.24948865 0.22572966 0.18758433 0.26138088
0000a0 a0 f1 88 3e d5 64 75 3e 1d 98 9e 3e 72 fb 95 3e
       0.26746845 0.23964246 0.30975428 0.292934
0000b0 f1 cf 87 3e 31 3c a4 3e 38 8a 6f 3e 2a 8a c4 3e
       0.26525834 0.32077172 0.2339257 0.3838666
0000c0 76 bf a4 3e 91 e3 99 3e 90 76 92 3e a5 52 79 3e
       0.32177323 0.30056432 0.2860608 0.24347933
0000d0 0e 0b c0 3e 01 e7 89 3e 8f e3 71 3e 42 05 96 3e
       0.37508434 0.26934054 0.23621963 0.29300886
0000e0 02 a8 ae 3e 7c 83 93 3e 29 10 8c 3e 1c 67 69 3e
       0.34112555 0.28811252 0.2735608 0.2279324
0000f0 bb 9d 81 3e dd 99 83 3e e5 2d af 3e f7 8b a1 3e
       0.2531565 0.25703326 0.34214702 0.31552097
000100 1e 52 8c 3e 80 61 88 3e d5 86 22 3e 66 39 9a 3e
       0.274064 0.26636887 0.15871747 0.30121917
000110 5b 0e 85 3e 92 5b 99 3e 6b d5 82 3e cb be a5 3e
       0.25987515 0.29952675 0.2555345 0.32372126
000120 fc d7 7f 3e c5 9b 77 3e 29 2e a9 3e b8 e4 e5 3e
       0.24984735 0.24180515 0.3304303 0.4490106
000130 38 85 9d 3e 2a b5 57 3e 70 99 5f 3e af 48 83 3e
       0.307657 0.21065202 0.21835876 0.2564139
000140 1e f0 4a 3e 4d 76 8c 3e be 05 a7 3e 29 fa 86 3e
       0.1981816 0.27434006 0.32621568 0.26362732
000150 e6 9b 80 3e 6b 01 32 3e b6 62 9f 3e c1 4d 86 3e
       0.2511894 0.17383353 0.31129998 0.26231197
000160 55 c6 86 3e 8e b0 9e 3e df 47 43 3e 75 49 2e 3e
       0.2632319 0.30994076 0.19070385 0.17020209
000170 84 21 8e 3e db 67 99 3e e1 e1 a3 3e c5 a2 89 3e
       0.27759945 0.29962048 0.3200827 0.26881996
000180 97 7c 89 3e 85 80 a5 3e 62 47 a9 3e 35 7e 78 3e
       0.26852867 0.32324615 0.33062273 0.24266894
000190 41 42 7c 3e 8a 36 73 3e 50 a1 99 3e b5 c7 6f 3e
       0.24634649 0.23751274 0.30005884 0.23416026
0001a0 5e 0e 84 3e 35 c0 a4 3e 6b 56 82 3e 39 6f 96 3e
       0.2579221 0.32177892 0.25456557 0.2938173
0001b0 bc 81 8b 3e 97 19 7d 3e 66 3c 7b 3e c1 ce b4 3e
       0.27247417 0.24716793 0.24534759 0.3531399
0001c0 0f d5 c7 3e 92 c5 9d 3e ac 2a 9b 3e cc 19 83 3e
       0.39029738 0.30814797 0.30305994 0.2560562
0001d0 5d 3d 7c 3e 31 1d b1 3e 6e 47 6e 3e da df c5 3e
       0.24632783 0.34592584 0.23269436 0.38647348
0001e0 28 4a 94 3e 2b 1a 82 3e ec 41 75 3e 69 4f 8f 3e
       0.28962827 0.2541059 0.23950928 0.27990273
0001f0 7b 78 98 3e eb 2a 94 3e 41 31 a2 3e 97 66 90 3e
       0.2977942 0.28938994 0.31678203 0.2820327
000200 07 b9 c2 3e 7a 45 5d 3e 8e 79 30 3e 49 67 96 3e
       0.3803179 0.21608534 0.1723387 0.29375675
000210 79 96 99 3e 81 29 9b 3e 5e ba 8b 3e ac 54 a0 3e
       0.29997614 0.30305102 0.27290624 0.313146
000220 29 44 8a 3e c9 85 81 3e ed 29 5e 3e 17 2b b9 3e
       0.27005127 0.25297382 0.21695681 0.36165687
000230 be 34 9a 3e 0d 41 93 3e 07 dc 8d 3e 3f f5 49 3e
       0.30118364 0.28760567 0.2770693 0.1972246
000240 0f b4 9c 3e 4f 16 6d 3e b8 3c 42 3e c3 e3 5b 3e
       0.30606124 0.23153041 0.18968475 0.21473603
000250 1f 1f 70 3e 24 16 ab 3e 53 36 98 3e 65 54 89 3e
       0.23449372 0.3341533 0.29728946 0.268222
000260 0d 23 a6 3e 4d da 37 3e 11 26 64 3e f4 22 95 3e
       0.32448617 0.17954369 0.22280146 0.2912823
000270 13 5f 83 3e e1 33 86 3e 9f a2 7c 3e dd 4d ac 3e
       0.25658473 0.26211455 0.2467141 0.33653155
000280 70 4d 95 3e 97 cb bf 3e 24 0d 8e 3e be 81 a0 3e
       0.29160643 0.37460014 0.277444 0.31348985
000290 9a 03 85 3e 0d de 7f 3e 31 60 a3 3e c0 4b 91 3e
       0.2597931 0.2498705 0.31909326 0.28378105
0002a0 3e a4 83 3e 5d b3 7b 3e 73 d9 88 3e fb 30 98 3e
       0.25711244 0.2458014 0.267284 0.2972487
0002b0 ab 04 63 3e 67 4f a1 3e 81 ce 93 3e fd 05 96 3e
       0.2216975 0.31505892 0.28868487 0.29301444
0002c0 79 f3 82 3e 86 b5 a6 3e bd 03 55 3e 90 9b 59 3e
       0.2557638 0.32560366 0.20802207 0.21250749
0002d0 1e 9c 89 3e 33 22 96 3e b3 f2 80 3e ea 14 4b 3e
       0.2687692 0.29322967 0.25185165 0.19832197
0002e0 1b d9 b0 3e 88 0a 7b 3e 71 ca 60 3e 5d 11 55 3e
       0.34540638 0.24515736 0.21952225 0.20807405
0002f0 42 44 97 3e 80 c7 71 3e 70 55 87 3e df b7 8d 3e
       0.29544264 0.2361126 0.2643237 0.27679345
000300 96 33 a9 3e b8 e4 95 3e bd 17 a5 3e 1f 4c 81 3e
       0.3304717 0.2927606 0.32244673 0.25253388
000310 ec 7e a9 3e df 6c 85 3e 3d 67 71 3e 25 71 9b 3e
       0.33104646 0.26059625 0.23574539 0.3035976
000320 ec 59 87 3e 20 2d 6d 3e 80 02 44 3e bd 28 85 3e
       0.26435792 0.23161745 0.19141579 0.26007643
000330 ea 10 8e 3e af 70 5b 3e 72 89 71 3e 62 21 aa 3e
       0.2774728 0.21429704 0.23587587 0.33228594
000340 de f5 93 3e 4d d7 80 3e 76 1b 8c 3e d7 9d 60 3e
       0.2889852 0.2516426 0.273647 0.21935211
000350 e9 6e 80 3e 33 e0 d2 3e f7 d3 91 3e 21 70 8e 3e
       0.25084618 0.41186675 0.2848203 0.27819923
000360 5b ff 98 3e 5c 66 83 3e b1 9e 8c 3e b2 a8 7b 3e
       0.2988232 0.25664032 0.27464822 0.24576071
000370 30 c1 7e 3e d4 b6 6e 3e d6 9a a3 3e 52 eb aa 3e
       0.24878383 0.23311931 0.31954068 0.3338266
000380 3e 7c 69 3e a2 89 80 3e c9 50 8e 3e 29 73 88 3e
       0.22801301 0.25105006 0.2779601 0.2665036
000390 42 a2 8a 3e 59 11 88 3e 9c a1 8f 3e 8a c4 93 3e
       0.27076918 0.26575735 0.28052986 0.28860885
0003a0 03 b8 8b 3e 6d 41 82 3e b5 14 85 3e 28 e8 a3 3e
       0.27288827 0.2544054 0.2599236 0.3201306
0003b0 48 d5 93 3e 2d 43 8a 3e 59 ca 53 3e e6 ee 77 3e
       0.28873658 0.27004376 0.20682658 0.24212226
0003c0 2b 73 57 3e 7e b0 83 3e a2 db 68 3e 68 2f 6f 3e
       0.21040027 0.2572059 0.22740033 0.23357928
0003d0 eb ff 9a 3e 4b cc 87 3e 5c 9f 88 3e a9 a4 52 3e
       0.30273375 0.2652305 0.26684082 0.20570625
0003e0 87 97 82 3e 7e 7a 14 3e 06 a4 68 3e 7c 52 a4 3e
       0.2550623 0.14499852 0.2271882 0.3209418
0003f0 cb 7e 94 3e 6e d1 85 3e 5d de 9a 3e cc a9 96 3e
       0.29002985 0.26136345 0.30247775 0.2942642
